…
state {
  phase: TRAIN
}
layer {
  name: "data"
  type: "AnnotatedDataWithSeg"
  top: "data"
  top: "label"
  top: "label_seg"
  include {
    phase: TRAIN
  }
  transform_param {
    scale: 0.007843
    mean_value: 127.5
    mean_value: 127.5
    mean_value: 127.5
    resize_param {
      prob: 1
      resize_mode: WARP
      height: 320
      width: 480
      interp_mode: LINEAR
    }
  }
  data_param {
    source: "lmdb/seg_trainval_lmdb/"
    batch_size: 4
    backend: LMDB
  }
  annotated_data_param {
    label_map_file: "labelmap.prototxt"
  }
}
layer {
  name: "conv0"
  type: "Convolution"
  bottom: "data"
  top: "conv0"
  param {
    lr_mult: 0.1
    decay_mult: 0.1
  }
  convolution_param {
    num_output: 32
    bias_term: false
    pad: 1
    kernel_size: 3
    stride: 2
    weight_filler {
      type: "msra"
    }
  }
}
layer {
  name: "conv0/bn"
  type: "BatchNorm"
  bottom: "conv0"
  top: "conv0"
}
layer {
  name: "conv0/scale"
  type: "Scale"
  bottom: "conv0"
  top: "conv0"
  param {
    lr_mult: 0.1
    decay_mult: 0
  }
  param {
    lr_mult: 0.2
    decay_mult: 0
  }
  scale_param {
    filler {
      value: 1
    }
    bias_term: true
    bias_filler {
      value: 0
    }
  }
}
layer {
  name: "conv0/relu"
  type: "ReLU"
  bottom: "conv0"
  top: "conv0"
}
layer {
  name: "conv1/dw"
  type: "Convolution"
  bottom: "conv0"
  top: "conv1/dw"
  param {
    lr_mult: 0.1
    decay_mult: 0.1
  }
  convolution_param {
    num_output: 32
    bias_term: false
    pad: 1
    kernel_size: 3
    group: 32
    weight_filler {
      type: "msra"
    }
    engine: CAFFE
  }
}
layer {
  name: "conv1/dw/bn"
  type: "BatchNorm"
  bottom: "conv1/dw"
  top: "conv1/dw"
}
layer {
  name: "conv1/dw/scale"
  type: "Scale"
  bottom: "conv1/dw"
  top: "conv1/dw"
  param {
    lr_mult: 0.1
    decay_mult: 0
  }
  param {
    lr_mult: 0.2
    decay_mult: 0
  }
  scale_param {
    filler {
      value: 1
    }
    bias_term: true
    bias_filler {
      value: 0
    }
  }
}
layer {
  name: "conv1/dw/relu"
  type: "ReLU"
  bottom: "conv1/dw"
  top: "conv1/dw"
}
layer {
  name: "conv1"
  type: "Convolution"
  bottom: "conv1/dw"
  top: "conv1"
  param {
    lr_mult: 0.1
    decay_mult: 0.1
  }
  convolution_param {
    num_output: 64
    bias_term: false
    kernel_size: 1
    weight_filler {
      type: "msra"
    }
  }
}
layer {
  name: "conv1/bn"
  type: "BatchNorm"
  bottom: "conv1"
  top: "conv1"
}
layer {
  name: "conv1/scale"
  type: "Scale"
  bottom: "conv1"
  top: "conv1"
  param {
    lr_mult: 0.1
    decay_mult: 0
  }
  param {
    lr_mult: 0.2
    decay_mult: 0
  }
  scale_param {
    filler {
      value: 1
    }
    bias_term: true
    bias_filler {
      value: 0
    }
  }
}
layer {
  name: "conv1/relu"
  type: "ReLU"
  bottom: "conv1"
  top: "conv1"
}
layer {
  name: "conv2/dw"
  type: "Convolution"
  bottom: "conv1"
  top: "conv2/dw"
  param {
    lr_mult: 0.1
    decay_mult: 0.1
  }
  convolution_param {
    num_output: 64
    bias_term: false
    pad: 1
    kernel_size: 3
    group: 64
    stride: 2
    weight_filler {
      type: "msra"
    }
    engine: CAFFE
  }
}
layer {
  name: "conv2/dw/bn"
  type: "BatchNorm"
  bottom: "conv2/dw"
  top: "conv2/dw"
}
layer {
  name: "conv2/dw/scale"
  type: "Scale"
  bottom: "conv2/dw"
  top: "conv2/dw"
  param {
    lr_mult: 0.1
    decay_mult: 0
  }
  param {
    lr_mult: 0.2
    decay_mult: 0
  }
  scale_param {
    filler {
      value: 1
    }
    bias_term: true
    bias_filler {
      value: 0
    }
  }
}
layer {
  name: "conv2/dw/relu"
  type: "ReLU"
  bottom: "conv2/dw"
  top: "conv2/dw"
}
layer {
  name: "conv2"
  type: "Convolution"
  bottom: "conv2/dw"
  top: "conv2"
  param {
    lr_mult: 0.1
    decay_mult: 0.1
  }
  convolution_param {
    num_output: 128
    bias_term: false
    kernel_size: 1
    weight_filler {
      type: "msra"
    }
  }
}
layer {
  name: "conv2/bn"
  type: "BatchNorm"
  bottom: "conv2"
  top: "conv2"
}
layer {
  name: "conv2/scale"
  type: "Scale"
  bottom: "conv2"
  top: "conv2"
  param {
    lr_mult: 0.1
    decay_mult: 0
  }
  param {
    lr_mult: 0.2
    decay_mult: 0
  }
  scale_param {
    filler {
      value: 1
    }
    bias_term: true
    bias_filler {
      value: 0
    }
  }
}
layer {
  name: "conv2/relu"
  type: "ReLU"
  bottom: "conv2"
  top: "conv2"
}
layer {
  name: "conv3/dw"
  type: "Convolution"
  bottom: "conv2"
  top: "conv3/dw"
  param {
    lr_mult: 0.1
    decay_mult: 0.1
  }
  convolution_param {
    num_output: 128
    bias_term: false
    pad: 1
    kernel_size: 3
    group: 128
    weight_filler {
      type: "msra"
    }
    engine: CAFFE
  }
}
layer {
  name: "conv3/dw/bn"
  type: "BatchNorm"
  bottom: "conv3/dw"
  top: "conv3/dw"
}
layer {
  name: "conv3/dw/scale"
  type: "Scale"
  bottom: "conv3/dw"
  top: "conv3/dw"
  param {
    lr_mult: 0.1
    decay_mult: 0
  }
  param {
    lr_mult: 0.2
    decay_mult: 0
  }
  scale_param {
    filler {
      value: 1
    }
    bias_term: true
    bias_filler {
      value: 0
    }
  }
}
layer {
  name: "conv3/dw/relu"
  type: "ReLU"
  bottom: "conv3/dw"
  top: "conv3/dw"
}
layer {
  name: "conv3"
  type: "Convolution"
  bottom: "conv3/dw"
  top: "conv3"
  param {
    lr_mult: 0.1
    decay_mult: 0.1
  }
  convolution_param {
    num_output: 128
    bias_term: false
    kernel_size: 1
    weight_filler {
      type: "msra"
    }
  }
}
layer {
  name: "conv3/bn"
  type: "BatchNorm"
  bottom: "conv3"
  top: "conv3"
}
layer {
  name: "conv3/scale"
  type: "Scale"
  bottom: "conv3"
  top: "conv3"
  param {
    lr_mult: 0.1
    decay_mult: 0
  }
  param {
    lr_mult: 0.2
    decay_mult: 0
  }
  scale_param {
    filler {
      value: 1
    }
    bias_term: true
    bias_filler {
      value: 0
    }
  }
}
layer {
  name: "conv3/relu"
  type: "ReLU"
  bottom: "conv3"
  top: "conv3"
}
layer {
  name: "conv4/dw"
  type: "Convolution"
  bottom: "conv3"
  top: "conv4/dw"
  param {
    lr_mult: 0.1
    decay_mult: 0.1
  }
  convolution_param {
    num_output: 128
    bias_term: false
    pad: 1
    kernel_size: 3
    group: 128
    stride: 2
    weight_filler {
      type: "msra"
    }
    engine: CAFFE
  }
}
layer {
  name: "conv4/dw/bn"
  type: "BatchNorm"
  bottom: "conv4/dw"
  top: "conv4/dw"
}
layer {
  name: "conv4/dw/scale"
  type: "Scale"
  bottom: "conv4/dw"
  top: "conv4/dw"
  param {
    lr_mult: 0.1
    decay_mult: 0
  }
  param {
    lr_mult: 0.2
    decay_mult: 0
  }
  scale_param {
    filler {
      value: 1
    }
    bias_term: true
    bias_filler {
      value: 0
    }
  }
}
layer {
  name: "conv4/dw/relu"
  type: "ReLU"
  bottom: "conv4/dw"
  top: "conv4/dw"
}
layer {
  name: "conv4"
  type: "Convolution"
  bottom: "conv4/dw"
  top: "conv4"
  param {
    lr_mult: 0.1
    decay_mult: 0.1
  }
  convolution_param {
    num_output: 256
    bias_term: false
    kernel_size: 1
    weight_filler {
      type: "msra"
    }
  }
}
layer {
  name: "conv4/bn"
  type: "BatchNorm"
  bottom: "conv4"
  top: "conv4"
}
layer {
  name: "conv4/scale"
  type: "Scale"
  bottom: "conv4"
  top: "conv4"
  param {
    lr_mult: 0.1
    decay_mult: 0
  }
  param {
    lr_mult: 0.2
    decay_mult: 0
  }
  scale_param {
    filler {
      value: 1
    }
    bias_term: true
    bias_filler {
      value: 0
    }
  }
}
layer {
  name: "conv4/relu"
  type: "ReLU"
  bottom: "conv4"
  top: "conv4"
}
layer {
  name: "conv5/dw"
  type: "Convolution"
  bottom: "conv4"
  top: "conv5/dw"
  param {
    lr_mult: 0.1
    decay_mult: 0.1
  }
  convolution_param {
    num_output: 256
    bias_term: false
    pad: 1
    kernel_size: 3
    group: 256
    weight_filler {
      type: "msra"
    }
    engine: CAFFE
  }
}
layer {
  name: "conv5/dw/bn"
  type: "BatchNorm"
  bottom: "conv5/dw"
  top: "conv5/dw"
}
layer {
  name: "conv5/dw/scale"
  type: "Scale"
  bottom: "conv5/dw"
  top: "conv5/dw"
  param {
    lr_mult: 0.1
    decay_mult: 0
  }
  param {
    lr_mult: 0.2
    decay_mult: 0
  }
  scale_param {
    filler {
      value: 1
    }
    bias_term: true
    bias_filler {
      value: 0
    }
  }
}
layer {
  name: "conv5/dw/relu"
  type: "ReLU"
  bottom: "conv5/dw"
  top: "conv5/dw"
}
layer {
  name: "conv5"
  type: "Convolution"
  bottom: "conv5/dw"
  top: "conv5"
  param {
    lr_mult: 0.1
    decay_mult: 0.1
  }
  convolution_param {
    num_output: 256
    bias_term: false
    kernel_size: 1
    weight_filler {
      type: "msra"
    }
  }
}
layer {
  name: "conv5/bn"
  type: "BatchNorm"
  bottom: "conv5"
  top: "conv5"
}
layer {
  name: "conv5/scale"
  type: "Scale"
  bottom: "conv5"
  top: "conv5"
  param {
    lr_mult: 0.1
    decay_mult: 0
  }
  param {
    lr_mult: 0.2
    decay_mult: 0
  }
  scale_param {
    filler {
      value: 1
    }
    bias_term: true
    bias_filler {
      value: 0
    }
  }
}
layer {
  name: "conv5/relu"
  type: "ReLU"
  bottom: "conv5"
  top: "conv5"
}
layer {
  name: "conv6/dw"
  type: "Convolution"
  bottom: "conv5"
  top: "conv6/dw"
  param {
    lr_mult: 0.1
    decay_mult: 0.1
  }
  convolution_param {
    num_output: 256
    bias_term: false
    pad: 1
    kernel_size: 3
    group: 256
    stride: 2
    weight_filler {
      type: "msra"
    }
    engine: CAFFE
  }
}
layer {
  name: "conv6/dw/bn"
  type: "BatchNorm"
  bottom: "conv6/dw"
  top: "conv6/dw"
}
layer {
  name: "conv6/dw/scale"
  type: "Scale"
  bottom: "conv6/dw"
  top: "conv6/dw"
  param {
    lr_mult: 0.1
    decay_mult: 0
  }
  param {
    lr_mult: 0.2
    decay_mult: 0
  }
  scale_param {
    filler {
      value: 1
    }
    bias_term: true
    bias_filler {
      value: 0
    }
  }
}
layer {
  name: "conv6/dw/relu"
  type: "ReLU"
  bottom: "conv6/dw"
  top: "conv6/dw"
}
layer {
  name: "conv6"
  type: "Convolution"
  bottom: "conv6/dw"
  top: "conv6"
  param {
    lr_mult: 0.1
    decay_mult: 0.1
  }
  convolution_param {
    num_output: 512
    bias_term: false
    kernel_size: 1
    weight_filler {
      type: "msra"
    }
  }
}
layer {
  name: "conv6/bn"
  type: "BatchNorm"
  bottom: "conv6"
  top: "conv6"
}
layer {
  name: "conv6/scale"
  type: "Scale"
  bottom: "conv6"
  top: "conv6"
  param {
    lr_mult: 0.1
    decay_mult: 0
  }
  param {
    lr_mult: 0.2
    decay_mult: 0
  }
  scale_param {
    filler {
      value: 1
    }
    bias_term: true
    bias_filler {
      value: 0
    }
  }
}
layer {
  name: "conv6/relu"
  type: "ReLU"
  bottom: "conv6"
  top: "conv6"
}
layer {
  name: "conv7/dw"
  type: "Convolution"
  bottom: "conv6"
  top: "conv7/dw"
  param {
    lr_mult: 0.1
    decay_mult: 0.1
  }
  convolution_param {
    num_output: 512
    bias_term: false
    pad: 1
    kernel_size: 3
    group: 512
    weight_filler {
      type: "msra"
    }
    engine: CAFFE
  }
}
layer {
  name: "conv7/dw/bn"
  type: "BatchNorm"
  bottom: "conv7/dw"
  top: "conv7/dw"
}
layer {
  name: "conv7/dw/scale"
  type: "Scale"
  bottom: "conv7/dw"
  top: "conv7/dw"
  param {
    lr_mult: 0.1
    decay_mult: 0
  }
  param {
    lr_mult: 0.2
    decay_mult: 0
  }
  scale_param {
    filler {
      value: 1
    }
    bias_term: true
    bias_filler {
      value: 0
    }
  }
}
layer {
  name: "conv7/dw/relu"
  type: "ReLU"
  bottom: "conv7/dw"
  top: "conv7/dw"
}
layer {
  name: "conv7"
  type: "Convolution"
  bottom: "conv7/dw"
  top: "conv7"
  param {
    lr_mult: 0.1
    decay_mult: 0.1
  }
  convolution_param {
    num_output: 512
    bias_term: false
    kernel_size: 1
    weight_filler {
      type: "msra"
    }
  }
}
layer {
  name: "conv7/bn"
  type: "BatchNorm"
  bottom: "conv7"
  top: "conv7"
}
layer {
  name: "conv7/scale"
  type: "Scale"
  bottom: "conv7"
  top: "conv7"
  param {
    lr_mult: 0.1
    decay_mult: 0
  }
  param {
    lr_mult: 0.2
    decay_mult: 0
  }
  scale_param {
    filler {
      value: 1
    }
    bias_term: true
    bias_filler {
      value: 0
    }
  }
}
layer {
  name: "conv7/relu"
  type: "ReLU"
  bottom: "conv7"
  top: "conv7"
}
layer {
  name: "conv8/dw"
  type: "Convolution"
  bottom: "conv7"
  top: "conv8/dw"
  param {
    lr_mult: 0.1
    decay_mult: 0.1
  }
  convolution_param {
    num_output: 512
    bias_term: false
    pad: 1
    kernel_size: 3
    group: 512
    weight_filler {
      type: "msra"
    }
    engine: CAFFE
  }
}
layer {
  name: "conv8/dw/bn"
  type: "BatchNorm"
  bottom: "conv8/dw"
  top: "conv8/dw"
}
layer {
  name: "conv8/dw/scale"
  type: "Scale"
  bottom: "conv8/dw"
  top: "conv8/dw"
  param {
    lr_mult: 0.1
    decay_mult: 0
  }
  param {
    lr_mult: 0.2
    decay_mult: 0
  }
  scale_param {
    filler {
      value: 1
    }
    bias_term: true
    bias_filler {
      value: 0
    }
  }
}
layer {
  name: "conv8/dw/relu"
  type: "ReLU"
  bottom: "conv8/dw"
  top: "conv8/dw"
}
layer {
  name: "conv8"
  type: "Convolution"
  bottom: "conv8/dw"
  top: "conv8"
  param {
    lr_mult: 0.1
    decay_mult: 0.1
  }
  convolution_param {
    num_output: 512
    bias_term: false
    kernel_size: 1
    weight_filler {
      type: "msra"
    }
  }
}
layer {
  name: "conv8/bn"
  type: "BatchNorm"
  bottom: "conv8"
  top: "conv8"
}
layer {
  name: "conv8/scale"
  type: "Scale"
  bottom: "conv8"
  top: "conv8"
  param {
    lr_mult: 0.1
    decay_mult: 0
  }
  param {
    lr_mult: 0.2
    decay_mult: 0
  }
  scale_param {
    filler {
      value: 1
    }
    bias_term: true
    bias_filler {
      value: 0
    }
  }
}
layer {
  name: "conv8/relu"
  type: "ReLU"
  bottom: "conv8"
  top: "conv8"
}
layer {
  name: "conv9/dw"
  type: "Convolution"
  bottom: "conv8"
  top: "conv9/dw"
  param {
    lr_mult: 0.1
    decay_mult: 0.1
  }
  convolution_param {
    num_output: 512
    bias_term: false
    pad: 1
    kernel_size: 3
    group: 512
    weight_filler {
      type: "msra"
    }
    engine: CAFFE
  }
}
layer {
  name: "conv9/dw/bn"
  type: "BatchNorm"
  bottom: "conv9/dw"
  top: "conv9/dw"
}
layer {
  name: "conv9/dw/scale"
  type: "Scale"
  bottom: "conv9/dw"
  top: "conv9/dw"
  param {
    lr_mult: 0.1
    decay_mult: 0
  }
  param {
    lr_mult: 0.2
    decay_mult: 0
  }
  scale_param {
    filler {
      value: 1
    }
    bias_term: true
    bias_filler {
      value: 0
    }
  }
}
layer {
  name: "conv9/dw/relu"
  type: "ReLU"
  bottom: "conv9/dw"
  top: "conv9/dw"
}
layer {
  name: "conv9"
  type: "Convolution"
  bottom: "conv9/dw"
  top: "conv9"
  param {
    lr_mult: 0.1
    decay_mult: 0.1
  }
  convolution_param {
    num_output: 512
    bias_term: false
    kernel_size: 1
    weight_filler {
      type: "msra"
    }
  }
}
layer {
  name: "conv9/bn"
  type: "BatchNorm"
  bottom: "conv9"
  top: "conv9"
}
layer {
  name: "conv9/scale"
  type: "Scale"
  bottom: "conv9"
  top: "conv9"
  param {
    lr_mult: 0.1
    decay_mult: 0
  }
  param {
    lr_mult: 0.2
    decay_mult: 0
  }
  scale_param {
    filler {
      value: 1
    }
    bias_term: true
    bias_filler {
      value: 0
    }
  }
}
layer {
  name: "conv9/relu"
  type: "ReLU"
  bottom: "conv9"
  top: "conv9"
}
layer {
  name: "conv10/dw"
  type: "Convolution"
  bottom: "conv9"
  top: "conv10/dw"
  param {
    lr_mult: 0.1
    decay_mult: 0.1
  }
  convolution_param {
    num_output: 512
    bias_term: false
    pad: 1
    kernel_size: 3
    group: 512
    weight_filler {
      type: "msra"
    }
    engine: CAFFE
  }
}
layer {
  name: "conv10/dw/bn"
  type: "BatchNorm"
  bottom: "conv10/dw"
  top: "conv10/dw"
}
layer {
  name: "conv10/dw/scale"
  type: "Scale"
  bottom: "conv10/dw"
  top: "conv10/dw"
  param {
    lr_mult: 0.1
    decay_mult: 0
  }
  param {
    lr_mult: 0.2
    decay_mult: 0
  }
  scale_param {
    filler {
      value: 1
    }
    bias_term: true
    bias_filler {
      value: 0
    }
  }
}
layer {
  name: "conv10/dw/relu"
  type: "ReLU"
  bottom: "conv10/dw"
  top: "conv10/dw"
}
layer {
  name: "conv10"
  type: "Convolution"
  bottom: "conv10/dw"
  top: "conv10"
  param {
    lr_mult: 0.1
    decay_mult: 0.1
  }
  convolution_param {
    num_output: 512
    bias_term: false
    kernel_size: 1
    weight_filler {
      type: "msra"
    }
  }
}
layer {
  name: "conv10/bn"
  type: "BatchNorm"
  bottom: "conv10"
  top: "conv10"
}
layer {
  name: "conv10/scale"
  type: "Scale"
  bottom: "conv10"
  top: "conv10"
  param {
    lr_mult: 0.1
    decay_mult: 0
  }
  param {
    lr_mult: 0.2
    decay_mult: 0
  }
  scale_param {
    filler {
      value: 1
    }
    bias_term: true
    bias_filler {
      value: 0
    }
  }
}
layer {
  name: "conv10/relu"
  type: "ReLU"
  bottom: "conv10"
  top: "conv10"
}
layer {
  name: "conv11/dw"
  type: "Convolution"
  bottom: "conv10"
  top: "conv11/dw"
  param {
    lr_mult: 0.1
    decay_mult: 0.1
  }
  convolution_param {
    num_output: 512
    bias_term: false
    pad: 1
    kernel_size: 3
    group: 512
    weight_filler {
      type: "msra"
    }
    engine: CAFFE
  }
}
layer {
  name: "conv11/dw/bn"
  type: "BatchNorm"
  bottom: "conv11/dw"
  top: "conv11/dw"
}
layer {
  name: "conv11/dw/scale"
  type: "Scale"
  bottom: "conv11/dw"
  top: "conv11/dw"
  param {
    lr_mult: 0.1
    decay_mult: 0
  }
  param {
    lr_mult: 0.2
    decay_mult: 0
  }
  scale_param {
    filler {
      value: 1
    }
    bias_term: true
    bias_filler {
      value: 0
    }
  }
}
layer {
  name: "conv11/dw/relu"
  type: "ReLU"
  bottom: "conv11/dw"
  top: "conv11/dw"
}
layer {
  name: "conv11"
  type: "Convolution"
  bottom: "conv11/dw"
  top: "conv11"
  param {
    lr_mult: 0.1
    decay_mult: 0.1
  }
  convolution_param {
    num_output: 512
    bias_term: false
    kernel_size: 1
    weight_filler {
      type: "msra"
    }
  }
}
layer {
  name: "conv11/bn"
  type: "BatchNorm"
  bottom: "conv11"
  top: "conv11"
}
layer {
  name: "conv11/scale"
  type: "Scale"
  bottom: "conv11"
  top: "conv11"
  param {
    lr_mult: 0.1
    decay_mult: 0
  }
  param {
    lr_mult: 0.2
    decay_mult: 0
  }
  scale_param {
    filler {
      value: 1
    }
    bias_term: true
    bias_filler {
      value: 0
    }
  }
}
layer {
  name: "conv11/relu"
  type: "ReLU"
  bottom: "conv11"
  top: "conv11"
}
layer {
  name: "conv12/dw"
  type: "Convolution"
  bottom: "conv11"
  top: "conv12/dw"
  param {
    lr_mult: 0.1
    decay_mult: 0.1
  }
  convolution_param {
    num_output: 512
    bias_term: false
    pad: 1
    kernel_size: 3
    group: 512
    stride: 2
    weight_filler {
      type: "msra"
    }
    engine: CAFFE
  }
}
layer {
  name: "conv12/dw/bn"
  type: "BatchNorm"
  bottom: "conv12/dw"
  top: "conv12/dw"
}
layer {
  name: "conv12/dw/scale"
  type: "Scale"
  bottom: "conv12/dw"
  top: "conv12/dw"
  param {
    lr_mult: 0.1
    decay_mult: 0
  }
  param {
    lr_mult: 0.2
    decay_mult: 0
  }
  scale_param {
    filler {
      value: 1
    }
    bias_term: true
    bias_filler {
      value: 0
    }
  }
}
layer {
  name: "conv12/dw/relu"
  type: "ReLU"
  bottom: "conv12/dw"
  top: "conv12/dw"
}
layer {
  name: "conv12"
  type: "Convolution"
  bottom: "conv12/dw"
  top: "conv12"
  param {
    lr_mult: 0.1
    decay_mult: 0.1
  }
  convolution_param {
    num_output: 1024
    bias_term: false
    kernel_size: 1
    weight_filler {
      type: "msra"
    }
  }
}
layer {
  name: "conv12/bn"
  type: "BatchNorm"
  bottom: "conv12"
  top: "conv12"
}
layer {
  name: "conv12/scale"
  type: "Scale"
  bottom: "conv12"
  top: "conv12"
  param {
    lr_mult: 0.1
    decay_mult: 0
  }
  param {
    lr_mult: 0.2
    decay_mult: 0
  }
  scale_param {
    filler {
      value: 1
    }
    bias_term: true
    bias_filler {
      value: 0
    }
  }
}
layer {
  name: "conv12/relu"
  type: "ReLU"
  bottom: "conv12"
  top: "conv12"
}
layer {
  name: "conv13/dw"
  type: "Convolution"
  bottom: "conv12"
  top: "conv13/dw"
  param {
    lr_mult: 0.1
    decay_mult: 0.1
  }
  convolution_param {
    num_output: 1024
    bias_term: false
    pad: 1
    kernel_size: 3
    group: 1024
    weight_filler {
      type: "msra"
    }
    engine: CAFFE
  }
}
layer {
  name: "conv13/dw/bn"
  type: "BatchNorm"
  bottom: "conv13/dw"
  top: "conv13/dw"
}
layer {
  name: "conv13/dw/scale"
  type: "Scale"
  bottom: "conv13/dw"
  top: "conv13/dw"
  param {
    lr_mult: 0.1
    decay_mult: 0
  }
  param {
    lr_mult: 0.2
    decay_mult: 0
  }
  scale_param {
    filler {
      value: 1
    }
    bias_term: true
    bias_filler {
      value: 0
    }
  }
}
layer {
  name: "conv13/dw/relu"
  type: "ReLU"
  bottom: "conv13/dw"
  top: "conv13/dw"
}
layer {
  name: "conv13"
  type: "Convolution"
  bottom: "conv13/dw"
  top: "conv13"
  param {
    lr_mult: 0.1
    decay_mult: 0.1
  }
  convolution_param {
    num_output: 1024
    bias_term: false
    kernel_size: 1
    weight_filler {
      type: "msra"
    }
  }
}
layer {
  name: "conv13/bn"
  type: "BatchNorm"
  bottom: "conv13"
  top: "conv13"
}
layer {
  name: "conv13/scale"
  type: "Scale"
  bottom: "conv13"
  top: "conv13"
  param {
    lr_mult: 0.1
    decay_mult: 0
  }
  param {
    lr_mult: 0.2
    decay_mult: 0
  }
  scale_param {
    filler {
      value: 1
    }
    bias_term: true
    bias_filler {
      value: 0
    }
  }
}
layer {
  name: "conv13/relu"
  type: "ReLU"
  bottom: "conv13"
  top: "conv13"
}
layer {
  name: "conv14_1"
  type: "Convolution"
  bottom: "conv13"
  top: "conv14_1"
  param {
    lr_mult: 0.1
    decay_mult: 0.1
  }
  convolution_param {
    num_output: 256
    bias_term: false
    kernel_size: 1
    weight_filler {
      type: "msra"
    }
  }
}
layer {
  name: "conv14_1/bn"
  type: "BatchNorm"
  bottom: "conv14_1"
  top: "conv14_1"
}
layer {
  name: "conv14_1/scale"
  type: "Scale"
  bottom: "conv14_1"
  top: "conv14_1"
  param {
    lr_mult: 0.1
    decay_mult: 0
  }
  param {
    lr_mult: 0.2
    decay_mult: 0
  }
  scale_param {
    filler {
      value: 1
    }
    bias_term: true
    bias_filler {
      value: 0
    }
  }
}
layer {
  name: "conv14_1/relu"
  type: "ReLU"
  bottom: "conv14_1"
  top: "conv14_1"
}
layer {
  name: "conv14_2"
  type: "Convolution"
  bottom: "conv14_1"
  top: "conv14_2"
  param {
    lr_mult: 0.1
    decay_mult: 0.1
  }
  convolution_param {
    num_output: 512
    bias_term: false
    pad: 1
    kernel_size: 3
    stride: 2
    weight_filler {
      type: "msra"
    }
  }
}
layer {
  name: "conv14_2/bn"
  type: "BatchNorm"
  bottom: "conv14_2"
  top: "conv14_2"
}
layer {
  name: "conv14_2/scale"
  type: "Scale"
  bottom: "conv14_2"
  top: "conv14_2"
  param {
    lr_mult: 0.1
    decay_mult: 0
  }
  param {
    lr_mult: 0.2
    decay_mult: 0
  }
  scale_param {
    filler {
      value: 1
    }
    bias_term: true
    bias_filler {
      value: 0
    }
  }
}
layer {
  name: "conv14_2/relu"
  type: "ReLU"
  bottom: "conv14_2"
  top: "conv14_2"
}
layer {
  name: "conv15_1"
  type: "Convolution"
  bottom: "conv14_2"
  top: "conv15_1"
  param {
    lr_mult: 0.1
    decay_mult: 0.1
  }
  convolution_param {
    num_output: 128
    bias_term: false
    kernel_size: 1
    weight_filler {
      type: "msra"
    }
  }
}
layer {
  name: "conv15_1/bn"
  type: "BatchNorm"
  bottom: "conv15_1"
  top: "conv15_1"
}
layer {
  name: "conv15_1/scale"
  type: "Scale"
  bottom: "conv15_1"
  top: "conv15_1"
  param {
    lr_mult: 0.1
    decay_mult: 0
  }
  param {
    lr_mult: 0.2
    decay_mult: 0
  }
  scale_param {
    filler {
      value: 1
    }
    bias_term: true
    bias_filler {
      value: 0
    }
  }
}
layer {
  name: "conv15_1/relu"
  type: "ReLU"
  bottom: "conv15_1"
  top: "conv15_1"
}
layer {
  name: "conv15_2"
  type: "Convolution"
  bottom: "conv15_1"
  top: "conv15_2"
  param {
    lr_mult: 0.1
    decay_mult: 0.1
  }
  convolution_param {
    num_output: 256
    bias_term: false
    pad: 1
    kernel_size: 3
    stride: 2
    weight_filler {
      type: "msra"
    }
  }
}
layer {
  name: "conv15_2/bn"
  type: "BatchNorm"
  bottom: "conv15_2"
  top: "conv15_2"
}
layer {
  name: "conv15_2/scale"
  type: "Scale"
  bottom: "conv15_2"
  top: "conv15_2"
  param {
    lr_mult: 0.1
    decay_mult: 0
  }
  param {
    lr_mult: 0.2
    decay_mult: 0
  }
  scale_param {
    filler {
      value: 1
    }
    bias_term: true
    bias_filler {
      value: 0
    }
  }
}
layer {
  name: "conv15_2/relu"
  type: "ReLU"
  bottom: "conv15_2"
  top: "conv15_2"
}
layer {
  name: "conv16_1"
  type: "Convolution"
  bottom: "conv15_2"
  top: "conv16_1"
  param {
    lr_mult: 0.1
    decay_mult: 0.1
  }
  convolution_param {
    num_output: 128
    bias_term: false
    kernel_size: 1
    weight_filler {
      type: "msra"
    }
  }
}
layer {
  name: "conv16_1/bn"
  type: "BatchNorm"
  bottom: "conv16_1"
  top: "conv16_1"
}
layer {
  name: "conv16_1/scale"
  type: "Scale"
  bottom: "conv16_1"
  top: "conv16_1"
  param {
    lr_mult: 0.1
    decay_mult: 0
  }
  param {
    lr_mult: 0.2
    decay_mult: 0
  }
  scale_param {
    filler {
      value: 1
    }
    bias_term: true
    bias_filler {
      value: 0
    }
  }
}
layer {
  name: "conv16_1/relu"
  type: "ReLU"
  bottom: "conv16_1"
  top: "conv16_1"
}
layer {
  name: "conv16_2"
  type: "Convolution"
  bottom: "conv16_1"
  top: "conv16_2"
  param {
    lr_mult: 0.1
    decay_mult: 0.1
  }
  convolution_param {
    num_output: 256
    bias_term: false
    pad: 1
    kernel_size: 3
    stride: 2
    weight_filler {
      type: "msra"
    }
  }
}
layer {
  name: "conv16_2/bn"
  type: "BatchNorm"
  bottom: "conv16_2"
  top: "conv16_2"
}
layer {
  name: "conv16_2/scale"
  type: "Scale"
  bottom: "conv16_2"
  top: "conv16_2"
  param {
    lr_mult: 0.1
    decay_mult: 0
  }
  param {
    lr_mult: 0.2
    decay_mult: 0
  }
  scale_param {
    filler {
      value: 1
    }
    bias_term: true
    bias_filler {
      value: 0
    }
  }
}
layer {
  name: "conv16_2/relu"
  type: "ReLU"
  bottom: "conv16_2"
  top: "conv16_2"
}
layer {
  name: "conv17_1"
  type: "Convolution"
  bottom: "conv16_2"
  top: "conv17_1"
  param {
    lr_mult: 0.1
    decay_mult: 0.1
  }
  convolution_param {
    num_output: 64
    bias_term: false
    kernel_size: 1
    weight_filler {
      type: "msra"
    }
  }
}
layer {
  name: "conv17_1/bn"
  type: "BatchNorm"
  bottom: "conv17_1"
  top: "conv17_1"
}
layer {
  name: "conv17_1/scale"
  type: "Scale"
  bottom: "conv17_1"
  top: "conv17_1"
  param {
    lr_mult: 0.1
    decay_mult: 0
  }
  param {
    lr_mult: 0.2
    decay_mult: 0
  }
  scale_param {
    filler {
      value: 1
    }
    bias_term: true
    bias_filler {
      value: 0
    }
  }
}
layer {
  name: "conv17_1/relu"
  type: "ReLU"
  bottom: "conv17_1"
  top: "conv17_1"
}
layer {
  name: "conv17_2"
  type: "Convolution"
  bottom: "conv17_1"
  top: "conv17_2"
  param {
    lr_mult: 0.1
    decay_mult: 0.1
  }
  convolution_param {
    num_output: 128
    bias_term: false
    pad: 1
    kernel_size: 3
    stride: 2
    weight_filler {
      type: "msra"
    }
  }
}
layer {
  name: "conv17_2/bn"
  type: "BatchNorm"
  bottom: "conv17_2"
  top: "conv17_2"
}
layer {
  name: "conv17_2/scale"
  type: "Scale"
  bottom: "conv17_2"
  top: "conv17_2"
  param {
    lr_mult: 0.1
    decay_mult: 0
  }
  param {
    lr_mult: 0.2
    decay_mult: 0
  }
  scale_param {
    filler {
      value: 1
    }
    bias_term: true
    bias_filler {
      value: 0
    }
  }
}
layer {
  name: "conv17_2/relu"
  type: "ReLU"
  bottom: "conv17_2"
  top: "conv17_2"
}
layer {
  name: "conv11_mbox_loc"
  type: "Convolution"
  bottom: "conv11"
  top: "conv11_mbox_loc"
  param {
    lr_mult: 0.1
    decay_mult: 0.1
  }
  param {
    lr_mult: 0.2
    decay_mult: 0
  }
  convolution_param {
    num_output: 12
    kernel_size: 1
    weight_filler {
      type: "msra"
    }
    bias_filler {
      type: "constant"
      value: 0
    }
  }
}
layer {
  name: "conv11_mbox_loc_perm"
  type: "Permute"
  bottom: "conv11_mbox_loc"
  top: "conv11_mbox_loc_perm"
  permute_param {
    order: 0
    order: 2
    order: 3
    order: 1
  }
}
layer {
  name: "conv11_mbox_loc_flat"
  type: "Flatten"
  bottom: "conv11_mbox_loc_perm"
  top: "conv11_mbox_loc_flat"
  flatten_param {
    axis: 1
  }
}
layer {
  name: "conv11_mbox_conf_new"
  type: "Convolution"
  bottom: "conv11"
  top: "conv11_mbox_conf"
  param {
    lr_mult: 1
    decay_mult: 1
  }
  param {
    lr_mult: 2
    decay_mult: 0
  }
  convolution_param {
    num_output: 9
    kernel_size: 1
    weight_filler {
      type: "msra"
    }
    bias_filler {
      type: "constant"
      value: 0
    }
  }
}
layer {
  name: "conv11_mbox_conf_perm"
  type: "Permute"
  bottom: "conv11_mbox_conf"
  top: "conv11_mbox_conf_perm"
  permute_param {
    order: 0
    order: 2
    order: 3
    order: 1
  }
}
layer {
  name: "conv11_mbox_conf_flat"
  type: "Flatten"
  bottom: "conv11_mbox_conf_perm"
  top: "conv11_mbox_conf_flat"
  flatten_param {
    axis: 1
  }
}
layer {
  name: "conv11_mbox_priorbox"
  type: "PriorBox"
  bottom: "conv11"
  bottom: "data"
  top: "conv11_mbox_priorbox"
  prior_box_param {
    min_size: 60
    aspect_ratio: 2
    flip: true
    clip: false
    variance: 0.1
    variance: 0.1
    variance: 0.2
    variance: 0.2
    offset: 0.5
  }
}
layer {
  name: "conv13_mbox_loc"
  type: "Convolution"
  bottom: "conv13"
  top: "conv13_mbox_loc"
  param {
    lr_mult: 0.1
    decay_mult: 0.1
  }
  param {
    lr_mult: 0.2
    decay_mult: 0
  }
  convolution_param {
    num_output: 24
    kernel_size: 1
    weight_filler {
      type: "msra"
    }
    bias_filler {
      type: "constant"
      value: 0
    }
  }
}
layer {
  name: "conv13_mbox_loc_perm"
  type: "Permute"
  bottom: "conv13_mbox_loc"
  top: "conv13_mbox_loc_perm"
  permute_param {
    order: 0
    order: 2
    order: 3
    order: 1
  }
}
layer {
  name: "conv13_mbox_loc_flat"
  type: "Flatten"
  bottom: "conv13_mbox_loc_perm"
  top: "conv13_mbox_loc_flat"
  flatten_param {
    axis: 1
  }
}
layer {
  name: "conv13_mbox_conf_new"
  type: "Convolution"
  bottom: "conv13"
  top: "conv13_mbox_conf"
  param {
    lr_mult: 1
    decay_mult: 1
  }
  param {
    lr_mult: 2
    decay_mult: 0
  }
  convolution_
I1015 10:56:51.011808 15018 layer_factory.hpp:77] Creating layer data
I1015 10:56:51.011987 15018 net.cpp:100] Creating Layer data
I1015 10:56:51.012006 15018 net.cpp:408] data -> data
I1015 10:56:51.012027 15018 net.cpp:408] data -> label
I1015 10:56:51.012042 15018 net.cpp:408] data -> label_seg
I1015 10:56:51.012265 15018 base_data_with_seg_layer.cpp:32] --------------lin 32 begin datalayersetup-------------------------
I1015 10:56:51.023865 15071 db_lmdb.cpp:35] Opened lmdb lmdb/seg_trainval_lmdb/
I1015 10:56:51.112211 15018 annotated_data_with_seg_layer.cpp:91] ----[top0]output data size: 4,3,320,480
I1015 10:56:51.128943 15018 base_data_with_seg_layer.cpp:75] Initializing prefetch
I1015 10:56:51.129007 15018 base_data_with_seg_layer.cpp:78] Prefetch initialized.
I1015 10:56:51.129014 15018 net.cpp:150] Setting up data
I1015 10:56:51.129022 15018 net.cpp:157] Top shape: 4 3 320 480 (1843200)
I1015 10:56:51.129026 15018 net.cpp:157] Top shape: 1 1 6 8 (48)
I1015 10:56:51.129029 15018 net.cpp:157] Top shape: 4 1 320 480 (614400)
I1015 10:56:51.129031 15018 net.cpp:165] Memory required for data: 9830592
I1015 10:56:51.129037 15018 layer_factory.hpp:77] Creating layer data_data_0_split
I1015 10:56:51.129051 15018 net.cpp:100] Creating Layer data_data_0_split
I1015 10:56:51.129055 15018 net.cpp:434] data_data_0_split <- data
I1015 10:56:51.129063 15018 net.cpp:408] data_data_0_split -> data_data_0_split_0
I1015 10:56:51.129091 15018 net.cpp:408] data_data_0_split -> data_data_0_split_1
I1015 10:56:51.129099 15018 net.cpp:408] data_data_0_split -> data_data_0_split_2
I1015 10:56:51.129104 15018 net.cpp:408] data_data_0_split -> data_data_0_split_3
I1015 10:56:51.129108 15018 net.cpp:408] data_data_0_split -> data_data_0_split_4
I1015 10:56:51.129113 15018 net.cpp:408] data_data_0_split -> data_data_0_split_5
I1015 10:56:51.129119 15018 net.cpp:408] data_data_0_split -> data_data_0_split_6
I1015 10:56:51.129140 15018 net.cpp:408] data_data_0_split -> data_data_0_split_7
I1015 10:56:51.129465 15018 net.cpp:150] Setting up data_data_0_split
I1015 10:56:51.129485 15018 net.cpp:157] Top shape: 4 3 320 480 (1843200)
I1015 10:56:51.129494 15018 net.cpp:157] Top shape: 4 3 320 480 (1843200)
I1015 10:56:51.129501 15018 net.cpp:157] Top shape: 4 3 320 480 (1843200)
I1015 10:56:51.129508 15018 net.cpp:157] Top shape: 4 3 320 480 (1843200)
I1015 10:56:51.129514 15018 net.cpp:157] Top shape: 4 3 320 480 (1843200)
I1015 10:56:51.129523 15018 net.cpp:157] Top shape: 4 3 320 480 (1843200)
I1015 10:56:51.129529 15018 net.cpp:157] Top shape: 4 3 320 480 (1843200)
I1015 10:56:51.129535 15018 net.cpp:157] Top shape: 4 3 320 480 (1843200)
I1015 10:56:51.129540 15018 net.cpp:165] Memory required for data: 68812992
I1015 10:56:51.129547 15018 layer_factory.hpp:77] Creating layer conv0
I1015 10:56:51.129570 15018 net.cpp:100] Creating Layer conv0
I1015 10:56:51.129576 15018 net.cpp:434] conv0 <- data_data_0_split_0
I1015 10:56:51.129588 15018 net.cpp:408] conv0 -> conv0
I1015 10:56:51.131963 15072 base_data_with_seg_layer.cpp:84] --------------InternalThreadEntry---------------------
I1015 10:56:51.665534 15018 net.cpp:150] Setting up conv0
I1015 10:56:51.665556 15018 net.cpp:157] Top shape: 4 32 160 240 (4915200)
I1015 10:56:51.665560 15018 net.cpp:165] Memory required for data: 88473792
I1015 10:56:51.665571 15018 layer_factory.hpp:77] Creating layer conv0/bn
I1015 10:56:51.665580 15018 net.cpp:100] Creating Layer conv0/bn
I1015 10:56:51.665583 15018 net.cpp:434] conv0/bn <- conv0
I1015 10:56:51.665588 15018 net.cpp:395] conv0/bn -> conv0 (in-place)
I1015 10:56:51.666563 15018 net.cpp:150] Setting up conv0/bn
I1015 10:56:51.666574 15018 net.cpp:157] Top shape: 4 32 160 240 (4915200)
I1015 10:56:51.666594 15018 net.cpp:165] Memory required for data: 108134592
I1015 10:56:51.666602 15018 layer_factory.hpp:77] Creating layer conv0/scale
I1015 10:56:51.666612 15018 net.cpp:100] Creating Layer conv0/scale
I1015 10:56:51.666615 15018 net.cpp:434] conv0/scale <- conv0
I1015 10:56:51.666620 15018 net.cpp:395] conv0/scale -> conv0 (in-place)
I1015 10:56:51.666656 15018 layer_factory.hpp:77] Creating layer conv0/scale
I1015 10:56:51.666776 15018 net.cpp:150] Setting up conv0/scale
I1015 10:56:51.666784 15018 net.cpp:157] Top shape: 4 32 160 240 (4915200)
I1015 10:56:51.666785 15018 net.cpp:165] Memory required for data: 127795392
I1015 10:56:51.666791 15018 layer_factory.hpp:77] Creating layer conv0/relu
I1015 10:56:51.666797 15018 net.cpp:100] Creating Layer conv0/relu
I1015 10:56:51.666800 15018 net.cpp:434] conv0/relu <- conv0
I1015 10:56:51.666802 15018 net.cpp:395] conv0/relu -> conv0 (in-place)
I1015 10:56:51.667104 15018 net.cpp:150] Setting up conv0/relu
I1015 10:56:51.667114 15018 net.cpp:157] Top shape: 4 32 160 240 (4915200)
I1015 10:56:51.667116 15018 net.cpp:165] Memory required for data: 147456192
I1015 10:56:51.667119 15018 layer_factory.hpp:77] Creating layer conv1/dw
I1015 10:56:51.667129 15018 net.cpp:100] Creating Layer conv1/dw
I1015 10:56:51.667131 15018 net.cpp:434] conv1/dw <- conv0
I1015 10:56:51.667135 15018 net.cpp:408] conv1/dw -> conv1/dw
I1015 10:56:51.667294 15018 net.cpp:150] Setting up conv1/dw
I1015 10:56:51.667300 15018 net.cpp:157] Top shape: 4 32 160 240 (4915200)
I1015 10:56:51.667304 15018 net.cpp:165] Memory required for data: 167116992
I1015 10:56:51.667307 15018 layer_factory.hpp:77] Creating layer conv1/dw/bn
I1015 10:56:51.667311 15018 net.cpp:100] Creating Layer conv1/dw/bn
I1015 10:56:51.667315 15018 net.cpp:434] conv1/dw/bn <- conv1/dw
I1015 10:56:51.667317 15018 net.cpp:395] conv1/dw/bn -> conv1/dw (in-place)
I1015 10:56:51.667474 15018 net.cpp:150] Setting up conv1/dw/bn
I1015 10:56:51.667481 15018 net.cpp:157] Top shape: 4 32 160 240 (4915200)
I1015 10:56:51.667484 15018 net.cpp:165] Memory required for data: 186777792
I1015 10:56:51.667490 15018 layer_factory.hpp:77] Creating layer conv1/dw/scale
I1015 10:56:51.667496 15018 net.cpp:100] Creating Layer conv1/dw/scale
I1015 10:56:51.667498 15018 net.cpp:434] conv1/dw/scale <- conv1/dw
I1015 10:56:51.667502 15018 net.cpp:395] conv1/dw/scale -> conv1/dw (in-place)
I1015 10:56:51.667533 15018 layer_factory.hpp:77] Creating layer conv1/dw/scale
I1015 10:56:51.667649 15018 net.cpp:150] Setting up conv1/dw/scale
I1015 10:56:51.667655 15018 net.cpp:157] Top shape: 4 32 160 240 (4915200)
I1015 10:56:51.667657 15018 net.cpp:165] Memory required for data: 206438592
I1015 10:56:51.667662 15018 layer_factory.hpp:77] Creating layer conv1/dw/relu
I1015 10:56:51.667666 15018 net.cpp:100] Creating Layer conv1/dw/relu
I1015 10:56:51.667668 15018 net.cpp:434] conv1/dw/relu <- conv1/dw
I1015 10:56:51.667671 15018 net.cpp:395] conv1/dw/relu -> conv1/dw (in-place)
I1015 10:56:51.667966 15018 net.cpp:150] Setting up conv1/dw/relu
I1015 10:56:51.667975 15018 net.cpp:157] Top shape: 4 32 160 240 (4915200)
I1015 10:56:51.667978 15018 net.cpp:165] Memory required for data: 226099392
I1015 10:56:51.667980 15018 layer_factory.hpp:77] Creating layer conv1
I1015 10:56:51.667986 15018 net.cpp:100] Creating Layer conv1
I1015 10:56:51.667989 15018 net.cpp:434] conv1 <- conv1/dw
I1015 10:56:51.667994 15018 net.cpp:408] conv1 -> conv1
I1015 10:56:51.670119 15018 net.cpp:150] Setting up conv1
I1015 10:56:51.670130 15018 net.cpp:157] Top shape: 4 64 160 240 (9830400)
I1015 10:56:51.670133 15018 net.cpp:165] Memory required for data: 265420992
I1015 10:56:51.670137 15018 layer_factory.hpp:77] Creating layer conv1/bn
I1015 10:56:51.670142 15018 net.cpp:100] Creating Layer conv1/bn
I1015 10:56:51.670145 15018 net.cpp:434] conv1/bn <- conv1
I1015 10:56:51.670150 15018 net.cpp:395] conv1/bn -> conv1 (in-place)
I1015 10:56:51.670311 15018 net.cpp:150] Setting up conv1/bn
I1015 10:56:51.670320 15018 net.cpp:157] Top shape: 4 64 160 240 (9830400)
I1015 10:56:51.670321 15018 net.cpp:165] Memory required for data: 304742592
I1015 10:56:51.670327 15018 layer_factory.hpp:77] Creating layer conv1/scale
I1015 10:56:51.670332 15018 net.cpp:100] Creating Layer conv1/scale
I1015 10:56:51.670334 15018 net.cpp:434] conv1/scale <- conv1
I1015 10:56:51.670338 15018 net.cpp:395] conv1/scale -> conv1 (in-place)
I1015 10:56:51.670369 15018 layer_factory.hpp:77] Creating layer conv1/scale
I1015 10:56:51.670497 15018 net.cpp:150] Setting up conv1/scale
I1015 10:56:51.670505 15018 net.cpp:157] Top shape: 4 64 160 240 (9830400)
I1015 10:56:51.670507 15018 net.cpp:165] Memory required for data: 344064192
I1015 10:56:51.670514 15018 layer_factory.hpp:77] Creating layer conv1/relu
I1015 10:56:51.670518 15018 net.cpp:100] Creating Layer conv1/relu
I1015 10:56:51.670521 15018 net.cpp:434] conv1/relu <- conv1
I1015 10:56:51.670524 15018 net.cpp:395] conv1/relu -> conv1 (in-place)
I1015 10:56:51.671116 15018 net.cpp:150] Setting up conv1/relu
I1015 10:56:51.671128 15018 net.cpp:157] Top shape: 4 64 160 240 (9830400)
I1015 10:56:51.671130 15018 net.cpp:165] Memory required for data: 383385792
I1015 10:56:51.671133 15018 layer_factory.hpp:77] Creating layer conv2/dw
I1015 10:56:51.671140 15018 net.cpp:100] Creating Layer conv2/dw
I1015 10:56:51.671144 15018 net.cpp:434] conv2/dw <- conv1
I1015 10:56:51.671147 15018 net.cpp:408] conv2/dw -> conv2/dw
I1015 10:56:51.671304 15018 net.cpp:150] Setting up conv2/dw
I1015 10:56:51.671311 15018 net.cpp:157] Top shape: 4 64 80 120 (2457600)
I1015 10:56:51.671314 15018 net.cpp:165] Memory required for data: 393216192
I1015 10:56:51.671317 15018 layer_factory.hpp:77] Creating layer conv2/dw/bn
I1015 10:56:51.671321 15018 net.cpp:100] Creating Layer conv2/dw/bn
I1015 10:56:51.671324 15018 net.cpp:434] conv2/dw/bn <- conv2/dw
I1015 10:56:51.671327 15018 net.cpp:395] conv2/dw/bn -> conv2/dw (in-place)
I1015 10:56:51.672217 15018 net.cpp:150] Setting up conv2/dw/bn
I1015 10:56:51.672228 15018 net.cpp:157] Top shape: 4 64 80 120 (2457600)
I1015 10:56:51.672230 15018 net.cpp:165] Memory required for data: 403046592
I1015 10:56:51.672237 15018 layer_factory.hpp:77] Creating layer conv2/dw/scale
I1015 10:56:51.672245 15018 net.cpp:100] Creating Layer conv2/dw/scale
I1015 10:56:51.672247 15018 net.cpp:434] conv2/dw/scale <- conv2/dw
I1015 10:56:51.672251 15018 net.cpp:395] conv2/dw/scale -> conv2/dw (in-place)
I1015 10:56:51.672286 15018 layer_factory.hpp:77] Creating layer conv2/dw/scale
I1015 10:56:51.672374 15018 net.cpp:150] Setting up conv2/dw/scale
I1015 10:56:51.672379 15018 net.cpp:157] Top shape: 4 64 80 120 (2457600)
I1015 10:56:51.672381 15018 net.cpp:165] Memory required for data: 412876992
I1015 10:56:51.672385 15018 layer_factory.hpp:77] Creating layer conv2/dw/relu
I1015 10:56:51.672389 15018 net.cpp:100] Creating Layer conv2/dw/relu
I1015 10:56:51.672392 15018 net.cpp:434] conv2/dw/relu <- conv2/dw
I1015 10:56:51.672395 15018 net.cpp:395] conv2/dw/relu -> conv2/dw (in-place)
I1015 10:56:51.672696 15018 net.cpp:150] Setting up conv2/dw/relu
I1015 10:56:51.672705 15018 net.cpp:157] Top shape: 4 64 80 120 (2457600)
I1015 10:56:51.672708 15018 net.cpp:165] Memory required for data: 422707392
I1015 10:56:51.672710 15018 layer_factory.hpp:77] Creating layer conv2
I1015 10:56:51.672718 15018 net.cpp:100] Creating Layer conv2
I1015 10:56:51.672719 15018 net.cpp:434] conv2 <- conv2/dw
I1015 10:56:51.672724 15018 net.cpp:408] conv2 -> conv2
I1015 10:56:51.674423 15018 net.cpp:150] Setting up conv2
I1015 10:56:51.674435 15018 net.cpp:157] Top shape: 4 128 80 120 (4915200)
I1015 10:56:51.674438 15018 net.cpp:165] Memory required for data: 442368192
I1015 10:56:51.674443 15018 layer_factory.hpp:77] Creating layer conv2/bn
I1015 10:56:51.674448 15018 net.cpp:100] Creating Layer conv2/bn
I1015 10:56:51.674450 15018 net.cpp:434] conv2/bn <- conv2
I1015 10:56:51.674454 15018 net.cpp:395] conv2/bn -> conv2 (in-place)
I1015 10:56:51.674602 15018 net.cpp:150] Setting up conv2/bn
I1015 10:56:51.674608 15018 net.cpp:157] Top shape: 4 128 80 120 (4915200)
I1015 10:56:51.674610 15018 net.cpp:165] Memory required for data: 462028992
I1015 10:56:51.674616 15018 layer_factory.hpp:77] Creating layer conv2/scale
I1015 10:56:51.674621 15018 net.cpp:100] Creating Layer conv2/scale
I1015 10:56:51.674623 15018 net.cpp:434] conv2/scale <- conv2
I1015 10:56:51.674628 15018 net.cpp:395] conv2/scale -> conv2 (in-place)
I1015 10:56:51.674657 15018 layer_factory.hpp:77] Creating layer conv2/scale
I1015 10:56:51.674739 15018 net.cpp:150] Setting up conv2/scale
I1015 10:56:51.674746 15018 net.cpp:157] Top shape: 4 128 80 120 (4915200)
I1015 10:56:51.674747 15018 net.cpp:165] Memory required for data: 481689792
I1015 10:56:51.674752 15018 layer_factory.hpp:77] Creating layer conv2/relu
I1015 10:56:51.674755 15018 net.cpp:100] Creating Layer conv2/relu
I1015 10:56:51.674758 15018 net.cpp:434] conv2/relu <- conv2
I1015 10:56:51.674762 15018 net.cpp:395] conv2/relu -> conv2 (in-place)
I1015 10:56:51.675068 15018 net.cpp:150] Setting up conv2/relu
I1015 10:56:51.675078 15018 net.cpp:157] Top shape: 4 128 80 120 (4915200)
I1015 10:56:51.675081 15018 net.cpp:165] Memory required for data: 501350592
I1015 10:56:51.675083 15018 layer_factory.hpp:77] Creating layer conv3/dw
I1015 10:56:51.675091 15018 net.cpp:100] Creating Layer conv3/dw
I1015 10:56:51.675093 15018 net.cpp:434] conv3/dw <- conv2
I1015 10:56:51.675097 15018 net.cpp:408] conv3/dw -> conv3/dw
I1015 10:56:51.675257 15018 net.cpp:150] Setting up conv3/dw
I1015 10:56:51.675266 15018 net.cpp:157] Top shape: 4 128 80 120 (4915200)
I1015 10:56:51.675269 15018 net.cpp:165] Memory required for data: 521011392
I1015 10:56:51.675272 15018 layer_factory.hpp:77] Creating layer conv3/dw/bn
I1015 10:56:51.675276 15018 net.cpp:100] Creating Layer conv3/dw/bn
I1015 10:56:51.675279 15018 net.cpp:434] conv3/dw/bn <- conv3/dw
I1015 10:56:51.675282 15018 net.cpp:395] conv3/dw/bn -> conv3/dw (in-place)
I1015 10:56:51.675420 15018 net.cpp:150] Setting up conv3/dw/bn
I1015 10:56:51.675426 15018 net.cpp:157] Top shape: 4 128 80 120 (4915200)
I1015 10:56:51.675427 15018 net.cpp:165] Memory required for data: 540672192
I1015 10:56:51.675436 15018 layer_factory.hpp:77] Creating layer conv3/dw/scale
I1015 10:56:51.675441 15018 net.cpp:100] Creating Layer conv3/dw/scale
I1015 10:56:51.675443 15018 net.cpp:434] conv3/dw/scale <- conv3/dw
I1015 10:56:51.675447 15018 net.cpp:395] conv3/dw/scale -> conv3/dw (in-place)
I1015 10:56:51.675477 15018 layer_factory.hpp:77] Creating layer conv3/dw/scale
I1015 10:56:51.675559 15018 net.cpp:150] Setting up conv3/dw/scale
I1015 10:56:51.675563 15018 net.cpp:157] Top shape: 4 128 80 120 (4915200)
I1015 10:56:51.675565 15018 net.cpp:165] Memory required for data: 560332992
I1015 10:56:51.675570 15018 layer_factory.hpp:77] Creating layer conv3/dw/relu
I1015 10:56:51.675573 15018 net.cpp:100] Creating Layer conv3/dw/relu
I1015 10:56:51.675576 15018 net.cpp:434] conv3/dw/relu <- conv3/dw
I1015 10:56:51.675580 15018 net.cpp:395] conv3/dw/relu -> conv3/dw (in-place)
I1015 10:56:51.676170 15018 net.cpp:150] Setting up conv3/dw/relu
I1015 10:56:51.676182 15018 net.cpp:157] Top shape: 4 128 80 120 (4915200)
I1015 10:56:51.676185 15018 net.cpp:165] Memory required for data: 579993792
I1015 10:56:51.676187 15018 layer_factory.hpp:77] Creating layer conv3
I1015 10:56:51.676195 15018 net.cpp:100] Creating Layer conv3
I1015 10:56:51.676198 15018 net.cpp:434] conv3 <- conv3/dw
I1015 10:56:51.676203 15018 net.cpp:408] conv3 -> conv3
I1015 10:56:51.677850 15018 net.cpp:150] Setting up conv3
I1015 10:56:51.677862 15018 net.cpp:157] Top shape: 4 128 80 120 (4915200)
I1015 10:56:51.677865 15018 net.cpp:165] Memory required for data: 599654592
I1015 10:56:51.677870 15018 layer_factory.hpp:77] Creating layer conv3/bn
I1015 10:56:51.677875 15018 net.cpp:100] Creating Layer conv3/bn
I1015 10:56:51.677877 15018 net.cpp:434] conv3/bn <- conv3
I1015 10:56:51.677882 15018 net.cpp:395] conv3/bn -> conv3 (in-place)
I1015 10:56:51.678038 15018 net.cpp:150] Setting up conv3/bn
I1015 10:56:51.678045 15018 net.cpp:157] Top shape: 4 128 80 120 (4915200)
I1015 10:56:51.678047 15018 net.cpp:165] Memory required for data: 619315392
I1015 10:56:51.678052 15018 layer_factory.hpp:77] Creating layer conv3/scale
I1015 10:56:51.678058 15018 net.cpp:100] Creating Layer conv3/scale
I1015 10:56:51.678061 15018 net.cpp:434] conv3/scale <- conv3
I1015 10:56:51.678066 15018 net.cpp:395] conv3/scale -> conv3 (in-place)
I1015 10:56:51.678097 15018 layer_factory.hpp:77] Creating layer conv3/scale
I1015 10:56:51.678189 15018 net.cpp:150] Setting up conv3/scale
I1015 10:56:51.678194 15018 net.cpp:157] Top shape: 4 128 80 120 (4915200)
I1015 10:56:51.678195 15018 net.cpp:165] Memory required for data: 638976192
I1015 10:56:51.678200 15018 layer_factory.hpp:77] Creating layer conv3/relu
I1015 10:56:51.678203 15018 net.cpp:100] Creating Layer conv3/relu
I1015 10:56:51.678206 15018 net.cpp:434] conv3/relu <- conv3
I1015 10:56:51.678210 15018 net.cpp:395] conv3/relu -> conv3 (in-place)
I1015 10:56:51.678560 15018 net.cpp:150] Setting up conv3/relu
I1015 10:56:51.678570 15018 net.cpp:157] Top shape: 4 128 80 120 (4915200)
I1015 10:56:51.678572 15018 net.cpp:165] Memory required for data: 658636992
I1015 10:56:51.678575 15018 layer_factory.hpp:77] Creating layer conv3_conv3/relu_0_split
I1015 10:56:51.678580 15018 net.cpp:100] Creating Layer conv3_conv3/relu_0_split
I1015 10:56:51.678582 15018 net.cpp:434] conv3_conv3/relu_0_split <- conv3
I1015 10:56:51.678587 15018 net.cpp:408] conv3_conv3/relu_0_split -> conv3_conv3/relu_0_split_0
I1015 10:56:51.678593 15018 net.cpp:408] conv3_conv3/relu_0_split -> conv3_conv3/relu_0_split_1
I1015 10:56:51.678630 15018 net.cpp:150] Setting up conv3_conv3/relu_0_split
I1015 10:56:51.678634 15018 net.cpp:157] Top shape: 4 128 80 120 (4915200)
I1015 10:56:51.678637 15018 net.cpp:157] Top shape: 4 128 80 120 (4915200)
I1015 10:56:51.678639 15018 net.cpp:165] Memory required for data: 697958592
I1015 10:56:51.678642 15018 layer_factory.hpp:77] Creating layer conv4/dw
I1015 10:56:51.678649 15018 net.cpp:100] Creating Layer conv4/dw
I1015 10:56:51.678652 15018 net.cpp:434] conv4/dw <- conv3_conv3/relu_0_split_0
I1015 10:56:51.678658 15018 net.cpp:408] conv4/dw -> conv4/dw
I1015 10:56:51.678815 15018 net.cpp:150] Setting up conv4/dw
I1015 10:56:51.678822 15018 net.cpp:157] Top shape: 4 128 40 60 (1228800)
I1015 10:56:51.678824 15018 net.cpp:165] Memory required for data: 702873792
I1015 10:56:51.678828 15018 layer_factory.hpp:77] Creating layer conv4/dw/bn
I1015 10:56:51.678835 15018 net.cpp:100] Creating Layer conv4/dw/bn
I1015 10:56:51.678838 15018 net.cpp:434] conv4/dw/bn <- conv4/dw
I1015 10:56:51.678841 15018 net.cpp:395] conv4/dw/bn -> conv4/dw (in-place)
I1015 10:56:51.678985 15018 net.cpp:150] Setting up conv4/dw/bn
I1015 10:56:51.678992 15018 net.cpp:157] Top shape: 4 128 40 60 (1228800)
I1015 10:56:51.678994 15018 net.cpp:165] Memory required for data: 707788992
I1015 10:56:51.678999 15018 layer_factory.hpp:77] Creating layer conv4/dw/scale
I1015 10:56:51.679004 15018 net.cpp:100] Creating Layer conv4/dw/scale
I1015 10:56:51.679008 15018 net.cpp:434] conv4/dw/scale <- conv4/dw
I1015 10:56:51.679010 15018 net.cpp:395] conv4/dw/scale -> conv4/dw (in-place)
I1015 10:56:51.679041 15018 layer_factory.hpp:77] Creating layer conv4/dw/scale
I1015 10:56:51.679132 15018 net.cpp:150] Setting up conv4/dw/scale
I1015 10:56:51.679137 15018 net.cpp:157] Top shape: 4 128 40 60 (1228800)
I1015 10:56:51.679139 15018 net.cpp:165] Memory required for data: 712704192
I1015 10:56:51.679143 15018 layer_factory.hpp:77] Creating layer conv4/dw/relu
I1015 10:56:51.679148 15018 net.cpp:100] Creating Layer conv4/dw/relu
I1015 10:56:51.679150 15018 net.cpp:434] conv4/dw/relu <- conv4/dw
I1015 10:56:51.679154 15018 net.cpp:395] conv4/dw/relu -> conv4/dw (in-place)
I1015 10:56:51.679505 15018 net.cpp:150] Setting up conv4/dw/relu
I1015 10:56:51.679514 15018 net.cpp:157] Top shape: 4 128 40 60 (1228800)
I1015 10:56:51.679517 15018 net.cpp:165] Memory required for data: 717619392
I1015 10:56:51.679519 15018 layer_factory.hpp:77] Creating layer conv4
I1015 10:56:51.679525 15018 net.cpp:100] Creating Layer conv4
I1015 10:56:51.679529 15018 net.cpp:434] conv4 <- conv4/dw
I1015 10:56:51.679534 15018 net.cpp:408] conv4 -> conv4
I1015 10:56:51.681344 15018 net.cpp:150] Setting up conv4
I1015 10:56:51.681356 15018 net.cpp:157] Top shape: 4 256 40 60 (2457600)
I1015 10:56:51.681360 15018 net.cpp:165] Memory required for data: 727449792
I1015 10:56:51.681365 15018 layer_factory.hpp:77] Creating layer conv4/bn
I1015 10:56:51.681368 15018 net.cpp:100] Creating Layer conv4/bn
I1015 10:56:51.681371 15018 net.cpp:434] conv4/bn <- conv4
I1015 10:56:51.681376 15018 net.cpp:395] conv4/bn -> conv4 (in-place)
I1015 10:56:51.681533 15018 net.cpp:150] Setting up conv4/bn
I1015 10:56:51.681541 15018 net.cpp:157] Top shape: 4 256 40 60 (2457600)
I1015 10:56:51.681543 15018 net.cpp:165] Memory required for data: 737280192
I1015 10:56:51.681548 15018 layer_factory.hpp:77] Creating layer conv4/scale
I1015 10:56:51.681553 15018 net.cpp:100] Creating Layer conv4/scale
I1015 10:56:51.681556 15018 net.cpp:434] conv4/scale <- conv4
I1015 10:56:51.681560 15018 net.cpp:395] conv4/scale -> conv4 (in-place)
I1015 10:56:51.681593 15018 layer_factory.hpp:77] Creating layer conv4/scale
I1015 10:56:51.681684 15018 net.cpp:150] Setting up conv4/scale
I1015 10:56:51.681691 15018 net.cpp:157] Top shape: 4 256 40 60 (2457600)
I1015 10:56:51.681694 15018 net.cpp:165] Memory required for data: 747110592
I1015 10:56:51.681697 15018 layer_factory.hpp:77] Creating layer conv4/relu
I1015 10:56:51.681701 15018 net.cpp:100] Creating Layer conv4/relu
I1015 10:56:51.681704 15018 net.cpp:434] conv4/relu <- conv4
I1015 10:56:51.681708 15018 net.cpp:395] conv4/relu -> conv4 (in-place)
I1015 10:56:51.682063 15018 net.cpp:150] Setting up conv4/relu
I1015 10:56:51.682072 15018 net.cpp:157] Top shape: 4 256 40 60 (2457600)
I1015 10:56:51.682076 15018 net.cpp:165] Memory required for data: 756940992
I1015 10:56:51.682078 15018 layer_factory.hpp:77] Creating layer conv5/dw
I1015 10:56:51.682085 15018 net.cpp:100] Creating Layer conv5/dw
I1015 10:56:51.682088 15018 net.cpp:434] conv5/dw <- conv4
I1015 10:56:51.682096 15018 net.cpp:408] conv5/dw -> conv5/dw
I1015 10:56:51.682276 15018 net.cpp:150] Setting up conv5/dw
I1015 10:56:51.682282 15018 net.cpp:157] Top shape: 4 256 40 60 (2457600)
I1015 10:56:51.682284 15018 net.cpp:165] Memory required for data: 766771392
I1015 10:56:51.682287 15018 layer_factory.hpp:77] Creating layer conv5/dw/bn
I1015 10:56:51.682291 15018 net.cpp:100] Creating Layer conv5/dw/bn
I1015 10:56:51.682294 15018 net.cpp:434] conv5/dw/bn <- conv5/dw
I1015 10:56:51.682297 15018 net.cpp:395] conv5/dw/bn -> conv5/dw (in-place)
I1015 10:56:51.682440 15018 net.cpp:150] Setting up conv5/dw/bn
I1015 10:56:51.682446 15018 net.cpp:157] Top shape: 4 256 40 60 (2457600)
I1015 10:56:51.682449 15018 net.cpp:165] Memory required for data: 776601792
I1015 10:56:51.682454 15018 layer_factory.hpp:77] Creating layer conv5/dw/scale
I1015 10:56:51.682458 15018 net.cpp:100] Creating Layer conv5/dw/scale
I1015 10:56:51.682461 15018 net.cpp:434] conv5/dw/scale <- conv5/dw
I1015 10:56:51.682464 15018 net.cpp:395] conv5/dw/scale -> conv5/dw (in-place)
I1015 10:56:51.682495 15018 layer_factory.hpp:77] Creating layer conv5/dw/scale
I1015 10:56:51.682582 15018 net.cpp:150] Setting up conv5/dw/scale
I1015 10:56:51.682588 15018 net.cpp:157] Top shape: 4 256 40 60 (2457600)
I1015 10:56:51.682590 15018 net.cpp:165] Memory required for data: 786432192
I1015 10:56:51.682595 15018 layer_factory.hpp:77] Creating layer conv5/dw/relu
I1015 10:56:51.682598 15018 net.cpp:100] Creating Layer conv5/dw/relu
I1015 10:56:51.682600 15018 net.cpp:434] conv5/dw/relu <- conv5/dw
I1015 10:56:51.682605 15018 net.cpp:395] conv5/dw/relu -> conv5/dw (in-place)
I1015 10:56:51.683248 15018 net.cpp:150] Setting up conv5/dw/relu
I1015 10:56:51.683260 15018 net.cpp:157] Top shape: 4 256 40 60 (2457600)
I1015 10:56:51.683264 15018 net.cpp:165] Memory required for data: 796262592
I1015 10:56:51.683266 15018 layer_factory.hpp:77] Creating layer conv5
I1015 10:56:51.683274 15018 net.cpp:100] Creating Layer conv5
I1015 10:56:51.683276 15018 net.cpp:434] conv5 <- conv5/dw
I1015 10:56:51.683282 15018 net.cpp:408] conv5 -> conv5
I1015 10:56:51.686007 15018 net.cpp:150] Setting up conv5
I1015 10:56:51.686018 15018 net.cpp:157] Top shape: 4 256 40 60 (2457600)
I1015 10:56:51.686022 15018 net.cpp:165] Memory required for data: 806092992
I1015 10:56:51.686025 15018 layer_factory.hpp:77] Creating layer conv5/bn
I1015 10:56:51.686031 15018 net.cpp:100] Creating Layer conv5/bn
I1015 10:56:51.686034 15018 net.cpp:434] conv5/bn <- conv5
I1015 10:56:51.686039 15018 net.cpp:395] conv5/bn -> conv5 (in-place)
I1015 10:56:51.686205 15018 net.cpp:150] Setting up conv5/bn
I1015 10:56:51.686213 15018 net.cpp:157] Top shape: 4 256 40 60 (2457600)
I1015 10:56:51.686215 15018 net.cpp:165] Memory required for data: 815923392
I1015 10:56:51.686220 15018 layer_factory.hpp:77] Creating layer conv5/scale
I1015 10:56:51.686226 15018 net.cpp:100] Creating Layer conv5/scale
I1015 10:56:51.686229 15018 net.cpp:434] conv5/scale <- conv5
I1015 10:56:51.686233 15018 net.cpp:395] conv5/scale -> conv5 (in-place)
I1015 10:56:51.686265 15018 layer_factory.hpp:77] Creating layer conv5/scale
I1015 10:56:51.686357 15018 net.cpp:150] Setting up conv5/scale
I1015 10:56:51.686363 15018 net.cpp:157] Top shape: 4 256 40 60 (2457600)
I1015 10:56:51.686365 15018 net.cpp:165] Memory required for data: 825753792
I1015 10:56:51.686377 15018 layer_factory.hpp:77] Creating layer conv5/relu
I1015 10:56:51.686380 15018 net.cpp:100] Creating Layer conv5/relu
I1015 10:56:51.686383 15018 net.cpp:434] conv5/relu <- conv5
I1015 10:56:51.686386 15018 net.cpp:395] conv5/relu -> conv5 (in-place)
I1015 10:56:51.686738 15018 net.cpp:150] Setting up conv5/relu
I1015 10:56:51.686748 15018 net.cpp:157] Top shape: 4 256 40 60 (2457600)
I1015 10:56:51.686751 15018 net.cpp:165] Memory required for data: 835584192
I1015 10:56:51.686754 15018 layer_factory.hpp:77] Creating layer conv5_conv5/relu_0_split
I1015 10:56:51.686758 15018 net.cpp:100] Creating Layer conv5_conv5/relu_0_split
I1015 10:56:51.686761 15018 net.cpp:434] conv5_conv5/relu_0_split <- conv5
I1015 10:56:51.686766 15018 net.cpp:408] conv5_conv5/relu_0_split -> conv5_conv5/relu_0_split_0
I1015 10:56:51.686771 15018 net.cpp:408] conv5_conv5/relu_0_split -> conv5_conv5/relu_0_split_1
I1015 10:56:51.686807 15018 net.cpp:150] Setting up conv5_conv5/relu_0_split
I1015 10:56:51.686811 15018 net.cpp:157] Top shape: 4 256 40 60 (2457600)
I1015 10:56:51.686815 15018 net.cpp:157] Top shape: 4 256 40 60 (2457600)
I1015 10:56:51.686816 15018 net.cpp:165] Memory required for data: 855244992
I1015 10:56:51.686820 15018 layer_factory.hpp:77] Creating layer conv6/dw
I1015 10:56:51.686832 15018 net.cpp:100] Creating Layer conv6/dw
I1015 10:56:51.686836 15018 net.cpp:434] conv6/dw <- conv5_conv5/relu_0_split_0
I1015 10:56:51.686841 15018 net.cpp:408] conv6/dw -> conv6/dw
I1015 10:56:51.687013 15018 net.cpp:150] Setting up conv6/dw
I1015 10:56:51.687021 15018 net.cpp:157] Top shape: 4 256 20 30 (614400)
I1015 10:56:51.687022 15018 net.cpp:165] Memory required for data: 857702592
I1015 10:56:51.687026 15018 layer_factory.hpp:77] Creating layer conv6/dw/bn
I1015 10:56:51.687031 15018 net.cpp:100] Creating Layer conv6/dw/bn
I1015 10:56:51.687032 15018 net.cpp:434] conv6/dw/bn <- conv6/dw
I1015 10:56:51.687036 15018 net.cpp:395] conv6/dw/bn -> conv6/dw (in-place)
I1015 10:56:51.687197 15018 net.cpp:150] Setting up conv6/dw/bn
I1015 10:56:51.687204 15018 net.cpp:157] Top shape: 4 256 20 30 (614400)
I1015 10:56:51.687206 15018 net.cpp:165] Memory required for data: 860160192
I1015 10:56:51.687211 15018 layer_factory.hpp:77] Creating layer conv6/dw/scale
I1015 10:56:51.687217 15018 net.cpp:100] Creating Layer conv6/dw/scale
I1015 10:56:51.687220 15018 net.cpp:434] conv6/dw/scale <- conv6/dw
I1015 10:56:51.687223 15018 net.cpp:395] conv6/dw/scale -> conv6/dw (in-place)
I1015 10:56:51.687256 15018 layer_factory.hpp:77] Creating layer conv6/dw/scale
I1015 10:56:51.687350 15018 net.cpp:150] Setting up conv6/dw/scale
I1015 10:56:51.687355 15018 net.cpp:157] Top shape: 4 256 20 30 (614400)
I1015 10:56:51.687357 15018 net.cpp:165] Memory required for data: 862617792
I1015 10:56:51.687362 15018 layer_factory.hpp:77] Creating layer conv6/dw/relu
I1015 10:56:51.687367 15018 net.cpp:100] Creating Layer conv6/dw/relu
I1015 10:56:51.687369 15018 net.cpp:434] conv6/dw/relu <- conv6/dw
I1015 10:56:51.687372 15018 net.cpp:395] conv6/dw/relu -> conv6/dw (in-place)
I1015 10:56:51.687723 15018 net.cpp:150] Setting up conv6/dw/relu
I1015 10:56:51.687732 15018 net.cpp:157] Top shape: 4 256 20 30 (614400)
I1015 10:56:51.687734 15018 net.cpp:165] Memory required for data: 865075392
I1015 10:56:51.687737 15018 layer_factory.hpp:77] Creating layer conv6
I1015 10:56:51.687744 15018 net.cpp:100] Creating Layer conv6
I1015 10:56:51.687747 15018 net.cpp:434] conv6 <- conv6/dw
I1015 10:56:51.687752 15018 net.cpp:408] conv6 -> conv6
I1015 10:56:51.691056 15018 net.cpp:150] Setting up conv6
I1015 10:56:51.691069 15018 net.cpp:157] Top shape: 4 512 20 30 (1228800)
I1015 10:56:51.691072 15018 net.cpp:165] Memory required for data: 869990592
I1015 10:56:51.691076 15018 layer_factory.hpp:77] Creating layer conv6/bn
I1015 10:56:51.691082 15018 net.cpp:100] Creating Layer conv6/bn
I1015 10:56:51.691085 15018 net.cpp:434] conv6/bn <- conv6
I1015 10:56:51.691088 15018 net.cpp:395] conv6/bn -> conv6 (in-place)
I1015 10:56:51.691270 15018 net.cpp:150] Setting up conv6/bn
I1015 10:56:51.691279 15018 net.cpp:157] Top shape: 4 512 20 30 (1228800)
I1015 10:56:51.691282 15018 net.cpp:165] Memory required for data: 874905792
I1015 10:56:51.691287 15018 layer_factory.hpp:77] Creating layer conv6/scale
I1015 10:56:51.691293 15018 net.cpp:100] Creating Layer conv6/scale
I1015 10:56:51.691294 15018 net.cpp:434] conv6/scale <- conv6
I1015 10:56:51.691298 15018 net.cpp:395] conv6/scale -> conv6 (in-place)
I1015 10:56:51.691335 15018 layer_factory.hpp:77] Creating layer conv6/scale
I1015 10:56:51.691426 15018 net.cpp:150] Setting up conv6/scale
I1015 10:56:51.691432 15018 net.cpp:157] Top shape: 4 512 20 30 (1228800)
I1015 10:56:51.691434 15018 net.cpp:165] Memory required for data: 879820992
I1015 10:56:51.691438 15018 layer_factory.hpp:77] Creating layer conv6/relu
I1015 10:56:51.691442 15018 net.cpp:100] Creating Layer conv6/relu
I1015 10:56:51.691444 15018 net.cpp:434] conv6/relu <- conv6
I1015 10:56:51.691448 15018 net.cpp:395] conv6/relu -> conv6 (in-place)
I1015 10:56:51.692126 15018 net.cpp:150] Setting up conv6/relu
I1015 10:56:51.692137 15018 net.cpp:157] Top shape: 4 512 20 30 (1228800)
I1015 10:56:51.692140 15018 net.cpp:165] Memory required for data: 884736192
I1015 10:56:51.692143 15018 layer_factory.hpp:77] Creating layer conv7/dw
I1015 10:56:51.692152 15018 net.cpp:100] Creating Layer conv7/dw
I1015 10:56:51.692153 15018 net.cpp:434] conv7/dw <- conv6
I1015 10:56:51.692158 15018 net.cpp:408] conv7/dw -> conv7/dw
I1015 10:56:51.692373 15018 net.cpp:150] Setting up conv7/dw
I1015 10:56:51.692379 15018 net.cpp:157] Top shape: 4 512 20 30 (1228800)
I1015 10:56:51.692382 15018 net.cpp:165] Memory required for data: 889651392
I1015 10:56:51.692385 15018 layer_factory.hpp:77] Creating layer conv7/dw/bn
I1015 10:56:51.692390 15018 net.cpp:100] Creating Layer conv7/dw/bn
I1015 10:56:51.692394 15018 net.cpp:434] conv7/dw/bn <- conv7/dw
I1015 10:56:51.692396 15018 net.cpp:395] conv7/dw/bn -> conv7/dw (in-place)
I1015 10:56:51.692551 15018 net.cpp:150] Setting up conv7/dw/bn
I1015 10:56:51.692559 15018 net.cpp:157] Top shape: 4 512 20 30 (1228800)
I1015 10:56:51.692560 15018 net.cpp:165] Memory required for data: 894566592
I1015 10:56:51.692565 15018 layer_factory.hpp:77] Creating layer conv7/dw/scale
I1015 10:56:51.692571 15018 net.cpp:100] Creating Layer conv7/dw/scale
I1015 10:56:51.692574 15018 net.cpp:434] conv7/dw/scale <- conv7/dw
I1015 10:56:51.692577 15018 net.cpp:395] conv7/dw/scale -> conv7/dw (in-place)
I1015 10:56:51.692612 15018 layer_factory.hpp:77] Creating layer conv7/dw/scale
I1015 10:56:51.692704 15018 net.cpp:150] Setting up conv7/dw/scale
I1015 10:56:51.692711 15018 net.cpp:157] Top shape: 4 512 20 30 (1228800)
I1015 10:56:51.692713 15018 net.cpp:165] Memory required for data: 899481792
I1015 10:56:51.692718 15018 layer_factory.hpp:77] Creating layer conv7/dw/relu
I1015 10:56:51.692721 15018 net.cpp:100] Creating Layer conv7/dw/relu
I1015 10:56:51.692724 15018 net.cpp:434] conv7/dw/relu <- conv7/dw
I1015 10:56:51.692728 15018 net.cpp:395] conv7/dw/relu -> conv7/dw (in-place)
I1015 10:56:51.693078 15018 net.cpp:150] Setting up conv7/dw/relu
I1015 10:56:51.693089 15018 net.cpp:157] Top shape: 4 512 20 30 (1228800)
I1015 10:56:51.693090 15018 net.cpp:165] Memory required for data: 904396992
I1015 10:56:51.693094 15018 layer_factory.hpp:77] Creating layer conv7
I1015 10:56:51.693100 15018 net.cpp:100] Creating Layer conv7
I1015 10:56:51.693102 15018 net.cpp:434] conv7 <- conv7/dw
I1015 10:56:51.693107 15018 net.cpp:408] conv7 -> conv7
I1015 10:56:51.696631 15018 net.cpp:150] Setting up conv7
I1015 10:56:51.696645 15018 net.cpp:157] Top shape: 4 512 20 30 (1228800)
I1015 10:56:51.696646 15018 net.cpp:165] Memory required for data: 909312192
I1015 10:56:51.696651 15018 layer_factory.hpp:77] Creating layer conv7/bn
I1015 10:56:51.696657 15018 net.cpp:100] Creating Layer conv7/bn
I1015 10:56:51.696660 15018 net.cpp:434] conv7/bn <- conv7
I1015 10:56:51.696663 15018 net.cpp:395] conv7/bn -> conv7 (in-place)
I1015 10:56:51.696827 15018 net.cpp:150] Setting up conv7/bn
I1015 10:56:51.696835 15018 net.cpp:157] Top shape: 4 512 20 30 (1228800)
I1015 10:56:51.696836 15018 net.cpp:165] Memory required for data: 914227392
I1015 10:56:51.696841 15018 layer_factory.hpp:77] Creating layer conv7/scale
I1015 10:56:51.696848 15018 net.cpp:100] Creating Layer conv7/scale
I1015 10:56:51.696851 15018 net.cpp:434] conv7/scale <- conv7
I1015 10:56:51.696854 15018 net.cpp:395] conv7/scale -> conv7 (in-place)
I1015 10:56:51.696889 15018 layer_factory.hpp:77] Creating layer conv7/scale
I1015 10:56:51.696982 15018 net.cpp:150] Setting up conv7/scale
I1015 10:56:51.696988 15018 net.cpp:157] Top shape: 4 512 20 30 (1228800)
I1015 10:56:51.696991 15018 net.cpp:165] Memory required for data: 919142592
I1015 10:56:51.696995 15018 layer_factory.hpp:77] Creating layer conv7/relu
I1015 10:56:51.697001 15018 net.cpp:100] Creating Layer conv7/relu
I1015 10:56:51.697003 15018 net.cpp:434] conv7/relu <- conv7
I1015 10:56:51.697006 15018 net.cpp:395] conv7/relu -> conv7 (in-place)
I1015 10:56:51.697397 15018 net.cpp:150] Setting up conv7/relu
I1015 10:56:51.697407 15018 net.cpp:157] Top shape: 4 512 20 30 (1228800)
I1015 10:56:51.697409 15018 net.cpp:165] Memory required for data: 924057792
I1015 10:56:51.697412 15018 layer_factory.hpp:77] Creating layer conv8/dw
I1015 10:56:51.697427 15018 net.cpp:100] Creating Layer conv8/dw
I1015 10:56:51.697430 15018 net.cpp:434] conv8/dw <- conv7
I1015 10:56:51.697434 15018 net.cpp:408] conv8/dw -> conv8/dw
I1015 10:56:51.697633 15018 net.cpp:150] Setting up conv8/dw
I1015 10:56:51.697640 15018 net.cpp:157] Top shape: 4 512 20 30 (1228800)
I1015 10:56:51.697643 15018 net.cpp:165] Memory required for data: 928972992
I1015 10:56:51.697646 15018 layer_factory.hpp:77] Creating layer conv8/dw/bn
I1015 10:56:51.697651 15018 net.cpp:100] Creating Layer conv8/dw/bn
I1015 10:56:51.697654 15018 net.cpp:434] conv8/dw/bn <- conv8/dw
I1015 10:56:51.697657 15018 net.cpp:395] conv8/dw/bn -> conv8/dw (in-place)
I1015 10:56:51.697813 15018 net.cpp:150] Setting up conv8/dw/bn
I1015 10:56:51.697819 15018 net.cpp:157] Top shape: 4 512 20 30 (1228800)
I1015 10:56:51.697821 15018 net.cpp:165] Memory required for data: 933888192
I1015 10:56:51.697826 15018 layer_factory.hpp:77] Creating layer conv8/dw/scale
I1015 10:56:51.697831 15018 net.cpp:100] Creating Layer conv8/dw/scale
I1015 10:56:51.697834 15018 net.cpp:434] conv8/dw/scale <- conv8/dw
I1015 10:56:51.697837 15018 net.cpp:395] conv8/dw/scale -> conv8/dw (in-place)
I1015 10:56:51.697873 15018 layer_factory.hpp:77] Creating layer conv8/dw/scale
I1015 10:56:51.697963 15018 net.cpp:150] Setting up conv8/dw/scale
I1015 10:56:51.697969 15018 net.cpp:157] Top shape: 4 512 20 30 (1228800)
I1015 10:56:51.697971 15018 net.cpp:165] Memory required for data: 938803392
I1015 10:56:51.697976 15018 layer_factory.hpp:77] Creating layer conv8/dw/relu
I1015 10:56:51.697981 15018 net.cpp:100] Creating Layer conv8/dw/relu
I1015 10:56:51.697983 15018 net.cpp:434] conv8/dw/relu <- conv8/dw
I1015 10:56:51.697986 15018 net.cpp:395] conv8/dw/relu -> conv8/dw (in-place)
I1015 10:56:51.698644 15018 net.cpp:150] Setting up conv8/dw/relu
I1015 10:56:51.698655 15018 net.cpp:157] Top shape: 4 512 20 30 (1228800)
I1015 10:56:51.698658 15018 net.cpp:165] Memory required for data: 943718592
I1015 10:56:51.698660 15018 layer_factory.hpp:77] Creating layer conv8
I1015 10:56:51.698669 15018 net.cpp:100] Creating Layer conv8
I1015 10:56:51.698673 15018 net.cpp:434] conv8 <- conv8/dw
I1015 10:56:51.698676 15018 net.cpp:408] conv8 -> conv8
I1015 10:56:51.703003 15018 net.cpp:150] Setting up conv8
I1015 10:56:51.703018 15018 net.cpp:157] Top shape: 4 512 20 30 (1228800)
I1015 10:56:51.703021 15018 net.cpp:165] Memory required for data: 948633792
I1015 10:56:51.703025 15018 layer_factory.hpp:77] Creating layer conv8/bn
I1015 10:56:51.703032 15018 net.cpp:100] Creating Layer conv8/bn
I1015 10:56:51.703034 15018 net.cpp:434] conv8/bn <- conv8
I1015 10:56:51.703038 15018 net.cpp:395] conv8/bn -> conv8 (in-place)
I1015 10:56:51.703207 15018 net.cpp:150] Setting up conv8/bn
I1015 10:56:51.703214 15018 net.cpp:157] Top shape: 4 512 20 30 (1228800)
I1015 10:56:51.703217 15018 net.cpp:165] Memory required for data: 953548992
I1015 10:56:51.703222 15018 layer_factory.hpp:77] Creating layer conv8/scale
I1015 10:56:51.703227 15018 net.cpp:100] Creating Layer conv8/scale
I1015 10:56:51.703230 15018 net.cpp:434] conv8/scale <- conv8
I1015 10:56:51.703234 15018 net.cpp:395] conv8/scale -> conv8 (in-place)
I1015 10:56:51.703271 15018 layer_factory.hpp:77] Creating layer conv8/scale
I1015 10:56:51.703362 15018 net.cpp:150] Setting up conv8/scale
I1015 10:56:51.703372 15018 net.cpp:157] Top shape: 4 512 20 30 (1228800)
I1015 10:56:51.703374 15018 net.cpp:165] Memory required for data: 958464192
I1015 10:56:51.703378 15018 layer_factory.hpp:77] Creating layer conv8/relu
I1015 10:56:51.703382 15018 net.cpp:100] Creating Layer conv8/relu
I1015 10:56:51.703384 15018 net.cpp:434] conv8/relu <- conv8
I1015 10:56:51.703388 15018 net.cpp:395] conv8/relu -> conv8 (in-place)
I1015 10:56:51.703747 15018 net.cpp:150] Setting up conv8/relu
I1015 10:56:51.703758 15018 net.cpp:157] Top shape: 4 512 20 30 (1228800)
I1015 10:56:51.703759 15018 net.cpp:165] Memory required for data: 963379392
I1015 10:56:51.703763 15018 layer_factory.hpp:77] Creating layer conv9/dw
I1015 10:56:51.703770 15018 net.cpp:100] Creating Layer conv9/dw
I1015 10:56:51.703773 15018 net.cpp:434] conv9/dw <- conv8
I1015 10:56:51.703776 15018 net.cpp:408] conv9/dw -> conv9/dw
I1015 10:56:51.703992 15018 net.cpp:150] Setting up conv9/dw
I1015 10:56:51.703999 15018 net.cpp:157] Top shape: 4 512 20 30 (1228800)
I1015 10:56:51.704001 15018 net.cpp:165] Memory required for data: 968294592
I1015 10:56:51.704005 15018 layer_factory.hpp:77] Creating layer conv9/dw/bn
I1015 10:56:51.704008 15018 net.cpp:100] Creating Layer conv9/dw/bn
I1015 10:56:51.704011 15018 net.cpp:434] conv9/dw/bn <- conv9/dw
I1015 10:56:51.704016 15018 net.cpp:395] conv9/dw/bn -> conv9/dw (in-place)
I1015 10:56:51.704174 15018 net.cpp:150] Setting up conv9/dw/bn
I1015 10:56:51.704180 15018 net.cpp:157] Top shape: 4 512 20 30 (1228800)
I1015 10:56:51.704181 15018 net.cpp:165] Memory required for data: 973209792
I1015 10:56:51.704186 15018 layer_factory.hpp:77] Creating layer conv9/dw/scale
I1015 10:56:51.704191 15018 net.cpp:100] Creating Layer conv9/dw/scale
I1015 10:56:51.704193 15018 net.cpp:434] conv9/dw/scale <- conv9/dw
I1015 10:56:51.704198 15018 net.cpp:395] conv9/dw/scale -> conv9/dw (in-place)
I1015 10:56:51.704233 15018 layer_factory.hpp:77] Creating layer conv9/dw/scale
I1015 10:56:51.704325 15018 net.cpp:150] Setting up conv9/dw/scale
I1015 10:56:51.704331 15018 net.cpp:157] Top shape: 4 512 20 30 (1228800)
I1015 10:56:51.704334 15018 net.cpp:165] Memory required for data: 978124992
I1015 10:56:51.704337 15018 layer_factory.hpp:77] Creating layer conv9/dw/relu
I1015 10:56:51.704341 15018 net.cpp:100] Creating Layer conv9/dw/relu
I1015 10:56:51.704344 15018 net.cpp:434] conv9/dw/relu <- conv9/dw
I1015 10:56:51.704349 15018 net.cpp:395] conv9/dw/relu -> conv9/dw (in-place)
I1015 10:56:51.704708 15018 net.cpp:150] Setting up conv9/dw/relu
I1015 10:56:51.704717 15018 net.cpp:157] Top shape: 4 512 20 30 (1228800)
I1015 10:56:51.704720 15018 net.cpp:165] Memory required for data: 983040192
I1015 10:56:51.704722 15018 layer_factory.hpp:77] Creating layer conv9
I1015 10:56:51.704730 15018 net.cpp:100] Creating Layer conv9
I1015 10:56:51.704732 15018 net.cpp:434] conv9 <- conv9/dw
I1015 10:56:51.704738 15018 net.cpp:408] conv9 -> conv9
I1015 10:56:51.708293 15018 net.cpp:150] Setting up conv9
I1015 10:56:51.708305 15018 net.cpp:157] Top shape: 4 512 20 30 (1228800)
I1015 10:56:51.708309 15018 net.cpp:165] Memory required for data: 987955392
I1015 10:56:51.708314 15018 layer_factory.hpp:77] Creating layer conv9/bn
I1015 10:56:51.708318 15018 net.cpp:100] Creating Layer conv9/bn
I1015 10:56:51.708322 15018 net.cpp:434] conv9/bn <- conv9
I1015 10:56:51.708325 15018 net.cpp:395] conv9/bn -> conv9 (in-place)
I1015 10:56:51.708493 15018 net.cpp:150] Setting up conv9/bn
I1015 10:56:51.708500 15018 net.cpp:157] Top shape: 4 512 20 30 (1228800)
I1015 10:56:51.708503 15018 net.cpp:165] Memory required for data: 992870592
I1015 10:56:51.708508 15018 layer_factory.hpp:77] Creating layer conv9/scale
I1015 10:56:51.708513 15018 net.cpp:100] Creating Layer conv9/scale
I1015 10:56:51.708515 15018 net.cpp:434] conv9/scale <- conv9
I1015 10:56:51.708519 15018 net.cpp:395] conv9/scale -> conv9 (in-place)
I1015 10:56:51.708555 15018 layer_factory.hpp:77] Creating layer conv9/scale
I1015 10:56:51.708648 15018 net.cpp:150] Setting up conv9/scale
I1015 10:56:51.708653 15018 net.cpp:157] Top shape: 4 512 20 30 (1228800)
I1015 10:56:51.708657 15018 net.cpp:165] Memory required for data: 997785792
I1015 10:56:51.708660 15018 layer_factory.hpp:77] Creating layer conv9/relu
I1015 10:56:51.708664 15018 net.cpp:100] Creating Layer conv9/relu
I1015 10:56:51.708667 15018 net.cpp:434] conv9/relu <- conv9
I1015 10:56:51.708670 15018 net.cpp:395] conv9/relu -> conv9 (in-place)
I1015 10:56:51.709039 15018 net.cpp:150] Setting up conv9/relu
I1015 10:56:51.709049 15018 net.cpp:157] Top shape: 4 512 20 30 (1228800)
I1015 10:56:51.709051 15018 net.cpp:165] Memory required for data: 1002700992
I1015 10:56:51.709054 15018 layer_factory.hpp:77] Creating layer conv10/dw
I1015 10:56:51.709061 15018 net.cpp:100] Creating Layer conv10/dw
I1015 10:56:51.709064 15018 net.cpp:434] conv10/dw <- conv9
I1015 10:56:51.709069 15018 net.cpp:408] conv10/dw -> conv10/dw
I1015 10:56:51.709271 15018 net.cpp:150] Setting up conv10/dw
I1015 10:56:51.709277 15018 net.cpp:157] Top shape: 4 512 20 30 (1228800)
I1015 10:56:51.709280 15018 net.cpp:165] Memory required for data: 1007616192
I1015 10:56:51.709283 15018 layer_factory.hpp:77] Creating layer conv10/dw/bn
I1015 10:56:51.709287 15018 net.cpp:100] Creating Layer conv10/dw/bn
I1015 10:56:51.709290 15018 net.cpp:434] conv10/dw/bn <- conv10/dw
I1015 10:56:51.709293 15018 net.cpp:395] conv10/dw/bn -> conv10/dw (in-place)
I1015 10:56:51.709455 15018 net.cpp:150] Setting up conv10/dw/bn
I1015 10:56:51.709461 15018 net.cpp:157] Top shape: 4 512 20 30 (1228800)
I1015 10:56:51.709463 15018 net.cpp:165] Memory required for data: 1012531392
I1015 10:56:51.709470 15018 layer_factory.hpp:77] Creating layer conv10/dw/scale
I1015 10:56:51.709473 15018 net.cpp:100] Creating Layer conv10/dw/scale
I1015 10:56:51.709475 15018 net.cpp:434] conv10/dw/scale <- conv10/dw
I1015 10:56:51.709481 15018 net.cpp:395] conv10/dw/scale -> conv10/dw (in-place)
I1015 10:56:51.709516 15018 layer_factory.hpp:77] Creating layer conv10/dw/scale
I1015 10:56:51.709609 15018 net.cpp:150] Setting up conv10/dw/scale
I1015 10:56:51.709614 15018 net.cpp:157] Top shape: 4 512 20 30 (1228800)
I1015 10:56:51.709616 15018 net.cpp:165] Memory required for data: 1017446592
I1015 10:56:51.709620 15018 layer_factory.hpp:77] Creating layer conv10/dw/relu
I1015 10:56:51.709625 15018 net.cpp:100] Creating Layer conv10/dw/relu
I1015 10:56:51.709626 15018 net.cpp:434] conv10/dw/relu <- conv10/dw
I1015 10:56:51.709630 15018 net.cpp:395] conv10/dw/relu -> conv10/dw (in-place)
I1015 10:56:51.710299 15018 net.cpp:150] Setting up conv10/dw/relu
I1015 10:56:51.710310 15018 net.cpp:157] Top shape: 4 512 20 30 (1228800)
I1015 10:56:51.710312 15018 net.cpp:165] Memory required for data: 1022361792
I1015 10:56:51.710315 15018 layer_factory.hpp:77] Creating layer conv10
I1015 10:56:51.710324 15018 net.cpp:100] Creating Layer conv10
I1015 10:56:51.710326 15018 net.cpp:434] conv10 <- conv10/dw
I1015 10:56:51.710330 15018 net.cpp:408] conv10 -> conv10
I1015 10:56:51.714689 15018 net.cpp:150] Setting up conv10
I1015 10:56:51.714702 15018 net.cpp:157] Top shape: 4 512 20 30 (1228800)
I1015 10:56:51.714704 15018 net.cpp:165] Memory required for data: 1027276992
I1015 10:56:51.714709 15018 layer_factory.hpp:77] Creating layer conv10/bn
I1015 10:56:51.714713 15018 net.cpp:100] Creating Layer conv10/bn
I1015 10:56:51.714716 15018 net.cpp:434] conv10/bn <- conv10
I1015 10:56:51.714721 15018 net.cpp:395] conv10/bn -> conv10 (in-place)
I1015 10:56:51.714890 15018 net.cpp:150] Setting up conv10/bn
I1015 10:56:51.714896 15018 net.cpp:157] Top shape: 4 512 20 30 (1228800)
I1015 10:56:51.714900 15018 net.cpp:165] Memory required for data: 1032192192
I1015 10:56:51.714905 15018 layer_factory.hpp:77] Creating layer conv10/scale
I1015 10:56:51.714910 15018 net.cpp:100] Creating Layer conv10/scale
I1015 10:56:51.714911 15018 net.cpp:434] conv10/scale <- conv10
I1015 10:56:51.714916 15018 net.cpp:395] conv10/scale -> conv10 (in-place)
I1015 10:56:51.714951 15018 layer_factory.hpp:77] Creating layer conv10/scale
I1015 10:56:51.715046 15018 net.cpp:150] Setting up conv10/scale
I1015 10:56:51.715052 15018 net.cpp:157] Top shape: 4 512 20 30 (1228800)
I1015 10:56:51.715054 15018 net.cpp:165] Memory required for data: 1037107392
I1015 10:56:51.715059 15018 layer_factory.hpp:77] Creating layer conv10/relu
I1015 10:56:51.715064 15018 net.cpp:100] Creating Layer conv10/relu
I1015 10:56:51.715065 15018 net.cpp:434] conv10/relu <- conv10
I1015 10:56:51.715070 15018 net.cpp:395] conv10/relu -> conv10 (in-place)
I1015 10:56:51.715432 15018 net.cpp:150] Setting up conv10/relu
I1015 10:56:51.715442 15018 net.cpp:157] Top shape: 4 512 20 30 (1228800)
I1015 10:56:51.715445 15018 net.cpp:165] Memory required for data: 1042022592
I1015 10:56:51.715447 15018 layer_factory.hpp:77] Creating layer conv11/dw
I1015 10:56:51.715454 15018 net.cpp:100] Creating Layer conv11/dw
I1015 10:56:51.715457 15018 net.cpp:434] conv11/dw <- conv10
I1015 10:56:51.715462 15018 net.cpp:408] conv11/dw -> conv11/dw
I1015 10:56:51.715662 15018 net.cpp:150] Setting up conv11/dw
I1015 10:56:51.715669 15018 net.cpp:157] Top shape: 4 512 20 30 (1228800)
I1015 10:56:51.715672 15018 net.cpp:165] Memory required for data: 1046937792
I1015 10:56:51.715675 15018 layer_factory.hpp:77] Creating layer conv11/dw/bn
I1015 10:56:51.715679 15018 net.cpp:100] Creating Layer conv11/dw/bn
I1015 10:56:51.715682 15018 net.cpp:434] conv11/dw/bn <- conv11/dw
I1015 10:56:51.715687 15018 net.cpp:395] conv11/dw/bn -> conv11/dw (in-place)
I1015 10:56:51.715857 15018 net.cpp:150] Setting up conv11/dw/bn
I1015 10:56:51.715862 15018 net.cpp:157] Top shape: 4 512 20 30 (1228800)
I1015 10:56:51.715864 15018 net.cpp:165] Memory required for data: 1051852992
I1015 10:56:51.715881 15018 layer_factory.hpp:77] Creating layer conv11/dw/scale
I1015 10:56:51.715886 15018 net.cpp:100] Creating Layer conv11/dw/scale
I1015 10:56:51.715889 15018 net.cpp:434] conv11/dw/scale <- conv11/dw
I1015 10:56:51.715893 15018 net.cpp:395] conv11/dw/scale -> conv11/dw (in-place)
I1015 10:56:51.715930 15018 layer_factory.hpp:77] Creating layer conv11/dw/scale
I1015 10:56:51.716022 15018 net.cpp:150] Setting up conv11/dw/scale
I1015 10:56:51.716029 15018 net.cpp:157] Top shape: 4 512 20 30 (1228800)
I1015 10:56:51.716032 15018 net.cpp:165] Memory required for data: 1056768192
I1015 10:56:51.716035 15018 layer_factory.hpp:77] Creating layer conv11/dw/relu
I1015 10:56:51.716039 15018 net.cpp:100] Creating Layer conv11/dw/relu
I1015 10:56:51.716042 15018 net.cpp:434] conv11/dw/relu <- conv11/dw
I1015 10:56:51.716047 15018 net.cpp:395] conv11/dw/relu -> conv11/dw (in-place)
I1015 10:56:51.716400 15018 net.cpp:150] Setting up conv11/dw/relu
I1015 10:56:51.716410 15018 net.cpp:157] Top shape: 4 512 20 30 (1228800)
I1015 10:56:51.716413 15018 net.cpp:165] Memory required for data: 1061683392
I1015 10:56:51.716415 15018 layer_factory.hpp:77] Creating layer conv11
I1015 10:56:51.716423 15018 net.cpp:100] Creating Layer conv11
I1015 10:56:51.716425 15018 net.cpp:434] conv11 <- conv11/dw
I1015 10:56:51.716430 15018 net.cpp:408] conv11 -> conv11
I1015 10:56:51.720263 15018 net.cpp:150] Setting up conv11
I1015 10:56:51.720275 15018 net.cpp:157] Top shape: 4 512 20 30 (1228800)
I1015 10:56:51.720278 15018 net.cpp:165] Memory required for data: 1066598592
I1015 10:56:51.720283 15018 layer_factory.hpp:77] Creating layer conv11/bn
I1015 10:56:51.720288 15018 net.cpp:100] Creating Layer conv11/bn
I1015 10:56:51.720291 15018 net.cpp:434] conv11/bn <- conv11
I1015 10:56:51.720294 15018 net.cpp:395] conv11/bn -> conv11 (in-place)
I1015 10:56:51.720463 15018 net.cpp:150] Setting up conv11/bn
I1015 10:56:51.720470 15018 net.cpp:157] Top shape: 4 512 20 30 (1228800)
I1015 10:56:51.720472 15018 net.cpp:165] Memory required for data: 1071513792
I1015 10:56:51.720479 15018 layer_factory.hpp:77] Creating layer conv11/scale
I1015 10:56:51.720484 15018 net.cpp:100] Creating Layer conv11/scale
I1015 10:56:51.720485 15018 net.cpp:434] conv11/scale <- conv11
I1015 10:56:51.720489 15018 net.cpp:395] conv11/scale -> conv11 (in-place)
I1015 10:56:51.720527 15018 layer_factory.hpp:77] Creating layer conv11/scale
I1015 10:56:51.720623 15018 net.cpp:150] Setting up conv11/scale
I1015 10:56:51.720630 15018 net.cpp:157] Top shape: 4 512 20 30 (1228800)
I1015 10:56:51.720633 15018 net.cpp:165] Memory required for data: 1076428992
I1015 10:56:51.720636 15018 layer_factory.hpp:77] Creating layer conv11/relu
I1015 10:56:51.720640 15018 net.cpp:100] Creating Layer conv11/relu
I1015 10:56:51.720643 15018 net.cpp:434] conv11/relu <- conv11
I1015 10:56:51.720645 15018 net.cpp:395] conv11/relu -> conv11 (in-place)
I1015 10:56:51.721366 15018 net.cpp:150] Setting up conv11/relu
I1015 10:56:51.721379 15018 net.cpp:157] Top shape: 4 512 20 30 (1228800)
I1015 10:56:51.721381 15018 net.cpp:165] Memory required for data: 1081344192
I1015 10:56:51.721384 15018 layer_factory.hpp:77] Creating layer conv11_conv11/relu_0_split
I1015 10:56:51.721390 15018 net.cpp:100] Creating Layer conv11_conv11/relu_0_split
I1015 10:56:51.721393 15018 net.cpp:434] conv11_conv11/relu_0_split <- conv11
I1015 10:56:51.721398 15018 net.cpp:408] conv11_conv11/relu_0_split -> conv11_conv11/relu_0_split_0
I1015 10:56:51.721405 15018 net.cpp:408] conv11_conv11/relu_0_split -> conv11_conv11/relu_0_split_1
I1015 10:56:51.721410 15018 net.cpp:408] conv11_conv11/relu_0_split -> conv11_conv11/relu_0_split_2
I1015 10:56:51.721415 15018 net.cpp:408] conv11_conv11/relu_0_split -> conv11_conv11/relu_0_split_3
I1015 10:56:51.721418 15018 net.cpp:408] conv11_conv11/relu_0_split -> conv11_conv11/relu_0_split_4
I1015 10:56:51.721488 15018 net.cpp:150] Setting up conv11_conv11/relu_0_split
I1015 10:56:51.721495 15018 net.cpp:157] Top shape: 4 512 20 30 (1228800)
I1015 10:56:51.721498 15018 net.cpp:157] Top shape: 4 512 20 30 (1228800)
I1015 10:56:51.721500 15018 net.cpp:157] Top shape: 4 512 20 30 (1228800)
I1015 10:56:51.721503 15018 net.cpp:157] Top shape: 4 512 20 30 (1228800)
I1015 10:56:51.721505 15018 net.cpp:157] Top shape: 4 512 20 30 (1228800)
I1015 10:56:51.721508 15018 net.cpp:165] Memory required for data: 1105920192
I1015 10:56:51.721513 15018 layer_factory.hpp:77] Creating layer conv12/dw
I1015 10:56:51.721520 15018 net.cpp:100] Creating Layer conv12/dw
I1015 10:56:51.721524 15018 net.cpp:434] conv12/dw <- conv11_conv11/relu_0_split_0
I1015 10:56:51.721527 15018 net.cpp:408] conv12/dw -> conv12/dw
I1015 10:56:51.721736 15018 net.cpp:150] Setting up conv12/dw
I1015 10:56:51.721743 15018 net.cpp:157] Top shape: 4 512 10 15 (307200)
I1015 10:56:51.721746 15018 net.cpp:165] Memory required for data: 1107148992
I1015 10:56:51.721750 15018 layer_factory.hpp:77] Creating layer conv12/dw/bn
I1015 10:56:51.721755 15018 net.cpp:100] Creating Layer conv12/dw/bn
I1015 10:56:51.721756 15018 net.cpp:434] conv12/dw/bn <- conv12/dw
I1015 10:56:51.721760 15018 net.cpp:395] conv12/dw/bn -> conv12/dw (in-place)
I1015 10:56:51.721925 15018 net.cpp:150] Setting up conv12/dw/bn
I1015 10:56:51.721930 15018 net.cpp:157] Top shape: 4 512 10 15 (307200)
I1015 10:56:51.721932 15018 net.cpp:165] Memory required for data: 1108377792
I1015 10:56:51.721937 15018 layer_factory.hpp:77] Creating layer conv12/dw/scale
I1015 10:56:51.721942 15018 net.cpp:100] Creating Layer conv12/dw/scale
I1015 10:56:51.721945 15018 net.cpp:434] conv12/dw/scale <- conv12/dw
I1015 10:56:51.721948 15018 net.cpp:395] conv12/dw/scale -> conv12/dw (in-place)
I1015 10:56:51.721981 15018 layer_factory.hpp:77] Creating layer conv12/dw/scale
I1015 10:56:51.722086 15018 net.cpp:150] Setting up conv12/dw/scale
I1015 10:56:51.722093 15018 net.cpp:157] Top shape: 4 512 10 15 (307200)
I1015 10:56:51.722095 15018 net.cpp:165] Memory required for data: 1109606592
I1015 10:56:51.722100 15018 layer_factory.hpp:77] Creating layer conv12/dw/relu
I1015 10:56:51.722103 15018 net.cpp:100] Creating Layer conv12/dw/relu
I1015 10:56:51.722106 15018 net.cpp:434] conv12/dw/relu <- conv12/dw
I1015 10:56:51.722110 15018 net.cpp:395] conv12/dw/relu -> conv12/dw (in-place)
I1015 10:56:51.722462 15018 net.cpp:150] Setting up conv12/dw/relu
I1015 10:56:51.722472 15018 net.cpp:157] Top shape: 4 512 10 15 (307200)
I1015 10:56:51.722476 15018 net.cpp:165] Memory required for data: 1110835392
I1015 10:56:51.722477 15018 layer_factory.hpp:77] Creating layer conv12
I1015 10:56:51.722486 15018 net.cpp:100] Creating Layer conv12
I1015 10:56:51.722488 15018 net.cpp:434] conv12 <- conv12/dw
I1015 10:56:51.722492 15018 net.cpp:408] conv12 -> conv12
I1015 10:56:51.729362 15018 net.cpp:150] Setting up conv12
I1015 10:56:51.729377 15018 net.cpp:157] Top shape: 4 1024 10 15 (614400)
I1015 10:56:51.729379 15018 net.cpp:165] Memory required for data: 1113292992
I1015 10:56:51.729384 15018 layer_factory.hpp:77] Creating layer conv12/bn
I1015 10:56:51.729390 15018 net.cpp:100] Creating Layer conv12/bn
I1015 10:56:51.729393 15018 net.cpp:434] conv12/bn <- conv12
I1015 10:56:51.729398 15018 net.cpp:395] conv12/bn -> conv12 (in-place)
I1015 10:56:51.729578 15018 net.cpp:150] Setting up conv12/bn
I1015 10:56:51.729585 15018 net.cpp:157] Top shape: 4 1024 10 15 (614400)
I1015 10:56:51.729588 15018 net.cpp:165] Memory required for data: 1115750592
I1015 10:56:51.729593 15018 layer_factory.hpp:77] Creating layer conv12/scale
I1015 10:56:51.729598 15018 net.cpp:100] Creating Layer conv12/scale
I1015 10:56:51.729600 15018 net.cpp:434] conv12/scale <- conv12
I1015 10:56:51.729604 15018 net.cpp:395] conv12/scale -> conv12 (in-place)
I1015 10:56:51.729640 15018 layer_factory.hpp:77] Creating layer conv12/scale
I1015 10:56:51.729737 15018 net.cpp:150] Setting up conv12/scale
I1015 10:56:51.729744 15018 net.cpp:157] Top shape: 4 1024 10 15 (614400)
I1015 10:56:51.729748 15018 net.cpp:165] Memory required for data: 1118208192
I1015 10:56:51.729751 15018 layer_factory.hpp:77] Creating layer conv12/relu
I1015 10:56:51.729755 15018 net.cpp:100] Creating Layer conv12/relu
I1015 10:56:51.729758 15018 net.cpp:434] conv12/relu <- conv12
I1015 10:56:51.729761 15018 net.cpp:395] conv12/relu -> conv12 (in-place)
I1015 10:56:51.730126 15018 net.cpp:150] Setting up conv12/relu
I1015 10:56:51.730137 15018 net.cpp:157] Top shape: 4 1024 10 15 (614400)
I1015 10:56:51.730139 15018 net.cpp:165] Memory required for data: 1120665792
I1015 10:56:51.730142 15018 layer_factory.hpp:77] Creating layer conv13/dw
I1015 10:56:51.730149 15018 net.cpp:100] Creating Layer conv13/dw
I1015 10:56:51.730152 15018 net.cpp:434] conv13/dw <- conv12
I1015 10:56:51.730156 15018 net.cpp:408] conv13/dw -> conv13/dw
I1015 10:56:51.730403 15018 net.cpp:150] Setting up conv13/dw
I1015 10:56:51.730410 15018 net.cpp:157] Top shape: 4 1024 10 15 (614400)
I1015 10:56:51.730413 15018 net.cpp:165] Memory required for data: 1123123392
I1015 10:56:51.730417 15018 layer_factory.hpp:77] Creating layer conv13/dw/bn
I1015 10:56:51.730422 15018 net.cpp:100] Creating Layer conv13/dw/bn
I1015 10:56:51.730424 15018 net.cpp:434] conv13/dw/bn <- conv13/dw
I1015 10:56:51.730427 15018 net.cpp:395] conv13/dw/bn -> conv13/dw (in-place)
I1015 10:56:51.730592 15018 net.cpp:150] Setting up conv13/dw/bn
I1015 10:56:51.730597 15018 net.cpp:157] Top shape: 4 1024 10 15 (614400)
I1015 10:56:51.730599 15018 net.cpp:165] Memory required for data: 1125580992
I1015 10:56:51.730604 15018 layer_factory.hpp:77] Creating layer conv13/dw/scale
I1015 10:56:51.730609 15018 net.cpp:100] Creating Layer conv13/dw/scale
I1015 10:56:51.730612 15018 net.cpp:434] conv13/dw/scale <- conv13/dw
I1015 10:56:51.730615 15018 net.cpp:395] conv13/dw/scale -> conv13/dw (in-place)
I1015 10:56:51.730650 15018 layer_factory.hpp:77] Creating layer conv13/dw/scale
I1015 10:56:51.730746 15018 net.cpp:150] Setting up conv13/dw/scale
I1015 10:56:51.730752 15018 net.cpp:157] Top shape: 4 1024 10 15 (614400)
I1015 10:56:51.730754 15018 net.cpp:165] Memory required for data: 1128038592
I1015 10:56:51.730758 15018 layer_factory.hpp:77] Creating layer conv13/dw/relu
I1015 10:56:51.730763 15018 net.cpp:100] Creating Layer conv13/dw/relu
I1015 10:56:51.730765 15018 net.cpp:434] conv13/dw/relu <- conv13/dw
I1015 10:56:51.730769 15018 net.cpp:395] conv13/dw/relu -> conv13/dw (in-place)
I1015 10:56:51.731492 15018 net.cpp:150] Setting up conv13/dw/relu
I1015 10:56:51.731503 15018 net.cpp:157] Top shape: 4 1024 10 15 (614400)
I1015 10:56:51.731505 15018 net.cpp:165] Memory required for data: 1130496192
I1015 10:56:51.731508 15018 layer_factory.hpp:77] Creating layer conv13
I1015 10:56:51.731516 15018 net.cpp:100] Creating Layer conv13
I1015 10:56:51.731519 15018 net.cpp:434] conv13 <- conv13/dw
I1015 10:56:51.731524 15018 net.cpp:408] conv13 -> conv13
I1015 10:56:51.742195 15018 net.cpp:150] Setting up conv13
I1015 10:56:51.742211 15018 net.cpp:157] Top shape: 4 1024 10 15 (614400)
I1015 10:56:51.742213 15018 net.cpp:165] Memory required for data: 1132953792
I1015 10:56:51.742219 15018 layer_factory.hpp:77] Creating layer conv13/bn
I1015 10:56:51.742225 15018 net.cpp:100] Creating Layer conv13/bn
I1015 10:56:51.742229 15018 net.cpp:434] conv13/bn <- conv13
I1015 10:56:51.742233 15018 net.cpp:395] conv13/bn -> conv13 (in-place)
I1015 10:56:51.742419 15018 net.cpp:150] Setting up conv13/bn
I1015 10:56:51.742427 15018 net.cpp:157] Top shape: 4 1024 10 15 (614400)
I1015 10:56:51.742429 15018 net.cpp:165] Memory required for data: 1135411392
I1015 10:56:51.742436 15018 layer_factory.hpp:77] Creating layer conv13/scale
I1015 10:56:51.742444 15018 net.cpp:100] Creating Layer conv13/scale
I1015 10:56:51.742449 15018 net.cpp:434] conv13/scale <- conv13
I1015 10:56:51.742455 15018 net.cpp:395] conv13/scale -> conv13 (in-place)
I1015 10:56:51.742522 15018 layer_factory.hpp:77] Creating layer conv13/scale
I1015 10:56:51.742655 15018 net.cpp:150] Setting up conv13/scale
I1015 10:56:51.742664 15018 net.cpp:157] Top shape: 4 1024 10 15 (614400)
I1015 10:56:51.742667 15018 net.cpp:165] Memory required for data: 1137868992
I1015 10:56:51.742671 15018 layer_factory.hpp:77] Creating layer conv13/relu
I1015 10:56:51.742677 15018 net.cpp:100] Creating Layer conv13/relu
I1015 10:56:51.742681 15018 net.cpp:434] conv13/relu <- conv13
I1015 10:56:51.742684 15018 net.cpp:395] conv13/relu -> conv13 (in-place)
I1015 10:56:51.743068 15018 net.cpp:150] Setting up conv13/relu
I1015 10:56:51.743078 15018 net.cpp:157] Top shape: 4 1024 10 15 (614400)
I1015 10:56:51.743082 15018 net.cpp:165] Memory required for data: 1140326592
I1015 10:56:51.743084 15018 layer_factory.hpp:77] Creating layer conv13_conv13/relu_0_split
I1015 10:56:51.743090 15018 net.cpp:100] Creating Layer conv13_conv13/relu_0_split
I1015 10:56:51.743093 15018 net.cpp:434] conv13_conv13/relu_0_split <- conv13
I1015 10:56:51.743101 15018 net.cpp:408] conv13_conv13/relu_0_split -> conv13_conv13/relu_0_split_0
I1015 10:56:51.743108 15018 net.cpp:408] conv13_conv13/relu_0_split -> conv13_conv13/relu_0_split_1
I1015 10:56:51.743113 15018 net.cpp:408] conv13_conv13/relu_0_split -> conv13_conv13/relu_0_split_2
I1015 10:56:51.743119 15018 net.cpp:408] conv13_conv13/relu_0_split -> conv13_conv13/relu_0_split_3
I1015 10:56:51.743124 15018 net.cpp:408] conv13_conv13/relu_0_split -> conv13_conv13/relu_0_split_4
I1015 10:56:51.743203 15018 net.cpp:150] Setting up conv13_conv13/relu_0_split
I1015 10:56:51.743211 15018 net.cpp:157] Top shape: 4 1024 10 15 (614400)
I1015 10:56:51.743216 15018 net.cpp:157] Top shape: 4 1024 10 15 (614400)
I1015 10:56:51.743219 15018 net.cpp:157] Top shape: 4 1024 10 15 (614400)
I1015 10:56:51.743222 15018 net.cpp:157] Top shape: 4 1024 10 15 (614400)
I1015 10:56:51.743225 15018 net.cpp:157] Top shape: 4 1024 10 15 (614400)
I1015 10:56:51.743227 15018 net.cpp:165] Memory required for data: 1152614592
I1015 10:56:51.743229 15018 layer_factory.hpp:77] Creating layer conv14_1
I1015 10:56:51.743237 15018 net.cpp:100] Creating Layer conv14_1
I1015 10:56:51.743240 15018 net.cpp:434] conv14_1 <- conv13_conv13/relu_0_split_0
I1015 10:56:51.743247 15018 net.cpp:408] conv14_1 -> conv14_1
I1015 10:56:51.747931 15018 net.cpp:150] Setting up conv14_1
I1015 10:56:51.747949 15018 net.cpp:157] Top shape: 4 256 10 15 (153600)
I1015 10:56:51.747952 15018 net.cpp:165] Memory required for data: 1153228992
I1015 10:56:51.747956 15018 layer_factory.hpp:77] Creating layer conv14_1/bn
I1015 10:56:51.747962 15018 net.cpp:100] Creating Layer conv14_1/bn
I1015 10:56:51.747965 15018 net.cpp:434] conv14_1/bn <- conv14_1
I1015 10:56:51.747972 15018 net.cpp:395] conv14_1/bn -> conv14_1 (in-place)
I1015 10:56:51.748149 15018 net.cpp:150] Setting up conv14_1/bn
I1015 10:56:51.748158 15018 net.cpp:157] Top shape: 4 256 10 15 (153600)
I1015 10:56:51.748160 15018 net.cpp:165] Memory required for data: 1153843392
I1015 10:56:51.748167 15018 layer_factory.hpp:77] Creating layer conv14_1/scale
I1015 10:56:51.748173 15018 net.cpp:100] Creating Layer conv14_1/scale
I1015 10:56:51.748176 15018 net.cpp:434] conv14_1/scale <- conv14_1
I1015 10:56:51.748180 15018 net.cpp:395] conv14_1/scale -> conv14_1 (in-place)
I1015 10:56:51.748219 15018 layer_factory.hpp:77] Creating layer conv14_1/scale
I1015 10:56:51.748319 15018 net.cpp:150] Setting up conv14_1/scale
I1015 10:56:51.748325 15018 net.cpp:157] Top shape: 4 256 10 15 (153600)
I1015 10:56:51.748327 15018 net.cpp:165] Memory required for data: 1154457792
I1015 10:56:51.748332 15018 layer_factory.hpp:77] Creating layer conv14_1/relu
I1015 10:56:51.748337 15018 net.cpp:100] Creating Layer conv14_1/relu
I1015 10:56:51.748338 15018 net.cpp:434] conv14_1/relu <- conv14_1
I1015 10:56:51.748343 15018 net.cpp:395] conv14_1/relu -> conv14_1 (in-place)
I1015 10:56:51.748718 15018 net.cpp:150] Setting up conv14_1/relu
I1015 10:56:51.748728 15018 net.cpp:157] Top shape: 4 256 10 15 (153600)
I1015 10:56:51.748730 15018 net.cpp:165] Memory required for data: 1155072192
I1015 10:56:51.748733 15018 layer_factory.hpp:77] Creating layer conv14_2
I1015 10:56:51.748740 15018 net.cpp:100] Creating Layer conv14_2
I1015 10:56:51.748744 15018 net.cpp:434] conv14_2 <- conv14_1
I1015 10:56:51.748749 15018 net.cpp:408] conv14_2 -> conv14_2
I1015 10:56:51.760869 15018 net.cpp:150] Setting up conv14_2
I1015 10:56:51.760886 15018 net.cpp:157] Top shape: 4 512 5 8 (81920)
I1015 10:56:51.760888 15018 net.cpp:165] Memory required for data: 1155399872
I1015 10:56:51.760895 15018 layer_factory.hpp:77] Creating layer conv14_2/bn
I1015 10:56:51.760903 15018 net.cpp:100] Creating Layer conv14_2/bn
I1015 10:56:51.760906 15018 net.cpp:434] conv14_2/bn <- conv14_2
I1015 10:56:51.760911 15018 net.cpp:395] conv14_2/bn -> conv14_2 (in-place)
I1015 10:56:51.761123 15018 net.cpp:150] Setting up conv14_2/bn
I1015 10:56:51.761131 15018 net.cpp:157] Top shape: 4 512 5 8 (81920)
I1015 10:56:51.761133 15018 net.cpp:165] Memory required for data: 1155727552
I1015 10:56:51.761140 15018 layer_factory.hpp:77] Creating layer conv14_2/scale
I1015 10:56:51.761147 15018 net.cpp:100] Creating Layer conv14_2/scale
I1015 10:56:51.761149 15018 net.cpp:434] conv14_2/scale <- conv14_2
I1015 10:56:51.761153 15018 net.cpp:395] conv14_2/scale -> conv14_2 (in-place)
I1015 10:56:51.761193 15018 layer_factory.hpp:77] Creating layer conv14_2/scale
I1015 10:56:51.761344 15018 net.cpp:150] Setting up conv14_2/scale
I1015 10:56:51.761359 15018 net.cpp:157] Top shape: 4 512 5 8 (81920)
I1015 10:56:51.761361 15018 net.cpp:165] Memory required for data: 1156055232
I1015 10:56:51.761366 15018 layer_factory.hpp:77] Creating layer conv14_2/relu
I1015 10:56:51.761371 15018 net.cpp:100] Creating Layer conv14_2/relu
I1015 10:56:51.761374 15018 net.cpp:434] conv14_2/relu <- conv14_2
I1015 10:56:51.761379 15018 net.cpp:395] conv14_2/relu -> conv14_2 (in-place)
I1015 10:56:51.761870 15018 net.cpp:150] Setting up conv14_2/relu
I1015 10:56:51.761883 15018 net.cpp:157] Top shape: 4 512 5 8 (81920)
I1015 10:56:51.761884 15018 net.cpp:165] Memory required for data: 1156382912
I1015 10:56:51.761888 15018 layer_factory.hpp:77] Creating layer conv14_2_conv14_2/relu_0_split
I1015 10:56:51.761893 15018 net.cpp:100] Creating Layer conv14_2_conv14_2/relu_0_split
I1015 10:56:51.761895 15018 net.cpp:434] conv14_2_conv14_2/relu_0_split <- conv14_2
I1015 10:56:51.761901 15018 net.cpp:408] conv14_2_conv14_2/relu_0_split -> conv14_2_conv14_2/relu_0_split_0
I1015 10:56:51.761906 15018 net.cpp:408] conv14_2_conv14_2/relu_0_split -> conv14_2_conv14_2/relu_0_split_1
I1015 10:56:51.761911 15018 net.cpp:408] conv14_2_conv14_2/relu_0_split -> conv14_2_conv14_2/relu_0_split_2
I1015 10:56:51.761916 15018 net.cpp:408] conv14_2_conv14_2/relu_0_split -> conv14_2_conv14_2/relu_0_split_3
I1015 10:56:51.762012 15018 net.cpp:150] Setting up conv14_2_conv14_2/relu_0_split
I1015 10:56:51.762022 15018 net.cpp:157] Top shape: 4 512 5 8 (81920)
I1015 10:56:51.762027 15018 net.cpp:157] Top shape: 4 512 5 8 (81920)
I1015 10:56:51.762032 15018 net.cpp:157] Top shape: 4 512 5 8 (81920)
I1015 10:56:51.762037 15018 net.cpp:157] Top shape: 4 512 5 8 (81920)
I1015 10:56:51.762039 15018 net.cpp:165] Memory required for data: 1157693632
I1015 10:56:51.762042 15018 layer_factory.hpp:77] Creating layer conv15_1
I1015 10:56:51.762053 15018 net.cpp:100] Creating Layer conv15_1
I1015 10:56:51.762059 15018 net.cpp:434] conv15_1 <- conv14_2_conv14_2/relu_0_split_0
I1015 10:56:51.762068 15018 net.cpp:408] conv15_1 -> conv15_1
I1015 10:56:51.765111 15018 net.cpp:150] Setting up conv15_1
I1015 10:56:51.765125 15018 net.cpp:157] Top shape: 4 128 5 8 (20480)
I1015 10:56:51.765127 15018 net.cpp:165] Memory required for data: 1157775552
I1015 10:56:51.765131 15018 layer_factory.hpp:77] Creating layer conv15_1/bn
I1015 10:56:51.765136 15018 net.cpp:100] Creating Layer conv15_1/bn
I1015 10:56:51.765139 15018 net.cpp:434] conv15_1/bn <- conv15_1
I1015 10:56:51.765144 15018 net.cpp:395] conv15_1/bn -> conv15_1 (in-place)
I1015 10:56:51.765420 15018 net.cpp:150] Setting up conv15_1/bn
I1015 10:56:51.765431 15018 net.cpp:157] Top shape: 4 128 5 8 (20480)
I1015 10:56:51.765434 15018 net.cpp:165] Memory required for data: 1157857472
I1015 10:56:51.765439 15018 layer_factory.hpp:77] Creating layer conv15_1/scale
I1015 10:56:51.765445 15018 net.cpp:100] Creating Layer conv15_1/scale
I1015 10:56:51.765449 15018 net.cpp:434] conv15_1/scale <- conv15_1
I1015 10:56:51.765452 15018 net.cpp:395] conv15_1/scale -> conv15_1 (in-place)
I1015 10:56:51.765503 15018 layer_factory.hpp:77] Creating layer conv15_1/scale
I1015 10:56:51.765664 15018 net.cpp:150] Setting up conv15_1/scale
I1015 10:56:51.765676 15018 net.cpp:157] Top shape: 4 128 5 8 (20480)
I1015 10:56:51.765681 15018 net.cpp:165] Memory required for data: 1157939392
I1015 10:56:51.765686 15018 layer_factory.hpp:77] Creating layer conv15_1/relu
I1015 10:56:51.765691 15018 net.cpp:100] Creating Layer conv15_1/relu
I1015 10:56:51.765696 15018 net.cpp:434] conv15_1/relu <- conv15_1
I1015 10:56:51.765703 15018 net.cpp:395] conv15_1/relu -> conv15_1 (in-place)
I1015 10:56:51.766451 15018 net.cpp:150] Setting up conv15_1/relu
I1015 10:56:51.766463 15018 net.cpp:157] Top shape: 4 128 5 8 (20480)
I1015 10:56:51.766466 15018 net.cpp:165] Memory required for data: 1158021312
I1015 10:56:51.766469 15018 layer_factory.hpp:77] Creating layer conv15_2
I1015 10:56:51.766476 15018 net.cpp:100] Creating Layer conv15_2
I1015 10:56:51.766479 15018 net.cpp:434] conv15_2 <- conv15_1
I1015 10:56:51.766485 15018 net.cpp:408] conv15_2 -> conv15_2
I1015 10:56:51.771464 15018 net.cpp:150] Setting up conv15_2
I1015 10:56:51.771479 15018 net.cpp:157] Top shape: 4 256 3 4 (12288)
I1015 10:56:51.771482 15018 net.cpp:165] Memory required for data: 1158070464
I1015 10:56:51.771487 15018 layer_factory.hpp:77] Creating layer conv15_2/bn
I1015 10:56:51.771510 15018 net.cpp:100] Creating Layer conv15_2/bn
I1015 10:56:51.771513 15018 net.cpp:434] conv15_2/bn <- conv15_2
I1015 10:56:51.771518 15018 net.cpp:395] conv15_2/bn -> conv15_2 (in-place)
I1015 10:56:51.771728 15018 net.cpp:150] Setting up conv15_2/bn
I1015 10:56:51.771740 15018 net.cpp:157] Top shape: 4 256 3 4 (12288)
I1015 10:56:51.771745 15018 net.cpp:165] Memory required for data: 1158119616
I1015 10:56:51.771754 15018 layer_factory.hpp:77] Creating layer conv15_2/scale
I1015 10:56:51.771762 15018 net.cpp:100] Creating Layer conv15_2/scale
I1015 10:56:51.771766 15018 net.cpp:434] conv15_2/scale <- conv15_2
I1015 10:56:51.771770 15018 net.cpp:395] conv15_2/scale -> conv15_2 (in-place)
I1015 10:56:51.771811 15018 layer_factory.hpp:77] Creating layer conv15_2/scale
I1015 10:56:51.771932 15018 net.cpp:150] Setting up conv15_2/scale
I1015 10:56:51.771941 15018 net.cpp:157] Top shape: 4 256 3 4 (12288)
I1015 10:56:51.771944 15018 net.cpp:165] Memory required for data: 1158168768
I1015 10:56:51.771948 15018 layer_factory.hpp:77] Creating layer conv15_2/relu
I1015 10:56:51.771956 15018 net.cpp:100] Creating Layer conv15_2/relu
I1015 10:56:51.771961 15018 net.cpp:434] conv15_2/relu <- conv15_2
I1015 10:56:51.771967 15018 net.cpp:395] conv15_2/relu -> conv15_2 (in-place)
I1015 10:56:51.772434 15018 net.cpp:150] Setting up conv15_2/relu
I1015 10:56:51.772449 15018 net.cpp:157] Top shape: 4 256 3 4 (12288)
I1015 10:56:51.772454 15018 net.cpp:165] Memory required for data: 1158217920
I1015 10:56:51.772456 15018 layer_factory.hpp:77] Creating layer conv15_2_conv15_2/relu_0_split
I1015 10:56:51.772461 15018 net.cpp:100] Creating Layer conv15_2_conv15_2/relu_0_split
I1015 10:56:51.772464 15018 net.cpp:434] conv15_2_conv15_2/relu_0_split <- conv15_2
I1015 10:56:51.772475 15018 net.cpp:408] conv15_2_conv15_2/relu_0_split -> conv15_2_conv15_2/relu_0_split_0
I1015 10:56:51.772485 15018 net.cpp:408] conv15_2_conv15_2/relu_0_split -> conv15_2_conv15_2/relu_0_split_1
I1015 10:56:51.772491 15018 net.cpp:408] conv15_2_conv15_2/relu_0_split -> conv15_2_conv15_2/relu_0_split_2
I1015 10:56:51.772496 15018 net.cpp:408] conv15_2_conv15_2/relu_0_split -> conv15_2_conv15_2/relu_0_split_3
I1015 10:56:51.772590 15018 net.cpp:150] Setting up conv15_2_conv15_2/relu_0_split
I1015 10:56:51.772598 15018 net.cpp:157] Top shape: 4 256 3 4 (12288)
I1015 10:56:51.772600 15018 net.cpp:157] Top shape: 4 256 3 4 (12288)
I1015 10:56:51.772603 15018 net.cpp:157] Top shape: 4 256 3 4 (12288)
I1015 10:56:51.772608 15018 net.cpp:157] Top shape: 4 256 3 4 (12288)
I1015 10:56:51.772611 15018 net.cpp:165] Memory required for data: 1158414528
I1015 10:56:51.772615 15018 layer_factory.hpp:77] Creating layer conv16_1
I1015 10:56:51.772626 15018 net.cpp:100] Creating Layer conv16_1
I1015 10:56:51.772632 15018 net.cpp:434] conv16_1 <- conv15_2_conv15_2/relu_0_split_0
I1015 10:56:51.772639 15018 net.cpp:408] conv16_1 -> conv16_1
I1015 10:56:51.775722 15018 net.cpp:150] Setting up conv16_1
I1015 10:56:51.775738 15018 net.cpp:157] Top shape: 4 128 3 4 (6144)
I1015 10:56:51.775741 15018 net.cpp:165] Memory required for data: 1158439104
I1015 10:56:51.775745 15018 layer_factory.hpp:77] Creating layer conv16_1/bn
I1015 10:56:51.775751 15018 net.cpp:100] Creating Layer conv16_1/bn
I1015 10:56:51.775754 15018 net.cpp:434] conv16_1/bn <- conv16_1
I1015 10:56:51.775760 15018 net.cpp:395] conv16_1/bn -> conv16_1 (in-place)
I1015 10:56:51.776000 15018 net.cpp:150] Setting up conv16_1/bn
I1015 10:56:51.776007 15018 net.cpp:157] Top shape: 4 128 3 4 (6144)
I1015 10:56:51.776010 15018 net.cpp:165] Memory required for data: 1158463680
I1015 10:56:51.776018 15018 layer_factory.hpp:77] Creating layer conv16_1/scale
I1015 10:56:51.776026 15018 net.cpp:100] Creating Layer conv16_1/scale
I1015 10:56:51.776031 15018 net.cpp:434] conv16_1/scale <- conv16_1
I1015 10:56:51.776039 15018 net.cpp:395] conv16_1/scale -> conv16_1 (in-place)
I1015 10:56:51.776093 15018 layer_factory.hpp:77] Creating layer conv16_1/scale
I1015 10:56:51.776243 15018 net.cpp:150] Setting up conv16_1/scale
I1015 10:56:51.776255 15018 net.cpp:157] Top shape: 4 128 3 4 (6144)
I1015 10:56:51.776259 15018 net.cpp:165] Memory required for data: 1158488256
I1015 10:56:51.776265 15018 layer_factory.hpp:77] Creating layer conv16_1/relu
I1015 10:56:51.776269 15018 net.cpp:100] Creating Layer conv16_1/relu
I1015 10:56:51.776273 15018 net.cpp:434] conv16_1/relu <- conv16_1
I1015 10:56:51.776278 15018 net.cpp:395] conv16_1/relu -> conv16_1 (in-place)
I1015 10:56:51.776727 15018 net.cpp:150] Setting up conv16_1/relu
I1015 10:56:51.776738 15018 net.cpp:157] Top shape: 4 128 3 4 (6144)
I1015 10:56:51.776741 15018 net.cpp:165] Memory required for data: 1158512832
I1015 10:56:51.776742 15018 layer_factory.hpp:77] Creating layer conv16_2
I1015 10:56:51.776751 15018 net.cpp:100] Creating Layer conv16_2
I1015 10:56:51.776754 15018 net.cpp:434] conv16_2 <- conv16_1
I1015 10:56:51.776760 15018 net.cpp:408] conv16_2 -> conv16_2
I1015 10:56:51.781481 15018 net.cpp:150] Setting up conv16_2
I1015 10:56:51.781494 15018 net.cpp:157] Top shape: 4 256 2 2 (4096)
I1015 10:56:51.781497 15018 net.cpp:165] Memory required for data: 1158529216
I1015 10:56:51.781502 15018 layer_factory.hpp:77] Creating layer conv16_2/bn
I1015 10:56:51.781507 15018 net.cpp:100] Creating Layer conv16_2/bn
I1015 10:56:51.781510 15018 net.cpp:434] conv16_2/bn <- conv16_2
I1015 10:56:51.781514 15018 net.cpp:395] conv16_2/bn -> conv16_2 (in-place)
I1015 10:56:51.781769 15018 net.cpp:150] Setting up conv16_2/bn
I1015 10:56:51.781778 15018 net.cpp:157] Top shape: 4 256 2 2 (4096)
I1015 10:56:51.781783 15018 net.cpp:165] Memory required for data: 1158545600
I1015 10:56:51.781792 15018 layer_factory.hpp:77] Creating layer conv16_2/scale
I1015 10:56:51.781798 15018 net.cpp:100] Creating Layer conv16_2/scale
I1015 10:56:51.781801 15018 net.cpp:434] conv16_2/scale <- conv16_2
I1015 10:56:51.781805 15018 net.cpp:395] conv16_2/scale -> conv16_2 (in-place)
I1015 10:56:51.781862 15018 layer_factory.hpp:77] Creating layer conv16_2/scale
I1015 10:56:51.782016 15018 net.cpp:150] Setting up conv16_2/scale
I1015 10:56:51.782027 15018 net.cpp:157] Top shape: 4 256 2 2 (4096)
I1015 10:56:51.782029 15018 net.cpp:165] Memory required for data: 1158561984
I1015 10:56:51.782033 15018 layer_factory.hpp:77] Creating layer conv16_2/relu
I1015 10:56:51.782038 15018 net.cpp:100] Creating Layer conv16_2/relu
I1015 10:56:51.782040 15018 net.cpp:434] conv16_2/relu <- conv16_2
I1015 10:56:51.782044 15018 net.cpp:395] conv16_2/relu -> conv16_2 (in-place)
I1015 10:56:51.782815 15018 net.cpp:150] Setting up conv16_2/relu
I1015 10:56:51.782827 15018 net.cpp:157] Top shape: 4 256 2 2 (4096)
I1015 10:56:51.782829 15018 net.cpp:165] Memory required for data: 1158578368
I1015 10:56:51.782832 15018 layer_factory.hpp:77] Creating layer conv16_2_conv16_2/relu_0_split
I1015 10:56:51.782840 15018 net.cpp:100] Creating Layer conv16_2_conv16_2/relu_0_split
I1015 10:56:51.782842 15018 net.cpp:434] conv16_2_conv16_2/relu_0_split <- conv16_2
I1015 10:56:51.782848 15018 net.cpp:408] conv16_2_conv16_2/relu_0_split -> conv16_2_conv16_2/relu_0_split_0
I1015 10:56:51.782855 15018 net.cpp:408] conv16_2_conv16_2/relu_0_split -> conv16_2_conv16_2/relu_0_split_1
I1015 10:56:51.782860 15018 net.cpp:408] conv16_2_conv16_2/relu_0_split -> conv16_2_conv16_2/relu_0_split_2
I1015 10:56:51.782863 15018 net.cpp:408] conv16_2_conv16_2/relu_0_split -> conv16_2_conv16_2/relu_0_split_3
I1015 10:56:51.782928 15018 net.cpp:150] Setting up conv16_2_conv16_2/relu_0_split
I1015 10:56:51.782935 15018 net.cpp:157] Top shape: 4 256 2 2 (4096)
I1015 10:56:51.782939 15018 net.cpp:157] Top shape: 4 256 2 2 (4096)
I1015 10:56:51.782943 15018 net.cpp:157] Top shape: 4 256 2 2 (4096)
I1015 10:56:51.782948 15018 net.cpp:157] Top shape: 4 256 2 2 (4096)
I1015 10:56:51.782951 15018 net.cpp:165] Memory required for data: 1158643904
I1015 10:56:51.782956 15018 layer_factory.hpp:77] Creating layer conv17_1
I1015 10:56:51.782968 15018 net.cpp:100] Creating Layer conv17_1
I1015 10:56:51.782974 15018 net.cpp:434] conv17_1 <- conv16_2_conv16_2/relu_0_split_0
I1015 10:56:51.782982 15018 net.cpp:408] conv17_1 -> conv17_1
I1015 10:56:51.785987 15018 net.cpp:150] Setting up conv17_1
I1015 10:56:51.786001 15018 net.cpp:157] Top shape: 4 64 2 2 (1024)
I1015 10:56:51.786003 15018 net.cpp:165] Memory required for data: 1158648000
I1015 10:56:51.786008 15018 layer_factory.hpp:77] Creating layer conv17_1/bn
I1015 10:56:51.786012 15018 net.cpp:100] Creating Layer conv17_1/bn
I1015 10:56:51.786015 15018 net.cpp:434] conv17_1/bn <- conv17_1
I1015 10:56:51.786020 15018 net.cpp:395] conv17_1/bn -> conv17_1 (in-place)
I1015 10:56:51.786262 15018 net.cpp:150] Setting up conv17_1/bn
I1015 10:56:51.786273 15018 net.cpp:157] Top shape: 4 64 2 2 (1024)
I1015 10:56:51.786276 15018 net.cpp:165] Memory required for data: 1158652096
I1015 10:56:51.786283 15018 layer_factory.hpp:77] Creating layer conv17_1/scale
I1015 10:56:51.786290 15018 net.cpp:100] Creating Layer conv17_1/scale
I1015 10:56:51.786293 15018 net.cpp:434] conv17_1/scale <- conv17_1
I1015 10:56:51.786299 15018 net.cpp:395] conv17_1/scale -> conv17_1 (in-place)
I1015 10:56:51.786355 15018 layer_factory.hpp:77] Creating layer conv17_1/scale
I1015 10:56:51.786509 15018 net.cpp:150] Setting up conv17_1/scale
I1015 10:56:51.786517 15018 net.cpp:157] Top shape: 4 64 2 2 (1024)
I1015 10:56:51.786521 15018 net.cpp:165] Memory required for data: 1158656192
I1015 10:56:51.786528 15018 layer_factory.hpp:77] Creating layer conv17_1/relu
I1015 10:56:51.786533 15018 net.cpp:100] Creating Layer conv17_1/relu
I1015 10:56:51.786536 15018 net.cpp:434] conv17_1/relu <- conv17_1
I1015 10:56:51.786541 15018 net.cpp:395] conv17_1/relu -> conv17_1 (in-place)
I1015 10:56:51.787008 15018 net.cpp:150] Setting up conv17_1/relu
I1015 10:56:51.787017 15018 net.cpp:157] Top shape: 4 64 2 2 (1024)
I1015 10:56:51.787019 15018 net.cpp:165] Memory required for data: 1158660288
I1015 10:56:51.787021 15018 layer_factory.hpp:77] Creating layer conv17_2
I1015 10:56:51.787029 15018 net.cpp:100] Creating Layer conv17_2
I1015 10:56:51.787034 15018 net.cpp:434] conv17_2 <- conv17_1
I1015 10:56:51.787039 15018 net.cpp:408] conv17_2 -> conv17_2
I1015 10:56:51.789321 15018 net.cpp:150] Setting up conv17_2
I1015 10:56:51.789338 15018 net.cpp:157] Top shape: 4 128 1 1 (512)
I1015 10:56:51.789341 15018 net.cpp:165] Memory required for data: 1158662336
I1015 10:56:51.789346 15018 layer_factory.hpp:77] Creating layer conv17_2/bn
I1015 10:56:51.789351 15018 net.cpp:100] Creating Layer conv17_2/bn
I1015 10:56:51.789355 15018 net.cpp:434] conv17_2/bn <- conv17_2
I1015 10:56:51.789361 15018 net.cpp:395] conv17_2/bn -> conv17_2 (in-place)
I1015 10:56:51.789557 15018 net.cpp:150] Setting up conv17_2/bn
I1015 10:56:51.789564 15018 net.cpp:157] Top shape: 4 128 1 1 (512)
I1015 10:56:51.789566 15018 net.cpp:165] Memory required for data: 1158664384
I1015 10:56:51.789572 15018 layer_factory.hpp:77] Creating layer conv17_2/scale
I1015 10:56:51.789582 15018 net.cpp:100] Creating Layer conv17_2/scale
I1015 10:56:51.789587 15018 net.cpp:434] conv17_2/scale <- conv17_2
I1015 10:56:51.789592 15018 net.cpp:395] conv17_2/scale -> conv17_2 (in-place)
I1015 10:56:51.789635 15018 layer_factory.hpp:77] Creating layer conv17_2/scale
I1015 10:56:51.789764 15018 net.cpp:150] Setting up conv17_2/scale
I1015 10:56:51.789775 15018 net.cpp:157] Top shape: 4 128 1 1 (512)
I1015 10:56:51.789778 15018 net.cpp:165] Memory required for data: 1158666432
I1015 10:56:51.789786 15018 layer_factory.hpp:77] Creating layer conv17_2/relu
I1015 10:56:51.789791 15018 net.cpp:100] Creating Layer conv17_2/relu
I1015 10:56:51.789794 15018 net.cpp:434] conv17_2/relu <- conv17_2
I1015 10:56:51.789799 15018 net.cpp:395] conv17_2/relu -> conv17_2 (in-place)
I1015 10:56:51.790241 15018 net.cpp:150] Setting up conv17_2/relu
I1015 10:56:51.790251 15018 net.cpp:157] Top shape: 4 128 1 1 (512)
I1015 10:56:51.790253 15018 net.cpp:165] Memory required for data: 1158668480
I1015 10:56:51.790256 15018 layer_factory.hpp:77] Creating layer conv17_2_conv17_2/relu_0_split
I1015 10:56:51.790263 15018 net.cpp:100] Creating Layer conv17_2_conv17_2/relu_0_split
I1015 10:56:51.790268 15018 net.cpp:434] conv17_2_conv17_2/relu_0_split <- conv17_2
I1015 10:56:51.790277 15018 net.cpp:408] conv17_2_conv17_2/relu_0_split -> conv17_2_conv17_2/relu_0_split_0
I1015 10:56:51.790283 15018 net.cpp:408] conv17_2_conv17_2/relu_0_split -> conv17_2_conv17_2/relu_0_split_1
I1015 10:56:51.790288 15018 net.cpp:408] conv17_2_conv17_2/relu_0_split -> conv17_2_conv17_2/relu_0_split_2
I1015 10:56:51.790356 15018 net.cpp:150] Setting up conv17_2_conv17_2/relu_0_split
I1015 10:56:51.790362 15018 net.cpp:157] Top shape: 4 128 1 1 (512)
I1015 10:56:51.790365 15018 net.cpp:157] Top shape: 4 128 1 1 (512)
I1015 10:56:51.790369 15018 net.cpp:157] Top shape: 4 128 1 1 (512)
I1015 10:56:51.790370 15018 net.cpp:165] Memory required for data: 1158674624
I1015 10:56:51.790372 15018 layer_factory.hpp:77] Creating layer conv11_mbox_loc
I1015 10:56:51.790381 15018 net.cpp:100] Creating Layer conv11_mbox_loc
I1015 10:56:51.790385 15018 net.cpp:434] conv11_mbox_loc <- conv11_conv11/relu_0_split_1
I1015 10:56:51.790395 15018 net.cpp:408] conv11_mbox_loc -> conv11_mbox_loc
I1015 10:56:51.792366 15018 net.cpp:150] Setting up conv11_mbox_loc
I1015 10:56:51.792377 15018 net.cpp:157] Top shape: 4 12 20 30 (28800)
I1015 10:56:51.792381 15018 net.cpp:165] Memory required for data: 1158789824
I1015 10:56:51.792385 15018 layer_factory.hpp:77] Creating layer conv11_mbox_loc_perm
I1015 10:56:51.792392 15018 net.cpp:100] Creating Layer conv11_mbox_loc_perm
I1015 10:56:51.792394 15018 net.cpp:434] conv11_mbox_loc_perm <- conv11_mbox_loc
I1015 10:56:51.792400 15018 net.cpp:408] conv11_mbox_loc_perm -> conv11_mbox_loc_perm
I1015 10:56:51.792521 15018 net.cpp:150] Setting up conv11_mbox_loc_perm
I1015 10:56:51.792527 15018 net.cpp:157] Top shape: 4 20 30 12 (28800)
I1015 10:56:51.792529 15018 net.cpp:165] Memory required for data: 1158905024
I1015 10:56:51.792532 15018 layer_factory.hpp:77] Creating layer conv11_mbox_loc_flat
I1015 10:56:51.792537 15018 net.cpp:100] Creating Layer conv11_mbox_loc_flat
I1015 10:56:51.792541 15018 net.cpp:434] conv11_mbox_loc_flat <- conv11_mbox_loc_perm
I1015 10:56:51.792546 15018 net.cpp:408] conv11_mbox_loc_flat -> conv11_mbox_loc_flat
I1015 10:56:51.792570 15018 net.cpp:150] Setting up conv11_mbox_loc_flat
I1015 10:56:51.792574 15018 net.cpp:157] Top shape: 4 7200 (28800)
I1015 10:56:51.792577 15018 net.cpp:165] Memory required for data: 1159020224
I1015 10:56:51.792579 15018 layer_factory.hpp:77] Creating layer conv11_mbox_conf_new
I1015 10:56:51.792587 15018 net.cpp:100] Creating Layer conv11_mbox_conf_new
I1015 10:56:51.792589 15018 net.cpp:434] conv11_mbox_conf_new <- conv11_conv11/relu_0_split_2
I1015 10:56:51.792595 15018 net.cpp:408] conv11_mbox_conf_new -> conv11_mbox_conf
I1015 10:56:51.794561 15018 net.cpp:150] Setting up conv11_mbox_conf_new
I1015 10:56:51.794574 15018 net.cpp:157] Top shape: 4 9 20 30 (21600)
I1015 10:56:51.794576 15018 net.cpp:165] Memory required for data: 1159106624
I1015 10:56:51.794581 15018 layer_factory.hpp:77] Creating layer conv11_mbox_conf_perm
I1015 10:56:51.794589 15018 net.cpp:100] Creating Layer conv11_mbox_conf_perm
I1015 10:56:51.794591 15018 net.cpp:434] conv11_mbox_conf_perm <- conv11_mbox_conf
I1015 10:56:51.794596 15018 net.cpp:408] conv11_mbox_conf_perm -> conv11_mbox_conf_perm
I1015 10:56:51.794714 15018 net.cpp:150] Setting up conv11_mbox_conf_perm
I1015 10:56:51.794721 15018 net.cpp:157] Top shape: 4 20 30 9 (21600)
I1015 10:56:51.794724 15018 net.cpp:165] Memory required for data: 1159193024
I1015 10:56:51.794726 15018 layer_factory.hpp:77] Creating layer conv11_mbox_conf_flat
I1015 10:56:51.794731 15018 net.cpp:100] Creating Layer conv11_mbox_conf_flat
I1015 10:56:51.794734 15018 net.cpp:434] conv11_mbox_conf_flat <- conv11_mbox_conf_perm
I1015 10:56:51.794739 15018 net.cpp:408] conv11_mbox_conf_flat -> conv11_mbox_conf_flat
I1015 10:56:51.794762 15018 net.cpp:150] Setting up conv11_mbox_conf_flat
I1015 10:56:51.794767 15018 net.cpp:157] Top shape: 4 5400 (21600)
I1015 10:56:51.794770 15018 net.cpp:165] Memory required for data: 1159279424
I1015 10:56:51.794773 15018 layer_factory.hpp:77] Creating layer conv11_mbox_priorbox
I1015 10:56:51.794781 15018 net.cpp:100] Creating Layer conv11_mbox_priorbox
I1015 10:56:51.794786 15018 net.cpp:434] conv11_mbox_priorbox <- conv11_conv11/relu_0_split_3
I1015 10:56:51.794792 15018 net.cpp:434] conv11_mbox_priorbox <- data_data_0_split_1
I1015 10:56:51.794800 15018 net.cpp:408] conv11_mbox_priorbox -> conv11_mbox_priorbox
I1015 10:56:51.794836 15018 net.cpp:150] Setting up conv11_mbox_priorbox
I1015 10:56:51.794843 15018 net.cpp:157] Top shape: 1 2 7200 (14400)
I1015 10:56:51.794845 15018 net.cpp:165] Memory required for data: 1159337024
I1015 10:56:51.794847 15018 layer_factory.hpp:77] Creating layer conv13_mbox_loc
I1015 10:56:51.794855 15018 net.cpp:100] Creating Layer conv13_mbox_loc
I1015 10:56:51.794859 15018 net.cpp:434] conv13_mbox_loc <- conv13_conv13/relu_0_split_1
I1015 10:56:51.794869 15018 net.cpp:408] conv13_mbox_loc -> conv13_mbox_loc
I1015 10:56:51.796919 15018 net.cpp:150] Setting up conv13_mbox_loc
I1015 10:56:51.796932 15018 net.cpp:157] Top shape: 4 24 10 15 (14400)
I1015 10:56:51.796934 15018 net.cpp:165] Memory required for data: 1159394624
I1015 10:56:51.796939 15018 layer_factory.hpp:77] Creating layer conv13_mbox_loc_perm
I1015 10:56:51.796946 15018 net.cpp:100] Creating Layer conv13_mbox_loc_perm
I1015 10:56:51.796948 15018 net.cpp:434] conv13_mbox_loc_perm <- conv13_mbox_loc
I1015 10:56:51.796953 15018 net.cpp:408] conv13_mbox_loc_perm -> conv13_mbox_loc_perm
I1015 10:56:51.797053 15018 net.cpp:150] Setting up conv13_mbox_loc_perm
I1015 10:56:51.797058 15018 net.cpp:157] Top shape: 4 10 15 24 (14400)
I1015 10:56:51.797061 15018 net.cpp:165] Memory required for data: 1159452224
I1015 10:56:51.797063 15018 layer_factory.hpp:77] Creating layer conv13_mbox_loc_flat
I1015 10:56:51.797067 15018 net.cpp:100] Creating Layer conv13_mbox_loc_flat
I1015 10:56:51.797070 15018 net.cpp:434] conv13_mbox_loc_flat <- conv13_mbox_loc_perm
I1015 10:56:51.797075 15018 net.cpp:408] conv13_mbox_loc_flat -> conv13_mbox_loc_flat
I1015 10:56:51.797098 15018 net.cpp:150] Setting up conv13_mbox_loc_flat
I1015 10:56:51.797102 15018 net.cpp:157] Top shape: 4 3600 (14400)
I1015 10:56:51.797104 15018 net.cpp:165] Memory required for data: 1159509824
I1015 10:56:51.797106 15018 layer_factory.hpp:77] Creating layer conv13_mbox_conf_new
I1015 10:56:51.797114 15018 net.cpp:100] Creating Layer conv13_mbox_conf_new
I1015 10:56:51.797117 15018 net.cpp:434] conv13_mbox_conf_new <- conv13_conv13/relu_0_split_2
I1015 10:56:51.797122 15018 net.cpp:408] conv13_mbox_conf_new -> conv13_mbox_conf
I1015 10:56:51.798957 15018 net.cpp:150] Setting up conv13_mbox_conf_new
I1015 10:56:51.798969 15018 net.cpp:157] Top shape: 4 18 10 15 (10800)
I1015 10:56:51.798972 15018 net.cpp:165] Memory required for data: 1159553024
I1015 10:56:51.798977 15018 layer_factory.hpp:77] Creating layer conv13_mbox_conf_perm
I1015 10:56:51.798985 15018 net.cpp:100] Creating Layer conv13_mbox_conf_perm
I1015 10:56:51.798987 15018 net.cpp:434] conv13_mbox_conf_perm <- conv13_mbox_conf
I1015 10:56:51.798991 15018 net.cpp:408] conv13_mbox_conf_perm -> conv13_mbox_conf_perm
I1015 10:56:51.799088 15018 net.cpp:150] Setting up conv13_mbox_conf_perm
I1015 10:56:51.799094 15018 net.cpp:157] Top shape: 4 10 15 18 (10800)
I1015 10:56:51.799096 15018 net.cpp:165] Memory required for data: 1159596224
I1015 10:56:51.799098 15018 layer_factory.hpp:77] Creating layer conv13_mbox_conf_flat
I1015 10:56:51.799104 15018 net.cpp:100] Creating Layer conv13_mbox_conf_flat
I1015 10:56:51.799106 15018 net.cpp:434] conv13_mbox_conf_flat <- conv13_mbox_conf_perm
I1015 10:56:51.799110 15018 net.cpp:408] conv13_mbox_conf_flat -> conv13_mbox_conf_flat
I1015 10:56:51.799134 15018 net.cpp:150] Setting up conv13_mbox_conf_flat
I1015 10:56:51.799137 15018 net.cpp:157] Top shape: 4 2700 (10800)
I1015 10:56:51.799139 15018 net.cpp:165] Memory required for data: 1159639424
I1015 10:56:51.799141 15018 layer_factory.hpp:77] Creating layer conv13_mbox_priorbox
I1015 10:56:51.799147 15018 net.cpp:100] Creating Layer conv13_mbox_priorbox
I1015 10:56:51.799150 15018 net.cpp:434] conv13_mbox_priorbox <- conv13_conv13/relu_0_split_3
I1015 10:56:51.799154 15018 net.cpp:434] conv13_mbox_priorbox <- data_data_0_split_2
I1015 10:56:51.799157 15018 net.cpp:408] conv13_mbox_priorbox -> conv13_mbox_priorbox
I1015 10:56:51.799181 15018 net.cpp:150] Setting up conv13_mbox_priorbox
I1015 10:56:51.799185 15018 net.cpp:157] Top shape: 1 2 3600 (7200)
I1015 10:56:51.799187 15018 net.cpp:165] Memory required for data: 1159668224
I1015 10:56:51.799190 15018 layer_factory.hpp:77] Creating layer conv14_2_mbox_loc
I1015 10:56:51.799197 15018 net.cpp:100] Creating Layer conv14_2_mbox_loc
I1015 10:56:51.799201 15018 net.cpp:434] conv14_2_mbox_loc <- conv14_2_conv14_2/relu_0_split_1
I1015 10:56:51.799206 15018 net.cpp:408] conv14_2_mbox_loc -> conv14_2_mbox_loc
I1015 10:56:51.800985 15018 net.cpp:150] Setting up conv14_2_mbox_loc
I1015 10:56:51.800997 15018 net.cpp:157] Top shape: 4 24 5 8 (3840)
I1015 10:56:51.801000 15018 net.cpp:165] Memory required for data: 1159683584
I1015 10:56:51.801005 15018 layer_factory.hpp:77] Creating layer conv14_2_mbox_loc_perm
I1015 10:56:51.801012 15018 net.cpp:100] Creating Layer conv14_2_mbox_loc_perm
I1015 10:56:51.801014 15018 net.cpp:434] conv14_2_mbox_loc_perm <- conv14_2_mbox_loc
I1015 10:56:51.801018 15018 net.cpp:408] conv14_2_mbox_loc_perm -> conv14_2_mbox_loc_perm
I1015 10:56:51.801117 15018 net.cpp:150] Setting up conv14_2_mbox_loc_perm
I1015 10:56:51.801121 15018 net.cpp:157] Top shape: 4 5 8 24 (3840)
I1015 10:56:51.801123 15018 net.cpp:165] Memory required for data: 1159698944
I1015 10:56:51.801126 15018 layer_factory.hpp:77] Creating layer conv14_2_mbox_loc_flat
I1015 10:56:51.801131 15018 net.cpp:100] Creating Layer conv14_2_mbox_loc_flat
I1015 10:56:51.801133 15018 net.cpp:434] conv14_2_mbox_loc_flat <- conv14_2_mbox_loc_perm
I1015 10:56:51.801138 15018 net.cpp:408] conv14_2_mbox_loc_flat -> conv14_2_mbox_loc_flat
I1015 10:56:51.801160 15018 net.cpp:150] Setting up conv14_2_mbox_loc_flat
I1015 10:56:51.801164 15018 net.cpp:157] Top shape: 4 960 (3840)
I1015 10:56:51.801165 15018 net.cpp:165] Memory required for data: 1159714304
I1015 10:56:51.801167 15018 layer_factory.hpp:77] Creating layer conv14_2_mbox_conf_new
I1015 10:56:51.801177 15018 net.cpp:100] Creating Layer conv14_2_mbox_conf_new
I1015 10:56:51.801179 15018 net.cpp:434] conv14_2_mbox_conf_new <- conv14_2_conv14_2/relu_0_split_2
I1015 10:56:51.801183 15018 net.cpp:408] conv14_2_mbox_conf_new -> conv14_2_mbox_conf
I1015 10:56:51.803295 15018 net.cpp:150] Setting up conv14_2_mbox_conf_new
I1015 10:56:51.803308 15018 net.cpp:157] Top shape: 4 18 5 8 (2880)
I1015 10:56:51.803310 15018 net.cpp:165] Memory required for data: 1159725824
I1015 10:56:51.803315 15018 layer_factory.hpp:77] Creating layer conv14_2_mbox_conf_perm
I1015 10:56:51.803320 15018 net.cpp:100] Creating Layer conv14_2_mbox_conf_perm
I1015 10:56:51.803323 15018 net.cpp:434] conv14_2_mbox_conf_perm <- conv14_2_mbox_conf
I1015 10:56:51.803329 15018 net.cpp:408] conv14_2_mbox_conf_perm -> conv14_2_mbox_conf_perm
I1015 10:56:51.803426 15018 net.cpp:150] Setting up conv14_2_mbox_conf_perm
I1015 10:56:51.803431 15018 net.cpp:157] Top shape: 4 5 8 18 (2880)
I1015 10:56:51.803433 15018 net.cpp:165] Memory required for data: 1159737344
I1015 10:56:51.803436 15018 layer_factory.hpp:77] Creating layer conv14_2_mbox_conf_flat
I1015 10:56:51.803441 15018 net.cpp:100] Creating Layer conv14_2_mbox_conf_flat
I1015 10:56:51.803443 15018 net.cpp:434] conv14_2_mbox_conf_flat <- conv14_2_mbox_conf_perm
I1015 10:56:51.803449 15018 net.cpp:408] conv14_2_mbox_conf_flat -> conv14_2_mbox_conf_flat
I1015 10:56:51.803472 15018 net.cpp:150] Setting up conv14_2_mbox_conf_flat
I1015 10:56:51.803477 15018 net.cpp:157] Top shape: 4 720 (2880)
I1015 10:56:51.803478 15018 net.cpp:165] Memory required for data: 1159748864
I1015 10:56:51.803481 15018 layer_factory.hpp:77] Creating layer conv14_2_mbox_priorbox
I1015 10:56:51.803486 15018 net.cpp:100] Creating Layer conv14_2_mbox_priorbox
I1015 10:56:51.803488 15018 net.cpp:434] conv14_2_mbox_priorbox <- conv14_2_conv14_2/relu_0_split_3
I1015 10:56:51.803493 15018 net.cpp:434] conv14_2_mbox_priorbox <- data_data_0_split_3
I1015 10:56:51.803498 15018 net.cpp:408] conv14_2_mbox_priorbox -> conv14_2_mbox_priorbox
I1015 10:56:51.803522 15018 net.cpp:150] Setting up conv14_2_mbox_priorbox
I1015 10:56:51.803526 15018 net.cpp:157] Top shape: 1 2 960 (1920)
I1015 10:56:51.803529 15018 net.cpp:165] Memory required for data: 1159756544
I1015 10:56:51.803530 15018 layer_factory.hpp:77] Creating layer conv15_2_mbox_loc
I1015 10:56:51.803539 15018 net.cpp:100] Creating Layer conv15_2_mbox_loc
I1015 10:56:51.803540 15018 net.cpp:434] conv15_2_mbox_loc <- conv15_2_conv15_2/relu_0_split_1
I1015 10:56:51.803545 15018 net.cpp:408] conv15_2_mbox_loc -> conv15_2_mbox_loc
I1015 10:56:51.805794 15018 net.cpp:150] Setting up conv15_2_mbox_loc
I1015 10:56:51.805805 15018 net.cpp:157] Top shape: 4 24 3 4 (1152)
I1015 10:56:51.805807 15018 net.cpp:165] Memory required for data: 1159761152
I1015 10:56:51.805812 15018 layer_factory.hpp:77] Creating layer conv15_2_mbox_loc_perm
I1015 10:56:51.805819 15018 net.cpp:100] Creating Layer conv15_2_mbox_loc_perm
I1015 10:56:51.805822 15018 net.cpp:434] conv15_2_mbox_loc_perm <- conv15_2_mbox_loc
I1015 10:56:51.805826 15018 net.cpp:408] conv15_2_mbox_loc_perm -> conv15_2_mbox_loc_perm
I1015 10:56:51.805938 15018 net.cpp:150] Setting up conv15_2_mbox_loc_perm
I1015 10:56:51.805943 15018 net.cpp:157] Top shape: 4 3 4 24 (1152)
I1015 10:56:51.805944 15018 net.cpp:165] Memory required for data: 1159765760
I1015 10:56:51.805946 15018 layer_factory.hpp:77] Creating layer conv15_2_mbox_loc_flat
I1015 10:56:51.805953 15018 net.cpp:100] Creating Layer conv15_2_mbox_loc_flat
I1015 10:56:51.805955 15018 net.cpp:434] conv15_2_mbox_loc_flat <- conv15_2_mbox_loc_perm
I1015 10:56:51.805959 15018 net.cpp:408] conv15_2_mbox_loc_flat -> conv15_2_mbox_loc_flat
I1015 10:56:51.805982 15018 net.cpp:150] Setting up conv15_2_mbox_loc_flat
I1015 10:56:51.805986 15018 net.cpp:157] Top shape: 4 288 (1152)
I1015 10:56:51.805989 15018 net.cpp:165] Memory required for data: 1159770368
I1015 10:56:51.805991 15018 layer_factory.hpp:77] Creating layer conv15_2_mbox_conf_new
I1015 10:56:51.805999 15018 net.cpp:100] Creating Layer conv15_2_mbox_conf_new
I1015 10:56:51.806001 15018 net.cpp:434] conv15_2_mbox_conf_new <- conv15_2_conv15_2/relu_0_split_2
I1015 10:56:51.806006 15018 net.cpp:408] conv15_2_mbox_conf_new -> conv15_2_mbox_conf
I1015 10:56:51.807734 15018 net.cpp:150] Setting up conv15_2_mbox_conf_new
I1015 10:56:51.807744 15018 net.cpp:157] Top shape: 4 18 3 4 (864)
I1015 10:56:51.807747 15018 net.cpp:165] Memory required for data: 1159773824
I1015 10:56:51.807752 15018 layer_factory.hpp:77] Creating layer conv15_2_mbox_conf_perm
I1015 10:56:51.807759 15018 net.cpp:100] Creating Layer conv15_2_mbox_conf_perm
I1015 10:56:51.807761 15018 net.cpp:434] conv15_2_mbox_conf_perm <- conv15_2_mbox_conf
I1015 10:56:51.807767 15018 net.cpp:408] conv15_2_mbox_conf_perm -> conv15_2_mbox_conf_perm
I1015 10:56:51.807868 15018 net.cpp:150] Setting up conv15_2_mbox_conf_perm
I1015 10:56:51.807873 15018 net.cpp:157] Top shape: 4 3 4 18 (864)
I1015 10:56:51.807875 15018 net.cpp:165] Memory required for data: 1159777280
I1015 10:56:51.807878 15018 layer_factory.hpp:77] Creating layer conv15_2_mbox_conf_flat
I1015 10:56:51.807883 15018 net.cpp:100] Creating Layer conv15_2_mbox_conf_flat
I1015 10:56:51.807886 15018 net.cpp:434] conv15_2_mbox_conf_flat <- conv15_2_mbox_conf_perm
I1015 10:56:51.807891 15018 net.cpp:408] conv15_2_mbox_conf_flat -> conv15_2_mbox_conf_flat
I1015 10:56:51.807914 15018 net.cpp:150] Setting up conv15_2_mbox_conf_flat
I1015 10:56:51.807919 15018 net.cpp:157] Top shape: 4 216 (864)
I1015 10:56:51.807919 15018 net.cpp:165] Memory required for data: 1159780736
I1015 10:56:51.807922 15018 layer_factory.hpp:77] Creating layer conv15_2_mbox_priorbox
I1015 10:56:51.807927 15018 net.cpp:100] Creating Layer conv15_2_mbox_priorbox
I1015 10:56:51.807930 15018 net.cpp:434] conv15_2_mbox_priorbox <- conv15_2_conv15_2/relu_0_split_3
I1015 10:56:51.807934 15018 net.cpp:434] conv15_2_mbox_priorbox <- data_data_0_split_4
I1015 10:56:51.807940 15018 net.cpp:408] conv15_2_mbox_priorbox -> conv15_2_mbox_priorbox
I1015 10:56:51.807962 15018 net.cpp:150] Setting up conv15_2_mbox_priorbox
I1015 10:56:51.807966 15018 net.cpp:157] Top shape: 1 2 288 (576)
I1015 10:56:51.807968 15018 net.cpp:165] Memory required for data: 1159783040
I1015 10:56:51.807971 15018 layer_factory.hpp:77] Creating layer conv16_2_mbox_loc
I1015 10:56:51.807979 15018 net.cpp:100] Creating Layer conv16_2_mbox_loc
I1015 10:56:51.807982 15018 net.cpp:434] conv16_2_mbox_loc <- conv16_2_conv16_2/relu_0_split_1
I1015 10:56:51.807987 15018 net.cpp:408] conv16_2_mbox_loc -> conv16_2_mbox_loc
I1015 10:56:51.809749 15018 net.cpp:150] Setting up conv16_2_mbox_loc
I1015 10:56:51.809762 15018 net.cpp:157] Top shape: 4 24 2 2 (384)
I1015 10:56:51.809764 15018 net.cpp:165] Memory required for data: 1159784576
I1015 10:56:51.809769 15018 layer_factory.hpp:77] Creating layer conv16_2_mbox_loc_perm
I1015 10:56:51.809774 15018 net.cpp:100] Creating Layer conv16_2_mbox_loc_perm
I1015 10:56:51.809777 15018 net.cpp:434] conv16_2_mbox_loc_perm <- conv16_2_mbox_loc
I1015 10:56:51.809783 15018 net.cpp:408] conv16_2_mbox_loc_perm -> conv16_2_mbox_loc_perm
I1015 10:56:51.809880 15018 net.cpp:150] Setting up conv16_2_mbox_loc_perm
I1015 10:56:51.809885 15018 net.cpp:157] Top shape: 4 2 2 24 (384)
I1015 10:56:51.809887 15018 net.cpp:165] Memory required for data: 1159786112
I1015 10:56:51.809890 15018 layer_factory.hpp:77] Creating layer conv16_2_mbox_loc_flat
I1015 10:56:51.809893 15018 net.cpp:100] Creating Layer conv16_2_mbox_loc_flat
I1015 10:56:51.809896 15018 net.cpp:434] conv16_2_mbox_loc_flat <- conv16_2_mbox_loc_perm
I1015 10:56:51.809901 15018 net.cpp:408] conv16_2_mbox_loc_flat -> conv16_2_mbox_loc_flat
I1015 10:56:51.809924 15018 net.cpp:150] Setting up conv16_2_mbox_loc_flat
I1015 10:56:51.809928 15018 net.cpp:157] Top shape: 4 96 (384)
I1015 10:56:51.809931 15018 net.cpp:165] Memory required for data: 1159787648
I1015 10:56:51.809932 15018 layer_factory.hpp:77] Creating layer conv16_2_mbox_conf_new
I1015 10:56:51.809940 15018 net.cpp:100] Creating Layer conv16_2_mbox_conf_new
I1015 10:56:51.809943 15018 net.cpp:434] conv16_2_mbox_conf_new <- conv16_2_conv16_2/relu_0_split_2
I1015 10:56:51.809948 15018 net.cpp:408] conv16_2_mbox_conf_new -> conv16_2_mbox_conf
I1015 10:56:51.811697 15018 net.cpp:150] Setting up conv16_2_mbox_conf_new
I1015 10:56:51.811708 15018 net.cpp:157] Top shape: 4 18 2 2 (288)
I1015 10:56:51.811710 15018 net.cpp:165] Memory required for data: 1159788800
I1015 10:56:51.811717 15018 layer_factory.hpp:77] Creating layer conv16_2_mbox_conf_perm
I1015 10:56:51.811722 15018 net.cpp:100] Creating Layer conv16_2_mbox_conf_perm
I1015 10:56:51.811725 15018 net.cpp:434] conv16_2_mbox_conf_perm <- conv16_2_mbox_conf
I1015 10:56:51.811731 15018 net.cpp:408] conv16_2_mbox_conf_perm -> conv16_2_mbox_conf_perm
I1015 10:56:51.811830 15018 net.cpp:150] Setting up conv16_2_mbox_conf_perm
I1015 10:56:51.811834 15018 net.cpp:157] Top shape: 4 2 2 18 (288)
I1015 10:56:51.811836 15018 net.cpp:165] Memory required for data: 1159789952
I1015 10:56:51.811838 15018 layer_factory.hpp:77] Creating layer conv16_2_mbox_conf_flat
I1015 10:56:51.811854 15018 net.cpp:100] Creating Layer conv16_2_mbox_conf_flat
I1015 10:56:51.811857 15018 net.cpp:434] conv16_2_mbox_conf_flat <- conv16_2_mbox_conf_perm
I1015 10:56:51.811861 15018 net.cpp:408] conv16_2_mbox_conf_flat -> conv16_2_mbox_conf_flat
I1015 10:56:51.811884 15018 net.cpp:150] Setting up conv16_2_mbox_conf_flat
I1015 10:56:51.811888 15018 net.cpp:157] Top shape: 4 72 (288)
I1015 10:56:51.811890 15018 net.cpp:165] Memory required for data: 1159791104
I1015 10:56:51.811892 15018 layer_factory.hpp:77] Creating layer conv16_2_mbox_priorbox
I1015 10:56:51.811898 15018 net.cpp:100] Creating Layer conv16_2_mbox_priorbox
I1015 10:56:51.811902 15018 net.cpp:434] conv16_2_mbox_priorbox <- conv16_2_conv16_2/relu_0_split_3
I1015 10:56:51.811904 15018 net.cpp:434] conv16_2_mbox_priorbox <- data_data_0_split_5
I1015 10:56:51.811909 15018 net.cpp:408] conv16_2_mbox_priorbox -> conv16_2_mbox_priorbox
I1015 10:56:51.811933 15018 net.cpp:150] Setting up conv16_2_mbox_priorbox
I1015 10:56:51.811939 15018 net.cpp:157] Top shape: 1 2 96 (192)
I1015 10:56:51.811939 15018 net.cpp:165] Memory required for data: 1159791872
I1015 10:56:51.811942 15018 layer_factory.hpp:77] Creating layer conv17_2_mbox_loc
I1015 10:56:51.811950 15018 net.cpp:100] Creating Layer conv17_2_mbox_loc
I1015 10:56:51.811952 15018 net.cpp:434] conv17_2_mbox_loc <- conv17_2_conv17_2/relu_0_split_0
I1015 10:56:51.811959 15018 net.cpp:408] conv17_2_mbox_loc -> conv17_2_mbox_loc
I1015 10:56:51.813817 15018 net.cpp:150] Setting up conv17_2_mbox_loc
I1015 10:56:51.813828 15018 net.cpp:157] Top shape: 4 24 1 1 (96)
I1015 10:56:51.813832 15018 net.cpp:165] Memory required for data: 1159792256
I1015 10:56:51.813836 15018 layer_factory.hpp:77] Creating layer conv17_2_mbox_loc_perm
I1015 10:56:51.813843 15018 net.cpp:100] Creating Layer conv17_2_mbox_loc_perm
I1015 10:56:51.813846 15018 net.cpp:434] conv17_2_mbox_loc_perm <- conv17_2_mbox_loc
I1015 10:56:51.813850 15018 net.cpp:408] conv17_2_mbox_loc_perm -> conv17_2_mbox_loc_perm
I1015 10:56:51.813951 15018 net.cpp:150] Setting up conv17_2_mbox_loc_perm
I1015 10:56:51.813956 15018 net.cpp:157] Top shape: 4 1 1 24 (96)
I1015 10:56:51.813958 15018 net.cpp:165] Memory required for data: 1159792640
I1015 10:56:51.813961 15018 layer_factory.hpp:77] Creating layer conv17_2_mbox_loc_flat
I1015 10:56:51.813964 15018 net.cpp:100] Creating Layer conv17_2_mbox_loc_flat
I1015 10:56:51.813967 15018 net.cpp:434] conv17_2_mbox_loc_flat <- conv17_2_mbox_loc_perm
I1015 10:56:51.813972 15018 net.cpp:408] conv17_2_mbox_loc_flat -> conv17_2_mbox_loc_flat
I1015 10:56:51.813997 15018 net.cpp:150] Setting up conv17_2_mbox_loc_flat
I1015 10:56:51.814002 15018 net.cpp:157] Top shape: 4 24 (96)
I1015 10:56:51.814003 15018 net.cpp:165] Memory required for data: 1159793024
I1015 10:56:51.814005 15018 layer_factory.hpp:77] Creating layer conv17_2_mbox_conf_new
I1015 10:56:51.814013 15018 net.cpp:100] Creating Layer conv17_2_mbox_conf_new
I1015 10:56:51.814015 15018 net.cpp:434] conv17_2_mbox_conf_new <- conv17_2_conv17_2/relu_0_split_1
I1015 10:56:51.814021 15018 net.cpp:408] conv17_2_mbox_conf_new -> conv17_2_mbox_conf
I1015 10:56:51.815742 15018 net.cpp:150] Setting up conv17_2_mbox_conf_new
I1015 10:56:51.815752 15018 net.cpp:157] Top shape: 4 18 1 1 (72)
I1015 10:56:51.815755 15018 net.cpp:165] Memory required for data: 1159793312
I1015 10:56:51.815760 15018 layer_factory.hpp:77] Creating layer conv17_2_mbox_conf_perm
I1015 10:56:51.815766 15018 net.cpp:100] Creating Layer conv17_2_mbox_conf_perm
I1015 10:56:51.815770 15018 net.cpp:434] conv17_2_mbox_conf_perm <- conv17_2_mbox_conf
I1015 10:56:51.815774 15018 net.cpp:408] conv17_2_mbox_conf_perm -> conv17_2_mbox_conf_perm
I1015 10:56:51.815876 15018 net.cpp:150] Setting up conv17_2_mbox_conf_perm
I1015 10:56:51.815881 15018 net.cpp:157] Top shape: 4 1 1 18 (72)
I1015 10:56:51.815882 15018 net.cpp:165] Memory required for data: 1159793600
I1015 10:56:51.815884 15018 layer_factory.hpp:77] Creating layer conv17_2_mbox_conf_flat
I1015 10:56:51.815891 15018 net.cpp:100] Creating Layer conv17_2_mbox_conf_flat
I1015 10:56:51.815893 15018 net.cpp:434] conv17_2_mbox_conf_flat <- conv17_2_mbox_conf_perm
I1015 10:56:51.815896 15018 net.cpp:408] conv17_2_mbox_conf_flat -> conv17_2_mbox_conf_flat
I1015 10:56:51.815920 15018 net.cpp:150] Setting up conv17_2_mbox_conf_flat
I1015 10:56:51.815924 15018 net.cpp:157] Top shape: 4 18 (72)
I1015 10:56:51.815927 15018 net.cpp:165] Memory required for data: 1159793888
I1015 10:56:51.815928 15018 layer_factory.hpp:77] Creating layer conv17_2_mbox_priorbox
I1015 10:56:51.815934 15018 net.cpp:100] Creating Layer conv17_2_mbox_priorbox
I1015 10:56:51.815937 15018 net.cpp:434] conv17_2_mbox_priorbox <- conv17_2_conv17_2/relu_0_split_2
I1015 10:56:51.815942 15018 net.cpp:434] conv17_2_mbox_priorbox <- data_data_0_split_6
I1015 10:56:51.815946 15018 net.cpp:408] conv17_2_mbox_priorbox -> conv17_2_mbox_priorbox
I1015 10:56:51.815970 15018 net.cpp:150] Setting up conv17_2_mbox_priorbox
I1015 10:56:51.815974 15018 net.cpp:157] Top shape: 1 2 24 (48)
I1015 10:56:51.815976 15018 net.cpp:165] Memory required for data: 1159794080
I1015 10:56:51.815979 15018 layer_factory.hpp:77] Creating layer mbox_loc
I1015 10:56:51.815985 15018 net.cpp:100] Creating Layer mbox_loc
I1015 10:56:51.815989 15018 net.cpp:434] mbox_loc <- conv11_mbox_loc_flat
I1015 10:56:51.815992 15018 net.cpp:434] mbox_loc <- conv13_mbox_loc_flat
I1015 10:56:51.815996 15018 net.cpp:434] mbox_loc <- conv14_2_mbox_loc_flat
I1015 10:56:51.815999 15018 net.cpp:434] mbox_loc <- conv15_2_mbox_loc_flat
I1015 10:56:51.816002 15018 net.cpp:434] mbox_loc <- conv16_2_mbox_loc_flat
I1015 10:56:51.816005 15018 net.cpp:434] mbox_loc <- conv17_2_mbox_loc_flat
I1015 10:56:51.816009 15018 net.cpp:408] mbox_loc -> mbox_loc
I1015 10:56:51.816033 15018 net.cpp:150] Setting up mbox_loc
I1015 10:56:51.816037 15018 net.cpp:157] Top shape: 4 12168 (48672)
I1015 10:56:51.816040 15018 net.cpp:165] Memory required for data: 1159988768
I1015 10:56:51.816041 15018 layer_factory.hpp:77] Creating layer mbox_conf
I1015 10:56:51.816047 15018 net.cpp:100] Creating Layer mbox_conf
I1015 10:56:51.816051 15018 net.cpp:434] mbox_conf <- conv11_mbox_conf_flat
I1015 10:56:51.816053 15018 net.cpp:434] mbox_conf <- conv13_mbox_conf_flat
I1015 10:56:51.816056 15018 net.cpp:434] mbox_conf <- conv14_2_mbox_conf_flat
I1015 10:56:51.816059 15018 net.cpp:434] mbox_conf <- conv15_2_mbox_conf_flat
I1015 10:56:51.816062 15018 net.cpp:434] mbox_conf <- conv16_2_mbox_conf_flat
I1015 10:56:51.816066 15018 net.cpp:434] mbox_conf <- conv17_2_mbox_conf_flat
I1015 10:56:51.816068 15018 net.cpp:408] mbox_conf -> mbox_conf
I1015 10:56:51.816090 15018 net.cpp:150] Setting up mbox_conf
I1015 10:56:51.816094 15018 net.cpp:157] Top shape: 4 9126 (36504)
I1015 10:56:51.816097 15018 net.cpp:165] Memory required for data: 1160134784
I1015 10:56:51.816098 15018 layer_factory.hpp:77] Creating layer mbox_priorbox
I1015 10:56:51.816102 15018 net.cpp:100] Creating Layer mbox_priorbox
I1015 10:56:51.816105 15018 net.cpp:434] mbox_priorbox <- conv11_mbox_priorbox
I1015 10:56:51.816108 15018 net.cpp:434] mbox_priorbox <- conv13_mbox_priorbox
I1015 10:56:51.816110 15018 net.cpp:434] mbox_priorbox <- conv14_2_mbox_priorbox
I1015 10:56:51.816113 15018 net.cpp:434] mbox_priorbox <- conv15_2_mbox_priorbox
I1015 10:56:51.816117 15018 net.cpp:434] mbox_priorbox <- conv16_2_mbox_priorbox
I1015 10:56:51.816118 15018 net.cpp:434] mbox_priorbox <- conv17_2_mbox_priorbox
I1015 10:56:51.816123 15018 net.cpp:408] mbox_priorbox -> mbox_priorbox
I1015 10:56:51.816145 15018 net.cpp:150] Setting up mbox_priorbox
I1015 10:56:51.816150 15018 net.cpp:157] Top shape: 1 2 12168 (24336)
I1015 10:56:51.816153 15018 net.cpp:165] Memory required for data: 1160232128
I1015 10:56:51.816154 15018 layer_factory.hpp:77] Creating layer mbox_loss
I1015 10:56:51.816161 15018 net.cpp:100] Creating Layer mbox_loss
I1015 10:56:51.816164 15018 net.cpp:434] mbox_loss <- mbox_loc
I1015 10:56:51.816167 15018 net.cpp:434] mbox_loss <- mbox_conf
I1015 10:56:51.816170 15018 net.cpp:434] mbox_loss <- mbox_priorbox
I1015 10:56:51.816172 15018 net.cpp:434] mbox_loss <- label
I1015 10:56:51.816177 15018 net.cpp:408] mbox_loss -> mbox_loss
I1015 10:56:51.816239 15018 layer_factory.hpp:77] Creating layer mbox_loss_smooth_L1_loc
I1015 10:56:51.816323 15018 layer_factory.hpp:77] Creating layer mbox_loss_softmax_conf
I1015 10:56:51.816330 15018 layer_factory.hpp:77] Creating layer mbox_loss_softmax_conf
I1015 10:56:51.817131 15018 net.cpp:150] Setting up mbox_loss
I1015 10:56:51.817142 15018 net.cpp:157] Top shape: (1)
I1015 10:56:51.817144 15018 net.cpp:160]     with loss weight 1
I1015 10:56:51.817152 15018 net.cpp:165] Memory required for data: 1160232132
I1015 10:56:51.817155 15018 layer_factory.hpp:77] Creating layer score_32
I1015 10:56:51.817163 15018 net.cpp:100] Creating Layer score_32
I1015 10:56:51.817167 15018 net.cpp:434] score_32 <- conv13_conv13/relu_0_split_4
I1015 10:56:51.817171 15018 net.cpp:408] score_32 -> score_32
I1015 10:56:51.818897 15018 net.cpp:150] Setting up score_32
I1015 10:56:51.818909 15018 net.cpp:157] Top shape: 4 2 10 15 (1200)
I1015 10:56:51.818912 15018 net.cpp:165] Memory required for data: 1160236932
I1015 10:56:51.818917 15018 layer_factory.hpp:77] Creating layer upscore_16
I1015 10:56:51.818924 15018 net.cpp:100] Creating Layer upscore_16
I1015 10:56:51.818928 15018 net.cpp:434] upscore_16 <- score_32
I1015 10:56:51.818931 15018 net.cpp:408] upscore_16 -> upscore_16
I1015 10:56:51.819126 15018 net.cpp:150] Setting up upscore_16
I1015 10:56:51.819134 15018 net.cpp:157] Top shape: 4 2 20 30 (4800)
I1015 10:56:51.819136 15018 net.cpp:165] Memory required for data: 1160256132
I1015 10:56:51.819140 15018 layer_factory.hpp:77] Creating layer score_16
I1015 10:56:51.819146 15018 net.cpp:100] Creating Layer score_16
I1015 10:56:51.819149 15018 net.cpp:434] score_16 <- conv11_conv11/relu_0_split_4
I1015 10:56:51.819154 15018 net.cpp:408] score_16 -> score_16
I1015 10:56:51.820896 15018 net.cpp:150] Setting up score_16
I1015 10:56:51.820909 15018 net.cpp:157] Top shape: 4 2 20 30 (4800)
I1015 10:56:51.820912 15018 net.cpp:165] Memory required for data: 1160275332
I1015 10:56:51.820917 15018 layer_factory.hpp:77] Creating layer fuse_16
I1015 10:56:51.820924 15018 net.cpp:100] Creating Layer fuse_16
I1015 10:56:51.820925 15018 net.cpp:434] fuse_16 <- upscore_16
I1015 10:56:51.820930 15018 net.cpp:434] fuse_16 <- score_16
I1015 10:56:51.820935 15018 net.cpp:408] fuse_16 -> fuse_16
I1015 10:56:51.820962 15018 net.cpp:150] Setting up fuse_16
I1015 10:56:51.820968 15018 net.cpp:157] Top shape: 4 2 20 30 (4800)
I1015 10:56:51.820971 15018 net.cpp:165] Memory required for data: 1160294532
I1015 10:56:51.820973 15018 layer_factory.hpp:77] Creating layer upscore_8
I1015 10:56:51.820977 15018 net.cpp:100] Creating Layer upscore_8
I1015 10:56:51.820981 15018 net.cpp:434] upscore_8 <- fuse_16
I1015 10:56:51.820986 15018 net.cpp:408] upscore_8 -> upscore_8
I1015 10:56:51.821171 15018 net.cpp:150] Setting up upscore_8
I1015 10:56:51.821177 15018 net.cpp:157] Top shape: 4 2 40 60 (19200)
I1015 10:56:51.821179 15018 net.cpp:165] Memory required for data: 1160371332
I1015 10:56:51.821183 15018 layer_factory.hpp:77] Creating layer score_8
I1015 10:56:51.821188 15018 net.cpp:100] Creating Layer score_8
I1015 10:56:51.821192 15018 net.cpp:434] score_8 <- conv5_conv5/relu_0_split_1
I1015 10:56:51.821197 15018 net.cpp:408] score_8 -> score_8
I1015 10:56:51.822911 15018 net.cpp:150] Setting up score_8
I1015 10:56:51.822923 15018 net.cpp:157] Top shape: 4 2 40 60 (19200)
I1015 10:56:51.822926 15018 net.cpp:165] Memory required for data: 1160448132
I1015 10:56:51.822932 15018 layer_factory.hpp:77] Creating layer fuse_8
I1015 10:56:51.822937 15018 net.cpp:100] Creating Layer fuse_8
I1015 10:56:51.822939 15018 net.cpp:434] fuse_8 <- upscore_8
I1015 10:56:51.822942 15018 net.cpp:434] fuse_8 <- score_8
I1015 10:56:51.822947 15018 net.cpp:408] fuse_8 -> fuse_8
I1015 10:56:51.822976 15018 net.cpp:150] Setting up fuse_8
I1015 10:56:51.822980 15018 net.cpp:157] Top shape: 4 2 40 60 (19200)
I1015 10:56:51.822983 15018 net.cpp:165] Memory required for data: 1160524932
I1015 10:56:51.822985 15018 layer_factory.hpp:77] Creating layer upscore_4
I1015 10:56:51.822990 15018 net.cpp:100] Creating Layer upscore_4
I1015 10:56:51.822993 15018 net.cpp:434] upscore_4 <- fuse_8
I1015 10:56:51.822998 15018 net.cpp:408] upscore_4 -> upscore_4
I1015 10:56:51.823204 15018 net.cpp:150] Setting up upscore_4
I1015 10:56:51.823211 15018 net.cpp:157] Top shape: 4 2 80 120 (76800)
I1015 10:56:51.823213 15018 net.cpp:165] Memory required for data: 1160832132
I1015 10:56:51.823217 15018 layer_factory.hpp:77] Creating layer score_4
I1015 10:56:51.823223 15018 net.cpp:100] Creating Layer score_4
I1015 10:56:51.823226 15018 net.cpp:434] score_4 <- conv3_conv3/relu_0_split_1
I1015 10:56:51.823230 15018 net.cpp:408] score_4 -> score_4
I1015 10:56:51.825186 15018 net.cpp:150] Setting up score_4
I1015 10:56:51.825198 15018 net.cpp:157] Top shape: 4 2 80 120 (76800)
I1015 10:56:51.825201 15018 net.cpp:165] Memory required for data: 1161139332
I1015 10:56:51.825206 15018 layer_factory.hpp:77] Creating layer fuse_4
I1015 10:56:51.825212 15018 net.cpp:100] Creating Layer fuse_4
I1015 10:56:51.825215 15018 net.cpp:434] fuse_4 <- upscore_4
I1015 10:56:51.825219 15018 net.cpp:434] fuse_4 <- score_4
I1015 10:56:51.825222 15018 net.cpp:408] fuse_4 -> fuse_4
I1015 10:56:51.825250 15018 net.cpp:150] Setting up fuse_4
I1015 10:56:51.825255 15018 net.cpp:157] Top shape: 4 2 80 120 (76800)
I1015 10:56:51.825258 15018 net.cpp:165] Memory required for data: 1161446532
I1015 10:56:51.825259 15018 layer_factory.hpp:77] Creating layer upscore
I1015 10:56:51.825266 15018 net.cpp:100] Creating Layer upscore
I1015 10:56:51.825268 15018 net.cpp:434] upscore <- fuse_4
I1015 10:56:51.825273 15018 net.cpp:408] upscore -> upscore
I1015 10:56:51.825464 15018 net.cpp:150] Setting up upscore
I1015 10:56:51.825472 15018 net.cpp:157] Top shape: 4 2 331 491 (1300168)
I1015 10:56:51.825475 15018 net.cpp:165] Memory required for data: 1166647204
I1015 10:56:51.825479 15018 layer_factory.hpp:77] Creating layer score
I1015 10:56:51.825485 15018 net.cpp:100] Creating Layer score
I1015 10:56:51.825489 15018 net.cpp:434] score <- upscore
I1015 10:56:51.825491 15018 net.cpp:434] score <- data_data_0_split_7
I1015 10:56:51.825495 15018 net.cpp:408] score -> score
I1015 10:56:51.825518 15018 net.cpp:150] Setting up score
I1015 10:56:51.825523 15018 net.cpp:157] Top shape: 4 2 320 480 (1228800)
I1015 10:56:51.825525 15018 net.cpp:165] Memory required for data: 1171562404
I1015 10:56:51.825527 15018 layer_factory.hpp:77] Creating layer seg_loss
I1015 10:56:51.825531 15018 net.cpp:100] Creating Layer seg_loss
I1015 10:56:51.825533 15018 net.cpp:434] seg_loss <- score
I1015 10:56:51.825536 15018 net.cpp:434] seg_loss <- label_seg
I1015 10:56:51.825541 15018 net.cpp:408] seg_loss -> seg_loss
…
name: "MobileNet-SSD"
state {
  phase: TEST
}
layer {
  name: "data"
  type: "AnnotatedDataWithSeg"
  top: "data"
  top: "label"
  top: "label_seg"
  include {
    phase: TEST
  }
  transform_param {
    scale: 0.007843
    mean_value: 127.5
    mean_value: 127.5
    mean_value: 127.5
    resize_param {
      prob: 1
      resize_mode: WARP
      height: 320
      width: 480
      interp_mode: LINEAR
    }
  }
  data_param {
    source: "lmdb/seg_test_lmdb"
    batch_size: 1
    backend: LMDB
  }
  annotated_data_param {
    label_map_file: "labelmap.prototxt"
  }
}
layer {
  name: "conv0"
  type: "Convolution"
  bottom: "data"
  top: "conv0"
  param {
    lr_mult: 1
    decay_mult: 1
  }
  convolution_param {
    num_output: 32
    bias_term: false
    pad: 1
    kernel_size: 3
    stride: 2
    weight_filler {
      type: "msra"
    }
  }
}
layer {
  name: "conv0/bn"
  type: "BatchNorm"
  bottom: "conv0"
  top: "conv0"
}
layer {
  name: "conv0/scale"
  type: "Scale"
  bottom: "conv0"
  top: "conv0"
  param {
    lr_mult: 1
    decay_mult: 0
  }
  param {
    lr_mult: 2
    decay_mult: 0
  }
  scale_param {
    filler {
      value: 1
    }
    bias_term: true
    bias_filler {
      value: 0
    }
  }
}
layer {
  name: "conv0/relu"
  type: "ReLU"
  bottom: "conv0"
  top: "conv0"
}
layer {
  name: "conv1/dw"
  type: "Convolution"
  bottom: "conv0"
  top: "conv1/dw"
  param {
    lr_mult: 1
    decay_mult: 1
  }
  convolution_param {
    num_output: 32
    bias_term: false
    pad: 1
    kernel_size: 3
    group: 32
    weight_filler {
      type: "msra"
    }
    engine: CAFFE
  }
}
layer {
  name: "conv1/dw/bn"
  type: "BatchNorm"
  bottom: "conv1/dw"
  top: "conv1/dw"
}
layer {
  name: "conv1/dw/scale"
  type: "Scale"
  bottom: "conv1/dw"
  top: "conv1/dw"
  param {
    lr_mult: 1
    decay_mult: 0
  }
  param {
    lr_mult: 2
    decay_mult: 0
  }
  scale_param {
    filler {
      value: 1
    }
    bias_term: true
    bias_filler {
      value: 0
    }
  }
}
layer {
  name: "conv1/dw/relu"
  type: "ReLU"
  bottom: "conv1/dw"
  top: "conv1/dw"
}
layer {
  name: "conv1"
  type: "Convolution"
  bottom: "conv1/dw"
  top: "conv1"
  param {
    lr_mult: 1
    decay_mult: 1
  }
  convolution_param {
    num_output: 64
    bias_term: false
    kernel_size: 1
    weight_filler {
      type: "msra"
    }
  }
}
layer {
  name: "conv1/bn"
  type: "BatchNorm"
  bottom: "conv1"
  top: "conv1"
}
layer {
  name: "conv1/scale"
  type: "Scale"
  bottom: "conv1"
  top: "conv1"
  param {
    lr_mult: 1
    decay_mult: 0
  }
  param {
    lr_mult: 2
    decay_mult: 0
  }
  scale_param {
    filler {
      value: 1
    }
    bias_term: true
    bias_filler {
      value: 0
    }
  }
}
layer {
  name: "conv1/relu"
…
I1015 10:56:52.145747 15018 net.cpp:150] Setting up conv15_1/scale
I1015 10:56:52.145756 15018 net.cpp:157] Top shape: 1 128 5 8 (5120)
I1015 10:56:52.145758 15018 net.cpp:165] Memory required for data: 289484864
I1015 10:56:52.145764 15018 layer_factory.hpp:77] Creating layer conv15_1/relu
I1015 10:56:52.145769 15018 net.cpp:100] Creating Layer conv15_1/relu
I1015 10:56:52.145772 15018 net.cpp:434] conv15_1/relu <- conv15_1
I1015 10:56:52.145777 15018 net.cpp:395] conv15_1/relu -> conv15_1 (in-place)
I1015 10:56:52.146175 15018 net.cpp:150] Setting up conv15_1/relu
I1015 10:56:52.146185 15018 net.cpp:157] Top shape: 1 128 5 8 (5120)
I1015 10:56:52.146188 15018 net.cpp:165] Memory required for data: 289505344
I1015 10:56:52.146190 15018 layer_factory.hpp:77] Creating layer conv15_2
I1015 10:56:52.146199 15018 net.cpp:100] Creating Layer conv15_2
I1015 10:56:52.146203 15018 net.cpp:434] conv15_2 <- conv15_1
I1015 10:56:52.146209 15018 net.cpp:408] conv15_2 -> conv15_2
I1015 10:56:52.151619 15018 net.cpp:150] Setting up conv15_2
I1015 10:56:52.151634 15018 net.cpp:157] Top shape: 1 256 3 4 (3072)
I1015 10:56:52.151638 15018 net.cpp:165] Memory required for data: 289517632
I1015 10:56:52.151643 15018 layer_factory.hpp:77] Creating layer conv15_2/bn
I1015 10:56:52.151666 15018 net.cpp:100] Creating Layer conv15_2/bn
I1015 10:56:52.151670 15018 net.cpp:434] conv15_2/bn <- conv15_2
I1015 10:56:52.151674 15018 net.cpp:395] conv15_2/bn -> conv15_2 (in-place)
I1015 10:56:52.151901 15018 net.cpp:150] Setting up conv15_2/bn
I1015 10:56:52.151909 15018 net.cpp:157] Top shape: 1 256 3 4 (3072)
I1015 10:56:52.151911 15018 net.cpp:165] Memory required for data: 289529920
I1015 10:56:52.151927 15018 layer_factory.hpp:77] Creating layer conv15_2/scale
I1015 10:56:52.151935 15018 net.cpp:100] Creating Layer conv15_2/scale
I1015 10:56:52.151938 15018 net.cpp:434] conv15_2/scale <- conv15_2
I1015 10:56:52.151942 15018 net.cpp:395] conv15_2/scale -> conv15_2 (in-place)
I1015 10:56:52.151993 15018 layer_factory.hpp:77] Creating layer conv15_2/scale
I1015 10:56:52.152117 15018 net.cpp:150] Setting up conv15_2/scale
I1015 10:56:52.152124 15018 net.cpp:157] Top shape: 1 256 3 4 (3072)
I1015 10:56:52.152127 15018 net.cpp:165] Memory required for data: 289542208
I1015 10:56:52.152132 15018 layer_factory.hpp:77] Creating layer conv15_2/relu
I1015 10:56:52.152137 15018 net.cpp:100] Creating Layer conv15_2/relu
I1015 10:56:52.152139 15018 net.cpp:434] conv15_2/relu <- conv15_2
I1015 10:56:52.152143 15018 net.cpp:395] conv15_2/relu -> conv15_2 (in-place)
I1015 10:56:52.152550 15018 net.cpp:150] Setting up conv15_2/relu
I1015 10:56:52.152560 15018 net.cpp:157] Top shape: 1 256 3 4 (3072)
I1015 10:56:52.152562 15018 net.cpp:165] Memory required for data: 289554496
I1015 10:56:52.152566 15018 layer_factory.hpp:77] Creating layer conv15_2_conv15_2/relu_0_split
I1015 10:56:52.152575 15018 net.cpp:100] Creating Layer conv15_2_conv15_2/relu_0_split
I1015 10:56:52.152578 15018 net.cpp:434] conv15_2_conv15_2/relu_0_split <- conv15_2
I1015 10:56:52.152585 15018 net.cpp:408] conv15_2_conv15_2/relu_0_split -> conv15_2_conv15_2/relu_0_split_0
I1015 10:56:52.152590 15018 net.cpp:408] conv15_2_conv15_2/relu_0_split -> conv15_2_conv15_2/relu_0_split_1
I1015 10:56:52.152595 15018 net.cpp:408] conv15_2_conv15_2/relu_0_split -> conv15_2_conv15_2/relu_0_split_2
I1015 10:56:52.152599 15018 net.cpp:408] conv15_2_conv15_2/relu_0_split -> conv15_2_conv15_2/relu_0_split_3
I1015 10:56:52.152683 15018 net.cpp:150] Setting up conv15_2_conv15_2/relu_0_split
I1015 10:56:52.152689 15018 net.cpp:157] Top shape: 1 256 3 4 (3072)
I1015 10:56:52.152693 15018 net.cpp:157] Top shape: 1 256 3 4 (3072)
I1015 10:56:52.152695 15018 net.cpp:157] Top shape: 1 256 3 4 (3072)
I1015 10:56:52.152698 15018 net.cpp:157] Top shape: 1 256 3 4 (3072)
I1015 10:56:52.152699 15018 net.cpp:165] Memory required for data: 289603648
I1015 10:56:52.152703 15018 layer_factory.hpp:77] Creating layer conv16_1
I1015 10:56:52.152709 15018 net.cpp:100] Creating Layer conv16_1
I1015 10:56:52.152712 15018 net.cpp:434] conv16_1 <- conv15_2_conv15_2/relu_0_split_0
I1015 10:56:52.152719 15018 net.cpp:408] conv16_1 -> conv16_1
I1015 10:56:52.154834 15018 net.cpp:150] Setting up conv16_1
I1015 10:56:52.154846 15018 net.cpp:157] Top shape: 1 128 3 4 (1536)
I1015 10:56:52.154850 15018 net.cpp:165] Memory required for data: 289609792
I1015 10:56:52.154853 15018 layer_factory.hpp:77] Creating layer conv16_1/bn
I1015 10:56:52.154860 15018 net.cpp:100] Creating Layer conv16_1/bn
I1015 10:56:52.154862 15018 net.cpp:434] conv16_1/bn <- conv16_1
I1015 10:56:52.154866 15018 net.cpp:395] conv16_1/bn -> conv16_1 (in-place)
I1015 10:56:52.155089 15018 net.cpp:150] Setting up conv16_1/bn
I1015 10:56:52.155097 15018 net.cpp:157] Top shape: 1 128 3 4 (1536)
I1015 10:56:52.155099 15018 net.cpp:165] Memory required for data: 289615936
I1015 10:56:52.155107 15018 layer_factory.hpp:77] Creating layer conv16_1/scale
I1015 10:56:52.155113 15018 net.cpp:100] Creating Layer conv16_1/scale
I1015 10:56:52.155117 15018 net.cpp:434] conv16_1/scale <- conv16_1
I1015 10:56:52.155120 15018 net.cpp:395] conv16_1/scale -> conv16_1 (in-place)
I1015 10:56:52.155165 15018 layer_factory.hpp:77] Creating layer conv16_1/scale
I1015 10:56:52.155292 15018 net.cpp:150] Setting up conv16_1/scale
I1015 10:56:52.155302 15018 net.cpp:157] Top shape: 1 128 3 4 (1536)
I1015 10:56:52.155304 15018 net.cpp:165] Memory required for data: 289622080
I1015 10:56:52.155308 15018 layer_factory.hpp:77] Creating layer conv16_1/relu
I1015 10:56:52.155313 15018 net.cpp:100] Creating Layer conv16_1/relu
I1015 10:56:52.155315 15018 net.cpp:434] conv16_1/relu <- conv16_1
I1015 10:56:52.155318 15018 net.cpp:395] conv16_1/relu -> conv16_1 (in-place)
I1015 10:56:52.155716 15018 net.cpp:150] Setting up conv16_1/relu
I1015 10:56:52.155728 15018 net.cpp:157] Top shape: 1 128 3 4 (1536)
I1015 10:56:52.155731 15018 net.cpp:165] Memory required for data: 289628224
I1015 10:56:52.155735 15018 layer_factory.hpp:77] Creating layer conv16_2
I1015 10:56:52.155745 15018 net.cpp:100] Creating Layer conv16_2
I1015 10:56:52.155747 15018 net.cpp:434] conv16_2 <- conv16_1
I1015 10:56:52.155752 15018 net.cpp:408] conv16_2 -> conv16_2
I1015 10:56:52.160802 15018 net.cpp:150] Setting up conv16_2
I1015 10:56:52.160816 15018 net.cpp:157] Top shape: 1 256 2 2 (1024)
I1015 10:56:52.160818 15018 net.cpp:165] Memory required for data: 289632320
I1015 10:56:52.160825 15018 layer_factory.hpp:77] Creating layer conv16_2/bn
I1015 10:56:52.160830 15018 net.cpp:100] Creating Layer conv16_2/bn
I1015 10:56:52.160833 15018 net.cpp:434] conv16_2/bn <- conv16_2
I1015 10:56:52.160837 15018 net.cpp:395] conv16_2/bn -> conv16_2 (in-place)
I1015 10:56:52.161057 15018 net.cpp:150] Setting up conv16_2/bn
I1015 10:56:52.161064 15018 net.cpp:157] Top shape: 1 256 2 2 (1024)
I1015 10:56:52.161067 15018 net.cpp:165] Memory required for data: 289636416
I1015 10:56:52.161072 15018 layer_factory.hpp:77] Creating layer conv16_2/scale
I1015 10:56:52.161079 15018 net.cpp:100] Creating Layer conv16_2/scale
I1015 10:56:52.161082 15018 net.cpp:434] conv16_2/scale <- conv16_2
I1015 10:56:52.161085 15018 net.cpp:395] conv16_2/scale -> conv16_2 (in-place)
I1015 10:56:52.161128 15018 layer_factory.hpp:77] Creating layer conv16_2/scale
I1015 10:56:52.161268 15018 net.cpp:150] Setting up conv16_2/scale
I1015 10:56:52.161275 15018 net.cpp:157] Top shape: 1 256 2 2 (1024)
I1015 10:56:52.161278 15018 net.cpp:165] Memory required for data: 289640512
I1015 10:56:52.161283 15018 layer_factory.hpp:77] Creating layer conv16_2/relu
I1015 10:56:52.161291 15018 net.cpp:100] Creating Layer conv16_2/relu
I1015 10:56:52.161293 15018 net.cpp:434] conv16_2/relu <- conv16_2
I1015 10:56:52.161298 15018 net.cpp:395] conv16_2/relu -> conv16_2 (in-place)
I1015 10:56:52.162065 15018 net.cpp:150] Setting up conv16_2/relu
I1015 10:56:52.162080 15018 net.cpp:157] Top shape: 1 256 2 2 (1024)
I1015 10:56:52.162082 15018 net.cpp:165] Memory required for data: 289644608
I1015 10:56:52.162086 15018 layer_factory.hpp:77] Creating layer conv16_2_conv16_2/relu_0_split
I1015 10:56:52.162091 15018 net.cpp:100] Creating Layer conv16_2_conv16_2/relu_0_split
I1015 10:56:52.162093 15018 net.cpp:434] conv16_2_conv16_2/relu_0_split <- conv16_2
I1015 10:56:52.162099 15018 net.cpp:408] conv16_2_conv16_2/relu_0_split -> conv16_2_conv16_2/relu_0_split_0
I1015 10:56:52.162106 15018 net.cpp:408] conv16_2_conv16_2/relu_0_split -> conv16_2_conv16_2/relu_0_split_1
I1015 10:56:52.162111 15018 net.cpp:408] conv16_2_conv16_2/relu_0_split -> conv16_2_conv16_2/relu_0_split_2
I1015 10:56:52.162115 15018 net.cpp:408] conv16_2_conv16_2/relu_0_split -> conv16_2_conv16_2/relu_0_split_3
I1015 10:56:52.162202 15018 net.cpp:150] Setting up conv16_2_conv16_2/relu_0_split
I1015 10:56:52.162210 15018 net.cpp:157] Top shape: 1 256 2 2 (1024)
I1015 10:56:52.162214 15018 net.cpp:157] Top shape: 1 256 2 2 (1024)
I1015 10:56:52.162217 15018 net.cpp:157] Top shape: 1 256 2 2 (1024)
I1015 10:56:52.162221 15018 net.cpp:157] Top shape: 1 256 2 2 (1024)
I1015 10:56:52.162223 15018 net.cpp:165] Memory required for data: 289660992
I1015 10:56:52.162225 15018 layer_factory.hpp:77] Creating layer conv17_1
I1015 10:56:52.162235 15018 net.cpp:100] Creating Layer conv17_1
I1015 10:56:52.162238 15018 net.cpp:434] conv17_1 <- conv16_2_conv16_2/relu_0_split_0
I1015 10:56:52.162243 15018 net.cpp:408] conv17_1 -> conv17_1
I1015 10:56:52.164225 15018 net.cpp:150] Setting up conv17_1
I1015 10:56:52.164237 15018 net.cpp:157] Top shape: 1 64 2 2 (256)
I1015 10:56:52.164239 15018 net.cpp:165] Memory required for data: 289662016
I1015 10:56:52.164245 15018 layer_factory.hpp:77] Creating layer conv17_1/bn
I1015 10:56:52.164253 15018 net.cpp:100] Creating Layer conv17_1/bn
I1015 10:56:52.164258 15018 net.cpp:434] conv17_1/bn <- conv17_1
I1015 10:56:52.164263 15018 net.cpp:395] conv17_1/bn -> conv17_1 (in-place)
I1015 10:56:52.164505 15018 net.cpp:150] Setting up conv17_1/bn
I1015 10:56:52.164511 15018 net.cpp:157] Top shape: 1 64 2 2 (256)
I1015 10:56:52.164515 15018 net.cpp:165] Memory required for data: 289663040
I1015 10:56:52.164520 15018 layer_factory.hpp:77] Creating layer conv17_1/scale
I1015 10:56:52.164525 15018 net.cpp:100] Creating Layer conv17_1/scale
I1015 10:56:52.164527 15018 net.cpp:434] conv17_1/scale <- conv17_1
I1015 10:56:52.164531 15018 net.cpp:395] conv17_1/scale -> conv17_1 (in-place)
I1015 10:56:52.164593 15018 layer_factory.hpp:77] Creating layer conv17_1/scale
I1015 10:56:52.164748 15018 net.cpp:150] Setting up conv17_1/scale
I1015 10:56:52.164757 15018 net.cpp:157] Top shape: 1 64 2 2 (256)
I1015 10:56:52.164759 15018 net.cpp:165] Memory required for data: 289664064
I1015 10:56:52.164763 15018 layer_factory.hpp:77] Creating layer conv17_1/relu
I1015 10:56:52.164768 15018 net.cpp:100] Creating Layer conv17_1/relu
I1015 10:56:52.164770 15018 net.cpp:434] conv17_1/relu <- conv17_1
I1015 10:56:52.164777 15018 net.cpp:395] conv17_1/relu -> conv17_1 (in-place)
I1015 10:56:52.165192 15018 net.cpp:150] Setting up conv17_1/relu
I1015 10:56:52.165202 15018 net.cpp:157] Top shape: 1 64 2 2 (256)
I1015 10:56:52.165205 15018 net.cpp:165] Memory required for data: 289665088
I1015 10:56:52.165207 15018 layer_factory.hpp:77] Creating layer conv17_2
I1015 10:56:52.165215 15018 net.cpp:100] Creating Layer conv17_2
I1015 10:56:52.165218 15018 net.cpp:434] conv17_2 <- conv17_1
I1015 10:56:52.165225 15018 net.cpp:408] conv17_2 -> conv17_2
I1015 10:56:52.168725 15018 net.cpp:150] Setting up conv17_2
I1015 10:56:52.168738 15018 net.cpp:157] Top shape: 1 128 1 1 (128)
I1015 10:56:52.168741 15018 net.cpp:165] Memory required for data: 289665600
I1015 10:56:52.168746 15018 layer_factory.hpp:77] Creating layer conv17_2/bn
I1015 10:56:52.168751 15018 net.cpp:100] Creating Layer conv17_2/bn
I1015 10:56:52.168754 15018 net.cpp:434] conv17_2/bn <- conv17_2
I1015 10:56:52.168759 15018 net.cpp:395] conv17_2/bn -> conv17_2 (in-place)
I1015 10:56:52.169000 15018 net.cpp:150] Setting up conv17_2/bn
I1015 10:56:52.169008 15018 net.cpp:157] Top shape: 1 128 1 1 (128)
I1015 10:56:52.169010 15018 net.cpp:165] Memory required for data: 289666112
I1015 10:56:52.169016 15018 layer_factory.hpp:77] Creating layer conv17_2/scale
I1015 10:56:52.169021 15018 net.cpp:100] Creating Layer conv17_2/scale
I1015 10:56:52.169024 15018 net.cpp:434] conv17_2/scale <- conv17_2
I1015 10:56:52.169029 15018 net.cpp:395] conv17_2/scale -> conv17_2 (in-place)
I1015 10:56:52.169071 15018 layer_factory.hpp:77] Creating layer conv17_2/scale
I1015 10:56:52.169215 15018 net.cpp:150] Setting up conv17_2/scale
I1015 10:56:52.169224 15018 net.cpp:157] Top shape: 1 128 1 1 (128)
I1015 10:56:52.169225 15018 net.cpp:165] Memory required for data: 289666624
I1015 10:56:52.169230 15018 layer_factory.hpp:77] Creating layer conv17_2/relu
I1015 10:56:52.169236 15018 net.cpp:100] Creating Layer conv17_2/relu
I1015 10:56:52.169241 15018 net.cpp:434] conv17_2/relu <- conv17_2
I1015 10:56:52.169248 15018 net.cpp:395] conv17_2/relu -> conv17_2 (in-place)
I1015 10:56:52.169668 15018 net.cpp:150] Setting up conv17_2/relu
I1015 10:56:52.169678 15018 net.cpp:157] Top shape: 1 128 1 1 (128)
I1015 10:56:52.169682 15018 net.cpp:165] Memory required for data: 289667136
I1015 10:56:52.169683 15018 layer_factory.hpp:77] Creating layer conv17_2_conv17_2/relu_0_split
I1015 10:56:52.169688 15018 net.cpp:100] Creating Layer conv17_2_conv17_2/relu_0_split
I1015 10:56:52.169692 15018 net.cpp:434] conv17_2_conv17_2/relu_0_split <- conv17_2
I1015 10:56:52.169697 15018 net.cpp:408] conv17_2_conv17_2/relu_0_split -> conv17_2_conv17_2/relu_0_split_0
I1015 10:56:52.169703 15018 net.cpp:408] conv17_2_conv17_2/relu_0_split -> conv17_2_conv17_2/relu_0_split_1
I1015 10:56:52.169709 15018 net.cpp:408] conv17_2_conv17_2/relu_0_split -> conv17_2_conv17_2/relu_0_split_2
I1015 10:56:52.169800 15018 net.cpp:150] Setting up conv17_2_conv17_2/relu_0_split
I1015 10:56:52.169809 15018 net.cpp:157] Top shape: 1 128 1 1 (128)
I1015 10:56:52.169814 15018 net.cpp:157] Top shape: 1 128 1 1 (128)
I1015 10:56:52.169819 15018 net.cpp:157] Top shape: 1 128 1 1 (128)
I1015 10:56:52.169822 15018 net.cpp:165] Memory required for data: 289668672
I1015 10:56:52.169827 15018 layer_factory.hpp:77] Creating layer conv11_mbox_loc
I1015 10:56:52.169842 15018 net.cpp:100] Creating Layer conv11_mbox_loc
I1015 10:56:52.169847 15018 net.cpp:434] conv11_mbox_loc <- conv11_conv11/relu_0_split_1
I1015 10:56:52.169855 15018 net.cpp:408] conv11_mbox_loc -> conv11_mbox_loc
I1015 10:56:52.171912 15018 net.cpp:150] Setting up conv11_mbox_loc
I1015 10:56:52.171926 15018 net.cpp:157] Top shape: 1 12 20 30 (7200)
I1015 10:56:52.171927 15018 net.cpp:165] Memory required for data: 289697472
I1015 10:56:52.171933 15018 layer_factory.hpp:77] Creating layer conv11_mbox_loc_perm
I1015 10:56:52.171941 15018 net.cpp:100] Creating Layer conv11_mbox_loc_perm
I1015 10:56:52.171944 15018 net.cpp:434] conv11_mbox_loc_perm <- conv11_mbox_loc
I1015 10:56:52.171948 15018 net.cpp:408] conv11_mbox_loc_perm -> conv11_mbox_loc_perm
I1015 10:56:52.172068 15018 net.cpp:150] Setting up conv11_mbox_loc_perm
I1015 10:56:52.172075 15018 net.cpp:157] Top shape: 1 20 30 12 (7200)
I1015 10:56:52.172078 15018 net.cpp:165] Memory required for data: 289726272
I1015 10:56:52.172081 15018 layer_factory.hpp:77] Creating layer conv11_mbox_loc_flat
I1015 10:56:52.172086 15018 net.cpp:100] Creating Layer conv11_mbox_loc_flat
I1015 10:56:52.172089 15018 net.cpp:434] conv11_mbox_loc_flat <- conv11_mbox_loc_perm
I1015 10:56:52.172096 15018 net.cpp:408] conv11_mbox_loc_flat -> conv11_mbox_loc_flat
I1015 10:56:52.172123 15018 net.cpp:150] Setting up conv11_mbox_loc_flat
I1015 10:56:52.172128 15018 net.cpp:157] Top shape: 1 7200 (7200)
I1015 10:56:52.172130 15018 net.cpp:165] Memory required for data: 289755072
I1015 10:56:52.172132 15018 layer_factory.hpp:77] Creating layer conv11_mbox_conf_new
I1015 10:56:52.172140 15018 net.cpp:100] Creating Layer conv11_mbox_conf_new
I1015 10:56:52.172143 15018 net.cpp:434] conv11_mbox_conf_new <- conv11_conv11/relu_0_split_2
I1015 10:56:52.172149 15018 net.cpp:408] conv11_mbox_conf_new -> conv11_mbox_conf
I1015 10:56:52.174146 15018 net.cpp:150] Setting up conv11_mbox_conf_new
I1015 10:56:52.174158 15018 net.cpp:157] Top shape: 1 9 20 30 (5400)
I1015 10:56:52.174161 15018 net.cpp:165] Memory required for data: 289776672
I1015 10:56:52.174167 15018 layer_factory.hpp:77] Creating layer conv11_mbox_conf_perm
I1015 10:56:52.174175 15018 net.cpp:100] Creating Layer conv11_mbox_conf_perm
I1015 10:56:52.174177 15018 net.cpp:434] conv11_mbox_conf_perm <- conv11_mbox_conf
I1015 10:56:52.174181 15018 net.cpp:408] conv11_mbox_conf_perm -> conv11_mbox_conf_perm
I1015 10:56:52.174300 15018 net.cpp:150] Setting up conv11_mbox_conf_perm
I1015 10:56:52.174306 15018 net.cpp:157] Top shape: 1 20 30 9 (5400)
I1015 10:56:52.174309 15018 net.cpp:165] Memory required for data: 289798272
I1015 10:56:52.174310 15018 layer_factory.hpp:77] Creating layer conv11_mbox_conf_flat
I1015 10:56:52.174316 15018 net.cpp:100] Creating Layer conv11_mbox_conf_flat
I1015 10:56:52.174319 15018 net.cpp:434] conv11_mbox_conf_flat <- conv11_mbox_conf_perm
I1015 10:56:52.174322 15018 net.cpp:408] conv11_mbox_conf_flat -> conv11_mbox_conf_flat
I1015 10:56:52.174350 15018 net.cpp:150] Setting up conv11_mbox_conf_flat
I1015 10:56:52.174355 15018 net.cpp:157] Top shape: 1 5400 (5400)
I1015 10:56:52.174357 15018 net.cpp:165] Memory required for data: 289819872
I1015 10:56:52.174360 15018 layer_factory.hpp:77] Creating layer conv11_mbox_priorbox
I1015 10:56:52.174366 15018 net.cpp:100] Creating Layer conv11_mbox_priorbox
I1015 10:56:52.174369 15018 net.cpp:434] conv11_mbox_priorbox <- conv11_conv11/relu_0_split_3
I1015 10:56:52.174373 15018 net.cpp:434] conv11_mbox_priorbox <- data_data_0_split_1
I1015 10:56:52.174379 15018 net.cpp:408] conv11_mbox_priorbox -> conv11_mbox_priorbox
I1015 10:56:52.174407 15018 net.cpp:150] Setting up conv11_mbox_priorbox
I1015 10:56:52.174412 15018 net.cpp:157] Top shape: 1 2 7200 (14400)
I1015 10:56:52.174414 15018 net.cpp:165] Memory required for data: 289877472
I1015 10:56:52.174417 15018 layer_factory.hpp:77] Creating layer conv13_mbox_loc
I1015 10:56:52.174425 15018 net.cpp:100] Creating Layer conv13_mbox_loc
I1015 10:56:52.174428 15018 net.cpp:434] conv13_mbox_loc <- conv13_conv13/relu_0_split_1
I1015 10:56:52.174433 15018 net.cpp:408] conv13_mbox_loc -> conv13_mbox_loc
I1015 10:56:52.176744 15018 net.cpp:150] Setting up conv13_mbox_loc
I1015 10:56:52.176757 15018 net.cpp:157] Top shape: 1 24 10 15 (3600)
I1015 10:56:52.176760 15018 net.cpp:165] Memory required for data: 289891872
I1015 10:56:52.176766 15018 layer_factory.hpp:77] Creating layer conv13_mbox_loc_perm
I1015 10:56:52.176771 15018 net.cpp:100] Creating Layer conv13_mbox_loc_perm
I1015 10:56:52.176774 15018 net.cpp:434] conv13_mbox_loc_perm <- conv13_mbox_loc
I1015 10:56:52.176780 15018 net.cpp:408] conv13_mbox_loc_perm -> conv13_mbox_loc_perm
I1015 10:56:52.176903 15018 net.cpp:150] Setting up conv13_mbox_loc_perm
I1015 10:56:52.176908 15018 net.cpp:157] Top shape: 1 10 15 24 (3600)
I1015 10:56:52.176911 15018 net.cpp:165] Memory required for data: 289906272
I1015 10:56:52.176913 15018 layer_factory.hpp:77] Creating layer conv13_mbox_loc_flat
I1015 10:56:52.176918 15018 net.cpp:100] Creating Layer conv13_mbox_loc_flat
I1015 10:56:52.176920 15018 net.cpp:434] conv13_mbox_loc_flat <- conv13_mbox_loc_perm
I1015 10:56:52.176925 15018 net.cpp:408] conv13_mbox_loc_flat -> conv13_mbox_loc_flat
I1015 10:56:52.176951 15018 net.cpp:150] Setting up conv13_mbox_loc_flat
I1015 10:56:52.176955 15018 net.cpp:157] Top shape: 1 3600 (3600)
I1015 10:56:52.176957 15018 net.cpp:165] Memory required for data: 289920672
I1015 10:56:52.176960 15018 layer_factory.hpp:77] Creating layer conv13_mbox_conf_new
I1015 10:56:52.176970 15018 net.cpp:100] Creating Layer conv13_mbox_conf_new
I1015 10:56:52.176972 15018 net.cpp:434] conv13_mbox_conf_new <- conv13_conv13/relu_0_split_2
I1015 10:56:52.176978 15018 net.cpp:408] conv13_mbox_conf_new -> conv13_mbox_conf
I1015 10:56:52.179013 15018 net.cpp:150] Setting up conv13_mbox_conf_new
I1015 10:56:52.179026 15018 net.cpp:157] Top shape: 1 18 10 15 (2700)
I1015 10:56:52.179028 15018 net.cpp:165] Memory required for data: 289931472
I1015 10:56:52.179034 15018 layer_factory.hpp:77] Creating layer conv13_mbox_conf_perm
I1015 10:56:52.179039 15018 net.cpp:100] Creating Layer conv13_mbox_conf_perm
I1015 10:56:52.179042 15018 net.cpp:434] conv13_mbox_conf_perm <- conv13_mbox_conf
I1015 10:56:52.179049 15018 net.cpp:408] conv13_mbox_conf_perm -> conv13_mbox_conf_perm
I1015 10:56:52.179167 15018 net.cpp:150] Setting up conv13_mbox_conf_perm
I1015 10:56:52.179173 15018 net.cpp:157] Top shape: 1 10 15 18 (2700)
I1015 10:56:52.179177 15018 net.cpp:165] Memory required for data: 289942272
I1015 10:56:52.179178 15018 layer_factory.hpp:77] Creating layer conv13_mbox_conf_flat
I1015 10:56:52.179183 15018 net.cpp:100] Creating Layer conv13_mbox_conf_flat
I1015 10:56:52.179188 15018 net.cpp:434] conv13_mbox_conf_flat <- conv13_mbox_conf_perm
I1015 10:56:52.179191 15018 net.cpp:408] conv13_mbox_conf_flat -> conv13_mbox_conf_flat
I1015 10:56:52.179219 15018 net.cpp:150] Setting up conv13_mbox_conf_flat
I1015 10:56:52.179224 15018 net.cpp:157] Top shape: 1 2700 (2700)
I1015 10:56:52.179225 15018 net.cpp:165] Memory required for data: 289953072
I1015 10:56:52.179229 15018 layer_factory.hpp:77] Creating layer conv13_mbox_priorbox
I1015 10:56:52.179234 15018 net.cpp:100] Creating Layer conv13_mbox_priorbox
I1015 10:56:52.179236 15018 net.cpp:434] conv13_mbox_priorbox <- conv13_conv13/relu_0_split_3
I1015 10:56:52.179240 15018 net.cpp:434] conv13_mbox_priorbox <- data_data_0_split_2
I1015 10:56:52.179244 15018 net.cpp:408] conv13_mbox_priorbox -> conv13_mbox_priorbox
I1015 10:56:52.179273 15018 net.cpp:150] Setting up conv13_mbox_priorbox
I1015 10:56:52.179277 15018 net.cpp:157] Top shape: 1 2 3600 (7200)
I1015 10:56:52.179280 15018 net.cpp:165] Memory required for data: 289981872
I1015 10:56:52.179281 15018 layer_factory.hpp:77] Creating layer conv14_2_mbox_loc
I1015 10:56:52.179289 15018 net.cpp:100] Creating Layer conv14_2_mbox_loc
I1015 10:56:52.179292 15018 net.cpp:434] conv14_2_mbox_loc <- conv14_2_conv14_2/relu_0_split_1
I1015 10:56:52.179297 15018 net.cpp:408] conv14_2_mbox_loc -> conv14_2_mbox_loc
I1015 10:56:52.181336 15018 net.cpp:150] Setting up conv14_2_mbox_loc
I1015 10:56:52.181347 15018 net.cpp:157] Top shape: 1 24 5 8 (960)
I1015 10:56:52.181350 15018 net.cpp:165] Memory required for data: 289985712
I1015 10:56:52.181355 15018 layer_factory.hpp:77] Creating layer conv14_2_mbox_loc_perm
I1015 10:56:52.181362 15018 net.cpp:100] Creating Layer conv14_2_mbox_loc_perm
I1015 10:56:52.181365 15018 net.cpp:434] conv14_2_mbox_loc_perm <- conv14_2_mbox_loc
I1015 10:56:52.181371 15018 net.cpp:408] conv14_2_mbox_loc_perm -> conv14_2_mbox_loc_perm
I1015 10:56:52.181491 15018 net.cpp:150] Setting up conv14_2_mbox_loc_perm
I1015 10:56:52.181496 15018 net.cpp:157] Top shape: 1 5 8 24 (960)
I1015 10:56:52.181499 15018 net.cpp:165] Memory required for data: 289989552
I1015 10:56:52.181501 15018 layer_factory.hpp:77] Creating layer conv14_2_mbox_loc_flat
I1015 10:56:52.181506 15018 net.cpp:100] Creating Layer conv14_2_mbox_loc_flat
I1015 10:56:52.181509 15018 net.cpp:434] conv14_2_mbox_loc_flat <- conv14_2_mbox_loc_perm
I1015 10:56:52.181514 15018 net.cpp:408] conv14_2_mbox_loc_flat -> conv14_2_mbox_loc_flat
I1015 10:56:52.181541 15018 net.cpp:150] Setting up conv14_2_mbox_loc_flat
I1015 10:56:52.181545 15018 net.cpp:157] Top shape: 1 960 (960)
I1015 10:56:52.181547 15018 net.cpp:165] Memory required for data: 289993392
I1015 10:56:52.181550 15018 layer_factory.hpp:77] Creating layer conv14_2_mbox_conf_new
I1015 10:56:52.181557 15018 net.cpp:100] Creating Layer conv14_2_mbox_conf_new
I1015 10:56:52.181560 15018 net.cpp:434] conv14_2_mbox_conf_new <- conv14_2_conv14_2/relu_0_split_2
I1015 10:56:52.181566 15018 net.cpp:408] conv14_2_mbox_conf_new -> conv14_2_mbox_conf
I1015 10:56:52.183552 15018 net.cpp:150] Setting up conv14_2_mbox_conf_new
I1015 10:56:52.183563 15018 net.cpp:157] Top shape: 1 18 5 8 (720)
I1015 10:56:52.183567 15018 net.cpp:165] Memory required for data: 289996272
I1015 10:56:52.183573 15018 layer_factory.hpp:77] Creating layer conv14_2_mbox_conf_perm
I1015 10:56:52.183578 15018 net.cpp:100] Creating Layer conv14_2_mbox_conf_perm
I1015 10:56:52.183580 15018 net.cpp:434] conv14_2_mbox_conf_perm <- conv14_2_mbox_conf
I1015 10:56:52.183586 15018 net.cpp:408] conv14_2_mbox_conf_perm -> conv14_2_mbox_conf_perm
I1015 10:56:52.183717 15018 net.cpp:150] Setting up conv14_2_mbox_conf_perm
I1015 10:56:52.183724 15018 net.cpp:157] Top shape: 1 5 8 18 (720)
I1015 10:56:52.183727 15018 net.cpp:165] Memory required for data: 289999152
I1015 10:56:52.183728 15018 layer_factory.hpp:77] Creating layer conv14_2_mbox_conf_flat
I1015 10:56:52.183733 15018 net.cpp:100] Creating Layer conv14_2_mbox_conf_flat
I1015 10:56:52.183735 15018 net.cpp:434] conv14_2_mbox_conf_flat <- conv14_2_mbox_conf_perm
I1015 10:56:52.183740 15018 net.cpp:408] conv14_2_mbox_conf_flat -> conv14_2_mbox_conf_flat
I1015 10:56:52.183768 15018 net.cpp:150] Setting up conv14_2_mbox_conf_flat
I1015 10:56:52.183773 15018 net.cpp:157] Top shape: 1 720 (720)
I1015 10:56:52.183775 15018 net.cpp:165] Memory required for data: 290002032
I1015 10:56:52.183778 15018 layer_factory.hpp:77] Creating layer conv14_2_mbox_priorbox
I1015 10:56:52.183782 15018 net.cpp:100] Creating Layer conv14_2_mbox_priorbox
I1015 10:56:52.183785 15018 net.cpp:434] conv14_2_mbox_priorbox <- conv14_2_conv14_2/relu_0_split_3
I1015 10:56:52.183789 15018 net.cpp:434] conv14_2_mbox_priorbox <- data_data_0_split_3
I1015 10:56:52.183794 15018 net.cpp:408] conv14_2_mbox_priorbox -> conv14_2_mbox_priorbox
I1015 10:56:52.183821 15018 net.cpp:150] Setting up conv14_2_mbox_priorbox
I1015 10:56:52.183825 15018 net.cpp:157] Top shape: 1 2 960 (1920)
I1015 10:56:52.183827 15018 net.cpp:165] Memory required for data: 290009712
I1015 10:56:52.183830 15018 layer_factory.hpp:77] Creating layer conv15_2_mbox_loc
I1015 10:56:52.183836 15018 net.cpp:100] Creating Layer conv15_2_mbox_loc
I1015 10:56:52.183840 15018 net.cpp:434] conv15_2_mbox_loc <- conv15_2_conv15_2/relu_0_split_1
I1015 10:56:52.183845 15018 net.cpp:408] conv15_2_mbox_loc -> conv15_2_mbox_loc
I1015 10:56:52.185806 15018 net.cpp:150] Setting up conv15_2_mbox_loc
I1015 10:56:52.185817 15018 net.cpp:157] Top shape: 1 24 3 4 (288)
I1015 10:56:52.185819 15018 net.cpp:165] Memory required for data: 290010864
I1015 10:56:52.185825 15018 layer_factory.hpp:77] Creating layer conv15_2_mbox_loc_perm
I1015 10:56:52.185830 15018 net.cpp:100] Creating Layer conv15_2_mbox_loc_perm
I1015 10:56:52.185833 15018 net.cpp:434] conv15_2_mbox_loc_perm <- conv15_2_mbox_loc
I1015 10:56:52.185840 15018 net.cpp:408] conv15_2_mbox_loc_perm -> conv15_2_mbox_loc_perm
I1015 10:56:52.185961 15018 net.cpp:150] Setting up conv15_2_mbox_loc_perm
I1015 10:56:52.185966 15018 net.cpp:157] Top shape: 1 3 4 24 (288)
I1015 10:56:52.185967 15018 net.cpp:165] Memory required for data: 290012016
I1015 10:56:52.185969 15018 layer_factory.hpp:77] Creating layer conv15_2_mbox_loc_flat
I1015 10:56:52.185974 15018 net.cpp:100] Creating Layer conv15_2_mbox_loc_flat
I1015 10:56:52.185976 15018 net.cpp:434] conv15_2_mbox_loc_flat <- conv15_2_mbox_loc_perm
I1015 10:56:52.185981 15018 net.cpp:408] conv15_2_mbox_loc_flat -> conv15_2_mbox_loc_flat
I1015 10:56:52.186009 15018 net.cpp:150] Setting up conv15_2_mbox_loc_flat
I1015 10:56:52.186013 15018 net.cpp:157] Top shape: 1 288 (288)
I1015 10:56:52.186015 15018 net.cpp:165] Memory required for data: 290013168
I1015 10:56:52.186018 15018 layer_factory.hpp:77] Creating layer conv15_2_mbox_conf_new
I1015 10:56:52.186026 15018 net.cpp:100] Creating Layer conv15_2_mbox_conf_new
I1015 10:56:52.186029 15018 net.cpp:434] conv15_2_mbox_conf_new <- conv15_2_conv15_2/relu_0_split_2
I1015 10:56:52.186035 15018 net.cpp:408] conv15_2_mbox_conf_new -> conv15_2_mbox_conf
I1015 10:56:52.188205 15018 net.cpp:150] Setting up conv15_2_mbox_conf_new
I1015 10:56:52.188217 15018 net.cpp:157] Top shape: 1 18 3 4 (216)
I1015 10:56:52.188220 15018 net.cpp:165] Memory required for data: 290014032
I1015 10:56:52.188225 15018 layer_factory.hpp:77] Creating layer conv15_2_mbox_conf_perm
I1015 10:56:52.188232 15018 net.cpp:100] Creating Layer conv15_2_mbox_conf_perm
I1015 10:56:52.188235 15018 net.cpp:434] conv15_2_mbox_conf_perm <- conv15_2_mbox_conf
I1015 10:56:52.188239 15018 net.cpp:408] conv15_2_mbox_conf_perm -> conv15_2_mbox_conf_perm
I1015 10:56:52.188359 15018 net.cpp:150] Setting up conv15_2_mbox_conf_perm
I1015 10:56:52.188364 15018 net.cpp:157] Top shape: 1 3 4 18 (216)
I1015 10:56:52.188366 15018 net.cpp:165] Memory required for data: 290014896
I1015 10:56:52.188369 15018 layer_factory.hpp:77] Creating layer conv15_2_mbox_conf_flat
I1015 10:56:52.188374 15018 net.cpp:100] Creating Layer conv15_2_mbox_conf_flat
I1015 10:56:52.188376 15018 net.cpp:434] conv15_2_mbox_conf_flat <- conv15_2_mbox_conf_perm
I1015 10:56:52.188380 15018 net.cpp:408] conv15_2_mbox_conf_flat -> conv15_2_mbox_conf_flat
I1015 10:56:52.188408 15018 net.cpp:150] Setting up conv15_2_mbox_conf_flat
I1015 10:56:52.188412 15018 net.cpp:157] Top shape: 1 216 (216)
I1015 10:56:52.188414 15018 net.cpp:165] Memory required for data: 290015760
I1015 10:56:52.188417 15018 layer_factory.hpp:77] Creating layer conv15_2_mbox_priorbox
I1015 10:56:52.188423 15018 net.cpp:100] Creating Layer conv15_2_mbox_priorbox
I1015 10:56:52.188426 15018 net.cpp:434] conv15_2_mbox_priorbox <- conv15_2_conv15_2/relu_0_split_3
I1015 10:56:52.188431 15018 net.cpp:434] conv15_2_mbox_priorbox <- data_data_0_split_4
I1015 10:56:52.188434 15018 net.cpp:408] conv15_2_mbox_priorbox -> conv15_2_mbox_priorbox
I1015 10:56:52.188464 15018 net.cpp:150] Setting up conv15_2_mbox_priorbox
I1015 10:56:52.188468 15018 net.cpp:157] Top shape: 1 2 288 (576)
I1015 10:56:52.188470 15018 net.cpp:165] Memory required for data: 290018064
I1015 10:56:52.188473 15018 layer_factory.hpp:77] Creating layer conv16_2_mbox_loc
I1015 10:56:52.188482 15018 net.cpp:100] Creating Layer conv16_2_mbox_loc
I1015 10:56:52.188484 15018 net.cpp:434] conv16_2_mbox_loc <- conv16_2_conv16_2/relu_0_split_1
I1015 10:56:52.188490 15018 net.cpp:408] conv16_2_mbox_loc -> conv16_2_mbox_loc
I1015 10:56:52.190723 15018 net.cpp:150] Setting up conv16_2_mbox_loc
I1015 10:56:52.190737 15018 net.cpp:157] Top shape: 1 24 2 2 (96)
I1015 10:56:52.190739 15018 net.cpp:165] Memory required for data: 290018448
I1015 10:56:52.190745 15018 layer_factory.hpp:77] Creating layer conv16_2_mbox_loc_perm
I1015 10:56:52.190752 15018 net.cpp:100] Creating Layer conv16_2_mbox_loc_perm
I1015 10:56:52.190755 15018 net.cpp:434] conv16_2_mbox_loc_perm <- conv16_2_mbox_loc
I1015 10:56:52.190762 15018 net.cpp:408] conv16_2_mbox_loc_perm -> conv16_2_mbox_loc_perm
I1015 10:56:52.190969 15018 net.cpp:150] Setting up conv16_2_mbox_loc_perm
I1015 10:56:52.190981 15018 net.cpp:157] Top shape: 1 2 2 24 (96)
I1015 10:56:52.190984 15018 net.cpp:165] Memory required for data: 290018832
I1015 10:56:52.190987 15018 layer_factory.hpp:77] Creating layer conv16_2_mbox_loc_flat
I1015 10:56:52.190994 15018 net.cpp:100] Creating Layer conv16_2_mbox_loc_flat
I1015 10:56:52.190996 15018 net.cpp:434] conv16_2_mbox_loc_flat <- conv16_2_mbox_loc_perm
I1015 10:56:52.191002 15018 net.cpp:408] conv16_2_mbox_loc_flat -> conv16_2_mbox_loc_flat
I1015 10:56:52.191040 15018 net.cpp:150] Setting up conv16_2_mbox_loc_flat
I1015 10:56:52.191047 15018 net.cpp:157] Top shape: 1 96 (96)
I1015 10:56:52.191049 15018 net.cpp:165] Memory required for data: 290019216
I1015 10:56:52.191051 15018 layer_factory.hpp:77] Creating layer conv16_2_mbox_conf_new
I1015 10:56:52.191062 15018 net.cpp:100] Creating Layer conv16_2_mbox_conf_new
I1015 10:56:52.191066 15018 net.cpp:434] conv16_2_mbox_conf_new <- conv16_2_conv16_2/relu_0_split_2
I1015 10:56:52.191073 15018 net.cpp:408] conv16_2_mbox_conf_new -> conv16_2_mbox_conf
I1015 10:56:52.193204 15018 net.cpp:150] Setting up conv16_2_mbox_conf_new
I1015 10:56:52.193217 15018 net.cpp:157] Top shape: 1 18 2 2 (72)
I1015 10:56:52.193218 15018 net.cpp:165] Memory required for data: 290019504
I1015 10:56:52.193224 15018 layer_factory.hpp:77] Creating layer conv16_2_mbox_conf_perm
I1015 10:56:52.193230 15018 net.cpp:100] Creating Layer conv16_2_mbox_conf_perm
I1015 10:56:52.193233 15018 net.cpp:434] conv16_2_mbox_conf_perm <- conv16_2_mbox_conf
I1015 10:56:52.193239 15018 net.cpp:408] conv16_2_mbox_conf_perm -> conv16_2_mbox_conf_perm
I1015 10:56:52.193462 15018 net.cpp:150] Setting up conv16_2_mbox_conf_perm
I1015 10:56:52.193473 15018 net.cpp:157] Top shape: 1 2 2 18 (72)
I1015 10:56:52.193476 15018 net.cpp:165] Memory required for data: 290019792
I1015 10:56:52.193480 15018 layer_factory.hpp:77] Creating layer conv16_2_mbox_conf_flat
I1015 10:56:52.193487 15018 net.cpp:100] Creating Layer conv16_2_mbox_conf_flat
I1015 10:56:52.193492 15018 net.cpp:434] conv16_2_mbox_conf_flat <- conv16_2_mbox_conf_perm
I1015 10:56:52.193500 15018 net.cpp:408] conv16_2_mbox_conf_flat -> conv16_2_mbox_conf_flat
I1015 10:56:52.193540 15018 net.cpp:150] Setting up conv16_2_mbox_conf_flat
I1015 10:56:52.193547 15018 net.cpp:157] Top shape: 1 72 (72)
I1015 10:56:52.193549 15018 net.cpp:165] Memory required for data: 290020080
I1015 10:56:52.193552 15018 layer_factory.hpp:77] Creating layer conv16_2_mbox_priorbox
I1015 10:56:52.193560 15018 net.cpp:100] Creating Layer conv16_2_mbox_priorbox
I1015 10:56:52.193565 15018 net.cpp:434] conv16_2_mbox_priorbox <- conv16_2_conv16_2/relu_0_split_3
I1015 10:56:52.193572 15018 net.cpp:434] conv16_2_mbox_priorbox <- data_data_0_split_5
I1015 10:56:52.193578 15018 net.cpp:408] conv16_2_mbox_priorbox -> conv16_2_mbox_priorbox
I1015 10:56:52.193624 15018 net.cpp:150] Setting up conv16_2_mbox_priorbox
I1015 10:56:52.193630 15018 net.cpp:157] Top shape: 1 2 96 (192)
I1015 10:56:52.193632 15018 net.cpp:165] Memory required for data: 290020848
I1015 10:56:52.193636 15018 layer_factory.hpp:77] Creating layer conv17_2_mbox_loc
I1015 10:56:52.193647 15018 net.cpp:100] Creating Layer conv17_2_mbox_loc
I1015 10:56:52.193655 15018 net.cpp:434] conv17_2_mbox_loc <- conv17_2_conv17_2/relu_0_split_0
I1015 10:56:52.193661 15018 net.cpp:408] conv17_2_mbox_loc -> conv17_2_mbox_loc
I1015 10:56:52.195787 15018 net.cpp:150] Setting up conv17_2_mbox_loc
I1015 10:56:52.195799 15018 net.cpp:157] Top shape: 1 24 1 1 (24)
I1015 10:56:52.195801 15018 net.cpp:165] Memory required for data: 290020944
I1015 10:56:52.195807 15018 layer_factory.hpp:77] Creating layer conv17_2_mbox_loc_perm
I1015 10:56:52.195814 15018 net.cpp:100] Creating Layer conv17_2_mbox_loc_perm
I1015 10:56:52.195817 15018 net.cpp:434] conv17_2_mbox_loc_perm <- conv17_2_mbox_loc
I1015 10:56:52.195822 15018 net.cpp:408] conv17_2_mbox_loc_perm -> conv17_2_mbox_loc_perm
I1015 10:56:52.196035 15018 net.cpp:150] Setting up conv17_2_mbox_loc_perm
I1015 10:56:52.196046 15018 net.cpp:157] Top shape: 1 1 1 24 (24)
I1015 10:56:52.196049 15018 net.cpp:165] Memory required for data: 290021040
I1015 10:56:52.196053 15018 layer_factory.hpp:77] Creating layer conv17_2_mbox_loc_flat
I1015 10:56:52.196058 15018 net.cpp:100] Creating Layer conv17_2_mbox_loc_flat
I1015 10:56:52.196061 15018 net.cpp:434] conv17_2_mbox_loc_flat <- conv17_2_mbox_loc_perm
I1015 10:56:52.196065 15018 net.cpp:408] conv17_2_mbox_loc_flat -> conv17_2_mbox_loc_flat
I1015 10:56:52.196105 15018 net.cpp:150] Setting up conv17_2_mbox_loc_flat
I1015 10:56:52.196111 15018 net.cpp:157] Top shape: 1 24 (24)
I1015 10:56:52.196113 15018 net.cpp:165] Memory required for data: 290021136
I1015 10:56:52.196116 15018 layer_factory.hpp:77] Creating layer conv17_2_mbox_conf_new
I1015 10:56:52.196125 15018 net.cpp:100] Creating Layer conv17_2_mbox_conf_new
I1015 10:56:52.196130 15018 net.cpp:434] conv17_2_mbox_conf_new <- conv17_2_conv17_2/relu_0_split_1
I1015 10:56:52.196141 15018 net.cpp:408] conv17_2_mbox_conf_new -> conv17_2_mbox_conf
I1015 10:56:52.198326 15018 net.cpp:150] Setting up conv17_2_mbox_conf_new
I1015 10:56:52.198339 15018 net.cpp:157] Top shape: 1 18 1 1 (18)
I1015 10:56:52.198343 15018 net.cpp:165] Memory required for data: 290021208
I1015 10:56:52.198348 15018 layer_factory.hpp:77] Creating layer conv17_2_mbox_conf_perm
I1015 10:56:52.198355 15018 net.cpp:100] Creating Layer conv17_2_mbox_conf_perm
I1015 10:56:52.198359 15018 net.cpp:434] conv17_2_mbox_conf_perm <- conv17_2_mbox_conf
I1015 10:56:52.198364 15018 net.cpp:408] conv17_2_mbox_conf_perm -> conv17_2_mbox_conf_perm
I1015 10:56:52.198580 15018 net.cpp:150] Setting up conv17_2_mbox_conf_perm
I1015 10:56:52.198590 15018 net.cpp:157] Top shape: 1 1 1 18 (18)
I1015 10:56:52.198591 15018 net.cpp:165] Memory required for data: 290021280
I1015 10:56:52.198595 15018 layer_factory.hpp:77] Creating layer conv17_2_mbox_conf_flat
I1015 10:56:52.198599 15018 net.cpp:100] Creating Layer conv17_2_mbox_conf_flat
I1015 10:56:52.198603 15018 net.cpp:434] conv17_2_mbox_conf_flat <- conv17_2_mbox_conf_perm
I1015 10:56:52.198607 15018 net.cpp:408] conv17_2_mbox_conf_flat -> conv17_2_mbox_conf_flat
I1015 10:56:52.198648 15018 net.cpp:150] Setting up conv17_2_mbox_conf_flat
I1015 10:56:52.198654 15018 net.cpp:157] Top shape: 1 18 (18)
I1015 10:56:52.198657 15018 net.cpp:165] Memory required for data: 290021352
I1015 10:56:52.198658 15018 layer_factory.hpp:77] Creating layer conv17_2_mbox_priorbox
I1015 10:56:52.198667 15018 net.cpp:100] Creating Layer conv17_2_mbox_priorbox
I1015 10:56:52.198673 15018 net.cpp:434] conv17_2_mbox_priorbox <- conv17_2_conv17_2/relu_0_split_2
I1015 10:56:52.198678 15018 net.cpp:434] conv17_2_mbox_priorbox <- data_data_0_split_6
I1015 10:56:52.198686 15018 net.cpp:408] conv17_2_mbox_priorbox -> conv17_2_mbox_priorbox
I1015 10:56:52.198729 15018 net.cpp:150] Setting up conv17_2_mbox_priorbox
I1015 10:56:52.198740 15018 net.cpp:157] Top shape: 1 2 24 (48)
I1015 10:56:52.198741 15018 net.cpp:165] Memory required for data: 290021544
I1015 10:56:52.198745 15018 layer_factory.hpp:77] Creating layer mbox_loc
I1015 10:56:52.198753 15018 net.cpp:100] Creating Layer mbox_loc
I1015 10:56:52.198758 15018 net.cpp:434] mbox_loc <- conv11_mbox_loc_flat
I1015 10:56:52.198765 15018 net.cpp:434] mbox_loc <- conv13_mbox_loc_flat
I1015 10:56:52.198768 15018 net.cpp:434] mbox_loc <- conv14_2_mbox_loc_flat
I1015 10:56:52.198772 15018 net.cpp:434] mbox_loc <- conv15_2_mbox_loc_flat
I1015 10:56:52.198777 15018 net.cpp:434] mbox_loc <- conv16_2_mbox_loc_flat
I1015 10:56:52.198782 15018 net.cpp:434] mbox_loc <- conv17_2_mbox_loc_flat
I1015 10:56:52.198789 15018 net.cpp:408] mbox_loc -> mbox_loc
I1015 10:56:52.198832 15018 net.cpp:150] Setting up mbox_loc
I1015 10:56:52.198837 15018 net.cpp:157] Top shape: 1 12168 (12168)
I1015 10:56:52.198839 15018 net.cpp:165] Memory required for data: 290070216
I1015 10:56:52.198843 15018 layer_factory.hpp:77] Creating layer mbox_conf
I1015 10:56:52.198850 15018 net.cpp:100] Creating Layer mbox_conf
I1015 10:56:52.198855 15018 net.cpp:434] mbox_conf <- conv11_mbox_conf_flat
I1015 10:56:52.198860 15018 net.cpp:434] mbox_conf <- conv13_mbox_conf_flat
I1015 10:56:52.198864 15018 net.cpp:434] mbox_conf <- conv14_2_mbox_conf_flat
I1015 10:56:52.198868 15018 net.cpp:434] mbox_conf <- conv15_2_mbox_conf_flat
I1015 10:56:52.198873 15018 net.cpp:434] mbox_conf <- conv16_2_mbox_conf_flat
I1015 10:56:52.198877 15018 net.cpp:434] mbox_conf <- conv17_2_mbox_conf_flat
I1015 10:56:52.198884 15018 net.cpp:408] mbox_conf -> mbox_conf
I1015 10:56:52.198926 15018 net.cpp:150] Setting up mbox_conf
I1015 10:56:52.198935 15018 net.cpp:157] Top shape: 1 9126 (9126)
I1015 10:56:52.198937 15018 net.cpp:165] Memory required for data: 290106720
I1015 10:56:52.198941 15018 layer_factory.hpp:77] Creating layer mbox_priorbox
I1015 10:56:52.198946 15018 net.cpp:100] Creating Layer mbox_priorbox
I1015 10:56:52.198949 15018 net.cpp:434] mbox_priorbox <- conv11_mbox_priorbox
I1015 10:56:52.198954 15018 net.cpp:434] mbox_priorbox <- conv13_mbox_priorbox
I1015 10:56:52.198961 15018 net.cpp:434] mbox_priorbox <- conv14_2_mbox_priorbox
I1015 10:56:52.198966 15018 net.cpp:434] mbox_priorbox <- conv15_2_mbox_priorbox
I1015 10:56:52.198969 15018 net.cpp:434] mbox_priorbox <- conv16_2_mbox_priorbox
I1015 10:56:52.198972 15018 net.cpp:434] mbox_priorbox <- conv17_2_mbox_priorbox
I1015 10:56:52.198976 15018 net.cpp:408] mbox_priorbox -> mbox_priorbox
I1015 10:56:52.199020 15018 net.cpp:150] Setting up mbox_priorbox
I1015 10:56:52.199028 15018 net.cpp:157] Top shape: 1 2 12168 (24336)
I1015 10:56:52.199029 15018 net.cpp:165] Memory required for data: 290204064
I1015 10:56:52.199033 15018 layer_factory.hpp:77] Creating layer mbox_conf_reshape
I1015 10:56:52.199041 15018 net.cpp:100] Creating Layer mbox_conf_reshape
I1015 10:56:52.199046 15018 net.cpp:434] mbox_conf_reshape <- mbox_conf
I1015 10:56:52.199054 15018 net.cpp:408] mbox_conf_reshape -> mbox_conf_reshape
I1015 10:56:52.199096 15018 net.cpp:150] Setting up mbox_conf_reshape
I1015 10:56:52.199105 15018 net.cpp:157] Top shape: 1 3042 3 (9126)
I1015 10:56:52.199107 15018 net.cpp:165] Memory required for data: 290240568
I1015 10:56:52.199110 15018 layer_factory.hpp:77] Creating layer mbox_conf_softmax
I1015 10:56:52.199120 15018 net.cpp:100] Creating Layer mbox_conf_softmax
I1015 10:56:52.199123 15018 net.cpp:434] mbox_conf_softmax <- mbox_conf_reshape
I1015 10:56:52.199132 15018 net.cpp:408] mbox_conf_softmax -> mbox_conf_softmax
I1015 10:56:52.200280 15018 net.cpp:150] Setting up mbox_conf_softmax
I1015 10:56:52.200297 15018 net.cpp:157] Top shape: 1 3042 3 (9126)
I1015 10:56:52.200302 15018 net.cpp:165] Memory required for data: 290277072
I1015 10:56:52.200306 15018 layer_factory.hpp:77] Creating layer mbox_conf_flatten
I1015 10:56:52.200311 15018 net.cpp:100] Creating Layer mbox_conf_flatten
I1015 10:56:52.200315 15018 net.cpp:434] mbox_conf_flatten <- mbox_conf_softmax
I1015 10:56:52.200322 15018 net.cpp:408] mbox_conf_flatten -> mbox_conf_flatten
I1015 10:56:52.200367 15018 net.cpp:150] Setting up mbox_conf_flatten
I1015 10:56:52.200376 15018 net.cpp:157] Top shape: 1 9126 (9126)
I1015 10:56:52.200381 15018 net.cpp:165] Memory required for data: 290313576
I1015 10:56:52.200386 15018 layer_factory.hpp:77] Creating layer detection_out
I1015 10:56:52.200394 15018 net.cpp:100] Creating Layer detection_out
I1015 10:56:52.200398 15018 net.cpp:434] detection_out <- mbox_loc
I1015 10:56:52.200404 15018 net.cpp:434] detection_out <- mbox_conf_flatten
I1015 10:56:52.200409 15018 net.cpp:434] detection_out <- mbox_priorbox
I1015 10:56:52.200418 15018 net.cpp:408] detection_out -> detection_out
I1015 10:56:52.200517 15018 net.cpp:150] Setting up detection_out
I1015 10:56:52.200531 15018 net.cpp:157] Top shape: 1 1 1 7 (7)
I1015 10:56:52.200534 15018 net.cpp:165] Memory required for data: 290313604
I1015 10:56:52.200537 15018 layer_factory.hpp:77] Creating layer detection_eval
I1015 10:56:52.200543 15018 net.cpp:100] Creating Layer detection_eval
I1015 10:56:52.200548 15018 net.cpp:434] detection_eval <- detection_out
I1015 10:56:52.200553 15018 net.cpp:434] detection_eval <- label
I1015 10:56:52.200562 15018 net.cpp:408] detection_eval -> detection_eval
I1015 10:56:52.200639 15018 net.cpp:150] Setting up detection_eval
I1015 10:56:52.200647 15018 net.cpp:157] Top shape: 1 1 3 5 (15)
I1015 10:56:52.200649 15018 net.cpp:165] Memory required for data: 290313664
I1015 10:56:52.200651 15018 layer_factory.hpp:77] Creating layer score_32
I1015 10:56:52.200660 15018 net.cpp:100] Creating Layer score_32
I1015 10:56:52.200666 15018 net.cpp:434] score_32 <- conv13_conv13/relu_0_split_4
I1015 10:56:52.200675 15018 net.cpp:408] score_32 -> score_32
I1015 10:56:52.202863 15018 net.cpp:150] Setting up score_32
I1015 10:56:52.202875 15018 net.cpp:157] Top shape: 1 2 10 15 (300)
I1015 10:56:52.202878 15018 net.cpp:165] Memory required for data: 290314864
I1015 10:56:52.202883 15018 layer_factory.hpp:77] Creating layer upscore_16
I1015 10:56:52.202890 15018 net.cpp:100] Creating Layer upscore_16
I1015 10:56:52.202893 15018 net.cpp:434] upscore_16 <- score_32
I1015 10:56:52.202899 15018 net.cpp:408] upscore_16 -> upscore_16
I1015 10:56:52.203256 15018 net.cpp:150] Setting up upscore_16
I1015 10:56:52.203265 15018 net.cpp:157] Top shape: 1 2 20 30 (1200)
I1015 10:56:52.203267 15018 net.cpp:165] Memory required for data: 290319664
I1015 10:56:52.203272 15018 layer_factory.hpp:77] Creating layer score_16
I1015 10:56:52.203279 15018 net.cpp:100] Creating Layer score_16
I1015 10:56:52.203281 15018 net.cpp:434] score_16 <- conv11_conv11/relu_0_split_4
I1015 10:56:52.203285 15018 net.cpp:408] score_16 -> score_16
I1015 10:56:52.206146 15018 net.cpp:150] Setting up score_16
I1015 10:56:52.206162 15018 net.cpp:157] Top shape: 1 2 20 30 (1200)
I1015 10:56:52.206167 15018 net.cpp:165] Memory required for data: 290324464
I1015 10:56:52.206176 15018 layer_factory.hpp:77] Creating layer fuse_16
I1015 10:56:52.206184 15018 net.cpp:100] Creating Layer fuse_16
I1015 10:56:52.206188 15018 net.cpp:434] fuse_16 <- upscore_16
I1015 10:56:52.206194 15018 net.cpp:434] fuse_16 <- score_16
I1015 10:56:52.206202 15018 net.cpp:408] fuse_16 -> fuse_16
I1015 10:56:52.206282 15018 net.cpp:150] Setting up fuse_16
I1015 10:56:52.206291 15018 net.cpp:157] Top shape: 1 2 20 30 (1200)
I1015 10:56:52.206295 15018 net.cpp:165] Memory required for data: 290329264
I1015 10:56:52.206300 15018 layer_factory.hpp:77] Creating layer upscore_8
I1015 10:56:52.206307 15018 net.cpp:100] Creating Layer upscore_8
I1015 10:56:52.206312 15018 net.cpp:434] upscore_8 <- fuse_16
I1015 10:56:52.206318 15018 net.cpp:408] upscore_8 -> upscore_8
I1015 10:56:52.206740 15018 net.cpp:150] Setting up upscore_8
I1015 10:56:52.206753 15018 net.cpp:157] Top shape: 1 2 40 60 (4800)
I1015 10:56:52.206756 15018 net.cpp:165] Memory required for data: 290348464
I1015 10:56:52.206763 15018 layer_factory.hpp:77] Creating layer score_8
I1015 10:56:52.206773 15018 net.cpp:100] Creating Layer score_8
I1015 10:56:52.206776 15018 net.cpp:434] score_8 <- conv5_conv5/relu_0_split_1
I1015 10:56:52.206782 15018 net.cpp:408] score_8 -> score_8
I1015 10:56:52.209750 15018 net.cpp:150] Setting up score_8
I1015 10:56:52.209762 15018 net.cpp:157] Top shape: 1 2 40 60 (4800)
I1015 10:56:52.209765 15018 net.cpp:165] Memory required for data: 290367664
I1015 10:56:52.209770 15018 layer_factory.hpp:77] Creating layer fuse_8
I1015 10:56:52.209775 15018 net.cpp:100] Creating Layer fuse_8
I1015 10:56:52.209779 15018 net.cpp:434] fuse_8 <- upscore_8
I1015 10:56:52.209782 15018 net.cpp:434] fuse_8 <- score_8
I1015 10:56:52.209787 15018 net.cpp:408] fuse_8 -> fuse_8
I1015 10:56:52.209820 15018 net.cpp:150] Setting up fuse_8
I1015 10:56:52.209827 15018 net.cpp:157] Top shape: 1 2 40 60 (4800)
I1015 10:56:52.209831 15018 net.cpp:165] Memory required for data: 290386864
I1015 10:56:52.209836 15018 layer_factory.hpp:77] Creating layer upscore_4
I1015 10:56:52.209846 15018 net.cpp:100] Creating Layer upscore_4
I1015 10:56:52.209851 15018 net.cpp:434] upscore_4 <- fuse_8
I1015 10:56:52.209859 15018 net.cpp:408] upscore_4 -> upscore_4
I1015 10:56:52.210278 15018 net.cpp:150] Setting up upscore_4
I1015 10:56:52.210289 15018 net.cpp:157] Top shape: 1 2 80 120 (19200)
I1015 10:56:52.210290 15018 net.cpp:165] Memory required for data: 290463664
I1015 10:56:52.210294 15018 layer_factory.hpp:77] Creating layer score_4
I1015 10:56:52.210301 15018 net.cpp:100] Creating Layer score_4
I1015 10:56:52.210304 15018 net.cpp:434] score_4 <- conv3_conv3/relu_0_split_1
I1015 10:56:52.210309 15018 net.cpp:408] score_4 -> score_4
I1015 10:56:52.212345 15018 net.cpp:150] Setting up score_4
I1015 10:56:52.212358 15018 net.cpp:157] Top shape: 1 2 80 120 (19200)
I1015 10:56:52.212360 15018 net.cpp:165] Memory required for data: 290540464
I1015 10:56:52.212366 15018 layer_factory.hpp:77] Creating layer fuse_4
I1015 10:56:52.212371 15018 net.cpp:100] Creating Layer fuse_4
I1015 10:56:52.212374 15018 net.cpp:434] fuse_4 <- upscore_4
I1015 10:56:52.212378 15018 net.cpp:434] fuse_4 <- score_4
I1015 10:56:52.212383 15018 net.cpp:408] fuse_4 -> fuse_4
I1015 10:56:52.212417 15018 net.cpp:150] Setting up fuse_4
I1015 10:56:52.212425 15018 net.cpp:157] Top shape: 1 2 80 120 (19200)
I1015 10:56:52.212429 15018 net.cpp:165] Memory required for data: 290617264
I1015 10:56:52.212432 15018 layer_factory.hpp:77] Creating layer upscore
I1015 10:56:52.212441 15018 net.cpp:100] Creating Layer upscore
I1015 10:56:52.212446 15018 net.cpp:434] upscore <- fuse_4
I1015 10:56:52.212453 15018 net.cpp:408] upscore -> upscore
I1015 10:56:52.212884 15018 net.cpp:150] Setting up upscore
I1015 10:56:52.212896 15018 net.cpp:157] Top shape: 1 2 331 491 (325042)
I1015 10:56:52.212899 15018 net.cpp:165] Memory required for data: 291917432
I1015 10:56:52.212903 15018 layer_factory.hpp:77] Creating layer score
I1015 10:56:52.212909 15018 net.cpp:100] Creating Layer score
I1015 10:56:52.212913 15018 net.cpp:434] score <- upscore
I1015 10:56:52.212915 15018 net.cpp:434] score <- data_data_0_split_7
I1015 10:56:52.212921 15018 net.cpp:408] score -> score
I1015 10:56:52.212962 15018 net.cpp:150] Setting up score
I1015 10:56:52.212968 15018 net.cpp:157] Top shape: 1 2 320 480 (307200)
I1015 10:56:52.212970 15018 net.cpp:165] Memory required for data: 293146232
I1015 10:56:52.212973 15018 layer_factory.hpp:77] Creating layer seg_loss
I1015 10:56:52.212978 15018 net.cpp:100] Creating Layer seg_loss
I1015 10:56:52.212981 15018 net.cpp:434] seg_loss <- score
I1015 10:56:52.212985 15018 net.cpp:434] seg_loss <- label_seg
I1015 10:56:52.212990 15018 net.cpp:408] seg_loss -> seg_loss
…
