…
    batch_sampler {
      sampler {
        min_scale: 0.3
        max_scale: 1
        min_aspect_ratio: 0.5
        max_aspect_ratio: 2
      }
      sample_constraint {
        min_jaccard_overlap: 0.9
      }
      max_sample: 1
      max_trials: 50
    }
    batch_sampler {
      sampler {
        min_scale: 0.3
        max_scale: 1
        min_aspect_ratio: 0.5
        max_aspect_ratio: 2
      }
      sample_constraint {
        max_jaccard_overlap: 1
      }
      max_sample: 1
      max_trials: 50
    }
    label_map_file: "labelmap.prototxt"
  }
}
layer {
  name: "conv0"
  type: "Convolution"
  bottom: "data"
  top: "conv0"
  param {
    lr_mult: 0.1
    decay_mult: 0.1
  }
  convolution_param {
    num_output: 32
    bias_term: false
    pad: 1
    kernel_size: 3
    stride: 2
    weight_filler {
      type: "msra"
    }
  }
}
layer {
  name: "conv0/bn"
  type: "BatchNorm"
  bottom: "conv0"
  top: "conv0"
}
layer {
  name: "conv0/scale"
  type: "Scale"
  bottom: "conv0"
  top: "conv0"
  param {
    lr_mult: 0.1
    decay_mult: 0
  }
  param {
    lr_mult: 0.2
    decay_mult: 0
  }
  scale_param {
    filler {
      value: 1
    }
    bias_term: true
    bias_filler {
      value: 0
    }
  }
}
layer {
  name: "conv0/relu"
  type: "ReLU"
  bottom: "conv0"
  top: "conv0"
}
layer {
  name: "conv1/dw"
  type: "Convolution"
  bottom: "conv0"
  top: "conv1/dw"
  param {
    lr_mult: 0.1
    decay_mult: 0.1
  }
  convolution_param {
    num_output: 32
    bias_term: false
    pad: 1
    kernel_size: 3
    group: 32
    weight_filler {
      type: "msra"
    }
    engine: CAFFE
  }
}
layer {
  name: "conv1/dw/bn"
  type: "BatchNorm"
  bottom: "conv1/dw"
  top: "conv1/dw"
}
layer {
  name: "conv1/dw/scale"
  type: "Scale"
  bottom: "conv1/dw"
  top: "conv1/dw"
  param {
    lr_mult: 0.1
    decay_mult: 0
  }
  param {
    lr_mult: 0.2
    decay_mult: 0
  }
  scale_param {
    filler {
      value: 1
    }
    bias_term: true
    bias_filler {
      value: 0
    }
  }
}
layer {
  name: "conv1/dw/relu"
  type: "ReLU"
  bottom: "conv1/dw"
  top: "conv1/dw"
}
layer {
  name: "conv1"
  type: "Convolution"
  bottom: "conv1/dw"
  top: "conv1"
  param {
    lr_mult: 0.1
    decay_mult: 0.1
  }
  convolution_param {
    num_output: 64
    bias_term: false
    kernel_size: 1
    weight_filler {
      type: "msra"
    }
  }
}
layer {
  name: "conv1/bn"
  type: "BatchNorm"
  bottom: "conv1"
  top: "conv1"
}
layer {
  name: "conv1/scale"
  type: "Scale"
  bottom: "conv1"
  top: "conv1"
  param {
    lr_mult: 0.1
    decay_mult: 0
  }
  param {
    lr_mult: 0.2
    decay_mult: 0
  }
  scale_param {
    filler {
      value: 1
    }
    bias_term: true
    bias_filler {
      value: 0
    }
  }
}
layer {
  name: "conv1/relu"
  type: "ReLU"
  bottom: "conv1"
  top: "conv1"
}
layer {
  name: "conv2/dw"
  type: "Convolution"
  bottom: "conv1"
  top: "conv2/dw"
  param {
    lr_mult: 0.1
    decay_mult: 0.1
  }
  convolution_param {
    num_output: 64
    bias_term: false
    pad: 1
    kernel_size: 3
    group: 64
    stride: 2
    weight_filler {
      type: "msra"
    }
    engine: CAFFE
  }
}
layer {
  name: "conv2/dw/bn"
  type: "BatchNorm"
  bottom: "conv2/dw"
  top: "conv2/dw"
}
layer {
  name: "conv2/dw/scale"
  type: "Scale"
  bottom: "conv2/dw"
  top: "conv2/dw"
  param {
    lr_mult: 0.1
    decay_mult: 0
  }
  param {
    lr_mult: 0.2
    decay_mult: 0
  }
  scale_param {
    filler {
      value: 1
    }
    bias_term: true
    bias_filler {
      value: 0
    }
  }
}
layer {
  name: "conv2/dw/relu"
  type: "ReLU"
  bottom: "conv2/dw"
  top: "conv2/dw"
}
layer {
  name: "conv2"
  type: "Convolution"
  bottom: "conv2/dw"
  top: "conv2"
  param {
    lr_mult: 0.1
    decay_mult: 0.1
  }
  convolution_param {
    num_output: 128
    bias_term: false
    kernel_size: 1
    weight_filler {
      type: "msra"
    }
  }
}
layer {
  name: "conv2/bn"
  type: "BatchNorm"
  bottom: "conv2"
  top: "conv2"
}
layer {
  name: "conv2/scale"
  type: "Scale"
  bottom: "conv2"
  top: "conv2"
  param {
    lr_mult: 0.1
    decay_mult: 0
  }
  param {
    lr_mult: 0.2
    decay_mult: 0
  }
  scale_param {
    filler {
      value: 1
    }
    bias_term: true
    bias_filler {
      value: 0
    }
  }
}
layer {
  name: "conv2/relu"
  type: "ReLU"
  bottom: "conv2"
  top: "conv2"
}
layer {
  name: "conv3/dw"
  type: "Convolution"
  bottom: "conv2"
  top: "conv3/dw"
  param {
    lr_mult: 0.1
    decay_mult: 0.1
  }
  convolution_param {
    num_output: 128
    bias_term: false
    pad: 1
    kernel_size: 3
    group: 128
    weight_filler {
      type: "msra"
    }
    engine: CAFFE
  }
}
layer {
  name: "conv3/dw/bn"
  type: "BatchNorm"
  bottom: "conv3/dw"
  top: "conv3/dw"
}
layer {
  name: "conv3/dw/scale"
  type: "Scale"
  bottom: "conv3/dw"
  top: "conv3/dw"
  param {
    lr_mult: 0.1
    decay_mult: 0
  }
  param {
    lr_mult: 0.2
    decay_mult: 0
  }
  scale_param {
    filler {
      value: 1
    }
    bias_term: true
    bias_filler {
      value: 0
    }
  }
}
layer {
  name: "conv3/dw/relu"
  type: "ReLU"
  bottom: "conv3/dw"
  top: "conv3/dw"
}
layer {
  name: "conv3"
  type: "Convolution"
  bottom: "conv3/dw"
  top: "conv3"
  param {
    lr_mult: 0.1
    decay_mult: 0.1
  }
  convolution_param {
    num_output: 128
    bias_term: false
    kernel_size: 1
    weight_filler {
      type: "msra"
    }
  }
}
layer {
  name: "conv3/bn"
  type: "BatchNorm"
  bottom: "conv3"
  top: "conv3"
}
layer {
  name: "conv3/scale"
  type: "Scale"
  bottom: "conv3"
  top: "conv3"
  param {
    lr_mult: 0.1
    decay_mult: 0
  }
  param {
    lr_mult: 0.2
    decay_mult: 0
  }
  scale_param {
    filler {
      value: 1
    }
    bias_term: true
    bias_filler {
      value: 0
    }
  }
}
layer {
  name: "conv3/relu"
  type: "ReLU"
  bottom: "conv3"
  top: "conv3"
}
layer {
  name: "conv4/dw"
  type: "Convolution"
  bottom: "conv3"
  top: "conv4/dw"
  param {
    lr_mult: 0.1
    decay_mult: 0.1
  }
  convolution_param {
    num_output: 128
    bias_term: false
    pad: 1
    kernel_size: 3
    group: 128
    stride: 2
    weight_filler {
      type: "msra"
    }
    engine: CAFFE
  }
}
layer {
  name: "conv4/dw/bn"
  type: "BatchNorm"
  bottom: "conv4/dw"
  top: "conv4/dw"
}
layer {
  name: "conv4/dw/scale"
  type: "Scale"
  bottom: "conv4/dw"
  top: "conv4/dw"
  param {
    lr_mult: 0.1
    decay_mult: 0
  }
  param {
    lr_mult: 0.2
    decay_mult: 0
  }
  scale_param {
    filler {
      value: 1
    }
    bias_term: true
    bias_filler {
      value: 0
    }
  }
}
layer {
  name: "conv4/dw/relu"
  type: "ReLU"
  bottom: "conv4/dw"
  top: "conv4/dw"
}
layer {
  name: "conv4"
  type: "Convolution"
  bottom: "conv4/dw"
  top: "conv4"
  param {
    lr_mult: 0.1
    decay_mult: 0.1
  }
  convolution_param {
    num_output: 256
    bias_term: false
    kernel_size: 1
    weight_filler {
      type: "msra"
    }
  }
}
layer {
  name: "conv4/bn"
  type: "BatchNorm"
  bottom: "conv4"
  top: "conv4"
}
layer {
  name: "conv4/scale"
  type: "Scale"
  bottom: "conv4"
  top: "conv4"
  param {
    lr_mult: 0.1
    decay_mult: 0
  }
  param {
    lr_mult: 0.2
    decay_mult: 0
  }
  scale_param {
    filler {
      value: 1
    }
    bias_term: true
    bias_filler {
      value: 0
    }
  }
}
layer {
  name: "conv4/relu"
  type: "ReLU"
  bottom: "conv4"
  top: "conv4"
}
layer {
  name: "conv5/dw"
  type: "Convolution"
  bottom: "conv4"
  top: "conv5/dw"
  param {
    lr_mult: 0.1
    decay_mult: 0.1
  }
  convolution_param {
    num_output: 256
    bias_term: false
    pad: 1
    kernel_size: 3
    group: 256
    weight_filler {
      type: "msra"
    }
    engine: CAFFE
  }
}
layer {
  name: "conv5/dw/bn"
  type: "BatchNorm"
  bottom: "conv5/dw"
  top: "conv5/dw"
}
layer {
  name: "conv5/dw/scale"
  type: "Scale"
  bottom: "conv5/dw"
  top: "conv5/dw"
  param {
    lr_mult: 0.1
    decay_mult: 0
  }
  param {
    lr_mult: 0.2
    decay_mult: 0
  }
  scale_param {
    filler {
      value: 1
    }
    bias_term: true
    bias_filler {
      value: 0
    }
  }
}
layer {
  name: "conv5/dw/relu"
  type: "ReLU"
  bottom: "conv5/dw"
  top: "conv5/dw"
}
layer {
  name: "conv5"
  type: "Convolution"
  bottom: "conv5/dw"
  top: "conv5"
  param {
    lr_mult: 0.1
    decay_mult: 0.1
  }
  convolution_param {
    num_output: 256
    bias_term: false
    kernel_size: 1
    weight_filler {
      type: "msra"
    }
  }
}
layer {
  name: "conv5/bn"
  type: "BatchNorm"
  bottom: "conv5"
  top: "conv5"
}
layer {
  name: "conv5/scale"
  type: "Scale"
  bottom: "conv5"
  top: "conv5"
  param {
    lr_mult: 0.1
    decay_mult: 0
  }
  param {
    lr_mult: 0.2
    decay_mult: 0
  }
  scale_param {
    filler {
      value: 1
    }
    bias_term: true
    bias_filler {
      value: 0
    }
  }
}
layer {
  name: "conv5/relu"
  type: "ReLU"
  bottom: "conv5"
  top: "conv5"
}
layer {
  name: "conv6/dw"
  type: "Convolution"
  bottom: "conv5"
  top: "conv6/dw"
  param {
    lr_mult: 0.1
    decay_mult: 0.1
  }
  convolution_param {
    num_output: 256
    bias_term: false
    pad: 1
    kernel_size: 3
    group: 256
    stride: 2
    weight_filler {
      type: "msra"
    }
    engine: CAFFE
  }
}
layer {
  name: "conv6/dw/bn"
  type: "BatchNorm"
  bottom: "conv6/dw"
  top: "conv6/dw"
}
layer {
  name: "conv6/dw/scale"
  type: "Scale"
  bottom: "conv6/dw"
  top: "conv6/dw"
  param {
    lr_mult: 0.1
    decay_mult: 0
  }
  param {
    lr_mult: 0.2
    decay_mult: 0
  }
  scale_param {
    filler {
      value: 1
    }
    bias_term: true
    bias_filler {
      value: 0
    }
  }
}
layer {
  name: "conv6/dw/relu"
  type: "ReLU"
  bottom: "conv6/dw"
  top: "conv6/dw"
}
layer {
  name: "conv6"
  type: "Convolution"
  bottom: "conv6/dw"
  top: "conv6"
  param {
    lr_mult: 0.1
    decay_mult: 0.1
  }
  convolution_param {
    num_output: 512
    bias_term: false
    kernel_size: 1
    weight_filler {
      type: "msra"
    }
  }
}
layer {
  name: "conv6/bn"
  type: "BatchNorm"
  bottom: "conv6"
  top: "conv6"
}
layer {
  name: "conv6/scale"
  type: "Scale"
  bottom: "conv6"
  top: "conv6"
  param {
    lr_mult: 0.1
    decay_mult: 0
  }
  param {
    lr_mult: 0.2
    decay_mult: 0
  }
  scale_param {
    filler {
      value: 1
    }
    bias_term: true
    bias_filler {
      value: 0
    }
  }
}
layer {
  name: "conv6/relu"
  type: "ReLU"
  bottom: "conv6"
  top: "conv6"
}
layer {
  name: "conv7/dw"
  type: "Convolution"
  bottom: "conv6"
  top: "conv7/dw"
  param {
    lr_mult: 0.1
    decay_mult: 0.1
  }
  convolution_param {
    num_output: 512
    bias_term: false
    pad: 1
    kernel_size: 3
    group: 512
    weight_filler {
      type: "msra"
    }
    engine: CAFFE
  }
}
layer {
  name: "conv7/dw/bn"
  type: "BatchNorm"
  bottom: "conv7/dw"
  top: "conv7/dw"
}
layer {
  name: "conv7/dw/scale"
  type: "Scale"
  bottom: "conv7/dw"
  top: "conv7/dw"
  param {
    lr_mult: 0.1
    decay_mult: 0
  }
  param {
    lr_mult: 0.2
    decay_mult: 0
  }
  scale_param {
    filler {
      value: 1
    }
    bias_term: true
    bias_filler {
      value: 0
    }
  }
}
layer {
  name: "conv7/dw/relu"
  type: "ReLU"
  bottom: "conv7/dw"
  top: "conv7/dw"
}
layer {
  name: "conv7"
  type: "Convolution"
  bottom: "conv7/dw"
  top: "conv7"
  param {
    lr_mult: 0.1
    decay_mult: 0.1
  }
  convolution_param {
    num_output: 512
    bias_term: false
    kernel_size: 1
    weight_filler {
      type: "msra"
    }
  }
}
layer {
  name: "conv7/bn"
  type: "BatchNorm"
  bottom: "conv7"
  top: "conv7"
}
layer {
  name: "conv7/scale"
  type: "Scale"
  bottom: "conv7"
  top: "conv7"
  param {
    lr_mult: 0.1
    decay_mult: 0
  }
  param {
    lr_mult: 0.2
    decay_mult: 0
  }
  scale_param {
    filler {
      value: 1
    }
    bias_term: true
    bias_filler {
      value: 0
    }
  }
}
layer {
  name: "conv7/relu"
  type: "ReLU"
  bottom: "conv7"
  top: "conv7"
}
layer {
  name: "conv8/dw"
  type: "Convolution"
  bottom: "conv7"
  top: "conv8/dw"
  param {
    lr_mult: 0.1
    decay_mult: 0.1
  }
  convolution_param {
    num_output: 512
    bias_term: false
    pad: 1
    kernel_size: 3
    group: 512
    weight_filler {
      type: "msra"
    }
    engine: CAFFE
  }
}
layer {
  name: "conv8/dw/bn"
  type: "BatchNorm"
  bottom: "conv8/dw"
  top: "conv8/dw"
}
layer {
  name: "conv8/dw/scale"
  type: "Scale"
  bottom: "conv8/dw"
  top: "conv8/dw"
  param {
    lr_mult: 0.1
    decay_mult: 0
  }
  param {
    lr_mult: 0.2
    decay_mult: 0
  }
  scale_param {
    filler {
      value: 1
    }
    bias_term: true
    bias_filler {
      value: 0
    }
  }
}
layer {
  name: "conv8/dw/relu"
  type: "ReLU"
  bottom: "conv8/dw"
  top: "conv8/dw"
}
layer {
  name: "conv8"
  type: "Convolution"
  bottom: "conv8/dw"
  top: "conv8"
  param {
    lr_mult: 0.1
    decay_mult: 0.1
  }
  convolution_param {
    num_output: 512
    bias_term: false
    kernel_size: 1
    weight_filler {
      type: "msra"
    }
  }
}
layer {
  name: "conv8/bn"
  type: "BatchNorm"
  bottom: "conv8"
  top: "conv8"
}
layer {
  name: "conv8/scale"
  type: "Scale"
  bottom: "conv8"
  top: "conv8"
  param {
    lr_mult: 0.1
    decay_mult: 0
  }
  param {
    lr_mult: 0.2
    decay_mult: 0
  }
  scale_param {
    filler {
      value: 1
    }
    bias_term: true
    bias_filler {
      value: 0
    }
  }
}
layer {
  name: "conv8/relu"
  type: "ReLU"
  bottom: "conv8"
  top: "conv8"
}
layer {
  name: "conv9/dw"
  type: "Convolution"
  bottom: "conv8"
  top: "conv9/dw"
  param {
    lr_mult: 0.1
    decay_mult: 0.1
  }
  convolution_param {
    num_output: 512
    bias_term: false
    pad: 1
    kernel_size: 3
    group: 512
    weight_filler {
      type: "msra"
    }
    engine: CAFFE
  }
}
layer {
  name: "conv9/dw/bn"
  type: "BatchNorm"
  bottom: "conv9/dw"
  top: "conv9/dw"
}
layer {
  name: "conv9/dw/scale"
  type: "Scale"
  bottom: "conv9/dw"
  top: "conv9/dw"
  param {
    lr_mult: 0.1
    decay_mult: 0
  }
  param {
    lr_mult: 0.2
    decay_mult: 0
  }
  scale_param {
    filler {
      value: 1
    }
    bias_term: true
    bias_filler {
      value: 0
    }
  }
}
layer {
  name: "conv9/dw/relu"
  type: "ReLU"
  bottom: "conv9/dw"
  top: "conv9/dw"
}
layer {
  name: "conv9"
  type: "Convolution"
  bottom: "conv9/dw"
  top: "conv9"
  param {
    lr_mult: 0.1
    decay_mult: 0.1
  }
  convolution_param {
    num_output: 512
    bias_term: false
    kernel_size: 1
    weight_filler {
      type: "msra"
    }
  }
}
layer {
  name: "conv9/bn"
  type: "BatchNorm"
  bottom: "conv9"
  top: "conv9"
}
layer {
  name: "conv9/scale"
  type: "Scale"
  bottom: "conv9"
  top: "conv9"
  param {
    lr_mult: 0.1
    decay_mult: 0
  }
  param {
    lr_mult: 0.2
    decay_mult: 0
  }
  scale_param {
    filler {
      value: 1
    }
    bias_term: true
    bias_filler {
      value: 0
    }
  }
}
layer {
  name: "conv9/relu"
  type: "ReLU"
  bottom: "conv9"
  top: "conv9"
}
layer {
  name: "conv10/dw"
  type: "Convolution"
  bottom: "conv9"
  top: "conv10/dw"
  param {
    lr_mult: 0.1
    decay_mult: 0.1
  }
  convolution_param {
    num_output: 512
    bias_term: false
    pad: 1
    kernel_size: 3
    group: 512
    weight_filler {
      type: "msra"
    }
    engine: CAFFE
  }
}
layer {
  name: "conv10/dw/bn"
  type: "BatchNorm"
  bottom: "conv10/dw"
  top: "conv10/dw"
}
layer {
  name: "conv10/dw/scale"
  type: "Scale"
  bottom: "conv10/dw"
  top: "conv10/dw"
  param {
    lr_mult: 0.1
    decay_mult: 0
  }
  param {
    lr_mult: 0.2
    decay_mult: 0
  }
  scale_param {
    filler {
      value: 1
    }
    bias_term: true
    bias_filler {
      value: 0
    }
  }
}
layer {
  name: "conv10/dw/relu"
  type: "ReLU"
  bottom: "conv10/dw"
  top: "conv10/dw"
}
layer {
  name: "conv10"
  type: "Convolution"
  bottom: "conv10/dw"
  top: "conv10"
  param {
    lr_mult: 0.1
    decay_mult: 0.1
  }
  convolution_param {
    num_output: 512
    bias_term: false
    kernel_size: 1
    weight_filler {
      type: "msra"
    }
  }
}
layer {
  name: "conv10/bn"
  type: "BatchNorm"
  bottom: "conv10"
  top: "conv10"
}
layer {
  name: "conv10/scale"
  type: "Scale"
  bottom: "conv10"
  top: "conv10"
  param {
    lr_mult: 0.1
    decay_mult: 0
  }
  param {
    lr_mult: 0.2
    decay_mult: 0
  }
  scale_param {
    filler {
      value: 1
    }
    bias_term: true
    bias_filler {
      value: 0
    }
  }
}
layer {
  name: "conv10/relu"
  type: "ReLU"
  bottom: "conv10"
  top: "conv10"
}
layer {
  name: "conv11/dw"
  type: "Convolution"
  bottom: "conv10"
  top: "conv11/dw"
  param {
    lr_mult: 0.1
    decay_mult: 0.1
  }
  convolution_param {
    num_output: 512
    bias_term: false
    pad: 1
    kernel_size: 3
    group: 512
    weight_filler {
      type: "msra"
    }
    engine: CAFFE
  }
}
layer {
  name: "conv11/dw/bn"
  type: "BatchNorm"
  bottom: "conv11/dw"
  top: "conv11/dw"
}
layer {
  name: "conv11/dw/scale"
  type: "Scale"
  bottom: "conv11/dw"
  top: "conv11/dw"
  param {
    lr_mult: 0.1
    decay_mult: 0
  }
  param {
    lr_mult: 0.2
    decay_mult: 0
  }
  scale_param {
    filler {
      value: 1
    }
    bias_term: true
    bias_filler {
      value: 0
    }
  }
}
layer {
  name: "conv11/dw/relu"
  type: "ReLU"
  bottom: "conv11/dw"
  top: "conv11/dw"
}
layer {
  name: "conv11"
  type: "Convolution"
  bottom: "conv11/dw"
  top: "conv11"
  param {
    lr_mult: 0.1
    decay_mult: 0.1
  }
  convolution_param {
    num_output: 512
    bias_term: false
    kernel_size: 1
    weight_filler {
      type: "msra"
    }
  }
}
layer {
  name: "conv11/bn"
  type: "BatchNorm"
  bottom: "conv11"
  top: "conv11"
}
layer {
  name: "conv11/scale"
  type: "Scale"
  bottom: "conv11"
  top: "conv11"
  param {
    lr_mult: 0.1
    decay_mult: 0
  }
  param {
    lr_mult: 0.2
    decay_mult: 0
  }
  scale_param {
    filler {
      value: 1
    }
    bias_term: true
    bias_filler {
      value: 0
    }
  }
}
layer {
  name: "conv11/relu"
  type: "ReLU"
  bottom: "conv11"
  top: "conv11"
}
layer {
  name: "conv12/dw"
  type: "Convolution"
  bottom: "conv11"
  top: "conv12/dw"
  param {
    lr_mult: 0.1
    decay_mult: 0.1
  }
  convolution_param {
    num_output: 512
    bias_term: false
    pad: 1
    kernel_size: 3
    group: 512
    stride: 2
    weight_filler {
      type: "msra"
    }
    engine: CAFFE
  }
}
layer {
  name: "conv12/dw/bn"
  type: "BatchNorm"
  bottom: "conv12/dw"
  top: "conv12/dw"
}
layer {
  name: "conv12/dw/scale"
  type: "Scale"
  bottom: "conv12/dw"
  top: "conv12/dw"
  param {
    lr_mult: 0.1
    decay_mult: 0
  }
  param {
    lr_mult: 0.2
    decay_mult: 0
  }
  scale_param {
    filler {
      value: 1
    }
    bias_term: true
    bias_filler {
      value: 0
    }
  }
}
layer {
  name: "conv12/dw/relu"
  type: "ReLU"
  bottom: "conv12/dw"
  top: "conv12/dw"
}
layer {
  name: "conv12"
  type: "Convolution"
  bottom: "conv12/dw"
  top: "conv12"
  param {
    lr_mult: 0.1
    decay_mult: 0.1
  }
  convolution_param {
    num_output: 1024
    bias_term: false
    kernel_size: 1
    weight_filler {
      type: "msra"
    }
  }
}
layer {
  name: "conv12/bn"
  type: "BatchNorm"
  bottom: "conv12"
  top: "conv12"
}
layer {
  name: "conv12/scale"
  type: "Scale"
  bottom: "conv12"
  top: "conv12"
  param {
    lr_mult: 0.1
    decay_mult: 0
  }
  param {
    lr_mult: 0.2
    decay_mult: 0
  }
  scale_param {
    filler {
      value: 1
    }
    bias_term: true
    bias_filler {
      value: 0
    }
  }
}
layer {
  name: "conv12/relu"
  type: "ReLU"
  bottom: "conv12"
  top: "conv12"
}
layer {
  name: "conv13/dw"
  type: "Convolution"
  bottom: "conv12"
  top: "conv13/dw"
  param {
    lr_mult: 0.1
    decay_mult: 0.1
  }
  convolution_param {
    num_output: 1024
    bias_term: false
    pad: 1
    kernel_size: 3
    group: 1024
    weight_filler {
      type: "msra"
    }
    engine: CAFFE
  }
}
layer {
  name: "conv13/dw/bn"
  type: "BatchNorm"
  bottom: "conv13/dw"
  top: "conv13/dw"
}
layer {
  name: "conv13/dw/scale"
  type: "Scale"
  bottom: "conv13/dw"
  top: "conv13/dw"
  param {
    lr_mult: 0.1
    decay_mult: 0
  }
  param {
    lr_mult: 0.2
    decay_mult: 0
  }
  scale_param {
    filler {
      value: 1
    }
    bias_term: true
    bias_filler {
      value: 0
    }
  }
}
layer {
  name: "conv13/dw/relu"
  type: "ReLU"
  bottom: "conv13/dw"
  top: "conv13/dw"
}
layer {
  name: "conv13"
  type: "Convolution"
  bottom: "conv13/dw"
  top: "conv13"
  param {
    lr_mult: 0.1
    decay_mult: 0.1
  }
  convolution_param {
    num_output: 1024
    bias_term: false
    kernel_size: 1
    weight_filler {
      type: "msra"
    }
  }
}
layer {
  name: "conv13/bn"
  type: "BatchNorm"
  bottom: "conv13"
  top: "conv13"
}
layer {
  name: "conv13/scale"
  type: "Scale"
  bottom: "conv13"
  top: "conv13"
  param {
    lr_mult: 0.1
    decay_mult: 0
  }
  param {
    lr_mult: 0.2
    decay_mult: 0
  }
  scale_param {
    filler {
      value: 1
    }
    bias_term: true
    bias_filler {
      value: 0
    }
  }
}
layer {
  name: "conv13/relu"
  type: "ReLU"
  bottom: "conv13"
  top: "conv13"
}
layer {
  name: "conv14_1"
  type: "Convolution"
  bottom: "conv13"
  top: "conv14_1"
  param {
    lr_mult: 0.1
    decay_mult: 0.1
  }
  convolution_param {
    num_output: 256
    bias_term: false
    kernel_size: 1
    weight_filler {
      type: "msra"
    }
  }
}
layer {
  name: "conv14_1/bn"
  type: "BatchNorm"
  bottom: "conv14_1"
  top: "conv14_1"
}
layer {
  name: "conv14_1/scale"
  type: "Scale"
  bottom: "conv14_1"
  top: "conv14_1"
  param {
    lr_mult: 0.1
    decay_mult: 0
  }
  param {
    lr_mult: 0.2
    decay_mult: 0
  }
  scale_param {
    filler {
      value: 1
    }
    bias_term: true
    bias_filler {
      value: 0
    }
  }
}
layer {
  name: "conv14_1/relu"
  type: "ReLU"
  bottom: "conv14_1"
  top: "conv14_1"
}
layer {
  name: "conv14_2"
  type: "Convolution"
  bottom: "conv14_1"
  top: "conv14_2"
  param {
    lr_mult: 0.1
    decay_mult: 0.1
  }
  convolution_param {
    num_output: 512
    bias_term: false
    pad: 1
    kernel_size: 3
    stride: 2
    weight_filler {
      type: "msra"
    }
  }
}
layer {
  name: "conv14_2/bn"
  type: "BatchNorm"
  bottom: "conv14_2"
  top: "conv14_2"
}
layer {
  name: "conv14_2/scale"
  type: "Scale"
  bottom: "conv14_2"
  top: "conv14_2"
  param {
    lr_mult: 0.1
    decay_mult: 0
  }
  param {
    lr_mult: 0.2
    decay_mult: 0
  }
  scale_param {
    filler {
      value: 1
    }
    bias_term: true
    bias_filler {
      value: 0
    }
  }
}
layer {
  name: "conv14_2/relu"
  type: "ReLU"
  bottom: "conv14_2"
  top: "conv14_2"
}
layer {
  name: "conv15_1"
  type: "Convolution"
  bottom: "conv14_2"
  top: "conv15_1"
  param {
    lr_mult: 0.1
    decay_mult: 0.1
  }
  convolution_param {
    num_output: 128
    bias_term: false
    kernel_size: 1
    weight_filler {
      type: "msra"
    }
  }
}
layer {
  name: "conv15_1/bn"
  type: "BatchNorm"
  bottom: "conv15_1"
  top: "conv15_1"
}
layer {
  name: "conv15_1/scale"
  type: "Scale"
  bottom: "conv15_1"
  top: "conv15_1"
  param {
    lr_mult: 0.1
    decay_mult: 0
  }
  param {
    lr_mult: 0.2
    decay_mult: 0
  }
  scale_param {
    filler {
      value: 1
    }
    bias_term: true
    bias_filler {
      value: 0
    }
  }
}
layer {
  name: "conv15_1/relu"
  type: "ReLU"
  bottom: "conv15_1"
  top: "conv15_1"
}
layer {
  name: "conv15_2"
  type: "Convolution"
  bottom: "conv15_1"
  top: "conv15_2"
  param {
    lr_mult: 0.1
    decay_mult: 0.1
  }
  convolution_param {
    num_output: 256
    bias_term: false
    pad: 1
    kernel_size: 3
    stride: 2
    weight_filler {
      type: "msra"
    }
  }
}
layer {
  name: "conv15_2/bn"
  type: "BatchNorm"
  bottom: "conv15_2"
  top: "conv15_2"
}
layer {
  name: "conv15_2/scale"
  type: "Scale"
  bottom: "conv15_2"
  top: "conv15_2"
  param {
    lr_mult: 0.1
    decay_mult: 0
  }
  param {
    lr_mult: 0.2
    decay_mult: 0
  }
  scale_param {
    filler {
      value: 1
    }
    bias_term: true
    bias_filler {
      value: 0
    }
  }
}
layer {
  name: "conv15_2/relu"
  type: "ReLU"
  bottom: "conv15_2"
  top: "conv15_2"
}
layer {
  name: "conv16_1"
  type: "Convolution"
  bottom: "conv15_2"
  top: "conv16_1"
  param {
    lr_mult: 0.1
    decay_mult: 0.1
  }
  convolution_param {
    num_output: 128
    bias_term: false
    kernel_size: 1
    weight_filler {
      type: "msra"
    }
  }
}
layer {
  name: "conv16_1/bn"
  type: "BatchNorm"
  bottom: "conv16_1"
  top: "conv16_1"
}
layer {
  name: "conv16_1/scale"
  type: "Scale"
  bottom: "conv16_1"
  top: "conv16_1"
  param {
    lr_mult: 0.1
    decay_mult: 0
  }
  param {
    lr_mult: 0.2
    decay_mult: 0
  }
  scale_param {
    filler {
      value: 1
    }
    bias_term: true
    bias_filler {
      value: 0
    }
  }
}
layer {
  name: "conv16_1/relu"
  type: "ReLU"
  bottom: "conv16_1"
  top: "conv16_1"
}
layer {
  name: "conv16_2"
  type: "Convolution"
  bottom: "conv16_1"
  top: "conv16_2"
  param {
    lr_mult: 0.1
    decay_mult: 0.1
  }
  convolution_param {
    num_output: 256
    bias_term: false
    pad: 1
    kernel_size: 3
    stride: 2
    weight_filler {
      type: "msra"
    }
  }
}
layer {
  name: "conv16_2/bn"
  type: "BatchNorm"
  bottom: "conv16_2"
  top: "conv16_2"
}
layer {
  name: "conv16_2/scale"
  type: "Scale"
  bottom: "conv16_2"
  top: "conv16_2"
  param {
    lr_mult: 0.1
    decay_mult: 0
  }
  param {
    lr_mult: 0.2
    decay_mult: 0
  }
  scale_param {
    filler {
      value: 1
    }
    bias_term: true
    bias_filler {
      value: 0
    }
  }
}
layer {
  name: "conv16_2/relu"
  type: "ReLU"
  bottom: "conv16_2"
  top: "conv16_2"
}
layer {
  name: "conv17_1"
  type: "Convolution"
  bottom: "conv16_2"
  top: "conv17_1"
  param {
    lr_mult: 0.1
    decay_mult: 0.1
  }
  convolution_param {
    num_output: 64
    bias_term: false
    kernel_size: 1
    weight_filler {
      type: "msra"
    }
  }
}
layer {
  name: "conv17_1/bn"
  type: "BatchNorm"
  bottom: "conv17_1"
  top: "conv17_1"
}
layer {
  name: "conv17_1/scale"
  type: "Scale"
  bottom: "conv17_1"
  top: "conv17_1"
  param {
    lr_mult: 0.1
    decay_mult: 0
  }
  param {
    lr_mult: 0.2
    decay_mult: 0
  }
  scale_param {
    filler {
      value: 1
    }
    bias_term: true
    bias_filler {
      value: 0
    }
  }
}
layer {
  name: "conv17_1/relu"
  type: "ReLU"
  bottom: "conv17_1"
  top: "conv17_1"
}
layer {
  name: "conv17_2"
  type: "Convolution"
  bottom: "conv17_1"
  top: "conv17_2"
  param {
    lr_mult: 0.1
    decay_mult: 0.1
  }
  convolution_param {
    num_output: 128
    bias_term: false
    pad: 1
    kernel_size: 3
    stride: 2
    weight_filler {
      type: "msra"
    }
  }
}
layer {
  name: "conv17_2/bn"
  type: "BatchNorm"
  bottom: "conv17_2"
  top: "conv17_2"
}
layer {
  name: "conv17_2/scale"
  type: "Scale"
  bottom: "conv17_2"
  top: "conv17_2"
  param {
    lr_mult: 0.1
    decay_mult: 0
  }
  param {
    lr_mult: 0.2
    decay_mult: 0
  }
  scale_param {
    filler {
      value: 1
    }
    bias_term: true
    bias_filler {
      value: 0
    }
  }
}
layer {
  name: "conv17_2/relu"
  type: "ReLU"
  bottom: "conv17_2"
  top: "conv17_2"
}
layer {
  name: "conv11_mbox_loc"
  type: "Convolution"
  bottom: "conv11"
  top: "conv11_mbox_loc"
  param {
    lr_mult: 0.1
    decay_mult: 0.1
  }
  param {
    lr_mult: 0.2
    decay_mult: 0
  }
  convolution_param {
    num_output: 12
    kernel_size: 1
    weight_filler {
      type: "msra"
    }
    bias_filler {
      type: "constant"
      value: 0
    }
  }
}
layer {
  name: "conv11_mbox_loc_perm"
  type: "Permute"
  bottom: "conv11_mbox_loc"
  top: "conv11_mbox_loc_perm"
  permute_param {
    order: 0
 
I1018 15:42:56.808132  4846 layer_factory.hpp:77] Creating layer data
I1018 15:42:56.808280  4846 net.cpp:100] Creating Layer data
I1018 15:42:56.808296  4846 net.cpp:408] data -> data
I1018 15:42:56.808327  4846 net.cpp:408] data -> label
I1018 15:42:56.810791  4855 db_lmdb.cpp:35] Opened lmdb lmdb/trainval_lmdb/
I1018 15:42:56.825651  4846 annotated_data_layer.cpp:73] output data size: 12,3,320,480
I1018 15:42:56.861271  4846 net.cpp:150] Setting up data
I1018 15:42:56.861301  4846 net.cpp:157] Top shape: 12 3 320 480 (5529600)
I1018 15:42:56.861307  4846 net.cpp:157] Top shape: 1 1 18 8 (144)
I1018 15:42:56.861310  4846 net.cpp:165] Memory required for data: 22118976
I1018 15:42:56.861322  4846 layer_factory.hpp:77] Creating layer data_data_0_split
I1018 15:42:56.861340  4846 net.cpp:100] Creating Layer data_data_0_split
I1018 15:42:56.861346  4846 net.cpp:434] data_data_0_split <- data
I1018 15:42:56.861361  4846 net.cpp:408] data_data_0_split -> data_data_0_split_0
I1018 15:42:56.861373  4846 net.cpp:408] data_data_0_split -> data_data_0_split_1
I1018 15:42:56.861379  4846 net.cpp:408] data_data_0_split -> data_data_0_split_2
I1018 15:42:56.861388  4846 net.cpp:408] data_data_0_split -> data_data_0_split_3
I1018 15:42:56.861394  4846 net.cpp:408] data_data_0_split -> data_data_0_split_4
I1018 15:42:56.861400  4846 net.cpp:408] data_data_0_split -> data_data_0_split_5
I1018 15:42:56.861405  4846 net.cpp:408] data_data_0_split -> data_data_0_split_6
I1018 15:42:56.861534  4846 net.cpp:150] Setting up data_data_0_split
I1018 15:42:56.861546  4846 net.cpp:157] Top shape: 12 3 320 480 (5529600)
I1018 15:42:56.861549  4846 net.cpp:157] Top shape: 12 3 320 480 (5529600)
I1018 15:42:56.861572  4846 net.cpp:157] Top shape: 12 3 320 480 (5529600)
I1018 15:42:56.861574  4846 net.cpp:157] Top shape: 12 3 320 480 (5529600)
I1018 15:42:56.861578  4846 net.cpp:157] Top shape: 12 3 320 480 (5529600)
I1018 15:42:56.861582  4846 net.cpp:157] Top shape: 12 3 320 480 (5529600)
I1018 15:42:56.861587  4846 net.cpp:157] Top shape: 12 3 320 480 (5529600)
I1018 15:42:56.861588  4846 net.cpp:165] Memory required for data: 176947776
I1018 15:42:56.861591  4846 layer_factory.hpp:77] Creating layer conv0
I1018 15:42:56.861610  4846 net.cpp:100] Creating Layer conv0
I1018 15:42:56.861614  4846 net.cpp:434] conv0 <- data_data_0_split_0
I1018 15:42:56.861619  4846 net.cpp:408] conv0 -> conv0
I1018 15:42:57.460171  4846 net.cpp:150] Setting up conv0
I1018 15:42:57.460198  4846 net.cpp:157] Top shape: 12 32 160 240 (14745600)
I1018 15:42:57.460203  4846 net.cpp:165] Memory required for data: 235930176
I1018 15:42:57.460237  4846 layer_factory.hpp:77] Creating layer conv0/bn
I1018 15:42:57.460247  4846 net.cpp:100] Creating Layer conv0/bn
I1018 15:42:57.460252  4846 net.cpp:434] conv0/bn <- conv0
I1018 15:42:57.460258  4846 net.cpp:395] conv0/bn -> conv0 (in-place)
I1018 15:42:57.461230  4846 net.cpp:150] Setting up conv0/bn
I1018 15:42:57.461243  4846 net.cpp:157] Top shape: 12 32 160 240 (14745600)
I1018 15:42:57.461249  4846 net.cpp:165] Memory required for data: 294912576
I1018 15:42:57.461261  4846 layer_factory.hpp:77] Creating layer conv0/scale
I1018 15:42:57.461273  4846 net.cpp:100] Creating Layer conv0/scale
I1018 15:42:57.461278  4846 net.cpp:434] conv0/scale <- conv0
I1018 15:42:57.461284  4846 net.cpp:395] conv0/scale -> conv0 (in-place)
I1018 15:42:57.461333  4846 layer_factory.hpp:77] Creating layer conv0/scale
I1018 15:42:57.461482  4846 net.cpp:150] Setting up conv0/scale
I1018 15:42:57.461491  4846 net.cpp:157] Top shape: 12 32 160 240 (14745600)
I1018 15:42:57.461496  4846 net.cpp:165] Memory required for data: 353894976
I1018 15:42:57.461504  4846 layer_factory.hpp:77] Creating layer conv0/relu
I1018 15:42:57.461511  4846 net.cpp:100] Creating Layer conv0/relu
I1018 15:42:57.461513  4846 net.cpp:434] conv0/relu <- conv0
I1018 15:42:57.461520  4846 net.cpp:395] conv0/relu -> conv0 (in-place)
I1018 15:42:57.461879  4846 net.cpp:150] Setting up conv0/relu
I1018 15:42:57.461891  4846 net.cpp:157] Top shape: 12 32 160 240 (14745600)
I1018 15:42:57.461895  4846 net.cpp:165] Memory required for data: 412877376
I1018 15:42:57.461900  4846 layer_factory.hpp:77] Creating layer conv1/dw
I1018 15:42:57.461910  4846 net.cpp:100] Creating Layer conv1/dw
I1018 15:42:57.461913  4846 net.cpp:434] conv1/dw <- conv0
I1018 15:42:57.461920  4846 net.cpp:408] conv1/dw -> conv1/dw
I1018 15:42:57.462100  4846 net.cpp:150] Setting up conv1/dw
I1018 15:42:57.462110  4846 net.cpp:157] Top shape: 12 32 160 240 (14745600)
I1018 15:42:57.462115  4846 net.cpp:165] Memory required for data: 471859776
I1018 15:42:57.462121  4846 layer_factory.hpp:77] Creating layer conv1/dw/bn
I1018 15:42:57.462126  4846 net.cpp:100] Creating Layer conv1/dw/bn
I1018 15:42:57.462128  4846 net.cpp:434] conv1/dw/bn <- conv1/dw
I1018 15:42:57.462132  4846 net.cpp:395] conv1/dw/bn -> conv1/dw (in-place)
I1018 15:42:57.462314  4846 net.cpp:150] Setting up conv1/dw/bn
I1018 15:42:57.462323  4846 net.cpp:157] Top shape: 12 32 160 240 (14745600)
I1018 15:42:57.462327  4846 net.cpp:165] Memory required for data: 530842176
I1018 15:42:57.462337  4846 layer_factory.hpp:77] Creating layer conv1/dw/scale
I1018 15:42:57.462344  4846 net.cpp:100] Creating Layer conv1/dw/scale
I1018 15:42:57.462349  4846 net.cpp:434] conv1/dw/scale <- conv1/dw
I1018 15:42:57.462355  4846 net.cpp:395] conv1/dw/scale -> conv1/dw (in-place)
I1018 15:42:57.462390  4846 layer_factory.hpp:77] Creating layer conv1/dw/scale
I1018 15:42:57.462533  4846 net.cpp:150] Setting up conv1/dw/scale
I1018 15:42:57.462540  4846 net.cpp:157] Top shape: 12 32 160 240 (14745600)
I1018 15:42:57.462543  4846 net.cpp:165] Memory required for data: 589824576
I1018 15:42:57.462548  4846 layer_factory.hpp:77] Creating layer conv1/dw/relu
I1018 15:42:57.462576  4846 net.cpp:100] Creating Layer conv1/dw/relu
I1018 15:42:57.462580  4846 net.cpp:434] conv1/dw/relu <- conv1/dw
I1018 15:42:57.462585  4846 net.cpp:395] conv1/dw/relu -> conv1/dw (in-place)
I1018 15:42:57.463001  4846 net.cpp:150] Setting up conv1/dw/relu
I1018 15:42:57.463012  4846 net.cpp:157] Top shape: 12 32 160 240 (14745600)
I1018 15:42:57.463017  4846 net.cpp:165] Memory required for data: 648806976
I1018 15:42:57.463021  4846 layer_factory.hpp:77] Creating layer conv1
I1018 15:42:57.463032  4846 net.cpp:100] Creating Layer conv1
I1018 15:42:57.463037  4846 net.cpp:434] conv1 <- conv1/dw
I1018 15:42:57.463043  4846 net.cpp:408] conv1 -> conv1
I1018 15:42:57.465451  4846 net.cpp:150] Setting up conv1
I1018 15:42:57.465466  4846 net.cpp:157] Top shape: 12 64 160 240 (29491200)
I1018 15:42:57.465471  4846 net.cpp:165] Memory required for data: 766771776
I1018 15:42:57.465479  4846 layer_factory.hpp:77] Creating layer conv1/bn
I1018 15:42:57.465487  4846 net.cpp:100] Creating Layer conv1/bn
I1018 15:42:57.465489  4846 net.cpp:434] conv1/bn <- conv1
I1018 15:42:57.465494  4846 net.cpp:395] conv1/bn -> conv1 (in-place)
I1018 15:42:57.465696  4846 net.cpp:150] Setting up conv1/bn
I1018 15:42:57.465705  4846 net.cpp:157] Top shape: 12 64 160 240 (29491200)
I1018 15:42:57.465709  4846 net.cpp:165] Memory required for data: 884736576
I1018 15:42:57.465716  4846 layer_factory.hpp:77] Creating layer conv1/scale
I1018 15:42:57.465725  4846 net.cpp:100] Creating Layer conv1/scale
I1018 15:42:57.465729  4846 net.cpp:434] conv1/scale <- conv1
I1018 15:42:57.465734  4846 net.cpp:395] conv1/scale -> conv1 (in-place)
I1018 15:42:57.465775  4846 layer_factory.hpp:77] Creating layer conv1/scale
I1018 15:42:57.465926  4846 net.cpp:150] Setting up conv1/scale
I1018 15:42:57.465936  4846 net.cpp:157] Top shape: 12 64 160 240 (29491200)
I1018 15:42:57.465940  4846 net.cpp:165] Memory required for data: 1002701376
I1018 15:42:57.465951  4846 layer_factory.hpp:77] Creating layer conv1/relu
I1018 15:42:57.465958  4846 net.cpp:100] Creating Layer conv1/relu
I1018 15:42:57.465962  4846 net.cpp:434] conv1/relu <- conv1
I1018 15:42:57.465966  4846 net.cpp:395] conv1/relu -> conv1 (in-place)
I1018 15:42:57.466645  4846 net.cpp:150] Setting up conv1/relu
I1018 15:42:57.466662  4846 net.cpp:157] Top shape: 12 64 160 240 (29491200)
I1018 15:42:57.466666  4846 net.cpp:165] Memory required for data: 1120666176
I1018 15:42:57.466671  4846 layer_factory.hpp:77] Creating layer conv2/dw
I1018 15:42:57.466683  4846 net.cpp:100] Creating Layer conv2/dw
I1018 15:42:57.466688  4846 net.cpp:434] conv2/dw <- conv1
I1018 15:42:57.466693  4846 net.cpp:408] conv2/dw -> conv2/dw
I1018 15:42:57.466888  4846 net.cpp:150] Setting up conv2/dw
I1018 15:42:57.466900  4846 net.cpp:157] Top shape: 12 64 80 120 (7372800)
I1018 15:42:57.466904  4846 net.cpp:165] Memory required for data: 1150157376
I1018 15:42:57.466910  4846 layer_factory.hpp:77] Creating layer conv2/dw/bn
I1018 15:42:57.466917  4846 net.cpp:100] Creating Layer conv2/dw/bn
I1018 15:42:57.466922  4846 net.cpp:434] conv2/dw/bn <- conv2/dw
I1018 15:42:57.466928  4846 net.cpp:395] conv2/dw/bn -> conv2/dw (in-place)
I1018 15:42:57.467855  4846 net.cpp:150] Setting up conv2/dw/bn
I1018 15:42:57.467869  4846 net.cpp:157] Top shape: 12 64 80 120 (7372800)
I1018 15:42:57.467873  4846 net.cpp:165] Memory required for data: 1179648576
I1018 15:42:57.467883  4846 layer_factory.hpp:77] Creating layer conv2/dw/scale
I1018 15:42:57.467895  4846 net.cpp:100] Creating Layer conv2/dw/scale
I1018 15:42:57.467897  4846 net.cpp:434] conv2/dw/scale <- conv2/dw
I1018 15:42:57.467902  4846 net.cpp:395] conv2/dw/scale -> conv2/dw (in-place)
I1018 15:42:57.467947  4846 layer_factory.hpp:77] Creating layer conv2/dw/scale
I1018 15:42:57.468066  4846 net.cpp:150] Setting up conv2/dw/scale
I1018 15:42:57.468075  4846 net.cpp:157] Top shape: 12 64 80 120 (7372800)
I1018 15:42:57.468078  4846 net.cpp:165] Memory required for data: 1209139776
I1018 15:42:57.468086  4846 layer_factory.hpp:77] Creating layer conv2/dw/relu
I1018 15:42:57.468111  4846 net.cpp:100] Creating Layer conv2/dw/relu
I1018 15:42:57.468114  4846 net.cpp:434] conv2/dw/relu <- conv2/dw
I1018 15:42:57.468118  4846 net.cpp:395] conv2/dw/relu -> conv2/dw (in-place)
I1018 15:42:57.468531  4846 net.cpp:150] Setting up conv2/dw/relu
I1018 15:42:57.468545  4846 net.cpp:157] Top shape: 12 64 80 120 (7372800)
I1018 15:42:57.468550  4846 net.cpp:165] Memory required for data: 1238630976
I1018 15:42:57.468554  4846 layer_factory.hpp:77] Creating layer conv2
I1018 15:42:57.468564  4846 net.cpp:100] Creating Layer conv2
I1018 15:42:57.468567  4846 net.cpp:434] conv2 <- conv2/dw
I1018 15:42:57.468572  4846 net.cpp:408] conv2 -> conv2
I1018 15:42:57.470605  4846 net.cpp:150] Setting up conv2
I1018 15:42:57.470621  4846 net.cpp:157] Top shape: 12 128 80 120 (14745600)
I1018 15:42:57.470626  4846 net.cpp:165] Memory required for data: 1297613376
I1018 15:42:57.470634  4846 layer_factory.hpp:77] Creating layer conv2/bn
I1018 15:42:57.470639  4846 net.cpp:100] Creating Layer conv2/bn
I1018 15:42:57.470643  4846 net.cpp:434] conv2/bn <- conv2
I1018 15:42:57.470649  4846 net.cpp:395] conv2/bn -> conv2 (in-place)
I1018 15:42:57.470839  4846 net.cpp:150] Setting up conv2/bn
I1018 15:42:57.470849  4846 net.cpp:157] Top shape: 12 128 80 120 (14745600)
I1018 15:42:57.470854  4846 net.cpp:165] Memory required for data: 1356595776
I1018 15:42:57.470861  4846 layer_factory.hpp:77] Creating layer conv2/scale
I1018 15:42:57.470866  4846 net.cpp:100] Creating Layer conv2/scale
I1018 15:42:57.470870  4846 net.cpp:434] conv2/scale <- conv2
I1018 15:42:57.470877  4846 net.cpp:395] conv2/scale -> conv2 (in-place)
I1018 15:42:57.470919  4846 layer_factory.hpp:77] Creating layer conv2/scale
I1018 15:42:57.471030  4846 net.cpp:150] Setting up conv2/scale
I1018 15:42:57.471040  4846 net.cpp:157] Top shape: 12 128 80 120 (14745600)
I1018 15:42:57.471045  4846 net.cpp:165] Memory required for data: 1415578176
I1018 15:42:57.471050  4846 layer_factory.hpp:77] Creating layer conv2/relu
I1018 15:42:57.471055  4846 net.cpp:100] Creating Layer conv2/relu
I1018 15:42:57.471058  4846 net.cpp:434] conv2/relu <- conv2
I1018 15:42:57.471065  4846 net.cpp:395] conv2/relu -> conv2 (in-place)
I1018 15:42:57.471467  4846 net.cpp:150] Setting up conv2/relu
I1018 15:42:57.471478  4846 net.cpp:157] Top shape: 12 128 80 120 (14745600)
I1018 15:42:57.471482  4846 net.cpp:165] Memory required for data: 1474560576
I1018 15:42:57.471487  4846 layer_factory.hpp:77] Creating layer conv3/dw
I1018 15:42:57.471498  4846 net.cpp:100] Creating Layer conv3/dw
I1018 15:42:57.471503  4846 net.cpp:434] conv3/dw <- conv2
I1018 15:42:57.471509  4846 net.cpp:408] conv3/dw -> conv3/dw
I1018 15:42:57.471700  4846 net.cpp:150] Setting up conv3/dw
I1018 15:42:57.471710  4846 net.cpp:157] Top shape: 12 128 80 120 (14745600)
I1018 15:42:57.471714  4846 net.cpp:165] Memory required for data: 1533542976
I1018 15:42:57.471719  4846 layer_factory.hpp:77] Creating layer conv3/dw/bn
I1018 15:42:57.471726  4846 net.cpp:100] Creating Layer conv3/dw/bn
I1018 15:42:57.471730  4846 net.cpp:434] conv3/dw/bn <- conv3/dw
I1018 15:42:57.471735  4846 net.cpp:395] conv3/dw/bn -> conv3/dw (in-place)
I1018 15:42:57.471904  4846 net.cpp:150] Setting up conv3/dw/bn
I1018 15:42:57.471913  4846 net.cpp:157] Top shape: 12 128 80 120 (14745600)
I1018 15:42:57.471916  4846 net.cpp:165] Memory required for data: 1592525376
I1018 15:42:57.471930  4846 layer_factory.hpp:77] Creating layer conv3/dw/scale
I1018 15:42:57.471938  4846 net.cpp:100] Creating Layer conv3/dw/scale
I1018 15:42:57.471941  4846 net.cpp:434] conv3/dw/scale <- conv3/dw
I1018 15:42:57.471947  4846 net.cpp:395] conv3/dw/scale -> conv3/dw (in-place)
I1018 15:42:57.471988  4846 layer_factory.hpp:77] Creating layer conv3/dw/scale
I1018 15:42:57.472098  4846 net.cpp:150] Setting up conv3/dw/scale
I1018 15:42:57.472107  4846 net.cpp:157] Top shape: 12 128 80 120 (14745600)
I1018 15:42:57.472111  4846 net.cpp:165] Memory required for data: 1651507776
I1018 15:42:57.472117  4846 layer_factory.hpp:77] Creating layer conv3/dw/relu
I1018 15:42:57.472133  4846 net.cpp:100] Creating Layer conv3/dw/relu
I1018 15:42:57.472137  4846 net.cpp:434] conv3/dw/relu <- conv3/dw
I1018 15:42:57.472142  4846 net.cpp:395] conv3/dw/relu -> conv3/dw (in-place)
I1018 15:42:57.472828  4846 net.cpp:150] Setting up conv3/dw/relu
I1018 15:42:57.472842  4846 net.cpp:157] Top shape: 12 128 80 120 (14745600)
I1018 15:42:57.472847  4846 net.cpp:165] Memory required for data: 1710490176
I1018 15:42:57.472852  4846 layer_factory.hpp:77] Creating layer conv3
I1018 15:42:57.472862  4846 net.cpp:100] Creating Layer conv3
I1018 15:42:57.472867  4846 net.cpp:434] conv3 <- conv3/dw
I1018 15:42:57.472875  4846 net.cpp:408] conv3 -> conv3
I1018 15:42:57.474664  4846 net.cpp:150] Setting up conv3
I1018 15:42:57.474678  4846 net.cpp:157] Top shape: 12 128 80 120 (14745600)
I1018 15:42:57.474683  4846 net.cpp:165] Memory required for data: 1769472576
I1018 15:42:57.474690  4846 layer_factory.hpp:77] Creating layer conv3/bn
I1018 15:42:57.474697  4846 net.cpp:100] Creating Layer conv3/bn
I1018 15:42:57.474701  4846 net.cpp:434] conv3/bn <- conv3
I1018 15:42:57.474709  4846 net.cpp:395] conv3/bn -> conv3 (in-place)
I1018 15:42:57.474895  4846 net.cpp:150] Setting up conv3/bn
I1018 15:42:57.474905  4846 net.cpp:157] Top shape: 12 128 80 120 (14745600)
I1018 15:42:57.474910  4846 net.cpp:165] Memory required for data: 1828454976
I1018 15:42:57.474917  4846 layer_factory.hpp:77] Creating layer conv3/scale
I1018 15:42:57.474925  4846 net.cpp:100] Creating Layer conv3/scale
I1018 15:42:57.474931  4846 net.cpp:434] conv3/scale <- conv3
I1018 15:42:57.474936  4846 net.cpp:395] conv3/scale -> conv3 (in-place)
I1018 15:42:57.474977  4846 layer_factory.hpp:77] Creating layer conv3/scale
I1018 15:42:57.475095  4846 net.cpp:150] Setting up conv3/scale
I1018 15:42:57.475103  4846 net.cpp:157] Top shape: 12 128 80 120 (14745600)
I1018 15:42:57.475107  4846 net.cpp:165] Memory required for data: 1887437376
I1018 15:42:57.475113  4846 layer_factory.hpp:77] Creating layer conv3/relu
I1018 15:42:57.475119  4846 net.cpp:100] Creating Layer conv3/relu
I1018 15:42:57.475122  4846 net.cpp:434] conv3/relu <- conv3
I1018 15:42:57.475133  4846 net.cpp:395] conv3/relu -> conv3 (in-place)
I1018 15:42:57.475533  4846 net.cpp:150] Setting up conv3/relu
I1018 15:42:57.475544  4846 net.cpp:157] Top shape: 12 128 80 120 (14745600)
I1018 15:42:57.475549  4846 net.cpp:165] Memory required for data: 1946419776
I1018 15:42:57.475553  4846 layer_factory.hpp:77] Creating layer conv4/dw
I1018 15:42:57.475564  4846 net.cpp:100] Creating Layer conv4/dw
I1018 15:42:57.475569  4846 net.cpp:434] conv4/dw <- conv3
I1018 15:42:57.475576  4846 net.cpp:408] conv4/dw -> conv4/dw
I1018 15:42:57.475769  4846 net.cpp:150] Setting up conv4/dw
I1018 15:42:57.475778  4846 net.cpp:157] Top shape: 12 128 40 60 (3686400)
I1018 15:42:57.475783  4846 net.cpp:165] Memory required for data: 1961165376
I1018 15:42:57.475788  4846 layer_factory.hpp:77] Creating layer conv4/dw/bn
I1018 15:42:57.475793  4846 net.cpp:100] Creating Layer conv4/dw/bn
I1018 15:42:57.475796  4846 net.cpp:434] conv4/dw/bn <- conv4/dw
I1018 15:42:57.475805  4846 net.cpp:395] conv4/dw/bn -> conv4/dw (in-place)
I1018 15:42:57.475973  4846 net.cpp:150] Setting up conv4/dw/bn
I1018 15:42:57.475981  4846 net.cpp:157] Top shape: 12 128 40 60 (3686400)
I1018 15:42:57.475986  4846 net.cpp:165] Memory required for data: 1975910976
I1018 15:42:57.475993  4846 layer_factory.hpp:77] Creating layer conv4/dw/scale
I1018 15:42:57.476004  4846 net.cpp:100] Creating Layer conv4/dw/scale
I1018 15:42:57.476008  4846 net.cpp:434] conv4/dw/scale <- conv4/dw
I1018 15:42:57.476012  4846 net.cpp:395] conv4/dw/scale -> conv4/dw (in-place)
I1018 15:42:57.476054  4846 layer_factory.hpp:77] Creating layer conv4/dw/scale
I1018 15:42:57.476171  4846 net.cpp:150] Setting up conv4/dw/scale
I1018 15:42:57.476181  4846 net.cpp:157] Top shape: 12 128 40 60 (3686400)
I1018 15:42:57.476184  4846 net.cpp:165] Memory required for data: 1990656576
I1018 15:42:57.476203  4846 layer_factory.hpp:77] Creating layer conv4/dw/relu
I1018 15:42:57.476212  4846 net.cpp:100] Creating Layer conv4/dw/relu
I1018 15:42:57.476214  4846 net.cpp:434] conv4/dw/relu <- conv4/dw
I1018 15:42:57.476218  4846 net.cpp:395] conv4/dw/relu -> conv4/dw (in-place)
I1018 15:42:57.476645  4846 net.cpp:150] Setting up conv4/dw/relu
I1018 15:42:57.476658  4846 net.cpp:157] Top shape: 12 128 40 60 (3686400)
I1018 15:42:57.476662  4846 net.cpp:165] Memory required for data: 2005402176
I1018 15:42:57.476666  4846 layer_factory.hpp:77] Creating layer conv4
I1018 15:42:57.476675  4846 net.cpp:100] Creating Layer conv4
I1018 15:42:57.476680  4846 net.cpp:434] conv4 <- conv4/dw
I1018 15:42:57.476686  4846 net.cpp:408] conv4 -> conv4
I1018 15:42:57.478629  4846 net.cpp:150] Setting up conv4
I1018 15:42:57.478643  4846 net.cpp:157] Top shape: 12 256 40 60 (7372800)
I1018 15:42:57.478648  4846 net.cpp:165] Memory required for data: 2034893376
I1018 15:42:57.478655  4846 layer_factory.hpp:77] Creating layer conv4/bn
I1018 15:42:57.478663  4846 net.cpp:100] Creating Layer conv4/bn
I1018 15:42:57.478667  4846 net.cpp:434] conv4/bn <- conv4
I1018 15:42:57.478672  4846 net.cpp:395] conv4/bn -> conv4 (in-place)
I1018 15:42:57.478865  4846 net.cpp:150] Setting up conv4/bn
I1018 15:42:57.478875  4846 net.cpp:157] Top shape: 12 256 40 60 (7372800)
I1018 15:42:57.478880  4846 net.cpp:165] Memory required for data: 2064384576
I1018 15:42:57.478888  4846 layer_factory.hpp:77] Creating layer conv4/scale
I1018 15:42:57.478896  4846 net.cpp:100] Creating Layer conv4/scale
I1018 15:42:57.478900  4846 net.cpp:434] conv4/scale <- conv4
I1018 15:42:57.478905  4846 net.cpp:395] conv4/scale -> conv4 (in-place)
I1018 15:42:57.478950  4846 layer_factory.hpp:77] Creating layer conv4/scale
I1018 15:42:57.479063  4846 net.cpp:150] Setting up conv4/scale
I1018 15:42:57.479073  4846 net.cpp:157] Top shape: 12 256 40 60 (7372800)
I1018 15:42:57.479076  4846 net.cpp:165] Memory required for data: 2093875776
I1018 15:42:57.479082  4846 layer_factory.hpp:77] Creating layer conv4/relu
I1018 15:42:57.479089  4846 net.cpp:100] Creating Layer conv4/relu
I1018 15:42:57.479094  4846 net.cpp:434] conv4/relu <- conv4
I1018 15:42:57.479099  4846 net.cpp:395] conv4/relu -> conv4 (in-place)
I1018 15:42:57.479496  4846 net.cpp:150] Setting up conv4/relu
I1018 15:42:57.479509  4846 net.cpp:157] Top shape: 12 256 40 60 (7372800)
I1018 15:42:57.479513  4846 net.cpp:165] Memory required for data: 2123366976
I1018 15:42:57.479518  4846 layer_factory.hpp:77] Creating layer conv5/dw
I1018 15:42:57.479528  4846 net.cpp:100] Creating Layer conv5/dw
I1018 15:42:57.479532  4846 net.cpp:434] conv5/dw <- conv4
I1018 15:42:57.479537  4846 net.cpp:408] conv5/dw -> conv5/dw
I1018 15:42:57.479734  4846 net.cpp:150] Setting up conv5/dw
I1018 15:42:57.479743  4846 net.cpp:157] Top shape: 12 256 40 60 (7372800)
I1018 15:42:57.479748  4846 net.cpp:165] Memory required for data: 2152858176
I1018 15:42:57.479753  4846 layer_factory.hpp:77] Creating layer conv5/dw/bn
I1018 15:42:57.479760  4846 net.cpp:100] Creating Layer conv5/dw/bn
I1018 15:42:57.479764  4846 net.cpp:434] conv5/dw/bn <- conv5/dw
I1018 15:42:57.479768  4846 net.cpp:395] conv5/dw/bn -> conv5/dw (in-place)
I1018 15:42:57.479933  4846 net.cpp:150] Setting up conv5/dw/bn
I1018 15:42:57.479943  4846 net.cpp:157] Top shape: 12 256 40 60 (7372800)
I1018 15:42:57.479945  4846 net.cpp:165] Memory required for data: 2182349376
I1018 15:42:57.479954  4846 layer_factory.hpp:77] Creating layer conv5/dw/scale
I1018 15:42:57.479962  4846 net.cpp:100] Creating Layer conv5/dw/scale
I1018 15:42:57.479966  4846 net.cpp:434] conv5/dw/scale <- conv5/dw
I1018 15:42:57.479971  4846 net.cpp:395] conv5/dw/scale -> conv5/dw (in-place)
I1018 15:42:57.480012  4846 layer_factory.hpp:77] Creating layer conv5/dw/scale
I1018 15:42:57.480121  4846 net.cpp:150] Setting up conv5/dw/scale
I1018 15:42:57.480131  4846 net.cpp:157] Top shape: 12 256 40 60 (7372800)
I1018 15:42:57.480135  4846 net.cpp:165] Memory required for data: 2211840576
I1018 15:42:57.480151  4846 layer_factory.hpp:77] Creating layer conv5/dw/relu
I1018 15:42:57.480159  4846 net.cpp:100] Creating Layer conv5/dw/relu
I1018 15:42:57.480163  4846 net.cpp:434] conv5/dw/relu <- conv5/dw
I1018 15:42:57.480167  4846 net.cpp:395] conv5/dw/relu -> conv5/dw (in-place)
I1018 15:42:57.480852  4846 net.cpp:150] Setting up conv5/dw/relu
I1018 15:42:57.480868  4846 net.cpp:157] Top shape: 12 256 40 60 (7372800)
I1018 15:42:57.480875  4846 net.cpp:165] Memory required for data: 2241331776
I1018 15:42:57.480877  4846 layer_factory.hpp:77] Creating layer conv5
I1018 15:42:57.480886  4846 net.cpp:100] Creating Layer conv5
I1018 15:42:57.480890  4846 net.cpp:434] conv5 <- conv5/dw
I1018 15:42:57.480897  4846 net.cpp:408] conv5 -> conv5
I1018 15:42:57.483433  4846 net.cpp:150] Setting up conv5
I1018 15:42:57.483446  4846 net.cpp:157] Top shape: 12 256 40 60 (7372800)
I1018 15:42:57.483451  4846 net.cpp:165] Memory required for data: 2270822976
I1018 15:42:57.483458  4846 layer_factory.hpp:77] Creating layer conv5/bn
I1018 15:42:57.483464  4846 net.cpp:100] Creating Layer conv5/bn
I1018 15:42:57.483467  4846 net.cpp:434] conv5/bn <- conv5
I1018 15:42:57.483474  4846 net.cpp:395] conv5/bn -> conv5 (in-place)
I1018 15:42:57.483662  4846 net.cpp:150] Setting up conv5/bn
I1018 15:42:57.483671  4846 net.cpp:157] Top shape: 12 256 40 60 (7372800)
I1018 15:42:57.483676  4846 net.cpp:165] Memory required for data: 2300314176
I1018 15:42:57.483683  4846 layer_factory.hpp:77] Creating layer conv5/scale
I1018 15:42:57.483690  4846 net.cpp:100] Creating Layer conv5/scale
I1018 15:42:57.483693  4846 net.cpp:434] conv5/scale <- conv5
I1018 15:42:57.483701  4846 net.cpp:395] conv5/scale -> conv5 (in-place)
I1018 15:42:57.483745  4846 layer_factory.hpp:77] Creating layer conv5/scale
I1018 15:42:57.483860  4846 net.cpp:150] Setting up conv5/scale
I1018 15:42:57.483870  4846 net.cpp:157] Top shape: 12 256 40 60 (7372800)
I1018 15:42:57.483875  4846 net.cpp:165] Memory required for data: 2329805376
I1018 15:42:57.483891  4846 layer_factory.hpp:77] Creating layer conv5/relu
I1018 15:42:57.483898  4846 net.cpp:100] Creating Layer conv5/relu
I1018 15:42:57.483902  4846 net.cpp:434] conv5/relu <- conv5
I1018 15:42:57.483906  4846 net.cpp:395] conv5/relu -> conv5 (in-place)
I1018 15:42:57.484314  4846 net.cpp:150] Setting up conv5/relu
I1018 15:42:57.484326  4846 net.cpp:157] Top shape: 12 256 40 60 (7372800)
I1018 15:42:57.484330  4846 net.cpp:165] Memory required for data: 2359296576
I1018 15:42:57.484335  4846 layer_factory.hpp:77] Creating layer conv6/dw
I1018 15:42:57.484344  4846 net.cpp:100] Creating Layer conv6/dw
I1018 15:42:57.484349  4846 net.cpp:434] conv6/dw <- conv5
I1018 15:42:57.484356  4846 net.cpp:408] conv6/dw -> conv6/dw
I1018 15:42:57.484566  4846 net.cpp:150] Setting up conv6/dw
I1018 15:42:57.484575  4846 net.cpp:157] Top shape: 12 256 20 30 (1843200)
I1018 15:42:57.484580  4846 net.cpp:165] Memory required for data: 2366669376
I1018 15:42:57.484586  4846 layer_factory.hpp:77] Creating layer conv6/dw/bn
I1018 15:42:57.484593  4846 net.cpp:100] Creating Layer conv6/dw/bn
I1018 15:42:57.484598  4846 net.cpp:434] conv6/dw/bn <- conv6/dw
I1018 15:42:57.484603  4846 net.cpp:395] conv6/dw/bn -> conv6/dw (in-place)
I1018 15:42:57.484781  4846 net.cpp:150] Setting up conv6/dw/bn
I1018 15:42:57.484789  4846 net.cpp:157] Top shape: 12 256 20 30 (1843200)
I1018 15:42:57.484793  4846 net.cpp:165] Memory required for data: 2374042176
I1018 15:42:57.484802  4846 layer_factory.hpp:77] Creating layer conv6/dw/scale
I1018 15:42:57.484809  4846 net.cpp:100] Creating Layer conv6/dw/scale
I1018 15:42:57.484814  4846 net.cpp:434] conv6/dw/scale <- conv6/dw
I1018 15:42:57.484818  4846 net.cpp:395] conv6/dw/scale -> conv6/dw (in-place)
I1018 15:42:57.484863  4846 layer_factory.hpp:77] Creating layer conv6/dw/scale
I1018 15:42:57.484983  4846 net.cpp:150] Setting up conv6/dw/scale
I1018 15:42:57.484992  4846 net.cpp:157] Top shape: 12 256 20 30 (1843200)
I1018 15:42:57.484997  4846 net.cpp:165] Memory required for data: 2381414976
I1018 15:42:57.485013  4846 layer_factory.hpp:77] Creating layer conv6/dw/relu
I1018 15:42:57.485019  4846 net.cpp:100] Creating Layer conv6/dw/relu
I1018 15:42:57.485023  4846 net.cpp:434] conv6/dw/relu <- conv6/dw
I1018 15:42:57.485029  4846 net.cpp:395] conv6/dw/relu -> conv6/dw (in-place)
I1018 15:42:57.485445  4846 net.cpp:150] Setting up conv6/dw/relu
I1018 15:42:57.485455  4846 net.cpp:157] Top shape: 12 256 20 30 (1843200)
I1018 15:42:57.485460  4846 net.cpp:165] Memory required for data: 2388787776
I1018 15:42:57.485464  4846 layer_factory.hpp:77] Creating layer conv6
I1018 15:42:57.485473  4846 net.cpp:100] Creating Layer conv6
I1018 15:42:57.485478  4846 net.cpp:434] conv6 <- conv6/dw
I1018 15:42:57.485486  4846 net.cpp:408] conv6 -> conv6
I1018 15:42:57.488898  4846 net.cpp:150] Setting up conv6
I1018 15:42:57.488915  4846 net.cpp:157] Top shape: 12 512 20 30 (3686400)
I1018 15:42:57.488920  4846 net.cpp:165] Memory required for data: 2403533376
I1018 15:42:57.488927  4846 layer_factory.hpp:77] Creating layer conv6/bn
I1018 15:42:57.488934  4846 net.cpp:100] Creating Layer conv6/bn
I1018 15:42:57.488937  4846 net.cpp:434] conv6/bn <- conv6
I1018 15:42:57.488946  4846 net.cpp:395] conv6/bn -> conv6 (in-place)
I1018 15:42:57.489131  4846 net.cpp:150] Setting up conv6/bn
I1018 15:42:57.489140  4846 net.cpp:157] Top shape: 12 512 20 30 (3686400)
I1018 15:42:57.489145  4846 net.cpp:165] Memory required for data: 2418278976
I1018 15:42:57.489152  4846 layer_factory.hpp:77] Creating layer conv6/scale
I1018 15:42:57.489161  4846 net.cpp:100] Creating Layer conv6/scale
I1018 15:42:57.489163  4846 net.cpp:434] conv6/scale <- conv6
I1018 15:42:57.489169  4846 net.cpp:395] conv6/scale -> conv6 (in-place)
I1018 15:42:57.489215  4846 layer_factory.hpp:77] Creating layer conv6/scale
I1018 15:42:57.489328  4846 net.cpp:150] Setting up conv6/scale
I1018 15:42:57.489337  4846 net.cpp:157] Top shape: 12 512 20 30 (3686400)
I1018 15:42:57.489342  4846 net.cpp:165] Memory required for data: 2433024576
I1018 15:42:57.489347  4846 layer_factory.hpp:77] Creating layer conv6/relu
I1018 15:42:57.489352  4846 net.cpp:100] Creating Layer conv6/relu
I1018 15:42:57.489356  4846 net.cpp:434] conv6/relu <- conv6
I1018 15:42:57.489364  4846 net.cpp:395] conv6/relu -> conv6 (in-place)
I1018 15:42:57.490054  4846 net.cpp:150] Setting up conv6/relu
I1018 15:42:57.490067  4846 net.cpp:157] Top shape: 12 512 20 30 (3686400)
I1018 15:42:57.490072  4846 net.cpp:165] Memory required for data: 2447770176
I1018 15:42:57.490077  4846 layer_factory.hpp:77] Creating layer conv7/dw
I1018 15:42:57.490088  4846 net.cpp:100] Creating Layer conv7/dw
I1018 15:42:57.490092  4846 net.cpp:434] conv7/dw <- conv6
I1018 15:42:57.490100  4846 net.cpp:408] conv7/dw -> conv7/dw
I1018 15:42:57.490324  4846 net.cpp:150] Setting up conv7/dw
I1018 15:42:57.490334  4846 net.cpp:157] Top shape: 12 512 20 30 (3686400)
I1018 15:42:57.490339  4846 net.cpp:165] Memory required for data: 2462515776
I1018 15:42:57.490344  4846 layer_factory.hpp:77] Creating layer conv7/dw/bn
I1018 15:42:57.490350  4846 net.cpp:100] Creating Layer conv7/dw/bn
I1018 15:42:57.490355  4846 net.cpp:434] conv7/dw/bn <- conv7/dw
I1018 15:42:57.490360  4846 net.cpp:395] conv7/dw/bn -> conv7/dw (in-place)
I1018 15:42:57.490541  4846 net.cpp:150] Setting up conv7/dw/bn
I1018 15:42:57.490550  4846 net.cpp:157] Top shape: 12 512 20 30 (3686400)
I1018 15:42:57.490555  4846 net.cpp:165] Memory required for data: 2477261376
I1018 15:42:57.490561  4846 layer_factory.hpp:77] Creating layer conv7/dw/scale
I1018 15:42:57.490571  4846 net.cpp:100] Creating Layer conv7/dw/scale
I1018 15:42:57.490576  4846 net.cpp:434] conv7/dw/scale <- conv7/dw
I1018 15:42:57.490579  4846 net.cpp:395] conv7/dw/scale -> conv7/dw (in-place)
I1018 15:42:57.490625  4846 layer_factory.hpp:77] Creating layer conv7/dw/scale
I1018 15:42:57.490741  4846 net.cpp:150] Setting up conv7/dw/scale
I1018 15:42:57.490749  4846 net.cpp:157] Top shape: 12 512 20 30 (3686400)
I1018 15:42:57.490753  4846 net.cpp:165] Memory required for data: 2492006976
I1018 15:42:57.490759  4846 layer_factory.hpp:77] Creating layer conv7/dw/relu
I1018 15:42:57.490775  4846 net.cpp:100] Creating Layer conv7/dw/relu
I1018 15:42:57.490779  4846 net.cpp:434] conv7/dw/relu <- conv7/dw
I1018 15:42:57.490785  4846 net.cpp:395] conv7/dw/relu -> conv7/dw (in-place)
I1018 15:42:57.491194  4846 net.cpp:150] Setting up conv7/dw/relu
I1018 15:42:57.491206  4846 net.cpp:157] Top shape: 12 512 20 30 (3686400)
I1018 15:42:57.491211  4846 net.cpp:165] Memory required for data: 2506752576
I1018 15:42:57.491216  4846 layer_factory.hpp:77] Creating layer conv7
I1018 15:42:57.491225  4846 net.cpp:100] Creating Layer conv7
I1018 15:42:57.491230  4846 net.cpp:434] conv7 <- conv7/dw
I1018 15:42:57.491238  4846 net.cpp:408] conv7 -> conv7
I1018 15:42:57.494885  4846 net.cpp:150] Setting up conv7
I1018 15:42:57.494899  4846 net.cpp:157] Top shape: 12 512 20 30 (3686400)
I1018 15:42:57.494904  4846 net.cpp:165] Memory required for data: 2521498176
I1018 15:42:57.494912  4846 layer_factory.hpp:77] Creating layer conv7/bn
I1018 15:42:57.494920  4846 net.cpp:100] Creating Layer conv7/bn
I1018 15:42:57.494922  4846 net.cpp:434] conv7/bn <- conv7
I1018 15:42:57.494928  4846 net.cpp:395] conv7/bn -> conv7 (in-place)
I1018 15:42:57.495116  4846 net.cpp:150] Setting up conv7/bn
I1018 15:42:57.495122  4846 net.cpp:157] Top shape: 12 512 20 30 (3686400)
I1018 15:42:57.495126  4846 net.cpp:165] Memory required for data: 2536243776
I1018 15:42:57.495131  4846 layer_factory.hpp:77] Creating layer conv7/scale
I1018 15:42:57.495138  4846 net.cpp:100] Creating Layer conv7/scale
I1018 15:42:57.495141  4846 net.cpp:434] conv7/scale <- conv7
I1018 15:42:57.495146  4846 net.cpp:395] conv7/scale -> conv7 (in-place)
I1018 15:42:57.495194  4846 layer_factory.hpp:77] Creating layer conv7/scale
I1018 15:42:57.495316  4846 net.cpp:150] Setting up conv7/scale
I1018 15:42:57.495324  4846 net.cpp:157] Top shape: 12 512 20 30 (3686400)
I1018 15:42:57.495328  4846 net.cpp:165] Memory required for data: 2550989376
I1018 15:42:57.495333  4846 layer_factory.hpp:77] Creating layer conv7/relu
I1018 15:42:57.495339  4846 net.cpp:100] Creating Layer conv7/relu
I1018 15:42:57.495342  4846 net.cpp:434] conv7/relu <- conv7
I1018 15:42:57.495349  4846 net.cpp:395] conv7/relu -> conv7 (in-place)
I1018 15:42:57.495790  4846 net.cpp:150] Setting up conv7/relu
I1018 15:42:57.495803  4846 net.cpp:157] Top shape: 12 512 20 30 (3686400)
I1018 15:42:57.495808  4846 net.cpp:165] Memory required for data: 2565734976
I1018 15:42:57.495812  4846 layer_factory.hpp:77] Creating layer conv8/dw
I1018 15:42:57.495822  4846 net.cpp:100] Creating Layer conv8/dw
I1018 15:42:57.495827  4846 net.cpp:434] conv8/dw <- conv7
I1018 15:42:57.495832  4846 net.cpp:408] conv8/dw -> conv8/dw
I1018 15:42:57.496057  4846 net.cpp:150] Setting up conv8/dw
I1018 15:42:57.496068  4846 net.cpp:157] Top shape: 12 512 20 30 (3686400)
I1018 15:42:57.496073  4846 net.cpp:165] Memory required for data: 2580480576
I1018 15:42:57.496078  4846 layer_factory.hpp:77] Creating layer conv8/dw/bn
I1018 15:42:57.496083  4846 net.cpp:100] Creating Layer conv8/dw/bn
I1018 15:42:57.496086  4846 net.cpp:434] conv8/dw/bn <- conv8/dw
I1018 15:42:57.496094  4846 net.cpp:395] conv8/dw/bn -> conv8/dw (in-place)
I1018 15:42:57.496274  4846 net.cpp:150] Setting up conv8/dw/bn
I1018 15:42:57.496284  4846 net.cpp:157] Top shape: 12 512 20 30 (3686400)
I1018 15:42:57.496287  4846 net.cpp:165] Memory required for data: 2595226176
I1018 15:42:57.496295  4846 layer_factory.hpp:77] Creating layer conv8/dw/scale
I1018 15:42:57.496309  4846 net.cpp:100] Creating Layer conv8/dw/scale
I1018 15:42:57.496314  4846 net.cpp:434] conv8/dw/scale <- conv8/dw
I1018 15:42:57.496317  4846 net.cpp:395] conv8/dw/scale -> conv8/dw (in-place)
I1018 15:42:57.496361  4846 layer_factory.hpp:77] Creating layer conv8/dw/scale
I1018 15:42:57.496477  4846 net.cpp:150] Setting up conv8/dw/scale
I1018 15:42:57.496484  4846 net.cpp:157] Top shape: 12 512 20 30 (3686400)
I1018 15:42:57.496486  4846 net.cpp:165] Memory required for data: 2609971776
I1018 15:42:57.496491  4846 layer_factory.hpp:77] Creating layer conv8/dw/relu
I1018 15:42:57.496508  4846 net.cpp:100] Creating Layer conv8/dw/relu
I1018 15:42:57.496512  4846 net.cpp:434] conv8/dw/relu <- conv8/dw
I1018 15:42:57.496515  4846 net.cpp:395] conv8/dw/relu -> conv8/dw (in-place)
I1018 15:42:57.497408  4846 net.cpp:150] Setting up conv8/dw/relu
I1018 15:42:57.497426  4846 net.cpp:157] Top shape: 12 512 20 30 (3686400)
I1018 15:42:57.497431  4846 net.cpp:165] Memory required for data: 2624717376
I1018 15:42:57.497434  4846 layer_factory.hpp:77] Creating layer conv8
I1018 15:42:57.497444  4846 net.cpp:100] Creating Layer conv8
I1018 15:42:57.497447  4846 net.cpp:434] conv8 <- conv8/dw
I1018 15:42:57.497453  4846 net.cpp:408] conv8 -> conv8
I1018 15:42:57.502686  4846 net.cpp:150] Setting up conv8
I1018 15:42:57.502701  4846 net.cpp:157] Top shape: 12 512 20 30 (3686400)
I1018 15:42:57.502705  4846 net.cpp:165] Memory required for data: 2639462976
I1018 15:42:57.502710  4846 layer_factory.hpp:77] Creating layer conv8/bn
I1018 15:42:57.502718  4846 net.cpp:100] Creating Layer conv8/bn
I1018 15:42:57.502722  4846 net.cpp:434] conv8/bn <- conv8
I1018 15:42:57.502727  4846 net.cpp:395] conv8/bn -> conv8 (in-place)
I1018 15:42:57.502912  4846 net.cpp:150] Setting up conv8/bn
I1018 15:42:57.502918  4846 net.cpp:157] Top shape: 12 512 20 30 (3686400)
I1018 15:42:57.502920  4846 net.cpp:165] Memory required for data: 2654208576
I1018 15:42:57.502926  4846 layer_factory.hpp:77] Creating layer conv8/scale
I1018 15:42:57.502933  4846 net.cpp:100] Creating Layer conv8/scale
I1018 15:42:57.502935  4846 net.cpp:434] conv8/scale <- conv8
I1018 15:42:57.502941  4846 net.cpp:395] conv8/scale -> conv8 (in-place)
I1018 15:42:57.502981  4846 layer_factory.hpp:77] Creating layer conv8/scale
I1018 15:42:57.503091  4846 net.cpp:150] Setting up conv8/scale
I1018 15:42:57.503098  4846 net.cpp:157] Top shape: 12 512 20 30 (3686400)
I1018 15:42:57.503101  4846 net.cpp:165] Memory required for data: 2668954176
I1018 15:42:57.503106  4846 layer_factory.hpp:77] Creating layer conv8/relu
I1018 15:42:57.503110  4846 net.cpp:100] Creating Layer conv8/relu
I1018 15:42:57.503113  4846 net.cpp:434] conv8/relu <- conv8
I1018 15:42:57.503118  4846 net.cpp:395] conv8/relu -> conv8 (in-place)
I1018 15:42:57.503513  4846 net.cpp:150] Setting up conv8/relu
I1018 15:42:57.503522  4846 net.cpp:157] Top shape: 12 512 20 30 (3686400)
I1018 15:42:57.503525  4846 net.cpp:165] Memory required for data: 2683699776
I1018 15:42:57.503528  4846 layer_factory.hpp:77] Creating layer conv9/dw
I1018 15:42:57.503538  4846 net.cpp:100] Creating Layer conv9/dw
I1018 15:42:57.503541  4846 net.cpp:434] conv9/dw <- conv8
I1018 15:42:57.503548  4846 net.cpp:408] conv9/dw -> conv9/dw
I1018 15:42:57.503754  4846 net.cpp:150] Setting up conv9/dw
I1018 15:42:57.503762  4846 net.cpp:157] Top shape: 12 512 20 30 (3686400)
I1018 15:42:57.503764  4846 net.cpp:165] Memory required for data: 2698445376
I1018 15:42:57.503768  4846 layer_factory.hpp:77] Creating layer conv9/dw/bn
I1018 15:42:57.503773  4846 net.cpp:100] Creating Layer conv9/dw/bn
I1018 15:42:57.503775  4846 net.cpp:434] conv9/dw/bn <- conv9/dw
I1018 15:42:57.503779  4846 net.cpp:395] conv9/dw/bn -> conv9/dw (in-place)
I1018 15:42:57.503979  4846 net.cpp:150] Setting up conv9/dw/bn
I1018 15:42:57.503993  4846 net.cpp:157] Top shape: 12 512 20 30 (3686400)
I1018 15:42:57.503996  4846 net.cpp:165] Memory required for data: 2713190976
I1018 15:42:57.504005  4846 layer_factory.hpp:77] Creating layer conv9/dw/scale
I1018 15:42:57.504012  4846 net.cpp:100] Creating Layer conv9/dw/scale
I1018 15:42:57.504017  4846 net.cpp:434] conv9/dw/scale <- conv9/dw
I1018 15:42:57.504026  4846 net.cpp:395] conv9/dw/scale -> conv9/dw (in-place)
I1018 15:42:57.504079  4846 layer_factory.hpp:77] Creating layer conv9/dw/scale
I1018 15:42:57.504226  4846 net.cpp:150] Setting up conv9/dw/scale
I1018 15:42:57.504238  4846 net.cpp:157] Top shape: 12 512 20 30 (3686400)
I1018 15:42:57.504242  4846 net.cpp:165] Memory required for data: 2727936576
I1018 15:42:57.504249  4846 layer_factory.hpp:77] Creating layer conv9/dw/relu
I1018 15:42:57.504272  4846 net.cpp:100] Creating Layer conv9/dw/relu
I1018 15:42:57.504278  4846 net.cpp:434] conv9/dw/relu <- conv9/dw
I1018 15:42:57.504284  4846 net.cpp:395] conv9/dw/relu -> conv9/dw (in-place)
I1018 15:42:57.504894  4846 net.cpp:150] Setting up conv9/dw/relu
I1018 15:42:57.504907  4846 net.cpp:157] Top shape: 12 512 20 30 (3686400)
I1018 15:42:57.504912  4846 net.cpp:165] Memory required for data: 2742682176
I1018 15:42:57.504917  4846 layer_factory.hpp:77] Creating layer conv9
I1018 15:42:57.504928  4846 net.cpp:100] Creating Layer conv9
I1018 15:42:57.504933  4846 net.cpp:434] conv9 <- conv9/dw
I1018 15:42:57.504943  4846 net.cpp:408] conv9 -> conv9
I1018 15:42:57.508849  4846 net.cpp:150] Setting up conv9
I1018 15:42:57.508863  4846 net.cpp:157] Top shape: 12 512 20 30 (3686400)
I1018 15:42:57.508867  4846 net.cpp:165] Memory required for data: 2757427776
I1018 15:42:57.508874  4846 layer_factory.hpp:77] Creating layer conv9/bn
I1018 15:42:57.508883  4846 net.cpp:100] Creating Layer conv9/bn
I1018 15:42:57.508886  4846 net.cpp:434] conv9/bn <- conv9
I1018 15:42:57.508891  4846 net.cpp:395] conv9/bn -> conv9 (in-place)
I1018 15:42:57.509069  4846 net.cpp:150] Setting up conv9/bn
I1018 15:42:57.509078  4846 net.cpp:157] Top shape: 12 512 20 30 (3686400)
I1018 15:42:57.509083  4846 net.cpp:165] Memory required for data: 2772173376
I1018 15:42:57.509089  4846 layer_factory.hpp:77] Creating layer conv9/scale
I1018 15:42:57.509096  4846 net.cpp:100] Creating Layer conv9/scale
I1018 15:42:57.509099  4846 net.cpp:434] conv9/scale <- conv9
I1018 15:42:57.509102  4846 net.cpp:395] conv9/scale -> conv9 (in-place)
I1018 15:42:57.509148  4846 layer_factory.hpp:77] Creating layer conv9/scale
I1018 15:42:57.509253  4846 net.cpp:150] Setting up conv9/scale
I1018 15:42:57.509260  4846 net.cpp:157] Top shape: 12 512 20 30 (3686400)
I1018 15:42:57.509263  4846 net.cpp:165] Memory required for data: 2786918976
I1018 15:42:57.509269  4846 layer_factory.hpp:77] Creating layer conv9/relu
I1018 15:42:57.509276  4846 net.cpp:100] Creating Layer conv9/relu
I1018 15:42:57.509279  4846 net.cpp:434] conv9/relu <- conv9
I1018 15:42:57.509282  4846 net.cpp:395] conv9/relu -> conv9 (in-place)
I1018 15:42:57.509686  4846 net.cpp:150] Setting up conv9/relu
I1018 15:42:57.509697  4846 net.cpp:157] Top shape: 12 512 20 30 (3686400)
I1018 15:42:57.509701  4846 net.cpp:165] Memory required for data: 2801664576
I1018 15:42:57.509703  4846 layer_factory.hpp:77] Creating layer conv10/dw
I1018 15:42:57.509711  4846 net.cpp:100] Creating Layer conv10/dw
I1018 15:42:57.509714  4846 net.cpp:434] conv10/dw <- conv9
I1018 15:42:57.509721  4846 net.cpp:408] conv10/dw -> conv10/dw
I1018 15:42:57.509932  4846 net.cpp:150] Setting up conv10/dw
I1018 15:42:57.509938  4846 net.cpp:157] Top shape: 12 512 20 30 (3686400)
I1018 15:42:57.509943  4846 net.cpp:165] Memory required for data: 2816410176
I1018 15:42:57.509945  4846 layer_factory.hpp:77] Creating layer conv10/dw/bn
I1018 15:42:57.509950  4846 net.cpp:100] Creating Layer conv10/dw/bn
I1018 15:42:57.509953  4846 net.cpp:434] conv10/dw/bn <- conv10/dw
I1018 15:42:57.509958  4846 net.cpp:395] conv10/dw/bn -> conv10/dw (in-place)
I1018 15:42:57.510164  4846 net.cpp:150] Setting up conv10/dw/bn
I1018 15:42:57.510177  4846 net.cpp:157] Top shape: 12 512 20 30 (3686400)
I1018 15:42:57.510181  4846 net.cpp:165] Memory required for data: 2831155776
I1018 15:42:57.510191  4846 layer_factory.hpp:77] Creating layer conv10/dw/scale
I1018 15:42:57.510198  4846 net.cpp:100] Creating Layer conv10/dw/scale
I1018 15:42:57.510202  4846 net.cpp:434] conv10/dw/scale <- conv10/dw
I1018 15:42:57.510210  4846 net.cpp:395] conv10/dw/scale -> conv10/dw (in-place)
I1018 15:42:57.510264  4846 layer_factory.hpp:77] Creating layer conv10/dw/scale
I1018 15:42:57.510404  4846 net.cpp:150] Setting up conv10/dw/scale
I1018 15:42:57.510417  4846 net.cpp:157] Top shape: 12 512 20 30 (3686400)
I1018 15:42:57.510421  4846 net.cpp:165] Memory required for data: 2845901376
I1018 15:42:57.510444  4846 layer_factory.hpp:77] Creating layer conv10/dw/relu
I1018 15:42:57.510453  4846 net.cpp:100] Creating Layer conv10/dw/relu
I1018 15:42:57.510458  4846 net.cpp:434] conv10/dw/relu <- conv10/dw
I1018 15:42:57.510464  4846 net.cpp:395] conv10/dw/relu -> conv10/dw (in-place)
I1018 15:42:57.511507  4846 net.cpp:150] Setting up conv10/dw/relu
I1018 15:42:57.511524  4846 net.cpp:157] Top shape: 12 512 20 30 (3686400)
I1018 15:42:57.511528  4846 net.cpp:165] Memory required for data: 2860646976
I1018 15:42:57.511533  4846 layer_factory.hpp:77] Creating layer conv10
I1018 15:42:57.511546  4846 net.cpp:100] Creating Layer conv10
I1018 15:42:57.511553  4846 net.cpp:434] conv10 <- conv10/dw
I1018 15:42:57.511561  4846 net.cpp:408] conv10 -> conv10
I1018 15:42:57.517086  4846 net.cpp:150] Setting up conv10
I1018 15:42:57.517102  4846 net.cpp:157] Top shape: 12 512 20 30 (3686400)
I1018 15:42:57.517105  4846 net.cpp:165] Memory required for data: 2875392576
I1018 15:42:57.517112  4846 layer_factory.hpp:77] Creating layer conv10/bn
I1018 15:42:57.517118  4846 net.cpp:100] Creating Layer conv10/bn
I1018 15:42:57.517122  4846 net.cpp:434] conv10/bn <- conv10
I1018 15:42:57.517127  4846 net.cpp:395] conv10/bn -> conv10 (in-place)
I1018 15:42:57.517310  4846 net.cpp:150] Setting up conv10/bn
I1018 15:42:57.517319  4846 net.cpp:157] Top shape: 12 512 20 30 (3686400)
I1018 15:42:57.517323  4846 net.cpp:165] Memory required for data: 2890138176
I1018 15:42:57.517330  4846 layer_factory.hpp:77] Creating layer conv10/scale
I1018 15:42:57.517336  4846 net.cpp:100] Creating Layer conv10/scale
I1018 15:42:57.517339  4846 net.cpp:434] conv10/scale <- conv10
I1018 15:42:57.517343  4846 net.cpp:395] conv10/scale -> conv10 (in-place)
I1018 15:42:57.517391  4846 layer_factory.hpp:77] Creating layer conv10/scale
I1018 15:42:57.517494  4846 net.cpp:150] Setting up conv10/scale
I1018 15:42:57.517503  4846 net.cpp:157] Top shape: 12 512 20 30 (3686400)
I1018 15:42:57.517506  4846 net.cpp:165] Memory required for data: 2904883776
I1018 15:42:57.517511  4846 layer_factory.hpp:77] Creating layer conv10/relu
I1018 15:42:57.517516  4846 net.cpp:100] Creating Layer conv10/relu
I1018 15:42:57.517518  4846 net.cpp:434] conv10/relu <- conv10
I1018 15:42:57.517524  4846 net.cpp:395] conv10/relu -> conv10 (in-place)
I1018 15:42:57.518112  4846 net.cpp:150] Setting up conv10/relu
I1018 15:42:57.518127  4846 net.cpp:157] Top shape: 12 512 20 30 (3686400)
I1018 15:42:57.518131  4846 net.cpp:165] Memory required for data: 2919629376
I1018 15:42:57.518136  4846 layer_factory.hpp:77] Creating layer conv11/dw
I1018 15:42:57.518151  4846 net.cpp:100] Creating Layer conv11/dw
I1018 15:42:57.518155  4846 net.cpp:434] conv11/dw <- conv10
I1018 15:42:57.518162  4846 net.cpp:408] conv11/dw -> conv11/dw
I1018 15:42:57.518481  4846 net.cpp:150] Setting up conv11/dw
I1018 15:42:57.518491  4846 net.cpp:157] Top shape: 12 512 20 30 (3686400)
I1018 15:42:57.518496  4846 net.cpp:165] Memory required for data: 2934374976
I1018 15:42:57.518501  4846 layer_factory.hpp:77] Creating layer conv11/dw/bn
I1018 15:42:57.518508  4846 net.cpp:100] Creating Layer conv11/dw/bn
I1018 15:42:57.518512  4846 net.cpp:434] conv11/dw/bn <- conv11/dw
I1018 15:42:57.518518  4846 net.cpp:395] conv11/dw/bn -> conv11/dw (in-place)
I1018 15:42:57.518756  4846 net.cpp:150] Setting up conv11/dw/bn
I1018 15:42:57.518769  4846 net.cpp:157] Top shape: 12 512 20 30 (3686400)
I1018 15:42:57.518772  4846 net.cpp:165] Memory required for data: 2949120576
I1018 15:42:57.518797  4846 layer_factory.hpp:77] Creating layer conv11/dw/scale
I1018 15:42:57.518813  4846 net.cpp:100] Creating Layer conv11/dw/scale
I1018 15:42:57.518820  4846 net.cpp:434] conv11/dw/scale <- conv11/dw
I1018 15:42:57.518826  4846 net.cpp:395] conv11/dw/scale -> conv11/dw (in-place)
I1018 15:42:57.518882  4846 layer_factory.hpp:77] Creating layer conv11/dw/scale
I1018 15:42:57.519022  4846 net.cpp:150] Setting up conv11/dw/scale
I1018 15:42:57.519033  4846 net.cpp:157] Top shape: 12 512 20 30 (3686400)
I1018 15:42:57.519037  4846 net.cpp:165] Memory required for data: 2963866176
I1018 15:42:57.519060  4846 layer_factory.hpp:77] Creating layer conv11/dw/relu
I1018 15:42:57.519069  4846 net.cpp:100] Creating Layer conv11/dw/relu
I1018 15:42:57.519075  4846 net.cpp:434] conv11/dw/relu <- conv11/dw
I1018 15:42:57.519081  4846 net.cpp:395] conv11/dw/relu -> conv11/dw (in-place)
I1018 15:42:57.519683  4846 net.cpp:150] Setting up conv11/dw/relu
I1018 15:42:57.519695  4846 net.cpp:157] Top shape: 12 512 20 30 (3686400)
I1018 15:42:57.519701  4846 net.cpp:165] Memory required for data: 2978611776
I1018 15:42:57.519704  4846 layer_factory.hpp:77] Creating layer conv11
I1018 15:42:57.519717  4846 net.cpp:100] Creating Layer conv11
I1018 15:42:57.519722  4846 net.cpp:434] conv11 <- conv11/dw
I1018 15:42:57.519731  4846 net.cpp:408] conv11 -> conv11
I1018 15:42:57.523926  4846 net.cpp:150] Setting up conv11
I1018 15:42:57.523941  4846 net.cpp:157] Top shape: 12 512 20 30 (3686400)
I1018 15:42:57.523944  4846 net.cpp:165] Memory required for data: 2993357376
I1018 15:42:57.523949  4846 layer_factory.hpp:77] Creating layer conv11/bn
I1018 15:42:57.523955  4846 net.cpp:100] Creating Layer conv11/bn
I1018 15:42:57.523957  4846 net.cpp:434] conv11/bn <- conv11
I1018 15:42:57.523964  4846 net.cpp:395] conv11/bn -> conv11 (in-place)
I1018 15:42:57.524150  4846 net.cpp:150] Setting up conv11/bn
I1018 15:42:57.524159  4846 net.cpp:157] Top shape: 12 512 20 30 (3686400)
I1018 15:42:57.524163  4846 net.cpp:165] Memory required for data: 3008102976
I1018 15:42:57.524171  4846 layer_factory.hpp:77] Creating layer conv11/scale
I1018 15:42:57.524178  4846 net.cpp:100] Creating Layer conv11/scale
I1018 15:42:57.524180  4846 net.cpp:434] conv11/scale <- conv11
I1018 15:42:57.524184  4846 net.cpp:395] conv11/scale -> conv11 (in-place)
I1018 15:42:57.524236  4846 layer_factory.hpp:77] Creating layer conv11/scale
I1018 15:42:57.524339  4846 net.cpp:150] Setting up conv11/scale
I1018 15:42:57.524346  4846 net.cpp:157] Top shape: 12 512 20 30 (3686400)
I1018 15:42:57.524348  4846 net.cpp:165] Memory required for data: 3022848576
I1018 15:42:57.524353  4846 layer_factory.hpp:77] Creating layer conv11/relu
I1018 15:42:57.524358  4846 net.cpp:100] Creating Layer conv11/relu
I1018 15:42:57.524361  4846 net.cpp:434] conv11/relu <- conv11
I1018 15:42:57.524365  4846 net.cpp:395] conv11/relu -> conv11 (in-place)
I1018 15:42:57.525117  4846 net.cpp:150] Setting up conv11/relu
I1018 15:42:57.525130  4846 net.cpp:157] Top shape: 12 512 20 30 (3686400)
I1018 15:42:57.525133  4846 net.cpp:165] Memory required for data: 3037594176
I1018 15:42:57.525137  4846 layer_factory.hpp:77] Creating layer conv11_conv11/relu_0_split
I1018 15:42:57.525147  4846 net.cpp:100] Creating Layer conv11_conv11/relu_0_split
I1018 15:42:57.525151  4846 net.cpp:434] conv11_conv11/relu_0_split <- conv11
I1018 15:42:57.525157  4846 net.cpp:408] conv11_conv11/relu_0_split -> conv11_conv11/relu_0_split_0
I1018 15:42:57.525171  4846 net.cpp:408] conv11_conv11/relu_0_split -> conv11_conv11/relu_0_split_1
I1018 15:42:57.525177  4846 net.cpp:408] conv11_conv11/relu_0_split -> conv11_conv11/relu_0_split_2
I1018 15:42:57.525185  4846 net.cpp:408] conv11_conv11/relu_0_split -> conv11_conv11/relu_0_split_3
I1018 15:42:57.525254  4846 net.cpp:150] Setting up conv11_conv11/relu_0_split
I1018 15:42:57.525261  4846 net.cpp:157] Top shape: 12 512 20 30 (3686400)
I1018 15:42:57.525264  4846 net.cpp:157] Top shape: 12 512 20 30 (3686400)
I1018 15:42:57.525269  4846 net.cpp:157] Top shape: 12 512 20 30 (3686400)
I1018 15:42:57.525271  4846 net.cpp:157] Top shape: 12 512 20 30 (3686400)
I1018 15:42:57.525274  4846 net.cpp:165] Memory required for data: 3096576576
I1018 15:42:57.525275  4846 layer_factory.hpp:77] Creating layer conv12/dw
I1018 15:42:57.525290  4846 net.cpp:100] Creating Layer conv12/dw
I1018 15:42:57.525293  4846 net.cpp:434] conv12/dw <- conv11_conv11/relu_0_split_0
I1018 15:42:57.525300  4846 net.cpp:408] conv12/dw -> conv12/dw
I1018 15:42:57.525504  4846 net.cpp:150] Setting up conv12/dw
I1018 15:42:57.525512  4846 net.cpp:157] Top shape: 12 512 10 15 (921600)
I1018 15:42:57.525529  4846 net.cpp:165] Memory required for data: 3100262976
I1018 15:42:57.525534  4846 layer_factory.hpp:77] Creating layer conv12/dw/bn
I1018 15:42:57.525542  4846 net.cpp:100] Creating Layer conv12/dw/bn
I1018 15:42:57.525544  4846 net.cpp:434] conv12/dw/bn <- conv12/dw
I1018 15:42:57.525548  4846 net.cpp:395] conv12/dw/bn -> conv12/dw (in-place)
I1018 15:42:57.525727  4846 net.cpp:150] Setting up conv12/dw/bn
I1018 15:42:57.525734  4846 net.cpp:157] Top shape: 12 512 10 15 (921600)
I1018 15:42:57.525738  4846 net.cpp:165] Memory required for data: 3103949376
I1018 15:42:57.525743  4846 layer_factory.hpp:77] Creating layer conv12/dw/scale
I1018 15:42:57.525750  4846 net.cpp:100] Creating Layer conv12/dw/scale
I1018 15:42:57.525753  4846 net.cpp:434] conv12/dw/scale <- conv12/dw
I1018 15:42:57.525758  4846 net.cpp:395] conv12/dw/scale -> conv12/dw (in-place)
I1018 15:42:57.525795  4846 layer_factory.hpp:77] Creating layer conv12/dw/scale
I1018 15:42:57.525902  4846 net.cpp:150] Setting up conv12/dw/scale
I1018 15:42:57.525909  4846 net.cpp:157] Top shape: 12 512 10 15 (921600)
I1018 15:42:57.525913  4846 net.cpp:165] Memory required for data: 3107635776
I1018 15:42:57.525919  4846 layer_factory.hpp:77] Creating layer conv12/dw/relu
I1018 15:42:57.525925  4846 net.cpp:100] Creating Layer conv12/dw/relu
I1018 15:42:57.525928  4846 net.cpp:434] conv12/dw/relu <- conv12/dw
I1018 15:42:57.525933  4846 net.cpp:395] conv12/dw/relu -> conv12/dw (in-place)
I1018 15:42:57.526321  4846 net.cpp:150] Setting up conv12/dw/relu
I1018 15:42:57.526331  4846 net.cpp:157] Top shape: 12 512 10 15 (921600)
I1018 15:42:57.526335  4846 net.cpp:165] Memory required for data: 3111322176
I1018 15:42:57.526340  4846 layer_factory.hpp:77] Creating layer conv12
I1018 15:42:57.526350  4846 net.cpp:100] Creating Layer conv12
I1018 15:42:57.526363  4846 net.cpp:434] conv12 <- conv12/dw
I1018 15:42:57.526367  4846 net.cpp:408] conv12 -> conv12
I1018 15:42:57.533046  4846 net.cpp:150] Setting up conv12
I1018 15:42:57.533061  4846 net.cpp:157] Top shape: 12 1024 10 15 (1843200)
I1018 15:42:57.533064  4846 net.cpp:165] Memory required for data: 3118694976
I1018 15:42:57.533071  4846 layer_factory.hpp:77] Creating layer conv12/bn
I1018 15:42:57.533077  4846 net.cpp:100] Creating Layer conv12/bn
I1018 15:42:57.533082  4846 net.cpp:434] conv12/bn <- conv12
I1018 15:42:57.533087  4846 net.cpp:395] conv12/bn -> conv12 (in-place)
I1018 15:42:57.533279  4846 net.cpp:150] Setting up conv12/bn
I1018 15:42:57.533288  4846 net.cpp:157] Top shape: 12 1024 10 15 (1843200)
I1018 15:42:57.533290  4846 net.cpp:165] Memory required for data: 3126067776
I1018 15:42:57.533296  4846 layer_factory.hpp:77] Creating layer conv12/scale
I1018 15:42:57.533304  4846 net.cpp:100] Creating Layer conv12/scale
I1018 15:42:57.533308  4846 net.cpp:434] conv12/scale <- conv12
I1018 15:42:57.533313  4846 net.cpp:395] conv12/scale -> conv12 (in-place)
I1018 15:42:57.533349  4846 layer_factory.hpp:77] Creating layer conv12/scale
I1018 15:42:57.533462  4846 net.cpp:150] Setting up conv12/scale
I1018 15:42:57.533473  4846 net.cpp:157] Top shape: 12 1024 10 15 (1843200)
I1018 15:42:57.533476  4846 net.cpp:165] Memory required for data: 3133440576
I1018 15:42:57.533483  4846 layer_factory.hpp:77] Creating layer conv12/relu
I1018 15:42:57.533491  4846 net.cpp:100] Creating Layer conv12/relu
I1018 15:42:57.533496  4846 net.cpp:434] conv12/relu <- conv12
I1018 15:42:57.533502  4846 net.cpp:395] conv12/relu -> conv12 (in-place)
I1018 15:42:57.533979  4846 net.cpp:150] Setting up conv12/relu
I1018 15:42:57.533996  4846 net.cpp:157] Top shape: 12 1024 10 15 (1843200)
I1018 15:42:57.534003  4846 net.cpp:165] Memory required for data: 3140813376
I1018 15:42:57.534005  4846 layer_factory.hpp:77] Creating layer conv13/dw
I1018 15:42:57.534018  4846 net.cpp:100] Creating Layer conv13/dw
I1018 15:42:57.534023  4846 net.cpp:434] conv13/dw <- conv12
I1018 15:42:57.534029  4846 net.cpp:408] conv13/dw -> conv13/dw
I1018 15:42:57.534308  4846 net.cpp:150] Setting up conv13/dw
I1018 15:42:57.534332  4846 net.cpp:157] Top shape: 12 1024 10 15 (1843200)
I1018 15:42:57.534337  4846 net.cpp:165] Memory required for data: 3148186176
I1018 15:42:57.534344  4846 layer_factory.hpp:77] Creating layer conv13/dw/bn
I1018 15:42:57.534353  4846 net.cpp:100] Creating Layer conv13/dw/bn
I1018 15:42:57.534358  4846 net.cpp:434] conv13/dw/bn <- conv13/dw
I1018 15:42:57.534361  4846 net.cpp:395] conv13/dw/bn -> conv13/dw (in-place)
I1018 15:42:57.534550  4846 net.cpp:150] Setting up conv13/dw/bn
I1018 15:42:57.534559  4846 net.cpp:157] Top shape: 12 1024 10 15 (1843200)
I1018 15:42:57.534564  4846 net.cpp:165] Memory required for data: 3155558976
I1018 15:42:57.534571  4846 layer_factory.hpp:77] Creating layer conv13/dw/scale
I1018 15:42:57.534581  4846 net.cpp:100] Creating Layer conv13/dw/scale
I1018 15:42:57.534584  4846 net.cpp:434] conv13/dw/scale <- conv13/dw
I1018 15:42:57.534590  4846 net.cpp:395] conv13/dw/scale -> conv13/dw (in-place)
I1018 15:42:57.534636  4846 layer_factory.hpp:77] Creating layer conv13/dw/scale
I1018 15:42:57.534770  4846 net.cpp:150] Setting up conv13/dw/scale
I1018 15:42:57.534778  4846 net.cpp:157] Top shape: 12 1024 10 15 (1843200)
I1018 15:42:57.534783  4846 net.cpp:165] Memory required for data: 3162931776
I1018 15:42:57.534790  4846 layer_factory.hpp:77] Creating layer conv13/dw/relu
I1018 15:42:57.534796  4846 net.cpp:100] Creating Layer conv13/dw/relu
I1018 15:42:57.534801  4846 net.cpp:434] conv13/dw/relu <- conv13/dw
I1018 15:42:57.534804  4846 net.cpp:395] conv13/dw/relu -> conv13/dw (in-place)
I1018 15:42:57.535614  4846 net.cpp:150] Setting up conv13/dw/relu
I1018 15:42:57.535631  4846 net.cpp:157] Top shape: 12 1024 10 15 (1843200)
I1018 15:42:57.535636  4846 net.cpp:165] Memory required for data: 3170304576
I1018 15:42:57.535641  4846 layer_factory.hpp:77] Creating layer conv13
I1018 15:42:57.535650  4846 net.cpp:100] Creating Layer conv13
I1018 15:42:57.535655  4846 net.cpp:434] conv13 <- conv13/dw
I1018 15:42:57.535663  4846 net.cpp:408] conv13 -> conv13
I1018 15:42:57.546891  4846 net.cpp:150] Setting up conv13
I1018 15:42:57.546917  4846 net.cpp:157] Top shape: 12 1024 10 15 (1843200)
I1018 15:42:57.546922  4846 net.cpp:165] Memory required for data: 3177677376
I1018 15:42:57.546931  4846 layer_factory.hpp:77] Creating layer conv13/bn
I1018 15:42:57.546943  4846 net.cpp:100] Creating Layer conv13/bn
I1018 15:42:57.546949  4846 net.cpp:434] conv13/bn <- conv13
I1018 15:42:57.546957  4846 net.cpp:395] conv13/bn -> conv13 (in-place)
I1018 15:42:57.547166  4846 net.cpp:150] Setting up conv13/bn
I1018 15:42:57.547176  4846 net.cpp:157] Top shape: 12 1024 10 15 (1843200)
I1018 15:42:57.547180  4846 net.cpp:165] Memory required for data: 3185050176
I1018 15:42:57.547190  4846 layer_factory.hpp:77] Creating layer conv13/scale
I1018 15:42:57.547200  4846 net.cpp:100] Creating Layer conv13/scale
I1018 15:42:57.547204  4846 net.cpp:434] conv13/scale <- conv13
I1018 15:42:57.547210  4846 net.cpp:395] conv13/scale -> conv13 (in-place)
I1018 15:42:57.547264  4846 layer_factory.hpp:77] Creating layer conv13/scale
I1018 15:42:57.547389  4846 net.cpp:150] Setting up conv13/scale
I1018 15:42:57.547399  4846 net.cpp:157] Top shape: 12 1024 10 15 (1843200)
I1018 15:42:57.547403  4846 net.cpp:165] Memory required for data: 3192422976
I1018 15:42:57.547411  4846 layer_factory.hpp:77] Creating layer conv13/relu
I1018 15:42:57.547420  4846 net.cpp:100] Creating Layer conv13/relu
I1018 15:42:57.547422  4846 net.cpp:434] conv13/relu <- conv13
I1018 15:42:57.547428  4846 net.cpp:395] conv13/relu -> conv13 (in-place)
I1018 15:42:57.547848  4846 net.cpp:150] Setting up conv13/relu
I1018 15:42:57.547859  4846 net.cpp:157] Top shape: 12 1024 10 15 (1843200)
I1018 15:42:57.547863  4846 net.cpp:165] Memory required for data: 3199795776
I1018 15:42:57.547868  4846 layer_factory.hpp:77] Creating layer conv13_conv13/relu_0_split
I1018 15:42:57.547878  4846 net.cpp:100] Creating Layer conv13_conv13/relu_0_split
I1018 15:42:57.547883  4846 net.cpp:434] conv13_conv13/relu_0_split <- conv13
I1018 15:42:57.547911  4846 net.cpp:408] conv13_conv13/relu_0_split -> conv13_conv13/relu_0_split_0
I1018 15:42:57.547920  4846 net.cpp:408] conv13_conv13/relu_0_split -> conv13_conv13/relu_0_split_1
I1018 15:42:57.547930  4846 net.cpp:408] conv13_conv13/relu_0_split -> conv13_conv13/relu_0_split_2
I1018 15:42:57.547935  4846 net.cpp:408] conv13_conv13/relu_0_split -> conv13_conv13/relu_0_split_3
I1018 15:42:57.548013  4846 net.cpp:150] Setting up conv13_conv13/relu_0_split
I1018 15:42:57.548022  4846 net.cpp:157] Top shape: 12 1024 10 15 (1843200)
I1018 15:42:57.548028  4846 net.cpp:157] Top shape: 12 1024 10 15 (1843200)
I1018 15:42:57.548033  4846 net.cpp:157] Top shape: 12 1024 10 15 (1843200)
I1018 15:42:57.548038  4846 net.cpp:157] Top shape: 12 1024 10 15 (1843200)
I1018 15:42:57.548040  4846 net.cpp:165] Memory required for data: 3229286976
I1018 15:42:57.548043  4846 layer_factory.hpp:77] Creating layer conv14_1
I1018 15:42:57.548055  4846 net.cpp:100] Creating Layer conv14_1
I1018 15:42:57.548060  4846 net.cpp:434] conv14_1 <- conv13_conv13/relu_0_split_0
I1018 15:42:57.548071  4846 net.cpp:408] conv14_1 -> conv14_1
I1018 15:42:57.552546  4846 net.cpp:150] Setting up conv14_1
I1018 15:42:57.552564  4846 net.cpp:157] Top shape: 12 256 10 15 (460800)
I1018 15:42:57.552570  4846 net.cpp:165] Memory required for data: 3231130176
I1018 15:42:57.552577  4846 layer_factory.hpp:77] Creating layer conv14_1/bn
I1018 15:42:57.552584  4846 net.cpp:100] Creating Layer conv14_1/bn
I1018 15:42:57.552589  4846 net.cpp:434] conv14_1/bn <- conv14_1
I1018 15:42:57.552597  4846 net.cpp:395] conv14_1/bn -> conv14_1 (in-place)
I1018 15:42:57.552788  4846 net.cpp:150] Setting up conv14_1/bn
I1018 15:42:57.552799  4846 net.cpp:157] Top shape: 12 256 10 15 (460800)
I1018 15:42:57.552803  4846 net.cpp:165] Memory required for data: 3232973376
I1018 15:42:57.552811  4846 layer_factory.hpp:77] Creating layer conv14_1/scale
I1018 15:42:57.552819  4846 net.cpp:100] Creating Layer conv14_1/scale
I1018 15:42:57.552822  4846 net.cpp:434] conv14_1/scale <- conv14_1
I1018 15:42:57.552826  4846 net.cpp:395] conv14_1/scale -> conv14_1 (in-place)
I1018 15:42:57.552875  4846 layer_factory.hpp:77] Creating layer conv14_1/scale
I1018 15:42:57.553011  4846 net.cpp:150] Setting up conv14_1/scale
I1018 15:42:57.553025  4846 net.cpp:157] Top shape: 12 256 10 15 (460800)
I1018 15:42:57.553030  4846 net.cpp:165] Memory required for data: 3234816576
I1018 15:42:57.553037  4846 layer_factory.hpp:77] Creating layer conv14_1/relu
I1018 15:42:57.553043  4846 net.cpp:100] Creating Layer conv14_1/relu
I1018 15:42:57.553048  4846 net.cpp:434] conv14_1/relu <- conv14_1
I1018 15:42:57.553056  4846 net.cpp:395] conv14_1/relu -> conv14_1 (in-place)
I1018 15:42:57.553643  4846 net.cpp:150] Setting up conv14_1/relu
I1018 15:42:57.553658  4846 net.cpp:157] Top shape: 12 256 10 15 (460800)
I1018 15:42:57.553660  4846 net.cpp:165] Memory required for data: 3236659776
I1018 15:42:57.553663  4846 layer_factory.hpp:77] Creating layer conv14_2
I1018 15:42:57.553673  4846 net.cpp:100] Creating Layer conv14_2
I1018 15:42:57.553676  4846 net.cpp:434] conv14_2 <- conv14_1
I1018 15:42:57.553684  4846 net.cpp:408] conv14_2 -> conv14_2
I1018 15:42:57.565654  4846 net.cpp:150] Setting up conv14_2
I1018 15:42:57.565675  4846 net.cpp:157] Top shape: 12 512 5 8 (245760)
I1018 15:42:57.565678  4846 net.cpp:165] Memory required for data: 3237642816
I1018 15:42:57.565686  4846 layer_factory.hpp:77] Creating layer conv14_2/bn
I1018 15:42:57.565696  4846 net.cpp:100] Creating Layer conv14_2/bn
I1018 15:42:57.565701  4846 net.cpp:434] conv14_2/bn <- conv14_2
I1018 15:42:57.565707  4846 net.cpp:395] conv14_2/bn -> conv14_2 (in-place)
I1018 15:42:57.565902  4846 net.cpp:150] Setting up conv14_2/bn
I1018 15:42:57.565910  4846 net.cpp:157] Top shape: 12 512 5 8 (245760)
I1018 15:42:57.565913  4846 net.cpp:165] Memory required for data: 3238625856
I1018 15:42:57.565919  4846 layer_factory.hpp:77] Creating layer conv14_2/scale
I1018 15:42:57.565928  4846 net.cpp:100] Creating Layer conv14_2/scale
I1018 15:42:57.565948  4846 net.cpp:434] conv14_2/scale <- conv14_2
I1018 15:42:57.565953  4846 net.cpp:395] conv14_2/scale -> conv14_2 (in-place)
I1018 15:42:57.565995  4846 layer_factory.hpp:77] Creating layer conv14_2/scale
I1018 15:42:57.566103  4846 net.cpp:150] Setting up conv14_2/scale
I1018 15:42:57.566110  4846 net.cpp:157] Top shape: 12 512 5 8 (245760)
I1018 15:42:57.566112  4846 net.cpp:165] Memory required for data: 3239608896
I1018 15:42:57.566118  4846 layer_factory.hpp:77] Creating layer conv14_2/relu
I1018 15:42:57.566124  4846 net.cpp:100] Creating Layer conv14_2/relu
I1018 15:42:57.566128  4846 net.cpp:434] conv14_2/relu <- conv14_2
I1018 15:42:57.566130  4846 net.cpp:395] conv14_2/relu -> conv14_2 (in-place)
I1018 15:42:57.566537  4846 net.cpp:150] Setting up conv14_2/relu
I1018 15:42:57.566550  4846 net.cpp:157] Top shape: 12 512 5 8 (245760)
I1018 15:42:57.566552  4846 net.cpp:165] Memory required for data: 3240591936
I1018 15:42:57.566555  4846 layer_factory.hpp:77] Creating layer conv14_2_conv14_2/relu_0_split
I1018 15:42:57.566560  4846 net.cpp:100] Creating Layer conv14_2_conv14_2/relu_0_split
I1018 15:42:57.566563  4846 net.cpp:434] conv14_2_conv14_2/relu_0_split <- conv14_2
I1018 15:42:57.566570  4846 net.cpp:408] conv14_2_conv14_2/relu_0_split -> conv14_2_conv14_2/relu_0_split_0
I1018 15:42:57.566577  4846 net.cpp:408] conv14_2_conv14_2/relu_0_split -> conv14_2_conv14_2/relu_0_split_1
I1018 15:42:57.566582  4846 net.cpp:408] conv14_2_conv14_2/relu_0_split -> conv14_2_conv14_2/relu_0_split_2
I1018 15:42:57.566589  4846 net.cpp:408] conv14_2_conv14_2/relu_0_split -> conv14_2_conv14_2/relu_0_split_3
I1018 15:42:57.566653  4846 net.cpp:150] Setting up conv14_2_conv14_2/relu_0_split
I1018 15:42:57.566659  4846 net.cpp:157] Top shape: 12 512 5 8 (245760)
I1018 15:42:57.566663  4846 net.cpp:157] Top shape: 12 512 5 8 (245760)
I1018 15:42:57.566666  4846 net.cpp:157] Top shape: 12 512 5 8 (245760)
I1018 15:42:57.566669  4846 net.cpp:157] Top shape: 12 512 5 8 (245760)
I1018 15:42:57.566671  4846 net.cpp:165] Memory required for data: 3244524096
I1018 15:42:57.566673  4846 layer_factory.hpp:77] Creating layer conv15_1
I1018 15:42:57.566684  4846 net.cpp:100] Creating Layer conv15_1
I1018 15:42:57.566687  4846 net.cpp:434] conv15_1 <- conv14_2_conv14_2/relu_0_split_0
I1018 15:42:57.566694  4846 net.cpp:408] conv15_1 -> conv15_1
I1018 15:42:57.568895  4846 net.cpp:150] Setting up conv15_1
I1018 15:42:57.568910  4846 net.cpp:157] Top shape: 12 128 5 8 (61440)
I1018 15:42:57.568913  4846 net.cpp:165] Memory required for data: 3244769856
I1018 15:42:57.568918  4846 layer_factory.hpp:77] Creating layer conv15_1/bn
I1018 15:42:57.568923  4846 net.cpp:100] Creating Layer conv15_1/bn
I1018 15:42:57.568928  4846 net.cpp:434] conv15_1/bn <- conv15_1
I1018 15:42:57.568933  4846 net.cpp:395] conv15_1/bn -> conv15_1 (in-place)
I1018 15:42:57.569108  4846 net.cpp:150] Setting up conv15_1/bn
I1018 15:42:57.569115  4846 net.cpp:157] Top shape: 12 128 5 8 (61440)
I1018 15:42:57.569118  4846 net.cpp:165] Memory required for data: 3245015616
I1018 15:42:57.569124  4846 layer_factory.hpp:77] Creating layer conv15_1/scale
I1018 15:42:57.569129  4846 net.cpp:100] Creating Layer conv15_1/scale
I1018 15:42:57.569133  4846 net.cpp:434] conv15_1/scale <- conv15_1
I1018 15:42:57.569139  4846 net.cpp:395] conv15_1/scale -> conv15_1 (in-place)
I1018 15:42:57.569175  4846 layer_factory.hpp:77] Creating layer conv15_1/scale
I1018 15:42:57.569272  4846 net.cpp:150] Setting up conv15_1/scale
I1018 15:42:57.569288  4846 net.cpp:157] Top shape: 12 128 5 8 (61440)
I1018 15:42:57.569291  4846 net.cpp:165] Memory required for data: 3245261376
I1018 15:42:57.569295  4846 layer_factory.hpp:77] Creating layer conv15_1/relu
I1018 15:42:57.569300  4846 net.cpp:100] Creating Layer conv15_1/relu
I1018 15:42:57.569303  4846 net.cpp:434] conv15_1/relu <- conv15_1
I1018 15:42:57.569308  4846 net.cpp:395] conv15_1/relu -> conv15_1 (in-place)
I1018 15:42:57.570006  4846 net.cpp:150] Setting up conv15_1/relu
I1018 15:42:57.570019  4846 net.cpp:157] Top shape: 12 128 5 8 (61440)
I1018 15:42:57.570030  4846 net.cpp:165] Memory required for data: 3245507136
I1018 15:42:57.570035  4846 layer_factory.hpp:77] Creating layer conv15_2
I1018 15:42:57.570044  4846 net.cpp:100] Creating Layer conv15_2
I1018 15:42:57.570049  4846 net.cpp:434] conv15_2 <- conv15_1
I1018 15:42:57.570055  4846 net.cpp:408] conv15_2 -> conv15_2
I1018 15:42:57.574719  4846 net.cpp:150] Setting up conv15_2
I1018 15:42:57.574735  4846 net.cpp:157] Top shape: 12 256 3 4 (36864)
I1018 15:42:57.574738  4846 net.cpp:165] Memory required for data: 3245654592
I1018 15:42:57.574743  4846 layer_factory.hpp:77] Creating layer conv15_2/bn
I1018 15:42:57.574749  4846 net.cpp:100] Creating Layer conv15_2/bn
I1018 15:42:57.574753  4846 net.cpp:434] conv15_2/bn <- conv15_2
I1018 15:42:57.574759  4846 net.cpp:395] conv15_2/bn -> conv15_2 (in-place)
I1018 15:42:57.574942  4846 net.cpp:150] Setting up conv15_2/bn
I1018 15:42:57.574950  4846 net.cpp:157] Top shape: 12 256 3 4 (36864)
I1018 15:42:57.574954  4846 net.cpp:165] Memory required for data: 3245802048
I1018 15:42:57.574959  4846 layer_factory.hpp:77] Creating layer conv15_2/scale
I1018 15:42:57.574965  4846 net.cpp:100] Creating Layer conv15_2/scale
I1018 15:42:57.574968  4846 net.cpp:434] conv15_2/scale <- conv15_2
I1018 15:42:57.574973  4846 net.cpp:395] conv15_2/scale -> conv15_2 (in-place)
I1018 15:42:57.575011  4846 layer_factory.hpp:77] Creating layer conv15_2/scale
I1018 15:42:57.575111  4846 net.cpp:150] Setting up conv15_2/scale
I1018 15:42:57.575120  4846 net.cpp:157] Top shape: 12 256 3 4 (36864)
I1018 15:42:57.575122  4846 net.cpp:165] Memory required for data: 3245949504
I1018 15:42:57.575127  4846 layer_factory.hpp:77] Creating layer conv15_2/relu
I1018 15:42:57.575142  4846 net.cpp:100] Creating Layer conv15_2/relu
I1018 15:42:57.575146  4846 net.cpp:434] conv15_2/relu <- conv15_2
I1018 15:42:57.575150  4846 net.cpp:395] conv15_2/relu -> conv15_2 (in-place)
I1018 15:42:57.575552  4846 net.cpp:150] Setting up conv15_2/relu
I1018 15:42:57.575562  4846 net.cpp:157] Top shape: 12 256 3 4 (36864)
I1018 15:42:57.575567  4846 net.cpp:165] Memory required for data: 3246096960
I1018 15:42:57.575570  4846 layer_factory.hpp:77] Creating layer conv15_2_conv15_2/relu_0_split
I1018 15:42:57.575575  4846 net.cpp:100] Creating Layer conv15_2_conv15_2/relu_0_split
I1018 15:42:57.575578  4846 net.cpp:434] conv15_2_conv15_2/relu_0_split <- conv15_2
I1018 15:42:57.575585  4846 net.cpp:408] conv15_2_conv15_2/relu_0_split -> conv15_2_conv15_2/relu_0_split_0
I1018 15:42:57.575592  4846 net.cpp:408] conv15_2_conv15_2/relu_0_split -> conv15_2_conv15_2/relu_0_split_1
I1018 15:42:57.575598  4846 net.cpp:408] conv15_2_conv15_2/relu_0_split -> conv15_2_conv15_2/relu_0_split_2
I1018 15:42:57.575603  4846 net.cpp:408] conv15_2_conv15_2/relu_0_split -> conv15_2_conv15_2/relu_0_split_3
I1018 15:42:57.575665  4846 net.cpp:150] Setting up conv15_2_conv15_2/relu_0_split
I1018 15:42:57.575671  4846 net.cpp:157] Top shape: 12 256 3 4 (36864)
I1018 15:42:57.575675  4846 net.cpp:157] Top shape: 12 256 3 4 (36864)
I1018 15:42:57.575677  4846 net.cpp:157] Top shape: 12 256 3 4 (36864)
I1018 15:42:57.575681  4846 net.cpp:157] Top shape: 12 256 3 4 (36864)
I1018 15:42:57.575683  4846 net.cpp:165] Memory required for data: 3246686784
I1018 15:42:57.575685  4846 layer_factory.hpp:77] Creating layer conv16_1
I1018 15:42:57.575695  4846 net.cpp:100] Creating Layer conv16_1
I1018 15:42:57.575698  4846 net.cpp:434] conv16_1 <- conv15_2_conv15_2/relu_0_split_0
I1018 15:42:57.575703  4846 net.cpp:408] conv16_1 -> conv16_1
I1018 15:42:57.578771  4846 net.cpp:150] Setting up conv16_1
I1018 15:42:57.578789  4846 net.cpp:157] Top shape: 12 128 3 4 (18432)
I1018 15:42:57.578794  4846 net.cpp:165] Memory required for data: 3246760512
I1018 15:42:57.578799  4846 layer_factory.hpp:77] Creating layer conv16_1/bn
I1018 15:42:57.578814  4846 net.cpp:100] Creating Layer conv16_1/bn
I1018 15:42:57.578819  4846 net.cpp:434] conv16_1/bn <- conv16_1
I1018 15:42:57.578825  4846 net.cpp:395] conv16_1/bn -> conv16_1 (in-place)
I1018 15:42:57.579067  4846 net.cpp:150] Setting up conv16_1/bn
I1018 15:42:57.579077  4846 net.cpp:157] Top shape: 12 128 3 4 (18432)
I1018 15:42:57.579078  4846 net.cpp:165] Memory required for data: 3246834240
I1018 15:42:57.579085  4846 layer_factory.hpp:77] Creating layer conv16_1/scale
I1018 15:42:57.579093  4846 net.cpp:100] Creating Layer conv16_1/scale
I1018 15:42:57.579097  4846 net.cpp:434] conv16_1/scale <- conv16_1
I1018 15:42:57.579102  4846 net.cpp:395] conv16_1/scale -> conv16_1 (in-place)
I1018 15:42:57.579140  4846 layer_factory.hpp:77] Creating layer conv16_1/scale
I1018 15:42:57.579244  4846 net.cpp:150] Setting up conv16_1/scale
I1018 15:42:57.579252  4846 net.cpp:157] Top shape: 12 128 3 4 (18432)
I1018 15:42:57.579254  4846 net.cpp:165] Memory required for data: 3246907968
I1018 15:42:57.579259  4846 layer_factory.hpp:77] Creating layer conv16_1/relu
I1018 15:42:57.579264  4846 net.cpp:100] Creating Layer conv16_1/relu
I1018 15:42:57.579267  4846 net.cpp:434] conv16_1/relu <- conv16_1
I1018 15:42:57.579272  4846 net.cpp:395] conv16_1/relu -> conv16_1 (in-place)
I1018 15:42:57.579686  4846 net.cpp:150] Setting up conv16_1/relu
I1018 15:42:57.579695  4846 net.cpp:157] Top shape: 12 128 3 4 (18432)
I1018 15:42:57.579699  4846 net.cpp:165] Memory required for data: 3246981696
I1018 15:42:57.579701  4846 layer_factory.hpp:77] Creating layer conv16_2
I1018 15:42:57.579711  4846 net.cpp:100] Creating Layer conv16_2
I1018 15:42:57.579715  4846 net.cpp:434] conv16_2 <- conv16_1
I1018 15:42:57.579721  4846 net.cpp:408] conv16_2 -> conv16_2
I1018 15:42:57.584625  4846 net.cpp:150] Setting up conv16_2
I1018 15:42:57.584640  4846 net.cpp:157] Top shape: 12 256 2 2 (12288)
I1018 15:42:57.584645  4846 net.cpp:165] Memory required for data: 3247030848
I1018 15:42:57.584650  4846 layer_factory.hpp:77] Creating layer conv16_2/bn
I1018 15:42:57.584656  4846 net.cpp:100] Creating Layer conv16_2/bn
I1018 15:42:57.584661  4846 net.cpp:434] conv16_2/bn <- conv16_2
I1018 15:42:57.584666  4846 net.cpp:395] conv16_2/bn -> conv16_2 (in-place)
I1018 15:42:57.584844  4846 net.cpp:150] Setting up conv16_2/bn
I1018 15:42:57.584851  4846 net.cpp:157] Top shape: 12 256 2 2 (12288)
I1018 15:42:57.584853  4846 net.cpp:165] Memory required for data: 3247080000
I1018 15:42:57.584859  4846 layer_factory.hpp:77] Creating layer conv16_2/scale
I1018 15:42:57.584866  4846 net.cpp:100] Creating Layer conv16_2/scale
I1018 15:42:57.584867  4846 net.cpp:434] conv16_2/scale <- conv16_2
I1018 15:42:57.584873  4846 net.cpp:395] conv16_2/scale -> conv16_2 (in-place)
I1018 15:42:57.584914  4846 layer_factory.hpp:77] Creating layer conv16_2/scale
I1018 15:42:57.585016  4846 net.cpp:150] Setting up conv16_2/scale
I1018 15:42:57.585023  4846 net.cpp:157] Top shape: 12 256 2 2 (12288)
I1018 15:42:57.585026  4846 net.cpp:165] Memory required for data: 3247129152
I1018 15:42:57.585031  4846 layer_factory.hpp:77] Creating layer conv16_2/relu
I1018 15:42:57.585036  4846 net.cpp:100] Creating Layer conv16_2/relu
I1018 15:42:57.585038  4846 net.cpp:434] conv16_2/relu <- conv16_2
I1018 15:42:57.585045  4846 net.cpp:395] conv16_2/relu -> conv16_2 (in-place)
I1018 15:42:57.585780  4846 net.cpp:150] Setting up conv16_2/relu
I1018 15:42:57.585793  4846 net.cpp:157] Top shape: 12 256 2 2 (12288)
I1018 15:42:57.585795  4846 net.cpp:165] Memory required for data: 3247178304
I1018 15:42:57.585798  4846 layer_factory.hpp:77] Creating layer conv16_2_conv16_2/relu_0_split
I1018 15:42:57.585806  4846 net.cpp:100] Creating Layer conv16_2_conv16_2/relu_0_split
I1018 15:42:57.585810  4846 net.cpp:434] conv16_2_conv16_2/relu_0_split <- conv16_2
I1018 15:42:57.585815  4846 net.cpp:408] conv16_2_conv16_2/relu_0_split -> conv16_2_conv16_2/relu_0_split_0
I1018 15:42:57.585824  4846 net.cpp:408] conv16_2_conv16_2/relu_0_split -> conv16_2_conv16_2/relu_0_split_1
I1018 15:42:57.585829  4846 net.cpp:408] conv16_2_conv16_2/relu_0_split -> conv16_2_conv16_2/relu_0_split_2
I1018 15:42:57.585834  4846 net.cpp:408] conv16_2_conv16_2/relu_0_split -> conv16_2_conv16_2/relu_0_split_3
I1018 15:42:57.585912  4846 net.cpp:150] Setting up conv16_2_conv16_2/relu_0_split
I1018 15:42:57.585921  4846 net.cpp:157] Top shape: 12 256 2 2 (12288)
I1018 15:42:57.585923  4846 net.cpp:157] Top shape: 12 256 2 2 (12288)
I1018 15:42:57.585927  4846 net.cpp:157] Top shape: 12 256 2 2 (12288)
I1018 15:42:57.585929  4846 net.cpp:157] Top shape: 12 256 2 2 (12288)
I1018 15:42:57.585932  4846 net.cpp:165] Memory required for data: 3247374912
I1018 15:42:57.585934  4846 layer_factory.hpp:77] Creating layer conv17_1
I1018 15:42:57.585942  4846 net.cpp:100] Creating Layer conv17_1
I1018 15:42:57.585945  4846 net.cpp:434] conv17_1 <- conv16_2_conv16_2/relu_0_split_0
I1018 15:42:57.585952  4846 net.cpp:408] conv17_1 -> conv17_1
I1018 15:42:57.587821  4846 net.cpp:150] Setting up conv17_1
I1018 15:42:57.587834  4846 net.cpp:157] Top shape: 12 64 2 2 (3072)
I1018 15:42:57.587837  4846 net.cpp:165] Memory required for data: 3247387200
I1018 15:42:57.587842  4846 layer_factory.hpp:77] Creating layer conv17_1/bn
I1018 15:42:57.587851  4846 net.cpp:100] Creating Layer conv17_1/bn
I1018 15:42:57.587853  4846 net.cpp:434] conv17_1/bn <- conv17_1
I1018 15:42:57.587858  4846 net.cpp:395] conv17_1/bn -> conv17_1 (in-place)
I1018 15:42:57.588047  4846 net.cpp:150] Setting up conv17_1/bn
I1018 15:42:57.588057  4846 net.cpp:157] Top shape: 12 64 2 2 (3072)
I1018 15:42:57.588059  4846 net.cpp:165] Memory required for data: 3247399488
I1018 15:42:57.588064  4846 layer_factory.hpp:77] Creating layer conv17_1/scale
I1018 15:42:57.588070  4846 net.cpp:100] Creating Layer conv17_1/scale
I1018 15:42:57.588073  4846 net.cpp:434] conv17_1/scale <- conv17_1
I1018 15:42:57.588078  4846 net.cpp:395] conv17_1/scale -> conv17_1 (in-place)
I1018 15:42:57.588117  4846 layer_factory.hpp:77] Creating layer conv17_1/scale
I1018 15:42:57.588227  4846 net.cpp:150] Setting up conv17_1/scale
I1018 15:42:57.588234  4846 net.cpp:157] Top shape: 12 64 2 2 (3072)
I1018 15:42:57.588238  4846 net.cpp:165] Memory required for data: 3247411776
I1018 15:42:57.588241  4846 layer_factory.hpp:77] Creating layer conv17_1/relu
I1018 15:42:57.588246  4846 net.cpp:100] Creating Layer conv17_1/relu
I1018 15:42:57.588249  4846 net.cpp:434] conv17_1/relu <- conv17_1
I1018 15:42:57.588253  4846 net.cpp:395] conv17_1/relu -> conv17_1 (in-place)
I1018 15:42:57.588666  4846 net.cpp:150] Setting up conv17_1/relu
I1018 15:42:57.588681  4846 net.cpp:157] Top shape: 12 64 2 2 (3072)
I1018 15:42:57.588685  4846 net.cpp:165] Memory required for data: 3247424064
I1018 15:42:57.588690  4846 layer_factory.hpp:77] Creating layer conv17_2
I1018 15:42:57.588701  4846 net.cpp:100] Creating Layer conv17_2
I1018 15:42:57.588707  4846 net.cpp:434] conv17_2 <- conv17_1
I1018 15:42:57.588718  4846 net.cpp:408] conv17_2 -> conv17_2
I1018 15:42:57.591905  4846 net.cpp:150] Setting up conv17_2
I1018 15:42:57.591919  4846 net.cpp:157] Top shape: 12 128 1 1 (1536)
I1018 15:42:57.591924  4846 net.cpp:165] Memory required for data: 3247430208
I1018 15:42:57.591928  4846 layer_factory.hpp:77] Creating layer conv17_2/bn
I1018 15:42:57.591934  4846 net.cpp:100] Creating Layer conv17_2/bn
I1018 15:42:57.591938  4846 net.cpp:434] conv17_2/bn <- conv17_2
I1018 15:42:57.591943  4846 net.cpp:395] conv17_2/bn -> conv17_2 (in-place)
I1018 15:42:57.592123  4846 net.cpp:150] Setting up conv17_2/bn
I1018 15:42:57.592130  4846 net.cpp:157] Top shape: 12 128 1 1 (1536)
I1018 15:42:57.592133  4846 net.cpp:165] Memory required for data: 3247436352
I1018 15:42:57.592139  4846 layer_factory.hpp:77] Creating layer conv17_2/scale
I1018 15:42:57.592144  4846 net.cpp:100] Creating Layer conv17_2/scale
I1018 15:42:57.592147  4846 net.cpp:434] conv17_2/scale <- conv17_2
I1018 15:42:57.592152  4846 net.cpp:395] conv17_2/scale -> conv17_2 (in-place)
I1018 15:42:57.592192  4846 layer_factory.hpp:77] Creating layer conv17_2/scale
I1018 15:42:57.592294  4846 net.cpp:150] Setting up conv17_2/scale
I1018 15:42:57.592301  4846 net.cpp:157] Top shape: 12 128 1 1 (1536)
I1018 15:42:57.592304  4846 net.cpp:165] Memory required for data: 3247442496
I1018 15:42:57.592319  4846 layer_factory.hpp:77] Creating layer conv17_2/relu
I1018 15:42:57.592324  4846 net.cpp:100] Creating Layer conv17_2/relu
I1018 15:42:57.592327  4846 net.cpp:434] conv17_2/relu <- conv17_2
I1018 15:42:57.592330  4846 net.cpp:395] conv17_2/relu -> conv17_2 (in-place)
I1018 15:42:57.592730  4846 net.cpp:150] Setting up conv17_2/relu
I1018 15:42:57.592739  4846 net.cpp:157] Top shape: 12 128 1 1 (1536)
I1018 15:42:57.592742  4846 net.cpp:165] Memory required for data: 3247448640
I1018 15:42:57.592744  4846 layer_factory.hpp:77] Creating layer conv17_2_conv17_2/relu_0_split
I1018 15:42:57.592751  4846 net.cpp:100] Creating Layer conv17_2_conv17_2/relu_0_split
I1018 15:42:57.592753  4846 net.cpp:434] conv17_2_conv17_2/relu_0_split <- conv17_2
I1018 15:42:57.592759  4846 net.cpp:408] conv17_2_conv17_2/relu_0_split -> conv17_2_conv17_2/relu_0_split_0
I1018 15:42:57.592779  4846 net.cpp:408] conv17_2_conv17_2/relu_0_split -> conv17_2_conv17_2/relu_0_split_1
I1018 15:42:57.592787  4846 net.cpp:408] conv17_2_conv17_2/relu_0_split -> conv17_2_conv17_2/relu_0_split_2
I1018 15:42:57.592840  4846 net.cpp:150] Setting up conv17_2_conv17_2/relu_0_split
I1018 15:42:57.592846  4846 net.cpp:157] Top shape: 12 128 1 1 (1536)
I1018 15:42:57.592850  4846 net.cpp:157] Top shape: 12 128 1 1 (1536)
I1018 15:42:57.592854  4846 net.cpp:157] Top shape: 12 128 1 1 (1536)
I1018 15:42:57.592855  4846 net.cpp:165] Memory required for data: 3247467072
I1018 15:42:57.592859  4846 layer_factory.hpp:77] Creating layer conv11_mbox_loc
I1018 15:42:57.592867  4846 net.cpp:100] Creating Layer conv11_mbox_loc
I1018 15:42:57.592871  4846 net.cpp:434] conv11_mbox_loc <- conv11_conv11/relu_0_split_1
I1018 15:42:57.592877  4846 net.cpp:408] conv11_mbox_loc -> conv11_mbox_loc
I1018 15:42:57.595015  4846 net.cpp:150] Setting up conv11_mbox_loc
I1018 15:42:57.595032  4846 net.cpp:157] Top shape: 12 12 20 30 (86400)
I1018 15:42:57.595038  4846 net.cpp:165] Memory required for data: 3247812672
I1018 15:42:57.595047  4846 layer_factory.hpp:77] Creating layer conv11_mbox_loc_perm
I1018 15:42:57.595057  4846 net.cpp:100] Creating Layer conv11_mbox_loc_perm
I1018 15:42:57.595062  4846 net.cpp:434] conv11_mbox_loc_perm <- conv11_mbox_loc
I1018 15:42:57.595074  4846 net.cpp:408] conv11_mbox_loc_perm -> conv11_mbox_loc_perm
I1018 15:42:57.595216  4846 net.cpp:150] Setting up conv11_mbox_loc_perm
I1018 15:42:57.595228  4846 net.cpp:157] Top shape: 12 20 30 12 (86400)
I1018 15:42:57.595233  4846 net.cpp:165] Memory required for data: 3248158272
I1018 15:42:57.595237  4846 layer_factory.hpp:77] Creating layer conv11_mbox_loc_flat
I1018 15:42:57.595247  4846 net.cpp:100] Creating Layer conv11_mbox_loc_flat
I1018 15:42:57.595252  4846 net.cpp:434] conv11_mbox_loc_flat <- conv11_mbox_loc_perm
I1018 15:42:57.595260  4846 net.cpp:408] conv11_mbox_loc_flat -> conv11_mbox_loc_flat
I1018 15:42:57.595295  4846 net.cpp:150] Setting up conv11_mbox_loc_flat
I1018 15:42:57.595306  4846 net.cpp:157] Top shape: 12 7200 (86400)
I1018 15:42:57.595311  4846 net.cpp:165] Memory required for data: 3248503872
I1018 15:42:57.595316  4846 layer_factory.hpp:77] Creating layer conv11_mbox_conf_new
I1018 15:42:57.595329  4846 net.cpp:100] Creating Layer conv11_mbox_conf_new
I1018 15:42:57.595335  4846 net.cpp:434] conv11_mbox_conf_new <- conv11_conv11/relu_0_split_2
I1018 15:42:57.595343  4846 net.cpp:408] conv11_mbox_conf_new -> conv11_mbox_conf
I1018 15:42:57.597713  4846 net.cpp:150] Setting up conv11_mbox_conf_new
I1018 15:42:57.597730  4846 net.cpp:157] Top shape: 12 18 20 30 (129600)
I1018 15:42:57.597735  4846 net.cpp:165] Memory required for data: 3249022272
I1018 15:42:57.597743  4846 layer_factory.hpp:77] Creating layer conv11_mbox_conf_perm
I1018 15:42:57.597754  4846 net.cpp:100] Creating Layer conv11_mbox_conf_perm
I1018 15:42:57.597759  4846 net.cpp:434] conv11_mbox_conf_perm <- conv11_mbox_conf
I1018 15:42:57.597766  4846 net.cpp:408] conv11_mbox_conf_perm -> conv11_mbox_conf_perm
I1018 15:42:57.597906  4846 net.cpp:150] Setting up conv11_mbox_conf_perm
I1018 15:42:57.597929  4846 net.cpp:157] Top shape: 12 20 30 18 (129600)
I1018 15:42:57.597935  4846 net.cpp:165] Memory required for data: 3249540672
I1018 15:42:57.597939  4846 layer_factory.hpp:77] Creating layer conv11_mbox_conf_flat
I1018 15:42:57.597946  4846 net.cpp:100] Creating Layer conv11_mbox_conf_flat
I1018 15:42:57.597950  4846 net.cpp:434] conv11_mbox_conf_flat <- conv11_mbox_conf_perm
I1018 15:42:57.597960  4846 net.cpp:408] conv11_mbox_conf_flat -> conv11_mbox_conf_flat
I1018 15:42:57.597997  4846 net.cpp:150] Setting up conv11_mbox_conf_flat
I1018 15:42:57.598006  4846 net.cpp:157] Top shape: 12 10800 (129600)
I1018 15:42:57.598009  4846 net.cpp:165] Memory required for data: 3250059072
I1018 15:42:57.598014  4846 layer_factory.hpp:77] Creating layer conv11_mbox_priorbox
I1018 15:42:57.598022  4846 net.cpp:100] Creating Layer conv11_mbox_priorbox
I1018 15:42:57.598027  4846 net.cpp:434] conv11_mbox_priorbox <- conv11_conv11/relu_0_split_3
I1018 15:42:57.598035  4846 net.cpp:434] conv11_mbox_priorbox <- data_data_0_split_1
I1018 15:42:57.598044  4846 net.cpp:408] conv11_mbox_priorbox -> conv11_mbox_priorbox
I1018 15:42:57.598083  4846 net.cpp:150] Setting up conv11_mbox_priorbox
I1018 15:42:57.598091  4846 net.cpp:157] Top shape: 1 2 7200 (14400)
I1018 15:42:57.598095  4846 net.cpp:165] Memory required for data: 3250116672
I1018 15:42:57.598099  4846 layer_factory.hpp:77] Creating layer conv13_mbox_loc
I1018 15:42:57.598111  4846 net.cpp:100] Creating Layer conv13_mbox_loc
I1018 15:42:57.598116  4846 net.cpp:434] conv13_mbox_loc <- conv13_conv13/relu_0_split_1
I1018 15:42:57.598124  4846 net.cpp:408] conv13_mbox_loc -> conv13_mbox_loc
I1018 15:42:57.601738  4846 net.cpp:150] Setting up conv13_mbox_loc
I1018 15:42:57.601753  4846 net.cpp:157] Top shape: 12 24 10 15 (43200)
I1018 15:42:57.601758  4846 net.cpp:165] Memory required for data: 3250289472
I1018 15:42:57.601764  4846 layer_factory.hpp:77] Creating layer conv13_mbox_loc_perm
I1018 15:42:57.601770  4846 net.cpp:100] Creating Layer conv13_mbox_loc_perm
I1018 15:42:57.601774  4846 net.cpp:434] conv13_mbox_loc_perm <- conv13_mbox_loc
I1018 15:42:57.601779  4846 net.cpp:408] conv13_mbox_loc_perm -> conv13_mbox_loc_perm
I1018 15:42:57.601879  4846 net.cpp:150] Setting up conv13_mbox_loc_perm
I1018 15:42:57.601886  4846 net.cpp:157] Top shape: 12 10 15 24 (43200)
I1018 15:42:57.601888  4846 net.cpp:165] Memory required for data: 3250462272
I1018 15:42:57.601891  4846 layer_factory.hpp:77] Creating layer conv13_mbox_loc_flat
I1018 15:42:57.601897  4846 net.cpp:100] Creating Layer conv13_mbox_loc_flat
I1018 15:42:57.601900  4846 net.cpp:434] conv13_mbox_loc_flat <- conv13_mbox_loc_perm
I1018 15:42:57.601907  4846 net.cpp:408] conv13_mbox_loc_flat -> conv13_mbox_loc_flat
I1018 15:42:57.601930  4846 net.cpp:150] Setting up conv13_mbox_loc_flat
I1018 15:42:57.601935  4846 net.cpp:157] Top shape: 12 3600 (43200)
I1018 15:42:57.601938  4846 net.cpp:165] Memory required for data: 3250635072
I1018 15:42:57.601940  4846 layer_factory.hpp:77] Creating layer conv13_mbox_conf_new
I1018 15:42:57.601950  4846 net.cpp:100] Creating Layer conv13_mbox_conf_new
I1018 15:42:57.601954  4846 net.cpp:434] conv13_mbox_conf_new <- conv13_conv13/relu_0_split_2
I1018 15:42:57.601959  4846 net.cpp:408] conv13_mbox_conf_new -> conv13_mbox_conf
I1018 15:42:57.604971  4846 net.cpp:150] Setting up conv13_mbox_conf_new
I1018 15:42:57.604991  4846 net.cpp:157] Top shape: 12 36 10 15 (64800)
I1018 15:42:57.604996  4846 net.cpp:165] Memory required for data: 3250894272
I1018 15:42:57.605005  4846 layer_factory.hpp:77] Creating layer conv13_mbox_conf_perm
I1018 15:42:57.605015  4846 net.cpp:100] Creating Layer conv13_mbox_conf_perm
I1018 15:42:57.605020  4846 net.cpp:434] conv13_mbox_conf_perm <- conv13_mbox_conf
I1018 15:42:57.605029  4846 net.cpp:408] conv13_mbox_conf_perm -> conv13_mbox_conf_perm
I1018 15:42:57.605178  4846 net.cpp:150] Setting up conv13_mbox_conf_perm
I1018 15:42:57.605191  4846 net.cpp:157] Top shape: 12 10 15 36 (64800)
I1018 15:42:57.605196  4846 net.cpp:165] Memory required for data: 3251153472
I1018 15:42:57.605217  4846 layer_factory.hpp:77] Creating layer conv13_mbox_conf_flat
I1018 15:42:57.605226  4846 net.cpp:100] Creating Layer conv13_mbox_conf_flat
I1018 15:42:57.605232  4846 net.cpp:434] conv13_mbox_conf_flat <- conv13_mbox_conf_perm
I1018 15:42:57.605240  4846 net.cpp:408] conv13_mbox_conf_flat -> conv13_mbox_conf_flat
I1018 15:42:57.605274  4846 net.cpp:150] Setting up conv13_mbox_conf_flat
I1018 15:42:57.605283  4846 net.cpp:157] Top shape: 12 5400 (64800)
I1018 15:42:57.605288  4846 net.cpp:165] Memory required for data: 3251412672
I1018 15:42:57.605293  4846 layer_factory.hpp:77] Creating layer conv13_mbox_priorbox
I1018 15:42:57.605305  4846 net.cpp:100] Creating Layer conv13_mbox_priorbox
I1018 15:42:57.605311  4846 net.cpp:434] conv13_mbox_priorbox <- conv13_conv13/relu_0_split_3
I1018 15:42:57.605319  4846 net.cpp:434] conv13_mbox_priorbox <- data_data_0_split_2
I1018 15:42:57.605329  4846 net.cpp:408] conv13_mbox_priorbox -> conv13_mbox_priorbox
I1018 15:42:57.605367  4846 net.cpp:150] Setting up conv13_mbox_priorbox
I1018 15:42:57.605379  4846 net.cpp:157] Top shape: 1 2 3600 (7200)
I1018 15:42:57.605384  4846 net.cpp:165] Memory required for data: 3251441472
I1018 15:42:57.605389  4846 layer_factory.hpp:77] Creating layer conv14_2_mbox_loc
I1018 15:42:57.605402  4846 net.cpp:100] Creating Layer conv14_2_mbox_loc
I1018 15:42:57.605408  4846 net.cpp:434] conv14_2_mbox_loc <- conv14_2_conv14_2/relu_0_split_1
I1018 15:42:57.605418  4846 net.cpp:408] conv14_2_mbox_loc -> conv14_2_mbox_loc
I1018 15:42:57.607376  4846 net.cpp:150] Setting up conv14_2_mbox_loc
I1018 15:42:57.607390  4846 net.cpp:157] Top shape: 12 24 5 8 (11520)
I1018 15:42:57.607393  4846 net.cpp:165] Memory required for data: 3251487552
I1018 15:42:57.607399  4846 layer_factory.hpp:77] Creating layer conv14_2_mbox_loc_perm
I1018 15:42:57.607405  4846 net.cpp:100] Creating Layer conv14_2_mbox_loc_perm
I1018 15:42:57.607409  4846 net.cpp:434] conv14_2_mbox_loc_perm <- conv14_2_mbox_loc
I1018 15:42:57.607415  4846 net.cpp:408] conv14_2_mbox_loc_perm -> conv14_2_mbox_loc_perm
I1018 15:42:57.607517  4846 net.cpp:150] Setting up conv14_2_mbox_loc_perm
I1018 15:42:57.607523  4846 net.cpp:157] Top shape: 12 5 8 24 (11520)
I1018 15:42:57.607527  4846 net.cpp:165] Memory required for data: 3251533632
I1018 15:42:57.607529  4846 layer_factory.hpp:77] Creating layer conv14_2_mbox_loc_flat
I1018 15:42:57.607534  4846 net.cpp:100] Creating Layer conv14_2_mbox_loc_flat
I1018 15:42:57.607538  4846 net.cpp:434] conv14_2_mbox_loc_flat <- conv14_2_mbox_loc_perm
I1018 15:42:57.607542  4846 net.cpp:408] conv14_2_mbox_loc_flat -> conv14_2_mbox_loc_flat
I1018 15:42:57.607568  4846 net.cpp:150] Setting up conv14_2_mbox_loc_flat
I1018 15:42:57.607573  4846 net.cpp:157] Top shape: 12 960 (11520)
I1018 15:42:57.607575  4846 net.cpp:165] Memory required for data: 3251579712
I1018 15:42:57.607578  4846 layer_factory.hpp:77] Creating layer conv14_2_mbox_conf_new
I1018 15:42:57.607586  4846 net.cpp:100] Creating Layer conv14_2_mbox_conf_new
I1018 15:42:57.607590  4846 net.cpp:434] conv14_2_mbox_conf_new <- conv14_2_conv14_2/relu_0_split_2
I1018 15:42:57.607596  4846 net.cpp:408] conv14_2_mbox_conf_new -> conv14_2_mbox_conf
I1018 15:42:57.609875  4846 net.cpp:150] Setting up conv14_2_mbox_conf_new
I1018 15:42:57.609890  4846 net.cpp:157] Top shape: 12 36 5 8 (17280)
I1018 15:42:57.609894  4846 net.cpp:165] Memory required for data: 3251648832
I1018 15:42:57.609899  4846 layer_factory.hpp:77] Creating layer conv14_2_mbox_conf_perm
I1018 15:42:57.609905  4846 net.cpp:100] Creating Layer conv14_2_mbox_conf_perm
I1018 15:42:57.609910  4846 net.cpp:434] conv14_2_mbox_conf_perm <- conv14_2_mbox_conf
I1018 15:42:57.609915  4846 net.cpp:408] conv14_2_mbox_conf_perm -> conv14_2_mbox_conf_perm
I1018 15:42:57.610018  4846 net.cpp:150] Setting up conv14_2_mbox_conf_perm
I1018 15:42:57.610025  4846 net.cpp:157] Top shape: 12 5 8 36 (17280)
I1018 15:42:57.610028  4846 net.cpp:165] Memory required for data: 3251717952
I1018 15:42:57.610045  4846 layer_factory.hpp:77] Creating layer conv14_2_mbox_conf_flat
I1018 15:42:57.610051  4846 net.cpp:100] Creating Layer conv14_2_mbox_conf_flat
I1018 15:42:57.610054  4846 net.cpp:434] conv14_2_mbox_conf_flat <- conv14_2_mbox_conf_perm
I1018 15:42:57.610061  4846 net.cpp:408] conv14_2_mbox_conf_flat -> conv14_2_mbox_conf_flat
I1018 15:42:57.610086  4846 net.cpp:150] Setting up conv14_2_mbox_conf_flat
I1018 15:42:57.610091  4846 net.cpp:157] Top shape: 12 1440 (17280)
I1018 15:42:57.610093  4846 net.cpp:165] Memory required for data: 3251787072
I1018 15:42:57.610096  4846 layer_factory.hpp:77] Creating layer conv14_2_mbox_priorbox
I1018 15:42:57.610105  4846 net.cpp:100] Creating Layer conv14_2_mbox_priorbox
I1018 15:42:57.610107  4846 net.cpp:434] conv14_2_mbox_priorbox <- conv14_2_conv14_2/relu_0_split_3
I1018 15:42:57.610112  4846 net.cpp:434] conv14_2_mbox_priorbox <- data_data_0_split_3
I1018 15:42:57.610119  4846 net.cpp:408] conv14_2_mbox_priorbox -> conv14_2_mbox_priorbox
I1018 15:42:57.610146  4846 net.cpp:150] Setting up conv14_2_mbox_priorbox
I1018 15:42:57.610150  4846 net.cpp:157] Top shape: 1 2 960 (1920)
I1018 15:42:57.610152  4846 net.cpp:165] Memory required for data: 3251794752
I1018 15:42:57.610155  4846 layer_factory.hpp:77] Creating layer conv15_2_mbox_loc
I1018 15:42:57.610165  4846 net.cpp:100] Creating Layer conv15_2_mbox_loc
I1018 15:42:57.610169  4846 net.cpp:434] conv15_2_mbox_loc <- conv15_2_conv15_2/relu_0_split_1
I1018 15:42:57.610174  4846 net.cpp:408] conv15_2_mbox_loc -> conv15_2_mbox_loc
I1018 15:42:57.612768  4846 net.cpp:150] Setting up conv15_2_mbox_loc
I1018 15:42:57.612789  4846 net.cpp:157] Top shape: 12 24 3 4 (3456)
I1018 15:42:57.612794  4846 net.cpp:165] Memory required for data: 3251808576
I1018 15:42:57.612803  4846 layer_factory.hpp:77] Creating layer conv15_2_mbox_loc_perm
I1018 15:42:57.612813  4846 net.cpp:100] Creating Layer conv15_2_mbox_loc_perm
I1018 15:42:57.612818  4846 net.cpp:434] conv15_2_mbox_loc_perm <- conv15_2_mbox_loc
I1018 15:42:57.612824  4846 net.cpp:408] conv15_2_mbox_loc_perm -> conv15_2_mbox_loc_perm
I1018 15:42:57.612998  4846 net.cpp:150] Setting up conv15_2_mbox_loc_perm
I1018 15:42:57.613009  4846 net.cpp:157] Top shape: 12 3 4 24 (3456)
I1018 15:42:57.613011  4846 net.cpp:165] Memory required for data: 3251822400
I1018 15:42:57.613014  4846 layer_factory.hpp:77] Creating layer conv15_2_mbox_loc_flat
I1018 15:42:57.613023  4846 net.cpp:100] Creating Layer conv15_2_mbox_loc_flat
I1018 15:42:57.613026  4846 net.cpp:434] conv15_2_mbox_loc_flat <- conv15_2_mbox_loc_perm
I1018 15:42:57.613034  4846 net.cpp:408] conv15_2_mbox_loc_flat -> conv15_2_mbox_loc_flat
I1018 15:42:57.613068  4846 net.cpp:150] Setting up conv15_2_mbox_loc_flat
I1018 15:42:57.613075  4846 net.cpp:157] Top shape: 12 288 (3456)
I1018 15:42:57.613077  4846 net.cpp:165] Memory required for data: 3251836224
I1018 15:42:57.613080  4846 layer_factory.hpp:77] Creating layer conv15_2_mbox_conf_new
I1018 15:42:57.613091  4846 net.cpp:100] Creating Layer conv15_2_mbox_conf_new
I1018 15:42:57.613095  4846 net.cpp:434] conv15_2_mbox_conf_new <- conv15_2_conv15_2/relu_0_split_2
I1018 15:42:57.613101  4846 net.cpp:408] conv15_2_mbox_conf_new -> conv15_2_mbox_conf
I1018 15:42:57.615501  4846 net.cpp:150] Setting up conv15_2_mbox_conf_new
I1018 15:42:57.615517  4846 net.cpp:157] Top shape: 12 36 3 4 (5184)
I1018 15:42:57.615520  4846 net.cpp:165] Memory required for data: 3251856960
I1018 15:42:57.615527  4846 layer_factory.hpp:77] Creating layer conv15_2_mbox_conf_perm
I1018 15:42:57.615533  4846 net.cpp:100] Creating Layer conv15_2_mbox_conf_perm
I1018 15:42:57.615537  4846 net.cpp:434] conv15_2_mbox_conf_perm <- conv15_2_mbox_conf
I1018 15:42:57.615545  4846 net.cpp:408] conv15_2_mbox_conf_perm -> conv15_2_mbox_conf_perm
I1018 15:42:57.615717  4846 net.cpp:150] Setting up conv15_2_mbox_conf_perm
I1018 15:42:57.615731  4846 net.cpp:157] Top shape: 12 3 4 36 (5184)
I1018 15:42:57.615736  4846 net.cpp:165] Memory required for data: 3251877696
I1018 15:42:57.615741  4846 layer_factory.hpp:77] Creating layer conv15_2_mbox_conf_flat
I1018 15:42:57.615772  4846 net.cpp:100] Creating Layer conv15_2_mbox_conf_flat
I1018 15:42:57.615777  4846 net.cpp:434] conv15_2_mbox_conf_flat <- conv15_2_mbox_conf_perm
I1018 15:42:57.615785  4846 net.cpp:408] conv15_2_mbox_conf_flat -> conv15_2_mbox_conf_flat
I1018 15:42:57.615826  4846 net.cpp:150] Setting up conv15_2_mbox_conf_flat
I1018 15:42:57.615836  4846 net.cpp:157] Top shape: 12 432 (5184)
I1018 15:42:57.615839  4846 net.cpp:165] Memory required for data: 3251898432
I1018 15:42:57.615841  4846 layer_factory.hpp:77] Creating layer conv15_2_mbox_priorbox
I1018 15:42:57.615849  4846 net.cpp:100] Creating Layer conv15_2_mbox_priorbox
I1018 15:42:57.615851  4846 net.cpp:434] conv15_2_mbox_priorbox <- conv15_2_conv15_2/relu_0_split_3
I1018 15:42:57.615856  4846 net.cpp:434] conv15_2_mbox_priorbox <- data_data_0_split_4
I1018 15:42:57.615864  4846 net.cpp:408] conv15_2_mbox_priorbox -> conv15_2_mbox_priorbox
I1018 15:42:57.615895  4846 net.cpp:150] Setting up conv15_2_mbox_priorbox
I1018 15:42:57.615901  4846 net.cpp:157] Top shape: 1 2 288 (576)
I1018 15:42:57.615903  4846 net.cpp:165] Memory required for data: 3251900736
I1018 15:42:57.615906  4846 layer_factory.hpp:77] Creating layer conv16_2_mbox_loc
I1018 15:42:57.615916  4846 net.cpp:100] Creating Layer conv16_2_mbox_loc
I1018 15:42:57.615921  4846 net.cpp:434] conv16_2_mbox_loc <- conv16_2_conv16_2/relu_0_split_1
I1018 15:42:57.615926  4846 net.cpp:408] conv16_2_mbox_loc -> conv16_2_mbox_loc
I1018 15:42:57.618676  4846 net.cpp:150] Setting up conv16_2_mbox_loc
I1018 15:42:57.618718  4846 net.cpp:157] Top shape: 12 24 2 2 (1152)
I1018 15:42:57.618723  4846 net.cpp:165] Memory required for data: 3251905344
I1018 15:42:57.618737  4846 layer_factory.hpp:77] Creating layer conv16_2_mbox_loc_perm
I1018 15:42:57.618753  4846 net.cpp:100] Creating Layer conv16_2_mbox_loc_perm
I1018 15:42:57.618760  4846 net.cpp:434] conv16_2_mbox_loc_perm <- conv16_2_mbox_loc
I1018 15:42:57.618772  4846 net.cpp:408] conv16_2_mbox_loc_perm -> conv16_2_mbox_loc_perm
I1018 15:42:57.618930  4846 net.cpp:150] Setting up conv16_2_mbox_loc_perm
I1018 15:42:57.618942  4846 net.cpp:157] Top shape: 12 2 2 24 (1152)
I1018 15:42:57.618945  4846 net.cpp:165] Memory required for data: 3251909952
I1018 15:42:57.618949  4846 layer_factory.hpp:77] Creating layer conv16_2_mbox_loc_flat
I1018 15:42:57.618958  4846 net.cpp:100] Creating Layer conv16_2_mbox_loc_flat
I1018 15:42:57.618963  4846 net.cpp:434] conv16_2_mbox_loc_flat <- conv16_2_mbox_loc_perm
I1018 15:42:57.618970  4846 net.cpp:408] conv16_2_mbox_loc_flat -> conv16_2_mbox_loc_flat
I1018 15:42:57.619009  4846 net.cpp:150] Setting up conv16_2_mbox_loc_flat
I1018 15:42:57.619016  4846 net.cpp:157] Top shape: 12 96 (1152)
I1018 15:42:57.619019  4846 net.cpp:165] Memory required for data: 3251914560
I1018 15:42:57.619024  4846 layer_factory.hpp:77] Creating layer conv16_2_mbox_conf_new
I1018 15:42:57.619040  4846 net.cpp:100] Creating Layer conv16_2_mbox_conf_new
I1018 15:42:57.619046  4846 net.cpp:434] conv16_2_mbox_conf_new <- conv16_2_conv16_2/relu_0_split_2
I1018 15:42:57.619056  4846 net.cpp:408] conv16_2_mbox_conf_new -> conv16_2_mbox_conf
I1018 15:42:57.622617  4846 net.cpp:150] Setting up conv16_2_mbox_conf_new
I1018 15:42:57.622637  4846 net.cpp:157] Top shape: 12 36 2 2 (1728)
I1018 15:42:57.622642  4846 net.cpp:165] Memory required for data: 3251921472
I1018 15:42:57.622651  4846 layer_factory.hpp:77] Creating layer conv16_2_mbox_conf_perm
I1018 15:42:57.622663  4846 net.cpp:100] Creating Layer conv16_2_mbox_conf_perm
I1018 15:42:57.622669  4846 net.cpp:434] conv16_2_mbox_conf_perm <- conv16_2_mbox_conf
I1018 15:42:57.622678  4846 net.cpp:408] conv16_2_mbox_conf_perm -> conv16_2_mbox_conf_perm
I1018 15:42:57.622855  4846 net.cpp:150] Setting up conv16_2_mbox_conf_perm
I1018 15:42:57.622869  4846 net.cpp:157] Top shape: 12 2 2 36 (1728)
I1018 15:42:57.622874  4846 net.cpp:165] Memory required for data: 3251928384
I1018 15:42:57.622879  4846 layer_factory.hpp:77] Creating layer conv16_2_mbox_conf_flat
I1018 15:42:57.622908  4846 net.cpp:100] Creating Layer conv16_2_mbox_conf_flat
I1018 15:42:57.622915  4846 net.cpp:434] conv16_2_mbox_conf_flat <- conv16_2_mbox_conf_perm
I1018 15:42:57.622925  4846 net.cpp:408] conv16_2_mbox_conf_flat -> conv16_2_mbox_conf_flat
I1018 15:42:57.622967  4846 net.cpp:150] Setting up conv16_2_mbox_conf_flat
I1018 15:42:57.622974  4846 net.cpp:157] Top shape: 12 144 (1728)
I1018 15:42:57.622978  4846 net.cpp:165] Memory required for data: 3251935296
I1018 15:42:57.622983  4846 layer_factory.hpp:77] Creating layer conv16_2_mbox_priorbox
I1018 15:42:57.622992  4846 net.cpp:100] Creating Layer conv16_2_mbox_priorbox
I1018 15:42:57.622997  4846 net.cpp:434] conv16_2_mbox_priorbox <- conv16_2_conv16_2/relu_0_split_3
I1018 15:42:57.623004  4846 net.cpp:434] conv16_2_mbox_priorbox <- data_data_0_split_5
I1018 15:42:57.623015  4846 net.cpp:408] conv16_2_mbox_priorbox -> conv16_2_mbox_priorbox
I1018 15:42:57.623059  4846 net.cpp:150] Setting up conv16_2_mbox_priorbox
I1018 15:42:57.623070  4846 net.cpp:157] Top shape: 1 2 96 (192)
I1018 15:42:57.623073  4846 net.cpp:165] Memory required for data: 3251936064
I1018 15:42:57.623077  4846 layer_factory.hpp:77] Creating layer conv17_2_mbox_loc
I1018 15:42:57.623091  4846 net.cpp:100] Creating Layer conv17_2_mbox_loc
I1018 15:42:57.623097  4846 net.cpp:434] conv17_2_mbox_loc <- conv17_2_conv17_2/relu_0_split_0
I1018 15:42:57.623106  4846 net.cpp:408] conv17_2_mbox_loc -> conv17_2_mbox_loc
I1018 15:42:57.625417  4846 net.cpp:150] Setting up conv17_2_mbox_loc
I1018 15:42:57.625430  4846 net.cpp:157] Top shape: 12 24 1 1 (288)
I1018 15:42:57.625433  4846 net.cpp:165] Memory required for data: 3251937216
I1018 15:42:57.625439  4846 layer_factory.hpp:77] Creating layer conv17_2_mbox_loc_perm
I1018 15:42:57.625447  4846 net.cpp:100] Creating Layer conv17_2_mbox_loc_perm
I1018 15:42:57.625449  4846 net.cpp:434] conv17_2_mbox_loc_perm <- conv17_2_mbox_loc
I1018 15:42:57.625457  4846 net.cpp:408] conv17_2_mbox_loc_perm -> conv17_2_mbox_loc_perm
I1018 15:42:57.625561  4846 net.cpp:150] Setting up conv17_2_mbox_loc_perm
I1018 15:42:57.625568  4846 net.cpp:157] Top shape: 12 1 1 24 (288)
I1018 15:42:57.625571  4846 net.cpp:165] Memory required for data: 3251938368
I1018 15:42:57.625573  4846 layer_factory.hpp:77] Creating layer conv17_2_mbox_loc_flat
I1018 15:42:57.625579  4846 net.cpp:100] Creating Layer conv17_2_mbox_loc_flat
I1018 15:42:57.625582  4846 net.cpp:434] conv17_2_mbox_loc_flat <- conv17_2_mbox_loc_perm
I1018 15:42:57.625587  4846 net.cpp:408] conv17_2_mbox_loc_flat -> conv17_2_mbox_loc_flat
I1018 15:42:57.625613  4846 net.cpp:150] Setting up conv17_2_mbox_loc_flat
I1018 15:42:57.625618  4846 net.cpp:157] Top shape: 12 24 (288)
I1018 15:42:57.625620  4846 net.cpp:165] Memory required for data: 3251939520
I1018 15:42:57.625623  4846 layer_factory.hpp:77] Creating layer conv17_2_mbox_conf_new
I1018 15:42:57.625633  4846 net.cpp:100] Creating Layer conv17_2_mbox_conf_new
I1018 15:42:57.625635  4846 net.cpp:434] conv17_2_mbox_conf_new <- conv17_2_conv17_2/relu_0_split_1
I1018 15:42:57.625643  4846 net.cpp:408] conv17_2_mbox_conf_new -> conv17_2_mbox_conf
I1018 15:42:57.627509  4846 net.cpp:150] Setting up conv17_2_mbox_conf_new
I1018 15:42:57.627521  4846 net.cpp:157] Top shape: 12 36 1 1 (432)
I1018 15:42:57.627524  4846 net.cpp:165] Memory required for data: 3251941248
I1018 15:42:57.627530  4846 layer_factory.hpp:77] Creating layer conv17_2_mbox_conf_perm
I1018 15:42:57.627538  4846 net.cpp:100] Creating Layer conv17_2_mbox_conf_perm
I1018 15:42:57.627542  4846 net.cpp:434] conv17_2_mbox_conf_perm <- conv17_2_mbox_conf
I1018 15:42:57.627547  4846 net.cpp:408] conv17_2_mbox_conf_perm -> conv17_2_mbox_conf_perm
I1018 15:42:57.627650  4846 net.cpp:150] Setting up conv17_2_mbox_conf_perm
I1018 15:42:57.627657  4846 net.cpp:157] Top shape: 12 1 1 36 (432)
I1018 15:42:57.627660  4846 net.cpp:165] Memory required for data: 3251942976
I1018 15:42:57.627662  4846 layer_factory.hpp:77] Creating layer conv17_2_mbox_conf_flat
I1018 15:42:57.627668  4846 net.cpp:100] Creating Layer conv17_2_mbox_conf_flat
I1018 15:42:57.627682  4846 net.cpp:434] conv17_2_mbox_conf_flat <- conv17_2_mbox_conf_perm
I1018 15:42:57.627687  4846 net.cpp:408] conv17_2_mbox_conf_flat -> conv17_2_mbox_conf_flat
I1018 15:42:57.627715  4846 net.cpp:150] Setting up conv17_2_mbox_conf_flat
I1018 15:42:57.627722  4846 net.cpp:157] Top shape: 12 36 (432)
I1018 15:42:57.627723  4846 net.cpp:165] Memory required for data: 3251944704
I1018 15:42:57.627725  4846 layer_factory.hpp:77] Creating layer conv17_2_mbox_priorbox
I1018 15:42:57.627732  4846 net.cpp:100] Creating Layer conv17_2_mbox_priorbox
I1018 15:42:57.627737  4846 net.cpp:434] conv17_2_mbox_priorbox <- conv17_2_conv17_2/relu_0_split_2
I1018 15:42:57.627740  4846 net.cpp:434] conv17_2_mbox_priorbox <- data_data_0_split_6
I1018 15:42:57.627745  4846 net.cpp:408] conv17_2_mbox_priorbox -> conv17_2_mbox_priorbox
I1018 15:42:57.627774  4846 net.cpp:150] Setting up conv17_2_mbox_priorbox
I1018 15:42:57.627779  4846 net.cpp:157] Top shape: 1 2 24 (48)
I1018 15:42:57.627780  4846 net.cpp:165] Memory required for data: 3251944896
I1018 15:42:57.627784  4846 layer_factory.hpp:77] Creating layer mbox_loc
I1018 15:42:57.627790  4846 net.cpp:100] Creating Layer mbox_loc
I1018 15:42:57.627794  4846 net.cpp:434] mbox_loc <- conv11_mbox_loc_flat
I1018 15:42:57.627799  4846 net.cpp:434] mbox_loc <- conv13_mbox_loc_flat
I1018 15:42:57.627802  4846 net.cpp:434] mbox_loc <- conv14_2_mbox_loc_flat
I1018 15:42:57.627806  4846 net.cpp:434] mbox_loc <- conv15_2_mbox_loc_flat
I1018 15:42:57.627810  4846 net.cpp:434] mbox_loc <- conv16_2_mbox_loc_flat
I1018 15:42:57.627813  4846 net.cpp:434] mbox_loc <- conv17_2_mbox_loc_flat
I1018 15:42:57.627817  4846 net.cpp:408] mbox_loc -> mbox_loc
I1018 15:42:57.627847  4846 net.cpp:150] Setting up mbox_loc
I1018 15:42:57.627853  4846 net.cpp:157] Top shape: 12 12168 (146016)
I1018 15:42:57.627856  4846 net.cpp:165] Memory required for data: 3252528960
I1018 15:42:57.627858  4846 layer_factory.hpp:77] Creating layer mbox_conf
I1018 15:42:57.627863  4846 net.cpp:100] Creating Layer mbox_conf
I1018 15:42:57.627867  4846 net.cpp:434] mbox_conf <- conv11_mbox_conf_flat
I1018 15:42:57.627871  4846 net.cpp:434] mbox_conf <- conv13_mbox_conf_flat
I1018 15:42:57.627874  4846 net.cpp:434] mbox_conf <- conv14_2_mbox_conf_flat
I1018 15:42:57.627878  4846 net.cpp:434] mbox_conf <- conv15_2_mbox_conf_flat
I1018 15:42:57.627882  4846 net.cpp:434] mbox_conf <- conv16_2_mbox_conf_flat
I1018 15:42:57.627885  4846 net.cpp:434] mbox_conf <- conv17_2_mbox_conf_flat
I1018 15:42:57.627890  4846 net.cpp:408] mbox_conf -> mbox_conf
I1018 15:42:57.627915  4846 net.cpp:150] Setting up mbox_conf
I1018 15:42:57.627920  4846 net.cpp:157] Top shape: 12 18252 (219024)
I1018 15:42:57.627923  4846 net.cpp:165] Memory required for data: 3253405056
I1018 15:42:57.627925  4846 layer_factory.hpp:77] Creating layer mbox_priorbox
I1018 15:42:57.627930  4846 net.cpp:100] Creating Layer mbox_priorbox
I1018 15:42:57.627933  4846 net.cpp:434] mbox_priorbox <- conv11_mbox_priorbox
I1018 15:42:57.627938  4846 net.cpp:434] mbox_priorbox <- conv13_mbox_priorbox
I1018 15:42:57.627940  4846 net.cpp:434] mbox_priorbox <- conv14_2_mbox_priorbox
I1018 15:42:57.627943  4846 net.cpp:434] mbox_priorbox <- conv15_2_mbox_priorbox
I1018 15:42:57.627948  4846 net.cpp:434] mbox_priorbox <- conv16_2_mbox_priorbox
I1018 15:42:57.627950  4846 net.cpp:434] mbox_priorbox <- conv17_2_mbox_priorbox
I1018 15:42:57.627954  4846 net.cpp:408] mbox_priorbox -> mbox_priorbox
I1018 15:42:57.627977  4846 net.cpp:150] Setting up mbox_priorbox
I1018 15:42:57.627982  4846 net.cpp:157] Top shape: 1 2 12168 (24336)
I1018 15:42:57.627985  4846 net.cpp:165] Memory required for data: 3253502400
I1018 15:42:57.627987  4846 layer_factory.hpp:77] Creating layer mbox_loss
I1018 15:42:57.627997  4846 net.cpp:100] Creating Layer mbox_loss
I1018 15:42:57.628001  4846 net.cpp:434] mbox_loss <- mbox_loc
I1018 15:42:57.628005  4846 net.cpp:434] mbox_loss <- mbox_conf
I1018 15:42:57.628010  4846 net.cpp:434] mbox_loss <- mbox_priorbox
…
name: "MobileNet-SSD"
state {
  phase: TEST
}
layer {
  name: "data"
  type: "AnnotatedData"
  top: "data"
  top: "label"
  include {
    phase: TEST
  }
  transform_param {
    scale: 0.007843
    mean_value: 127.5
    mean_value: 127.5
    mean_value: 127.5
    resize_param {
      prob: 1
      resize_mode: WARP
      height: 320
      width: 480
      interp_mode: LINEAR
    }
  }
  data_param {
    source: "lmdb/test_lmdb"
    batch_size: 1
    backend: LMDB
  }
  annotated_data_param {
    batch_sampler {
    }
    label_map_file: "labelmap.prototxt"
  }
}
layer {
  name: "conv0"
  type: "Convolution"
  bottom: "data"
  top: "conv0"
  param {
    lr_mult: 1
    decay_mult: 1
  }
  convolution_param {
    num_output: 32
    bias_term: false
    pad: 1
    kernel_size: 3
    stride: 2
    weight_filler {
      type: "msra"
    }
  }
}
layer {
  name: "conv0/bn"
  type: "BatchNorm"
  bottom: "conv0"
  top: "conv0"
}
layer {
  name: "conv0/scale"
  type: "Scale"
  bottom: "conv0"
  top: "conv0"
  param {
    lr_mult: 1
    decay_mult: 0
  }
  param {
    lr_mult: 2
    decay_mult: 0
  }
  scale_param {
    filler {
      value: 1
    }
    bias_term: true
    bias_filler {
      value: 0
    }
  }
}
layer {
  name: "conv0/relu"
  type: "ReLU"
  bottom: "conv0"
  top: "conv0"
}
layer {
  name: "conv1/dw"
  type: "Convolution"
  bottom: "conv0"
  top: "conv1/dw"
  param {
    lr_mult: 1
    decay_mult: 1
  }
  convolution_param {
    num_output: 32
    bias_term: false
    pad: 1
    kernel_size: 3
    group: 32
    weight_filler {
      type: "msra"
    }
    engine: CAFFE
  }
}
layer {
  name: "conv1/dw/bn"
  type: "BatchNorm"
  bottom: "conv1/dw"
  top: "conv1/dw"
}
layer {
  name: "conv1/dw/scale"
  type: "Scale"
  bottom: "conv1/dw"
  top: "conv1/dw"
  param {
    lr_mult: 1
    decay_mult: 0
  }
  param {
    lr_mult: 2
    decay_mult: 0
  }
  scale_param {
    filler {
      value: 1
    }
    bias_term: true
    bias_filler {
      value: 0
    }
  }
}
layer {
  name: "conv1/dw/relu"
  type: "ReLU"
  bottom: "conv1/dw"
  top: "conv1/dw"
}
layer {
  name: "conv1"
  type: "Convolution"
  bottom: "conv1/dw"
  top: "conv1"
  param {
    lr_mult: 1
    decay_mult: 1
  }
  convolution_param {
    num_output: 64
    bias_term: false
    kernel_size: 1
    weight_filler {
      type: "msra"
    }
  }
}
layer {
  name: "conv1/bn"
  type: "BatchNorm"
  bottom: "conv1"
  top: "conv1"
}
layer {
  name: "conv1/scale"
  type: "Scale"
  bottom: "conv1"
  top: "conv1"
  param {
    lr_mult: 1
    decay_mult: 0
  }
  param {
    lr_mult: 2
    decay_mult: 0
  }
  scale_param {
    filler {
      value: 1
    }
    bias_term: true
    bias_filler {
      value: 0
    }
  }
}
layer {
  name: "conv1/relu"
  type: "ReLU"
  bottom: "conv1"
  top: "conv1"
}
layer {
  name: "conv2/dw"
  type: "Convolution"
  bottom: "conv1"
  top: "conv2/dw"
  param {
    lr_mult: 1
    decay_mult: 1
  }
  convolution_param {
    num_output: 64
    bias_term: false
    pad: 1
    kernel_size: 3
    group: 64
    stride: 2
    weight_filler {
      type: "msra"
    }
    engine: CAFFE
  }
}
layer {
  name: "conv2/dw/bn"
  type: "BatchNorm"
  bottom: "conv2/dw"
  top: "conv2/dw"
}
layer {
  name: "conv2/dw/scale"
  type: "Scale"
  bottom: "conv2/dw"
  top: "conv2/dw"
  param {
    lr_mult: 1
    decay_mult: 0
  }
  param {
    lr_mult: 2
    decay_mult: 0
  }
  scale_param {
    filler {
      value: 1
    }
    bias_term: true
    bias_filler {
      value: 0
    }
  }
}
layer {
  name: "conv2/dw/relu"
  type: "ReLU"
  bottom: "conv2/dw"
  top: "conv2/dw"
}
layer {
  name: "conv2"
  type: "Convolution"
  bottom: "conv2/dw"
  top: "conv2"
  param {
    lr_mult: 1
    decay_mult: 1
  }
  convolution_param {
    num_output: 128
    bias_term: false
    kernel_size: 1
    weight_filler {
      type: "msra"
    }
  }
}
layer {
  name: "conv2/bn"
  type: "BatchNorm"
  bottom: "conv2"
  top: "conv2"
}
layer {
  name: "conv2/scale"
  type: "Scale"
  bottom: "conv2"
  top: "conv2"
  param {
    lr_mult: 1
    decay_mult: 0
  }
  param {
    lr_mult: 2
    decay_mult: 0
  }
  scale_param {
    filler {
      value: 1
    }
    bias_term: true
    bias_filler {
      value: 0
    }
  }
}
layer {
  name: "conv2/relu"
  type: "ReLU"
  bottom: "conv2"
  top: "conv2"
}
layer {
  name: "conv3/dw"
  type: "Convolution"
  bottom: "conv2"
  top: "conv3/dw"
  param {
    lr_mult: 1
    decay_mult: 1
  }
  convolution_param {
    num_output: 128
    bias_term: false
    pad: 1
    kernel_size: 3
    group: 128
    weight_filler {
      type: "msra"
    }
    engine: CAFFE
  }
}
layer {
  name: "conv3/dw/bn"
  type: "BatchNorm"
  bottom: "conv3/dw"
  top: "conv3/dw"
}
layer {
  name: "conv3/dw/scale"
  type: "Scale"
  bottom: "conv3/dw"
  top: "conv3/dw"
  param {
    lr_mult: 1
    decay_mult: 0
  }
  param {
    lr_mult: 2
    decay_mult: 0
  }
  scale_param {
    filler {
      value: 1
    }
    bias_term: true
    bias_filler {
      value: 0
    }
  }
}
layer {
  name: "conv3/dw/relu"
  type: "ReLU"
  bottom: "conv3/dw"
  top: "conv3/dw"
}
layer {
  name: "conv3"
  type: "Convolution"
  bottom: "conv3/dw"
  top: "conv3"
  param {
    lr_mult: 1
    decay_mult: 1
  }
  convolution_param {
    num_output: 128
    bias_term: false
    kernel_size: 1
    weight_filler {
      type: "msra"
    }
  }
}
layer {
  name: "conv3/bn"
  type: "BatchNorm"
  bottom: "conv3"
  top: "conv3"
}
layer {
  name: "conv3/scale"
  type: "Scale"
  bottom: "conv3"
  top: "conv3"
  param {
    lr_mult: 1
    decay_mult: 0
  }
  param {
    lr_mult: 2
    decay_mult: 0
  }
  scale_param {
    filler {
      value: 1
    }
    bias_term: true
    bias_filler {
      value: 0
    }
  }
}
layer {
  name: "conv3/relu"
  type: "ReLU"
  bottom: "conv3"
  top: "conv3"
}
layer {
  name: "conv4/dw"
  type: "Convolution"
  bottom: "conv3"
  top: "conv4/dw"
  param {
    lr_mult: 1
    decay_mult: 1
  }
  convolution_param {
    num_output: 128
    bias_term: false
    pad: 1
    kernel_size: 3
    group: 128
    stride: 2
    weight_filler {
      type: "msra"
    }
    engine: CAFFE
  }
}
layer {
  name: "conv4/dw/bn"
  type: "BatchNorm"
  bottom: "conv4/dw"
  top: "conv4/dw"
}
layer {
  name: "conv4/dw/scale"
  type: "Scale"
  bottom: "conv4/dw"
  top: "conv4/dw"
  param {
    lr_mult: 1
    decay_mult: 0
  }
  param {
    lr_mult: 2
    decay_mult: 0
  }
  scale_param {
    filler {
      value: 1
    }
    bias_term: true
    bias_filler {
      value: 0
    }
  }
}
layer {
  name: "conv4/dw/relu"
  type: "ReLU"
  bottom: "conv4/dw"
  top: "conv4/dw"
}
layer {
  name: "conv4"
  type: "Convolution"
  bottom: "conv4/dw"
  top: "conv4"
  param {
    lr_mult: 1
    decay_mult: 1
  }
  convolution_param {
    num_output: 256
    bias_term: false
    kernel_size: 1
    weight_filler {
      type: "msra"
    }
  }
}
layer {
  name: "conv4/bn"
  type: "BatchNorm"
  bottom: "conv4"
  top: "conv4"
}
layer {
  name: "conv4/scale"
  type: "Scale"
  bottom: "conv4"
  top: "conv4"
  param {
    lr_mult: 1
    decay_mult: 0
  }
  param {
    lr_mult: 2
    decay_mult: 0
  }
  scale_param {
    filler {
      value: 1
    }
    bias_term: true
    bias_filler {
      value: 0
    }
  }
}
layer {
  name: "conv4/relu"
  type: "ReLU"
  bottom: "conv4"
  top: "conv4"
}
layer {
  name: "conv5/dw"
  type: "Convolution"
  bottom: "conv4"
  top: "conv5/dw"
  param {
    lr_mult: 1
    decay_mult: 1
  }
  convolution_param {
    num_output: 256
    bias_term: false
    pad: 1
    kernel_size: 3
    group: 256
    weight_filler {
      type: "msra"
    }
    engine: CAFFE
  }
}
layer {
  name: "conv5/dw/bn"
  type: "BatchNorm"
  bottom: "conv5/dw"
  top: "conv5/dw"
}
layer {
  name: "conv5/dw/scale"
  type: "Scale"
  bottom: "conv5/dw"
  top: "conv5/dw"
  param {
    lr_mult: 1
    decay_mult: 0
  }
  param {
    lr_mult: 2
    decay_mult: 0
  }
  scale_param {
    filler {
      value: 1
    }
    bias_term: true
    bias_filler {
      value: 0
    }
  }
}
layer {
  name: "conv5/dw/relu"
  type: "ReLU"
  bottom: "conv5/dw"
  top: "conv5/dw"
}
layer {
  name: "conv5"
  type: "Convolution"
  bottom: "conv5/dw"
  top: "conv5"
  param {
    lr_mult: 1
    decay_mult: 1
  }
  convolution_param {
    num_output: 256
    bias_term: false
    kernel_size: 1
    weight_filler {
      type: "msra"
    }
  }
}
layer {
  name: "conv5/bn"
  type: "BatchNorm"
  bottom: "conv5"
  top: "conv5"
}
layer {
  name: "conv5/scale"
  type: "Scale"
  bottom: "conv5"
  top: "conv5"
  param {
    lr_mult: 1
    decay_mult: 0
  }
  param {
    lr_mult: 2
    decay_mult: 0
  }
  scale_param {
    filler {
      value: 1
    }
    bias_term: true
    bias_filler {
      value: 0
    }
  }
}
layer {
  name: "conv5/relu"
  type: "ReLU"
  bottom: "conv5"
  top: "conv5"
}
layer {
  name: "conv6/dw"
  type: "Convolution"
  bottom: "conv5"
  top: "conv6/dw"
  param {
    lr_mult: 1
    decay_mult: 1
  }
  convolution_param {
    num_output: 256
    bias_term: false
    pad: 1
    kernel_size: 3
    group: 256
    stride: 2
    weight_filler {
      type: "msra"
    }
    engine: CAFFE
  }
}
layer {
  name: "conv6/dw/bn"
  type: "BatchNorm"
  bottom: "conv6/dw"
  top: "conv6/dw"
}
layer {
  name: "conv6/dw/scale"
  type: "Scale"
  bottom: "conv6/dw"
  top: "conv6/dw"
  param {
    lr_mult: 1
    decay_mult: 0
  }
  param {
    lr_mult: 2
    decay_mult: 0
  }
  scale_param {
    filler {
      value: 1
    }
    bias_term: true
    bias_filler {
      value: 0
    }
  }
}
layer {
  name: "conv6/dw/relu"
  type: "ReLU"
  bottom: "conv6/dw"
  top: "conv6/dw"
}
layer {
  name: "conv6"
  type: "Convolution"
  bottom: "conv6/dw"
  top: "conv6"
  param {
    lr_mult: 1
    decay_mult: 1
  }
  convolution_param {
    num_output: 512
    bias_term: false
    kernel_size: 1
    weight_filler {
      type: "msra"
    }
  }
}
layer {
  name: "conv6/bn"
  type: "BatchNorm"
  bottom: "conv6"
  top: "conv6"
}
layer {
  name: "conv6/scale"
  type: "Scale"
  bottom: "conv6"
  top: "conv6"
  param {
    lr_mult: 1
    decay_mult: 0
  }
  param {
    lr_mult: 2
    decay_mult: 0
  }
  scale_param {
    filler {
      value: 1
    }
    bias_term: true
    bias_filler {
      value: 0
    }
  }
}
layer {
  name: "conv6/relu"
  type: "ReLU"
  bottom: "conv6"
  top: "conv6"
}
layer {
  name: "conv7/dw"
  type: "Convolution"
  bottom: "conv6"
  top: "conv7/dw"
  param {
    lr_mult: 1
    decay_mult: 1
  }
  convolution_param {
    num_output: 512
    bias_term: false
    pad: 1
    kernel_size: 3
    group: 512
    weight_filler {
      type: "msra"
    }
    engine: CAFFE
  }
}
layer {
  name: "conv7/dw/bn"
  type: "BatchNorm"
  bottom: "conv7/dw"
  top: "conv7/dw"
}
layer {
  name: "conv7/dw/scale"
  type: "Scale"
  bottom: "conv7/dw"
  top: "conv7/dw"
  param {
    lr_mult: 1
    decay_mult: 0
  }
  param {
    lr_mult: 2
    decay_mult: 0
  }
  scale_param {
    filler {
      value: 1
    }
    bias_term: true
    bias_filler {
      value: 0
    }
  }
}
layer {
  name: "conv7/dw/relu"
  type: "ReLU"
  bottom: "conv7/dw"
  top: "conv7/dw"
}
layer {
  name: "conv7"
  type: "Convolution"
  bottom: "conv7/dw"
  top: "conv7"
  param {
    lr_mult: 1
    decay_mult: 1
  }
  convolution_param {
    num_output: 512
    bias_term: false
    kernel_size: 1
    weight_filler {
      type: "msra"
    }
  }
}
layer {
  name: "conv7/bn"
  type: "BatchNorm"
  bottom: "conv7"
  top: "conv7"
}
layer {
  name: "conv7/scale"
  type: "Scale"
  bottom: "conv7"
  top: "conv7"
  param {
    lr_mult: 1
    decay_mult: 0
  }
  param {
    lr_mult: 2
    decay_mult: 0
  }
  scale_param {
    filler {
      value: 1
    }
    bias_term: true
    bias_filler {
      value: 0
    }
  }
}
layer {
  name: "conv7/relu"
  type: "ReLU"
  bottom: "conv7"
  top: "conv7"
}
layer {
  name: "conv8/dw"
  type: "Convolution"
  bottom: "conv7"
  top: "conv8/dw"
  param {
    lr_mult: 1
    decay_mult: 1
  }
  convolution_param {
    num_output: 512
    bias_term: false
    pad: 1
    kernel_size: 3
    group: 512
    weight_filler {
      type: "msra"
    }
    engine: CAFFE
  }
}
layer {
  name: "conv8/dw/bn"
  type: "BatchNorm"
  bottom: "conv8/dw"
  top: "conv8/dw"
}
layer {
  name: "conv8/dw/scale"
  type: "Scale"
  bottom: "conv8/dw"
  top: "conv8/dw"
  param {
    lr_mult: 1
    decay_mult: 0
  }
  param {
    lr_mult: 2
    decay_mult: 0
  }
  scale_param {
    filler {
      value: 1
    }
    bias_term: true
    bias_filler {
      value: 0
    }
  }
}
layer {
  name: "conv8/dw/relu"
  type: "ReLU"
  bottom: "conv8/dw"
  top: "conv8/dw"
}
layer {
  name: "conv8"
  type: "Convolution"
  bottom: "conv8/dw"
  top: "conv8"
  param {
    lr_mult: 1
    decay_mult: 1
  }
  convolution_param {
    num_output: 512
    bias_term: false
    kernel_size: 1
    weight_filler {
      type: "msra"
    }
  }
}
layer {
  name: "conv8/bn"
  type: "BatchNorm"
  bottom: "conv8"
  top: "conv8"
}
layer {
  name: "conv8/scale"
  type: "Scale"
  bottom: "conv8"
  top: "conv8"
  param {
    lr_mult: 1
    decay_mult: 0
  }
  param {
    lr_mult: 2
    decay_mult: 0
  }
  scale_param {
    filler {
      value: 1
    }
    bias_term: true
    bias_filler {
      value: 0
    }
  }
}
layer {
  name: "conv8/relu"
  type: "ReLU"
  bottom: "conv8"
  top: "conv8"
}
layer {
  name: "conv9/dw"
  type: "Convolution"
  bottom: "conv8"
  top: "conv9/dw"
  param {
    lr_mult: 1
    decay_mult: 1
  }
  convolution_param {
    num_output: 512
    bias_term: false
    pad: 1
    kernel_size: 3
    group: 512
    weight_filler {
      type: "msra"
    }
    engine: CAFFE
  }
}
layer {
  name: "conv9/dw/bn"
  type: "BatchNorm"
  bottom: "conv9/dw"
  top: "conv9/dw"
}
layer {
  name: "conv9/dw/scale"
  type: "Scale"
  bottom: "conv9/dw"
  top: "conv9/dw"
  param {
    lr_mult: 1
    decay_mult: 0
  }
  param {
    lr_mult: 2
    decay_mult: 0
  }
  scale_param {
    filler {
      value: 1
    }
    bias_term: true
    bias_filler {
      value: 0
    }
  }
}
layer {
  name: "conv9/dw/relu"
  type: "ReLU"
…
I1018 15:42:57.749997  4846 net.cpp:157] Top shape: 1 256 10 15 (38400)
I1018 15:42:57.750001  4846 net.cpp:165] Memory required for data: 269414880
I1018 15:42:57.750008  4846 layer_factory.hpp:77] Creating layer conv14_1/scale
I1018 15:42:57.750015  4846 net.cpp:100] Creating Layer conv14_1/scale
I1018 15:42:57.750020  4846 net.cpp:434] conv14_1/scale <- conv14_1
I1018 15:42:57.750026  4846 net.cpp:395] conv14_1/scale -> conv14_1 (in-place)
I1018 15:42:57.750087  4846 layer_factory.hpp:77] Creating layer conv14_1/scale
I1018 15:42:57.750272  4846 net.cpp:150] Setting up conv14_1/scale
I1018 15:42:57.750284  4846 net.cpp:157] Top shape: 1 256 10 15 (38400)
I1018 15:42:57.750288  4846 net.cpp:165] Memory required for data: 269568480
I1018 15:42:57.750293  4846 layer_factory.hpp:77] Creating layer conv14_1/relu
I1018 15:42:57.750299  4846 net.cpp:100] Creating Layer conv14_1/relu
I1018 15:42:57.750303  4846 net.cpp:434] conv14_1/relu <- conv14_1
I1018 15:42:57.750310  4846 net.cpp:395] conv14_1/relu -> conv14_1 (in-place)
I1018 15:42:57.750866  4846 net.cpp:150] Setting up conv14_1/relu
I1018 15:42:57.750880  4846 net.cpp:157] Top shape: 1 256 10 15 (38400)
I1018 15:42:57.750882  4846 net.cpp:165] Memory required for data: 269722080
I1018 15:42:57.750886  4846 layer_factory.hpp:77] Creating layer conv14_2
I1018 15:42:57.750896  4846 net.cpp:100] Creating Layer conv14_2
I1018 15:42:57.750900  4846 net.cpp:434] conv14_2 <- conv14_1
I1018 15:42:57.750905  4846 net.cpp:408] conv14_2 -> conv14_2
I1018 15:42:57.763087  4846 net.cpp:150] Setting up conv14_2
I1018 15:42:57.763108  4846 net.cpp:157] Top shape: 1 512 5 8 (20480)
I1018 15:42:57.763111  4846 net.cpp:165] Memory required for data: 269804000
I1018 15:42:57.763118  4846 layer_factory.hpp:77] Creating layer conv14_2/bn
I1018 15:42:57.763125  4846 net.cpp:100] Creating Layer conv14_2/bn
I1018 15:42:57.763130  4846 net.cpp:434] conv14_2/bn <- conv14_2
I1018 15:42:57.763135  4846 net.cpp:395] conv14_2/bn -> conv14_2 (in-place)
I1018 15:42:57.763454  4846 net.cpp:150] Setting up conv14_2/bn
I1018 15:42:57.763464  4846 net.cpp:157] Top shape: 1 512 5 8 (20480)
I1018 15:42:57.763468  4846 net.cpp:165] Memory required for data: 269885920
I1018 15:42:57.763474  4846 layer_factory.hpp:77] Creating layer conv14_2/scale
I1018 15:42:57.763484  4846 net.cpp:100] Creating Layer conv14_2/scale
I1018 15:42:57.763486  4846 net.cpp:434] conv14_2/scale <- conv14_2
I1018 15:42:57.763492  4846 net.cpp:395] conv14_2/scale -> conv14_2 (in-place)
I1018 15:42:57.763551  4846 layer_factory.hpp:77] Creating layer conv14_2/scale
I1018 15:42:57.763789  4846 net.cpp:150] Setting up conv14_2/scale
I1018 15:42:57.763803  4846 net.cpp:157] Top shape: 1 512 5 8 (20480)
I1018 15:42:57.763829  4846 net.cpp:165] Memory required for data: 269967840
I1018 15:42:57.763839  4846 layer_factory.hpp:77] Creating layer conv14_2/relu
I1018 15:42:57.763849  4846 net.cpp:100] Creating Layer conv14_2/relu
I1018 15:42:57.763852  4846 net.cpp:434] conv14_2/relu <- conv14_2
I1018 15:42:57.763859  4846 net.cpp:395] conv14_2/relu -> conv14_2 (in-place)
I1018 15:42:57.764492  4846 net.cpp:150] Setting up conv14_2/relu
I1018 15:42:57.764509  4846 net.cpp:157] Top shape: 1 512 5 8 (20480)
I1018 15:42:57.764514  4846 net.cpp:165] Memory required for data: 270049760
I1018 15:42:57.764520  4846 layer_factory.hpp:77] Creating layer conv14_2_conv14_2/relu_0_split
I1018 15:42:57.764528  4846 net.cpp:100] Creating Layer conv14_2_conv14_2/relu_0_split
I1018 15:42:57.764533  4846 net.cpp:434] conv14_2_conv14_2/relu_0_split <- conv14_2
I1018 15:42:57.764544  4846 net.cpp:408] conv14_2_conv14_2/relu_0_split -> conv14_2_conv14_2/relu_0_split_0
I1018 15:42:57.764555  4846 net.cpp:408] conv14_2_conv14_2/relu_0_split -> conv14_2_conv14_2/relu_0_split_1
I1018 15:42:57.764565  4846 net.cpp:408] conv14_2_conv14_2/relu_0_split -> conv14_2_conv14_2/relu_0_split_2
I1018 15:42:57.764576  4846 net.cpp:408] conv14_2_conv14_2/relu_0_split -> conv14_2_conv14_2/relu_0_split_3
I1018 15:42:57.764696  4846 net.cpp:150] Setting up conv14_2_conv14_2/relu_0_split
I1018 15:42:57.764708  4846 net.cpp:157] Top shape: 1 512 5 8 (20480)
I1018 15:42:57.764714  4846 net.cpp:157] Top shape: 1 512 5 8 (20480)
I1018 15:42:57.764719  4846 net.cpp:157] Top shape: 1 512 5 8 (20480)
I1018 15:42:57.764724  4846 net.cpp:157] Top shape: 1 512 5 8 (20480)
I1018 15:42:57.764729  4846 net.cpp:165] Memory required for data: 270377440
I1018 15:42:57.764732  4846 layer_factory.hpp:77] Creating layer conv15_1
I1018 15:42:57.764746  4846 net.cpp:100] Creating Layer conv15_1
I1018 15:42:57.764751  4846 net.cpp:434] conv15_1 <- conv14_2_conv14_2/relu_0_split_0
I1018 15:42:57.764762  4846 net.cpp:408] conv15_1 -> conv15_1
I1018 15:42:57.768319  4846 net.cpp:150] Setting up conv15_1
I1018 15:42:57.768333  4846 net.cpp:157] Top shape: 1 128 5 8 (5120)
I1018 15:42:57.768337  4846 net.cpp:165] Memory required for data: 270397920
I1018 15:42:57.768342  4846 layer_factory.hpp:77] Creating layer conv15_1/bn
I1018 15:42:57.768347  4846 net.cpp:100] Creating Layer conv15_1/bn
I1018 15:42:57.768350  4846 net.cpp:434] conv15_1/bn <- conv15_1
I1018 15:42:57.768357  4846 net.cpp:395] conv15_1/bn -> conv15_1 (in-place)
I1018 15:42:57.768658  4846 net.cpp:150] Setting up conv15_1/bn
I1018 15:42:57.768668  4846 net.cpp:157] Top shape: 1 128 5 8 (5120)
I1018 15:42:57.768672  4846 net.cpp:165] Memory required for data: 270418400
I1018 15:42:57.768682  4846 layer_factory.hpp:77] Creating layer conv15_1/scale
I1018 15:42:57.768692  4846 net.cpp:100] Creating Layer conv15_1/scale
I1018 15:42:57.768695  4846 net.cpp:434] conv15_1/scale <- conv15_1
I1018 15:42:57.768702  4846 net.cpp:395] conv15_1/scale -> conv15_1 (in-place)
I1018 15:42:57.768760  4846 layer_factory.hpp:77] Creating layer conv15_1/scale
I1018 15:42:57.768947  4846 net.cpp:150] Setting up conv15_1/scale
I1018 15:42:57.768959  4846 net.cpp:157] Top shape: 1 128 5 8 (5120)
I1018 15:42:57.768963  4846 net.cpp:165] Memory required for data: 270438880
I1018 15:42:57.768971  4846 layer_factory.hpp:77] Creating layer conv15_1/relu
I1018 15:42:57.768977  4846 net.cpp:100] Creating Layer conv15_1/relu
I1018 15:42:57.768980  4846 net.cpp:434] conv15_1/relu <- conv15_1
I1018 15:42:57.768987  4846 net.cpp:395] conv15_1/relu -> conv15_1 (in-place)
I1018 15:42:57.769824  4846 net.cpp:150] Setting up conv15_1/relu
I1018 15:42:57.769837  4846 net.cpp:157] Top shape: 1 128 5 8 (5120)
I1018 15:42:57.769840  4846 net.cpp:165] Memory required for data: 270459360
I1018 15:42:57.769843  4846 layer_factory.hpp:77] Creating layer conv15_2
I1018 15:42:57.769853  4846 net.cpp:100] Creating Layer conv15_2
I1018 15:42:57.769857  4846 net.cpp:434] conv15_2 <- conv15_1
I1018 15:42:57.769865  4846 net.cpp:408] conv15_2 -> conv15_2
I1018 15:42:57.774925  4846 net.cpp:150] Setting up conv15_2
I1018 15:42:57.774957  4846 net.cpp:157] Top shape: 1 256 3 4 (3072)
I1018 15:42:57.774962  4846 net.cpp:165] Memory required for data: 270471648
I1018 15:42:57.774968  4846 layer_factory.hpp:77] Creating layer conv15_2/bn
I1018 15:42:57.774973  4846 net.cpp:100] Creating Layer conv15_2/bn
I1018 15:42:57.774977  4846 net.cpp:434] conv15_2/bn <- conv15_2
I1018 15:42:57.774983  4846 net.cpp:395] conv15_2/bn -> conv15_2 (in-place)
I1018 15:42:57.775310  4846 net.cpp:150] Setting up conv15_2/bn
I1018 15:42:57.775321  4846 net.cpp:157] Top shape: 1 256 3 4 (3072)
I1018 15:42:57.775323  4846 net.cpp:165] Memory required for data: 270483936
I1018 15:42:57.775329  4846 layer_factory.hpp:77] Creating layer conv15_2/scale
I1018 15:42:57.775337  4846 net.cpp:100] Creating Layer conv15_2/scale
I1018 15:42:57.775341  4846 net.cpp:434] conv15_2/scale <- conv15_2
I1018 15:42:57.775346  4846 net.cpp:395] conv15_2/scale -> conv15_2 (in-place)
I1018 15:42:57.775415  4846 layer_factory.hpp:77] Creating layer conv15_2/scale
I1018 15:42:57.775617  4846 net.cpp:150] Setting up conv15_2/scale
I1018 15:42:57.775626  4846 net.cpp:157] Top shape: 1 256 3 4 (3072)
I1018 15:42:57.775629  4846 net.cpp:165] Memory required for data: 270496224
I1018 15:42:57.775635  4846 layer_factory.hpp:77] Creating layer conv15_2/relu
I1018 15:42:57.775652  4846 net.cpp:100] Creating Layer conv15_2/relu
I1018 15:42:57.775657  4846 net.cpp:434] conv15_2/relu <- conv15_2
I1018 15:42:57.775665  4846 net.cpp:395] conv15_2/relu -> conv15_2 (in-place)
I1018 15:42:57.776146  4846 net.cpp:150] Setting up conv15_2/relu
I1018 15:42:57.776157  4846 net.cpp:157] Top shape: 1 256 3 4 (3072)
I1018 15:42:57.776160  4846 net.cpp:165] Memory required for data: 270508512
I1018 15:42:57.776163  4846 layer_factory.hpp:77] Creating layer conv15_2_conv15_2/relu_0_split
I1018 15:42:57.776171  4846 net.cpp:100] Creating Layer conv15_2_conv15_2/relu_0_split
I1018 15:42:57.776175  4846 net.cpp:434] conv15_2_conv15_2/relu_0_split <- conv15_2
I1018 15:42:57.776180  4846 net.cpp:408] conv15_2_conv15_2/relu_0_split -> conv15_2_conv15_2/relu_0_split_0
I1018 15:42:57.776187  4846 net.cpp:408] conv15_2_conv15_2/relu_0_split -> conv15_2_conv15_2/relu_0_split_1
I1018 15:42:57.776193  4846 net.cpp:408] conv15_2_conv15_2/relu_0_split -> conv15_2_conv15_2/relu_0_split_2
I1018 15:42:57.776201  4846 net.cpp:408] conv15_2_conv15_2/relu_0_split -> conv15_2_conv15_2/relu_0_split_3
I1018 15:42:57.776314  4846 net.cpp:150] Setting up conv15_2_conv15_2/relu_0_split
I1018 15:42:57.776326  4846 net.cpp:157] Top shape: 1 256 3 4 (3072)
I1018 15:42:57.776334  4846 net.cpp:157] Top shape: 1 256 3 4 (3072)
I1018 15:42:57.776337  4846 net.cpp:157] Top shape: 1 256 3 4 (3072)
I1018 15:42:57.776340  4846 net.cpp:157] Top shape: 1 256 3 4 (3072)
I1018 15:42:57.776342  4846 net.cpp:165] Memory required for data: 270557664
I1018 15:42:57.776346  4846 layer_factory.hpp:77] Creating layer conv16_1
I1018 15:42:57.776355  4846 net.cpp:100] Creating Layer conv16_1
I1018 15:42:57.776360  4846 net.cpp:434] conv16_1 <- conv15_2_conv15_2/relu_0_split_0
I1018 15:42:57.776371  4846 net.cpp:408] conv16_1 -> conv16_1
I1018 15:42:57.778645  4846 net.cpp:150] Setting up conv16_1
I1018 15:42:57.778658  4846 net.cpp:157] Top shape: 1 128 3 4 (1536)
I1018 15:42:57.778661  4846 net.cpp:165] Memory required for data: 270563808
I1018 15:42:57.778666  4846 layer_factory.hpp:77] Creating layer conv16_1/bn
I1018 15:42:57.778673  4846 net.cpp:100] Creating Layer conv16_1/bn
I1018 15:42:57.778676  4846 net.cpp:434] conv16_1/bn <- conv16_1
I1018 15:42:57.778681  4846 net.cpp:395] conv16_1/bn -> conv16_1 (in-place)
I1018 15:42:57.779002  4846 net.cpp:150] Setting up conv16_1/bn
I1018 15:42:57.779017  4846 net.cpp:157] Top shape: 1 128 3 4 (1536)
I1018 15:42:57.779022  4846 net.cpp:165] Memory required for data: 270569952
I1018 15:42:57.779029  4846 layer_factory.hpp:77] Creating layer conv16_1/scale
I1018 15:42:57.779036  4846 net.cpp:100] Creating Layer conv16_1/scale
I1018 15:42:57.779039  4846 net.cpp:434] conv16_1/scale <- conv16_1
I1018 15:42:57.779057  4846 net.cpp:395] conv16_1/scale -> conv16_1 (in-place)
I1018 15:42:57.779129  4846 layer_factory.hpp:77] Creating layer conv16_1/scale
I1018 15:42:57.779314  4846 net.cpp:150] Setting up conv16_1/scale
I1018 15:42:57.779327  4846 net.cpp:157] Top shape: 1 128 3 4 (1536)
I1018 15:42:57.779330  4846 net.cpp:165] Memory required for data: 270576096
I1018 15:42:57.779335  4846 layer_factory.hpp:77] Creating layer conv16_1/relu
I1018 15:42:57.779340  4846 net.cpp:100] Creating Layer conv16_1/relu
I1018 15:42:57.779343  4846 net.cpp:434] conv16_1/relu <- conv16_1
I1018 15:42:57.779347  4846 net.cpp:395] conv16_1/relu -> conv16_1 (in-place)
I1018 15:42:57.779845  4846 net.cpp:150] Setting up conv16_1/relu
I1018 15:42:57.779857  4846 net.cpp:157] Top shape: 1 128 3 4 (1536)
I1018 15:42:57.779861  4846 net.cpp:165] Memory required for data: 270582240
I1018 15:42:57.779865  4846 layer_factory.hpp:77] Creating layer conv16_2
I1018 15:42:57.779873  4846 net.cpp:100] Creating Layer conv16_2
I1018 15:42:57.779876  4846 net.cpp:434] conv16_2 <- conv16_1
I1018 15:42:57.779882  4846 net.cpp:408] conv16_2 -> conv16_2
I1018 15:42:57.785521  4846 net.cpp:150] Setting up conv16_2
I1018 15:42:57.785540  4846 net.cpp:157] Top shape: 1 256 2 2 (1024)
I1018 15:42:57.785543  4846 net.cpp:165] Memory required for data: 270586336
I1018 15:42:57.785550  4846 layer_factory.hpp:77] Creating layer conv16_2/bn
I1018 15:42:57.785558  4846 net.cpp:100] Creating Layer conv16_2/bn
I1018 15:42:57.785563  4846 net.cpp:434] conv16_2/bn <- conv16_2
I1018 15:42:57.785568  4846 net.cpp:395] conv16_2/bn -> conv16_2 (in-place)
I1018 15:42:57.785785  4846 net.cpp:150] Setting up conv16_2/bn
I1018 15:42:57.785792  4846 net.cpp:157] Top shape: 1 256 2 2 (1024)
I1018 15:42:57.785794  4846 net.cpp:165] Memory required for data: 270590432
I1018 15:42:57.785800  4846 layer_factory.hpp:77] Creating layer conv16_2/scale
I1018 15:42:57.785809  4846 net.cpp:100] Creating Layer conv16_2/scale
I1018 15:42:57.785811  4846 net.cpp:434] conv16_2/scale <- conv16_2
I1018 15:42:57.785815  4846 net.cpp:395] conv16_2/scale -> conv16_2 (in-place)
I1018 15:42:57.785859  4846 layer_factory.hpp:77] Creating layer conv16_2/scale
I1018 15:42:57.786068  4846 net.cpp:150] Setting up conv16_2/scale
I1018 15:42:57.786082  4846 net.cpp:157] Top shape: 1 256 2 2 (1024)
I1018 15:42:57.786087  4846 net.cpp:165] Memory required for data: 270594528
I1018 15:42:57.786092  4846 layer_factory.hpp:77] Creating layer conv16_2/relu
I1018 15:42:57.786100  4846 net.cpp:100] Creating Layer conv16_2/relu
I1018 15:42:57.786103  4846 net.cpp:434] conv16_2/relu <- conv16_2
I1018 15:42:57.786108  4846 net.cpp:395] conv16_2/relu -> conv16_2 (in-place)
I1018 15:42:57.786658  4846 net.cpp:150] Setting up conv16_2/relu
I1018 15:42:57.786674  4846 net.cpp:157] Top shape: 1 256 2 2 (1024)
I1018 15:42:57.786677  4846 net.cpp:165] Memory required for data: 270598624
I1018 15:42:57.786680  4846 layer_factory.hpp:77] Creating layer conv16_2_conv16_2/relu_0_split
I1018 15:42:57.786687  4846 net.cpp:100] Creating Layer conv16_2_conv16_2/relu_0_split
I1018 15:42:57.786693  4846 net.cpp:434] conv16_2_conv16_2/relu_0_split <- conv16_2
I1018 15:42:57.786705  4846 net.cpp:408] conv16_2_conv16_2/relu_0_split -> conv16_2_conv16_2/relu_0_split_0
I1018 15:42:57.786713  4846 net.cpp:408] conv16_2_conv16_2/relu_0_split -> conv16_2_conv16_2/relu_0_split_1
I1018 15:42:57.786721  4846 net.cpp:408] conv16_2_conv16_2/relu_0_split -> conv16_2_conv16_2/relu_0_split_2
I1018 15:42:57.786731  4846 net.cpp:408] conv16_2_conv16_2/relu_0_split -> conv16_2_conv16_2/relu_0_split_3
I1018 15:42:57.786857  4846 net.cpp:150] Setting up conv16_2_conv16_2/relu_0_split
I1018 15:42:57.786867  4846 net.cpp:157] Top shape: 1 256 2 2 (1024)
I1018 15:42:57.786872  4846 net.cpp:157] Top shape: 1 256 2 2 (1024)
I1018 15:42:57.786878  4846 net.cpp:157] Top shape: 1 256 2 2 (1024)
I1018 15:42:57.786885  4846 net.cpp:157] Top shape: 1 256 2 2 (1024)
I1018 15:42:57.786887  4846 net.cpp:165] Memory required for data: 270615008
I1018 15:42:57.786911  4846 layer_factory.hpp:77] Creating layer conv17_1
I1018 15:42:57.786926  4846 net.cpp:100] Creating Layer conv17_1
I1018 15:42:57.786931  4846 net.cpp:434] conv17_1 <- conv16_2_conv16_2/relu_0_split_0
I1018 15:42:57.786939  4846 net.cpp:408] conv17_1 -> conv17_1
I1018 15:42:57.789649  4846 net.cpp:150] Setting up conv17_1
I1018 15:42:57.789664  4846 net.cpp:157] Top shape: 1 64 2 2 (256)
I1018 15:42:57.789667  4846 net.cpp:165] Memory required for data: 270616032
I1018 15:42:57.789672  4846 layer_factory.hpp:77] Creating layer conv17_1/bn
I1018 15:42:57.789677  4846 net.cpp:100] Creating Layer conv17_1/bn
I1018 15:42:57.789680  4846 net.cpp:434] conv17_1/bn <- conv17_1
I1018 15:42:57.789686  4846 net.cpp:395] conv17_1/bn -> conv17_1 (in-place)
I1018 15:42:57.790019  4846 net.cpp:150] Setting up conv17_1/bn
I1018 15:42:57.790027  4846 net.cpp:157] Top shape: 1 64 2 2 (256)
I1018 15:42:57.790030  4846 net.cpp:165] Memory required for data: 270617056
I1018 15:42:57.790037  4846 layer_factory.hpp:77] Creating layer conv17_1/scale
I1018 15:42:57.790045  4846 net.cpp:100] Creating Layer conv17_1/scale
I1018 15:42:57.790047  4846 net.cpp:434] conv17_1/scale <- conv17_1
I1018 15:42:57.790052  4846 net.cpp:395] conv17_1/scale -> conv17_1 (in-place)
I1018 15:42:57.790115  4846 layer_factory.hpp:77] Creating layer conv17_1/scale
I1018 15:42:57.790334  4846 net.cpp:150] Setting up conv17_1/scale
I1018 15:42:57.790343  4846 net.cpp:157] Top shape: 1 64 2 2 (256)
I1018 15:42:57.790346  4846 net.cpp:165] Memory required for data: 270618080
I1018 15:42:57.790351  4846 layer_factory.hpp:77] Creating layer conv17_1/relu
I1018 15:42:57.790356  4846 net.cpp:100] Creating Layer conv17_1/relu
I1018 15:42:57.790359  4846 net.cpp:434] conv17_1/relu <- conv17_1
I1018 15:42:57.790365  4846 net.cpp:395] conv17_1/relu -> conv17_1 (in-place)
I1018 15:42:57.791514  4846 net.cpp:150] Setting up conv17_1/relu
I1018 15:42:57.791527  4846 net.cpp:157] Top shape: 1 64 2 2 (256)
I1018 15:42:57.791530  4846 net.cpp:165] Memory required for data: 270619104
I1018 15:42:57.791533  4846 layer_factory.hpp:77] Creating layer conv17_2
I1018 15:42:57.791544  4846 net.cpp:100] Creating Layer conv17_2
I1018 15:42:57.791548  4846 net.cpp:434] conv17_2 <- conv17_1
I1018 15:42:57.791554  4846 net.cpp:408] conv17_2 -> conv17_2
I1018 15:42:57.794059  4846 net.cpp:150] Setting up conv17_2
I1018 15:42:57.794070  4846 net.cpp:157] Top shape: 1 128 1 1 (128)
I1018 15:42:57.794073  4846 net.cpp:165] Memory required for data: 270619616
I1018 15:42:57.794078  4846 layer_factory.hpp:77] Creating layer conv17_2/bn
I1018 15:42:57.794085  4846 net.cpp:100] Creating Layer conv17_2/bn
I1018 15:42:57.794090  4846 net.cpp:434] conv17_2/bn <- conv17_2
I1018 15:42:57.794095  4846 net.cpp:395] conv17_2/bn -> conv17_2 (in-place)
I1018 15:42:57.794400  4846 net.cpp:150] Setting up conv17_2/bn
I1018 15:42:57.794411  4846 net.cpp:157] Top shape: 1 128 1 1 (128)
I1018 15:42:57.794416  4846 net.cpp:165] Memory required for data: 270620128
I1018 15:42:57.794426  4846 layer_factory.hpp:77] Creating layer conv17_2/scale
I1018 15:42:57.794435  4846 net.cpp:100] Creating Layer conv17_2/scale
I1018 15:42:57.794438  4846 net.cpp:434] conv17_2/scale <- conv17_2
I1018 15:42:57.794442  4846 net.cpp:395] conv17_2/scale -> conv17_2 (in-place)
I1018 15:42:57.794503  4846 layer_factory.hpp:77] Creating layer conv17_2/scale
I1018 15:42:57.794697  4846 net.cpp:150] Setting up conv17_2/scale
I1018 15:42:57.794706  4846 net.cpp:157] Top shape: 1 128 1 1 (128)
I1018 15:42:57.794711  4846 net.cpp:165] Memory required for data: 270620640
I1018 15:42:57.794719  4846 layer_factory.hpp:77] Creating layer conv17_2/relu
I1018 15:42:57.794725  4846 net.cpp:100] Creating Layer conv17_2/relu
I1018 15:42:57.794729  4846 net.cpp:434] conv17_2/relu <- conv17_2
I1018 15:42:57.794735  4846 net.cpp:395] conv17_2/relu -> conv17_2 (in-place)
I1018 15:42:57.795233  4846 net.cpp:150] Setting up conv17_2/relu
I1018 15:42:57.795245  4846 net.cpp:157] Top shape: 1 128 1 1 (128)
I1018 15:42:57.795248  4846 net.cpp:165] Memory required for data: 270621152
I1018 15:42:57.795264  4846 layer_factory.hpp:77] Creating layer conv17_2_conv17_2/relu_0_split
I1018 15:42:57.795272  4846 net.cpp:100] Creating Layer conv17_2_conv17_2/relu_0_split
I1018 15:42:57.795275  4846 net.cpp:434] conv17_2_conv17_2/relu_0_split <- conv17_2
I1018 15:42:57.795282  4846 net.cpp:408] conv17_2_conv17_2/relu_0_split -> conv17_2_conv17_2/relu_0_split_0
I1018 15:42:57.795310  4846 net.cpp:408] conv17_2_conv17_2/relu_0_split -> conv17_2_conv17_2/relu_0_split_1
I1018 15:42:57.795318  4846 net.cpp:408] conv17_2_conv17_2/relu_0_split -> conv17_2_conv17_2/relu_0_split_2
I1018 15:42:57.795419  4846 net.cpp:150] Setting up conv17_2_conv17_2/relu_0_split
I1018 15:42:57.795430  4846 net.cpp:157] Top shape: 1 128 1 1 (128)
I1018 15:42:57.795434  4846 net.cpp:157] Top shape: 1 128 1 1 (128)
I1018 15:42:57.795437  4846 net.cpp:157] Top shape: 1 128 1 1 (128)
I1018 15:42:57.795439  4846 net.cpp:165] Memory required for data: 270622688
I1018 15:42:57.795442  4846 layer_factory.hpp:77] Creating layer conv11_mbox_loc
I1018 15:42:57.795451  4846 net.cpp:100] Creating Layer conv11_mbox_loc
I1018 15:42:57.795455  4846 net.cpp:434] conv11_mbox_loc <- conv11_conv11/relu_0_split_1
I1018 15:42:57.795464  4846 net.cpp:408] conv11_mbox_loc -> conv11_mbox_loc
I1018 15:42:57.797585  4846 net.cpp:150] Setting up conv11_mbox_loc
I1018 15:42:57.797598  4846 net.cpp:157] Top shape: 1 12 20 30 (7200)
I1018 15:42:57.797601  4846 net.cpp:165] Memory required for data: 270651488
I1018 15:42:57.797606  4846 layer_factory.hpp:77] Creating layer conv11_mbox_loc_perm
I1018 15:42:57.797614  4846 net.cpp:100] Creating Layer conv11_mbox_loc_perm
I1018 15:42:57.797617  4846 net.cpp:434] conv11_mbox_loc_perm <- conv11_mbox_loc
I1018 15:42:57.797623  4846 net.cpp:408] conv11_mbox_loc_perm -> conv11_mbox_loc_perm
I1018 15:42:57.797781  4846 net.cpp:150] Setting up conv11_mbox_loc_perm
I1018 15:42:57.797793  4846 net.cpp:157] Top shape: 1 20 30 12 (7200)
I1018 15:42:57.797797  4846 net.cpp:165] Memory required for data: 270680288
I1018 15:42:57.797801  4846 layer_factory.hpp:77] Creating layer conv11_mbox_loc_flat
I1018 15:42:57.797811  4846 net.cpp:100] Creating Layer conv11_mbox_loc_flat
I1018 15:42:57.797816  4846 net.cpp:434] conv11_mbox_loc_flat <- conv11_mbox_loc_perm
I1018 15:42:57.797822  4846 net.cpp:408] conv11_mbox_loc_flat -> conv11_mbox_loc_flat
I1018 15:42:57.797863  4846 net.cpp:150] Setting up conv11_mbox_loc_flat
I1018 15:42:57.797871  4846 net.cpp:157] Top shape: 1 7200 (7200)
I1018 15:42:57.797876  4846 net.cpp:165] Memory required for data: 270709088
I1018 15:42:57.797880  4846 layer_factory.hpp:77] Creating layer conv11_mbox_conf_new
I1018 15:42:57.797890  4846 net.cpp:100] Creating Layer conv11_mbox_conf_new
I1018 15:42:57.797894  4846 net.cpp:434] conv11_mbox_conf_new <- conv11_conv11/relu_0_split_2
I1018 15:42:57.797902  4846 net.cpp:408] conv11_mbox_conf_new -> conv11_mbox_conf
I1018 15:42:57.800089  4846 net.cpp:150] Setting up conv11_mbox_conf_new
I1018 15:42:57.800102  4846 net.cpp:157] Top shape: 1 18 20 30 (10800)
I1018 15:42:57.800106  4846 net.cpp:165] Memory required for data: 270752288
I1018 15:42:57.800112  4846 layer_factory.hpp:77] Creating layer conv11_mbox_conf_perm
I1018 15:42:57.800119  4846 net.cpp:100] Creating Layer conv11_mbox_conf_perm
I1018 15:42:57.800122  4846 net.cpp:434] conv11_mbox_conf_perm <- conv11_mbox_conf
I1018 15:42:57.800127  4846 net.cpp:408] conv11_mbox_conf_perm -> conv11_mbox_conf_perm
I1018 15:42:57.800276  4846 net.cpp:150] Setting up conv11_mbox_conf_perm
I1018 15:42:57.800288  4846 net.cpp:157] Top shape: 1 20 30 18 (10800)
I1018 15:42:57.800292  4846 net.cpp:165] Memory required for data: 270795488
I1018 15:42:57.800294  4846 layer_factory.hpp:77] Creating layer conv11_mbox_conf_flat
I1018 15:42:57.800302  4846 net.cpp:100] Creating Layer conv11_mbox_conf_flat
I1018 15:42:57.800307  4846 net.cpp:434] conv11_mbox_conf_flat <- conv11_mbox_conf_perm
I1018 15:42:57.800315  4846 net.cpp:408] conv11_mbox_conf_flat -> conv11_mbox_conf_flat
I1018 15:42:57.800371  4846 net.cpp:150] Setting up conv11_mbox_conf_flat
I1018 15:42:57.800382  4846 net.cpp:157] Top shape: 1 10800 (10800)
I1018 15:42:57.800386  4846 net.cpp:165] Memory required for data: 270838688
I1018 15:42:57.800390  4846 layer_factory.hpp:77] Creating layer conv11_mbox_priorbox
I1018 15:42:57.800400  4846 net.cpp:100] Creating Layer conv11_mbox_priorbox
I1018 15:42:57.800405  4846 net.cpp:434] conv11_mbox_priorbox <- conv11_conv11/relu_0_split_3
I1018 15:42:57.800410  4846 net.cpp:434] conv11_mbox_priorbox <- data_data_0_split_1
I1018 15:42:57.800417  4846 net.cpp:408] conv11_mbox_priorbox -> conv11_mbox_priorbox
I1018 15:42:57.800462  4846 net.cpp:150] Setting up conv11_mbox_priorbox
I1018 15:42:57.800472  4846 net.cpp:157] Top shape: 1 2 7200 (14400)
I1018 15:42:57.800473  4846 net.cpp:165] Memory required for data: 270896288
I1018 15:42:57.800477  4846 layer_factory.hpp:77] Creating layer conv13_mbox_loc
I1018 15:42:57.800485  4846 net.cpp:100] Creating Layer conv13_mbox_loc
I1018 15:42:57.800488  4846 net.cpp:434] conv13_mbox_loc <- conv13_conv13/relu_0_split_1
I1018 15:42:57.800496  4846 net.cpp:408] conv13_mbox_loc -> conv13_mbox_loc
I1018 15:42:57.802832  4846 net.cpp:150] Setting up conv13_mbox_loc
I1018 15:42:57.802845  4846 net.cpp:157] Top shape: 1 24 10 15 (3600)
I1018 15:42:57.802848  4846 net.cpp:165] Memory required for data: 270910688
I1018 15:42:57.802855  4846 layer_factory.hpp:77] Creating layer conv13_mbox_loc_perm
I1018 15:42:57.802861  4846 net.cpp:100] Creating Layer conv13_mbox_loc_perm
I1018 15:42:57.802865  4846 net.cpp:434] conv13_mbox_loc_perm <- conv13_mbox_loc
I1018 15:42:57.802871  4846 net.cpp:408] conv13_mbox_loc_perm -> conv13_mbox_loc_perm
I1018 15:42:57.803025  4846 net.cpp:150] Setting up conv13_mbox_loc_perm
I1018 15:42:57.803037  4846 net.cpp:157] Top shape: 1 10 15 24 (3600)
I1018 15:42:57.803040  4846 net.cpp:165] Memory required for data: 270925088
I1018 15:42:57.803043  4846 layer_factory.hpp:77] Creating layer conv13_mbox_loc_flat
I1018 15:42:57.803050  4846 net.cpp:100] Creating Layer conv13_mbox_loc_flat
I1018 15:42:57.803056  4846 net.cpp:434] conv13_mbox_loc_flat <- conv13_mbox_loc_perm
I1018 15:42:57.803066  4846 net.cpp:408] conv13_mbox_loc_flat -> conv13_mbox_loc_flat
I1018 15:42:57.803105  4846 net.cpp:150] Setting up conv13_mbox_loc_flat
I1018 15:42:57.803114  4846 net.cpp:157] Top shape: 1 3600 (3600)
I1018 15:42:57.803117  4846 net.cpp:165] Memory required for data: 270939488
I1018 15:42:57.803119  4846 layer_factory.hpp:77] Creating layer conv13_mbox_conf_new
I1018 15:42:57.803133  4846 net.cpp:100] Creating Layer conv13_mbox_conf_new
I1018 15:42:57.803139  4846 net.cpp:434] conv13_mbox_conf_new <- conv13_conv13/relu_0_split_2
I1018 15:42:57.803146  4846 net.cpp:408] conv13_mbox_conf_new -> conv13_mbox_conf
I1018 15:42:57.806370  4846 net.cpp:150] Setting up conv13_mbox_conf_new
I1018 15:42:57.806385  4846 net.cpp:157] Top shape: 1 36 10 15 (5400)
I1018 15:42:57.806388  4846 net.cpp:165] Memory required for data: 270961088
I1018 15:42:57.806393  4846 layer_factory.hpp:77] Creating layer conv13_mbox_conf_perm
I1018 15:42:57.806399  4846 net.cpp:100] Creating Layer conv13_mbox_conf_perm
I1018 15:42:57.806403  4846 net.cpp:434] conv13_mbox_conf_perm <- conv13_mbox_conf
I1018 15:42:57.806409  4846 net.cpp:408] conv13_mbox_conf_perm -> conv13_mbox_conf_perm
I1018 15:42:57.806535  4846 net.cpp:150] Setting up conv13_mbox_conf_perm
I1018 15:42:57.806558  4846 net.cpp:157] Top shape: 1 10 15 36 (5400)
I1018 15:42:57.806563  4846 net.cpp:165] Memory required for data: 270982688
I1018 15:42:57.806568  4846 layer_factory.hpp:77] Creating layer conv13_mbox_conf_flat
I1018 15:42:57.806574  4846 net.cpp:100] Creating Layer conv13_mbox_conf_flat
I1018 15:42:57.806578  4846 net.cpp:434] conv13_mbox_conf_flat <- conv13_mbox_conf_perm
I1018 15:42:57.806589  4846 net.cpp:408] conv13_mbox_conf_flat -> conv13_mbox_conf_flat
I1018 15:42:57.806633  4846 net.cpp:150] Setting up conv13_mbox_conf_flat
I1018 15:42:57.806640  4846 net.cpp:157] Top shape: 1 5400 (5400)
I1018 15:42:57.806656  4846 net.cpp:165] Memory required for data: 271004288
I1018 15:42:57.806663  4846 layer_factory.hpp:77] Creating layer conv13_mbox_priorbox
I1018 15:42:57.806670  4846 net.cpp:100] Creating Layer conv13_mbox_priorbox
I1018 15:42:57.806674  4846 net.cpp:434] conv13_mbox_priorbox <- conv13_conv13/relu_0_split_3
I1018 15:42:57.806679  4846 net.cpp:434] conv13_mbox_priorbox <- data_data_0_split_2
I1018 15:42:57.806687  4846 net.cpp:408] conv13_mbox_priorbox -> conv13_mbox_priorbox
I1018 15:42:57.806733  4846 net.cpp:150] Setting up conv13_mbox_priorbox
I1018 15:42:57.806742  4846 net.cpp:157] Top shape: 1 2 3600 (7200)
I1018 15:42:57.806744  4846 net.cpp:165] Memory required for data: 271033088
I1018 15:42:57.806747  4846 layer_factory.hpp:77] Creating layer conv14_2_mbox_loc
I1018 15:42:57.806758  4846 net.cpp:100] Creating Layer conv14_2_mbox_loc
I1018 15:42:57.806763  4846 net.cpp:434] conv14_2_mbox_loc <- conv14_2_conv14_2/relu_0_split_1
I1018 15:42:57.806773  4846 net.cpp:408] conv14_2_mbox_loc -> conv14_2_mbox_loc
I1018 15:42:57.809723  4846 net.cpp:150] Setting up conv14_2_mbox_loc
I1018 15:42:57.809736  4846 net.cpp:157] Top shape: 1 24 5 8 (960)
I1018 15:42:57.809739  4846 net.cpp:165] Memory required for data: 271036928
I1018 15:42:57.809746  4846 layer_factory.hpp:77] Creating layer conv14_2_mbox_loc_perm
I1018 15:42:57.809752  4846 net.cpp:100] Creating Layer conv14_2_mbox_loc_perm
I1018 15:42:57.809756  4846 net.cpp:434] conv14_2_mbox_loc_perm <- conv14_2_mbox_loc
I1018 15:42:57.809761  4846 net.cpp:408] conv14_2_mbox_loc_perm -> conv14_2_mbox_loc_perm
I1018 15:42:57.809885  4846 net.cpp:150] Setting up conv14_2_mbox_loc_perm
I1018 15:42:57.809895  4846 net.cpp:157] Top shape: 1 5 8 24 (960)
I1018 15:42:57.809900  4846 net.cpp:165] Memory required for data: 271040768
I1018 15:42:57.809903  4846 layer_factory.hpp:77] Creating layer conv14_2_mbox_loc_flat
I1018 15:42:57.809913  4846 net.cpp:100] Creating Layer conv14_2_mbox_loc_flat
I1018 15:42:57.809919  4846 net.cpp:434] conv14_2_mbox_loc_flat <- conv14_2_mbox_loc_perm
I1018 15:42:57.809926  4846 net.cpp:408] conv14_2_mbox_loc_flat -> conv14_2_mbox_loc_flat
I1018 15:42:57.809968  4846 net.cpp:150] Setting up conv14_2_mbox_loc_flat
I1018 15:42:57.809978  4846 net.cpp:157] Top shape: 1 960 (960)
I1018 15:42:57.809983  4846 net.cpp:165] Memory required for data: 271044608
I1018 15:42:57.809985  4846 layer_factory.hpp:77] Creating layer conv14_2_mbox_conf_new
I1018 15:42:57.809994  4846 net.cpp:100] Creating Layer conv14_2_mbox_conf_new
I1018 15:42:57.809998  4846 net.cpp:434] conv14_2_mbox_conf_new <- conv14_2_conv14_2/relu_0_split_2
I1018 15:42:57.810009  4846 net.cpp:408] conv14_2_mbox_conf_new -> conv14_2_mbox_conf
I1018 15:42:57.812244  4846 net.cpp:150] Setting up conv14_2_mbox_conf_new
I1018 15:42:57.812258  4846 net.cpp:157] Top shape: 1 36 5 8 (1440)
I1018 15:42:57.812260  4846 net.cpp:165] Memory required for data: 271050368
I1018 15:42:57.812268  4846 layer_factory.hpp:77] Creating layer conv14_2_mbox_conf_perm
I1018 15:42:57.812274  4846 net.cpp:100] Creating Layer conv14_2_mbox_conf_perm
I1018 15:42:57.812278  4846 net.cpp:434] conv14_2_mbox_conf_perm <- conv14_2_mbox_conf
I1018 15:42:57.812283  4846 net.cpp:408] conv14_2_mbox_conf_perm -> conv14_2_mbox_conf_perm
I1018 15:42:57.812472  4846 net.cpp:150] Setting up conv14_2_mbox_conf_perm
I1018 15:42:57.812484  4846 net.cpp:157] Top shape: 1 5 8 36 (1440)
I1018 15:42:57.812489  4846 net.cpp:165] Memory required for data: 271056128
I1018 15:42:57.812492  4846 layer_factory.hpp:77] Creating layer conv14_2_mbox_conf_flat
I1018 15:42:57.812500  4846 net.cpp:100] Creating Layer conv14_2_mbox_conf_flat
I1018 15:42:57.812503  4846 net.cpp:434] conv14_2_mbox_conf_flat <- conv14_2_mbox_conf_perm
I1018 15:42:57.812510  4846 net.cpp:408] conv14_2_mbox_conf_flat -> conv14_2_mbox_conf_flat
I1018 15:42:57.812552  4846 net.cpp:150] Setting up conv14_2_mbox_conf_flat
I1018 15:42:57.812561  4846 net.cpp:157] Top shape: 1 1440 (1440)
I1018 15:42:57.812563  4846 net.cpp:165] Memory required for data: 271061888
I1018 15:42:57.812575  4846 layer_factory.hpp:77] Creating layer conv14_2_mbox_priorbox
I1018 15:42:57.812583  4846 net.cpp:100] Creating Layer conv14_2_mbox_priorbox
I1018 15:42:57.812587  4846 net.cpp:434] conv14_2_mbox_priorbox <- conv14_2_conv14_2/relu_0_split_3
I1018 15:42:57.812592  4846 net.cpp:434] conv14_2_mbox_priorbox <- data_data_0_split_3
I1018 15:42:57.812599  4846 net.cpp:408] conv14_2_mbox_priorbox -> conv14_2_mbox_priorbox
I1018 15:42:57.812640  4846 net.cpp:150] Setting up conv14_2_mbox_priorbox
I1018 15:42:57.812650  4846 net.cpp:157] Top shape: 1 2 960 (1920)
I1018 15:42:57.812655  4846 net.cpp:165] Memory required for data: 271069568
I1018 15:42:57.812659  4846 layer_factory.hpp:77] Creating layer conv15_2_mbox_loc
I1018 15:42:57.812671  4846 net.cpp:100] Creating Layer conv15_2_mbox_loc
I1018 15:42:57.812677  4846 net.cpp:434] conv15_2_mbox_loc <- conv15_2_conv15_2/relu_0_split_1
I1018 15:42:57.812687  4846 net.cpp:408] conv15_2_mbox_loc -> conv15_2_mbox_loc
I1018 15:42:57.814903  4846 net.cpp:150] Setting up conv15_2_mbox_loc
I1018 15:42:57.814916  4846 net.cpp:157] Top shape: 1 24 3 4 (288)
I1018 15:42:57.814919  4846 net.cpp:165] Memory required for data: 271070720
I1018 15:42:57.814925  4846 layer_factory.hpp:77] Creating layer conv15_2_mbox_loc_perm
I1018 15:42:57.814931  4846 net.cpp:100] Creating Layer conv15_2_mbox_loc_perm
I1018 15:42:57.814934  4846 net.cpp:434] conv15_2_mbox_loc_perm <- conv15_2_mbox_loc
I1018 15:42:57.814941  4846 net.cpp:408] conv15_2_mbox_loc_perm -> conv15_2_mbox_loc_perm
I1018 15:42:57.815066  4846 net.cpp:150] Setting up conv15_2_mbox_loc_perm
I1018 15:42:57.815075  4846 net.cpp:157] Top shape: 1 3 4 24 (288)
I1018 15:42:57.815079  4846 net.cpp:165] Memory required for data: 271071872
I1018 15:42:57.815084  4846 layer_factory.hpp:77] Creating layer conv15_2_mbox_loc_flat
I1018 15:42:57.815093  4846 net.cpp:100] Creating Layer conv15_2_mbox_loc_flat
I1018 15:42:57.815099  4846 net.cpp:434] conv15_2_mbox_loc_flat <- conv15_2_mbox_loc_perm
I1018 15:42:57.815107  4846 net.cpp:408] conv15_2_mbox_loc_flat -> conv15_2_mbox_loc_flat
I1018 15:42:57.815147  4846 net.cpp:150] Setting up conv15_2_mbox_loc_flat
I1018 15:42:57.815155  4846 net.cpp:157] Top shape: 1 288 (288)
I1018 15:42:57.815157  4846 net.cpp:165] Memory required for data: 271073024
I1018 15:42:57.815161  4846 layer_factory.hpp:77] Creating layer conv15_2_mbox_conf_new
I1018 15:42:57.815177  4846 net.cpp:100] Creating Layer conv15_2_mbox_conf_new
I1018 15:42:57.815182  4846 net.cpp:434] conv15_2_mbox_conf_new <- conv15_2_conv15_2/relu_0_split_2
I1018 15:42:57.815187  4846 net.cpp:408] conv15_2_mbox_conf_new -> conv15_2_mbox_conf
I1018 15:42:57.817374  4846 net.cpp:150] Setting up conv15_2_mbox_conf_new
I1018 15:42:57.817387  4846 net.cpp:157] Top shape: 1 36 3 4 (432)
I1018 15:42:57.817390  4846 net.cpp:165] Memory required for data: 271074752
I1018 15:42:57.817395  4846 layer_factory.hpp:77] Creating layer conv15_2_mbox_conf_perm
I1018 15:42:57.817401  4846 net.cpp:100] Creating Layer conv15_2_mbox_conf_perm
I1018 15:42:57.817405  4846 net.cpp:434] conv15_2_mbox_conf_perm <- conv15_2_mbox_conf
I1018 15:42:57.817411  4846 net.cpp:408] conv15_2_mbox_conf_perm -> conv15_2_mbox_conf_perm
I1018 15:42:57.817616  4846 net.cpp:150] Setting up conv15_2_mbox_conf_perm
I1018 15:42:57.817626  4846 net.cpp:157] Top shape: 1 3 4 36 (432)
I1018 15:42:57.817631  4846 net.cpp:165] Memory required for data: 271076480
I1018 15:42:57.817636  4846 layer_factory.hpp:77] Creating layer conv15_2_mbox_conf_flat
I1018 15:42:57.817646  4846 net.cpp:100] Creating Layer conv15_2_mbox_conf_flat
I1018 15:42:57.817651  4846 net.cpp:434] conv15_2_mbox_conf_flat <- conv15_2_mbox_conf_perm
I1018 15:42:57.817656  4846 net.cpp:408] conv15_2_mbox_conf_flat -> conv15_2_mbox_conf_flat
I1018 15:42:57.817695  4846 net.cpp:150] Setting up conv15_2_mbox_conf_flat
I1018 15:42:57.817701  4846 net.cpp:157] Top shape: 1 432 (432)
I1018 15:42:57.817704  4846 net.cpp:165] Memory required for data: 271078208
I1018 15:42:57.817708  4846 layer_factory.hpp:77] Creating layer conv15_2_mbox_priorbox
I1018 15:42:57.817723  4846 net.cpp:100] Creating Layer conv15_2_mbox_priorbox
I1018 15:42:57.817728  4846 net.cpp:434] conv15_2_mbox_priorbox <- conv15_2_conv15_2/relu_0_split_3
I1018 15:42:57.817731  4846 net.cpp:434] conv15_2_mbox_priorbox <- data_data_0_split_4
I1018 15:42:57.817737  4846 net.cpp:408] conv15_2_mbox_priorbox -> conv15_2_mbox_priorbox
I1018 15:42:57.817772  4846 net.cpp:150] Setting up conv15_2_mbox_priorbox
I1018 15:42:57.817777  4846 net.cpp:157] Top shape: 1 2 288 (576)
I1018 15:42:57.817780  4846 net.cpp:165] Memory required for data: 271080512
I1018 15:42:57.817782  4846 layer_factory.hpp:77] Creating layer conv16_2_mbox_loc
I1018 15:42:57.817801  4846 net.cpp:100] Creating Layer conv16_2_mbox_loc
I1018 15:42:57.817804  4846 net.cpp:434] conv16_2_mbox_loc <- conv16_2_conv16_2/relu_0_split_1
I1018 15:42:57.817813  4846 net.cpp:408] conv16_2_mbox_loc -> conv16_2_mbox_loc
I1018 15:42:57.820004  4846 net.cpp:150] Setting up conv16_2_mbox_loc
I1018 15:42:57.820017  4846 net.cpp:157] Top shape: 1 24 2 2 (96)
I1018 15:42:57.820019  4846 net.cpp:165] Memory required for data: 271080896
I1018 15:42:57.820025  4846 layer_factory.hpp:77] Creating layer conv16_2_mbox_loc_perm
I1018 15:42:57.820034  4846 net.cpp:100] Creating Layer conv16_2_mbox_loc_perm
I1018 15:42:57.820036  4846 net.cpp:434] conv16_2_mbox_loc_perm <- conv16_2_mbox_loc
I1018 15:42:57.820041  4846 net.cpp:408] conv16_2_mbox_loc_perm -> conv16_2_mbox_loc_perm
I1018 15:42:57.820230  4846 net.cpp:150] Setting up conv16_2_mbox_loc_perm
I1018 15:42:57.820241  4846 net.cpp:157] Top shape: 1 2 2 24 (96)
I1018 15:42:57.820245  4846 net.cpp:165] Memory required for data: 271081280
I1018 15:42:57.820250  4846 layer_factory.hpp:77] Creating layer conv16_2_mbox_loc_flat
I1018 15:42:57.820261  4846 net.cpp:100] Creating Layer conv16_2_mbox_loc_flat
I1018 15:42:57.820266  4846 net.cpp:434] conv16_2_mbox_loc_flat <- conv16_2_mbox_loc_perm
I1018 15:42:57.820271  4846 net.cpp:408] conv16_2_mbox_loc_flat -> conv16_2_mbox_loc_flat
I1018 15:42:57.820314  4846 net.cpp:150] Setting up conv16_2_mbox_loc_flat
I1018 15:42:57.820323  4846 net.cpp:157] Top shape: 1 96 (96)
I1018 15:42:57.820327  4846 net.cpp:165] Memory required for data: 271081664
I1018 15:42:57.820330  4846 layer_factory.hpp:77] Creating layer conv16_2_mbox_conf_new
I1018 15:42:57.820339  4846 net.cpp:100] Creating Layer conv16_2_mbox_conf_new
I1018 15:42:57.820344  4846 net.cpp:434] conv16_2_mbox_conf_new <- conv16_2_conv16_2/relu_0_split_2
I1018 15:42:57.820355  4846 net.cpp:408] conv16_2_mbox_conf_new -> conv16_2_mbox_conf
I1018 15:42:57.822508  4846 net.cpp:150] Setting up conv16_2_mbox_conf_new
I1018 15:42:57.822526  4846 net.cpp:157] Top shape: 1 36 2 2 (144)
I1018 15:42:57.822530  4846 net.cpp:165] Memory required for data: 271082240
I1018 15:42:57.822535  4846 layer_factory.hpp:77] Creating layer conv16_2_mbox_conf_perm
I1018 15:42:57.822542  4846 net.cpp:100] Creating Layer conv16_2_mbox_conf_perm
I1018 15:42:57.822546  4846 net.cpp:434] conv16_2_mbox_conf_perm <- conv16_2_mbox_conf
I1018 15:42:57.822552  4846 net.cpp:408] conv16_2_mbox_conf_perm -> conv16_2_mbox_conf_perm
I1018 15:42:57.822718  4846 net.cpp:150] Setting up conv16_2_mbox_conf_perm
I1018 15:42:57.822729  4846 net.cpp:157] Top shape: 1 2 2 36 (144)
I1018 15:42:57.822733  4846 net.cpp:165] Memory required for data: 271082816
I1018 15:42:57.822738  4846 layer_factory.hpp:77] Creating layer conv16_2_mbox_conf_flat
I1018 15:42:57.822746  4846 net.cpp:100] Creating Layer conv16_2_mbox_conf_flat
I1018 15:42:57.822751  4846 net.cpp:434] conv16_2_mbox_conf_flat <- conv16_2_mbox_conf_perm
I1018 15:42:57.822759  4846 net.cpp:408] conv16_2_mbox_conf_flat -> conv16_2_mbox_conf_flat
I1018 15:42:57.822800  4846 net.cpp:150] Setting up conv16_2_mbox_conf_flat
I1018 15:42:57.822818  4846 net.cpp:157] Top shape: 1 144 (144)
I1018 15:42:57.822823  4846 net.cpp:165] Memory required for data: 271083392
I1018 15:42:57.822824  4846 layer_factory.hpp:77] Creating layer conv16_2_mbox_priorbox
I1018 15:42:57.822830  4846 net.cpp:100] Creating Layer conv16_2_mbox_priorbox
I1018 15:42:57.822849  4846 net.cpp:434] conv16_2_mbox_priorbox <- conv16_2_conv16_2/relu_0_split_3
I1018 15:42:57.822856  4846 net.cpp:434] conv16_2_mbox_priorbox <- data_data_0_split_5
I1018 15:42:57.822865  4846 net.cpp:408] conv16_2_mbox_priorbox -> conv16_2_mbox_priorbox
I1018 15:42:57.822908  4846 net.cpp:150] Setting up conv16_2_mbox_priorbox
I1018 15:42:57.822916  4846 net.cpp:157] Top shape: 1 2 96 (192)
I1018 15:42:57.822921  4846 net.cpp:165] Memory required for data: 271084160
I1018 15:42:57.822924  4846 layer_factory.hpp:77] Creating layer conv17_2_mbox_loc
I1018 15:42:57.822937  4846 net.cpp:100] Creating Layer conv17_2_mbox_loc
I1018 15:42:57.822942  4846 net.cpp:434] conv17_2_mbox_loc <- conv17_2_conv17_2/relu_0_split_0
I1018 15:42:57.822950  4846 net.cpp:408] conv17_2_mbox_loc -> conv17_2_mbox_loc
I1018 15:42:57.825459  4846 net.cpp:150] Setting up conv17_2_mbox_loc
I1018 15:42:57.825472  4846 net.cpp:157] Top shape: 1 24 1 1 (24)
I1018 15:42:57.825475  4846 net.cpp:165] Memory required for data: 271084256
I1018 15:42:57.825481  4846 layer_factory.hpp:77] Creating layer conv17_2_mbox_loc_perm
I1018 15:42:57.825489  4846 net.cpp:100] Creating Layer conv17_2_mbox_loc_perm
I1018 15:42:57.825492  4846 net.cpp:434] conv17_2_mbox_loc_perm <- conv17_2_mbox_loc
I1018 15:42:57.825500  4846 net.cpp:408] conv17_2_mbox_loc_perm -> conv17_2_mbox_loc_perm
I1018 15:42:57.825619  4846 net.cpp:150] Setting up conv17_2_mbox_loc_perm
I1018 15:42:57.825626  4846 net.cpp:157] Top shape: 1 1 1 24 (24)
I1018 15:42:57.825629  4846 net.cpp:165] Memory required for data: 271084352
I1018 15:42:57.825633  4846 layer_factory.hpp:77] Creating layer conv17_2_mbox_loc_flat
I1018 15:42:57.825637  4846 net.cpp:100] Creating Layer conv17_2_mbox_loc_flat
I1018 15:42:57.825639  4846 net.cpp:434] conv17_2_mbox_loc_flat <- conv17_2_mbox_loc_perm
I1018 15:42:57.825645  4846 net.cpp:408] conv17_2_mbox_loc_flat -> conv17_2_mbox_loc_flat
I1018 15:42:57.825675  4846 net.cpp:150] Setting up conv17_2_mbox_loc_flat
I1018 15:42:57.825681  4846 net.cpp:157] Top shape: 1 24 (24)
I1018 15:42:57.825683  4846 net.cpp:165] Memory required for data: 271084448
I1018 15:42:57.825685  4846 layer_factory.hpp:77] Creating layer conv17_2_mbox_conf_new
I1018 15:42:57.825695  4846 net.cpp:100] Creating Layer conv17_2_mbox_conf_new
I1018 15:42:57.825700  4846 net.cpp:434] conv17_2_mbox_conf_new <- conv17_2_conv17_2/relu_0_split_1
I1018 15:42:57.825706  4846 net.cpp:408] conv17_2_mbox_conf_new -> conv17_2_mbox_conf
I1018 15:42:57.828341  4846 net.cpp:150] Setting up conv17_2_mbox_conf_new
I1018 15:42:57.828357  4846 net.cpp:157] Top shape: 1 36 1 1 (36)
I1018 15:42:57.828361  4846 net.cpp:165] Memory required for data: 271084592
I1018 15:42:57.828369  4846 layer_factory.hpp:77] Creating layer conv17_2_mbox_conf_perm
I1018 15:42:57.828378  4846 net.cpp:100] Creating Layer conv17_2_mbox_conf_perm
I1018 15:42:57.828384  4846 net.cpp:434] conv17_2_mbox_conf_perm <- conv17_2_mbox_conf
I1018 15:42:57.828392  4846 net.cpp:408] conv17_2_mbox_conf_perm -> conv17_2_mbox_conf_perm
I1018 15:42:57.828522  4846 net.cpp:150] Setting up conv17_2_mbox_conf_perm
I1018 15:42:57.828531  4846 net.cpp:157] Top shape: 1 1 1 36 (36)
I1018 15:42:57.828533  4846 net.cpp:165] Memory required for data: 271084736
I1018 15:42:57.828537  4846 layer_factory.hpp:77] Creating layer conv17_2_mbox_conf_flat
I1018 15:42:57.828544  4846 net.cpp:100] Creating Layer conv17_2_mbox_conf_flat
I1018 15:42:57.828548  4846 net.cpp:434] conv17_2_mbox_conf_flat <- conv17_2_mbox_conf_perm
I1018 15:42:57.828553  4846 net.cpp:408] conv17_2_mbox_conf_flat -> conv17_2_mbox_conf_flat
I1018 15:42:57.828586  4846 net.cpp:150] Setting up conv17_2_mbox_conf_flat
I1018 15:42:57.828593  4846 net.cpp:157] Top shape: 1 36 (36)
I1018 15:42:57.828594  4846 net.cpp:165] Memory required for data: 271084880
I1018 15:42:57.828598  4846 layer_factory.hpp:77] Creating layer conv17_2_mbox_priorbox
I1018 15:42:57.828605  4846 net.cpp:100] Creating Layer conv17_2_mbox_priorbox
I1018 15:42:57.828620  4846 net.cpp:434] conv17_2_mbox_priorbox <- conv17_2_conv17_2/relu_0_split_2
I1018 15:42:57.828626  4846 net.cpp:434] conv17_2_mbox_priorbox <- data_data_0_split_6
I1018 15:42:57.828635  4846 net.cpp:408] conv17_2_mbox_priorbox -> conv17_2_mbox_priorbox
I1018 15:42:57.828670  4846 net.cpp:150] Setting up conv17_2_mbox_priorbox
I1018 15:42:57.828675  4846 net.cpp:157] Top shape: 1 2 24 (48)
I1018 15:42:57.828677  4846 net.cpp:165] Memory required for data: 271085072
I1018 15:42:57.828680  4846 layer_factory.hpp:77] Creating layer mbox_loc
I1018 15:42:57.828688  4846 net.cpp:100] Creating Layer mbox_loc
I1018 15:42:57.828691  4846 net.cpp:434] mbox_loc <- conv11_mbox_loc_flat
I1018 15:42:57.828696  4846 net.cpp:434] mbox_loc <- conv13_mbox_loc_flat
I1018 15:42:57.828701  4846 net.cpp:434] mbox_loc <- conv14_2_mbox_loc_flat
I1018 15:42:57.828706  4846 net.cpp:434] mbox_loc <- conv15_2_mbox_loc_flat
I1018 15:42:57.828711  4846 net.cpp:434] mbox_loc <- conv16_2_mbox_loc_flat
I1018 15:42:57.828716  4846 net.cpp:434] mbox_loc <- conv17_2_mbox_loc_flat
I1018 15:42:57.828722  4846 net.cpp:408] mbox_loc -> mbox_loc
I1018 15:42:57.828757  4846 net.cpp:150] Setting up mbox_loc
I1018 15:42:57.828763  4846 net.cpp:157] Top shape: 1 12168 (12168)
I1018 15:42:57.828765  4846 net.cpp:165] Memory required for data: 271133744
I1018 15:42:57.828769  4846 layer_factory.hpp:77] Creating layer mbox_conf
I1018 15:42:57.828776  4846 net.cpp:100] Creating Layer mbox_conf
I1018 15:42:57.828779  4846 net.cpp:434] mbox_conf <- conv11_mbox_conf_flat
I1018 15:42:57.828783  4846 net.cpp:434] mbox_conf <- conv13_mbox_conf_flat
I1018 15:42:57.828788  4846 net.cpp:434] mbox_conf <- conv14_2_mbox_conf_flat
I1018 15:42:57.828790  4846 net.cpp:434] mbox_conf <- conv15_2_mbox_conf_flat
I1018 15:42:57.828794  4846 net.cpp:434] mbox_conf <- conv16_2_mbox_conf_flat
I1018 15:42:57.828797  4846 net.cpp:434] mbox_conf <- conv17_2_mbox_conf_flat
I1018 15:42:57.828804  4846 net.cpp:408] mbox_conf -> mbox_conf
I1018 15:42:57.828835  4846 net.cpp:150] Setting up mbox_conf
I1018 15:42:57.828840  4846 net.cpp:157] Top shape: 1 18252 (18252)
I1018 15:42:57.828842  4846 net.cpp:165] Memory required for data: 271206752
I1018 15:42:57.828845  4846 layer_factory.hpp:77] Creating layer mbox_priorbox
I1018 15:42:57.828850  4846 net.cpp:100] Creating Layer mbox_priorbox
I1018 15:42:57.828853  4846 net.cpp:434] mbox_priorbox <- conv11_mbox_priorbox
I1018 15:42:57.828856  4846 net.cpp:434] mbox_priorbox <- conv13_mbox_priorbox
I1018 15:42:57.828860  4846 net.cpp:434] mbox_priorbox <- conv14_2_mbox_priorbox
I1018 15:42:57.828864  4846 net.cpp:434] mbox_priorbox <- conv15_2_mbox_priorbox
I1018 15:42:57.828867  4846 net.cpp:434] mbox_priorbox <- conv16_2_mbox_priorbox
I1018 15:42:57.828871  4846 net.cpp:434] mbox_priorbox <- conv17_2_mbox_priorbox
I1018 15:42:57.828876  4846 net.cpp:408] mbox_priorbox -> mbox_priorbox
I1018 15:42:57.828904  4846 net.cpp:150] Setting up mbox_priorbox
I1018 15:42:57.828912  4846 net.cpp:157] Top shape: 1 2 12168 (24336)
I1018 15:42:57.828913  4846 net.cpp:165] Memory required for data: 271304096
I1018 15:42:57.828917  4846 layer_factory.hpp:77] Creating layer mbox_conf_reshape
I1018 15:42:57.828923  4846 net.cpp:100] Creating Layer mbox_conf_reshape
I1018 15:42:57.828928  4846 net.cpp:434] mbox_conf_reshape <- mbox_conf
I1018 15:42:57.828933  4846 net.cpp:408] mbox_conf_reshape -> mbox_conf_reshape
I1018 15:42:57.828974  4846 net.cpp:150] Setting up mbox_conf_reshape
I1018 15:42:57.828981  4846 net.cpp:157] Top shape: 1 3042 6 (18252)
I1018 15:42:57.828984  4846 net.cpp:165] Memory required for data: 271377104
I1018 15:42:57.828986  4846 layer_factory.hpp:77] Creating layer mbox_conf_softmax
I1018 15:42:57.828994  4846 net.cpp:100] Creating Layer mbox_conf_softmax
I1018 15:42:57.828996  4846 net.cpp:434] mbox_conf_softmax <- mbox_conf_reshape
I1018 15:42:57.829001  4846 net.cpp:408] mbox_conf_softmax -> mbox_conf_softmax
I1018 15:42:57.829506  4846 net.cpp:150] Setting up mbox_conf_softmax
I1018 15:42:57.829517  4846 net.cpp:157] Top shape: 1 3042 6 (18252)
I1018 15:42:57.829530  4846 net.cpp:165] Memory required for data: 271450112
I1018 15:42:57.829535  4846 layer_factory.hpp:77] Creating layer mbox_conf_flatten
I1018 15:42:57.829540  4846 net.cpp:100] Creating Layer mbox_conf_flatten
I1018 15:42:57.829545  4846 net.cpp:434] mbox_conf_flatten <- mbox_conf_softmax
I1018 15:42:57.829550  4846 net.cpp:408] mbox_conf_flatten -> mbox_conf_flatten
I1018 15:42:57.829584  4846 net.cpp:150] Setting up mbox_conf_flatten
I1018 15:42:57.829591  4846 net.cpp:157] Top shape: 1 18252 (18252)
I1018 15:42:57.829596  4846 net.cpp:165] Memory required for data: 271523120
I1018 15:42:57.829599  4846 layer_factory.hpp:77] Creating layer detection_out
I1018 15:42:57.829614  4846 net.cpp:100] Creating Layer detection_out
I1018 15:42:57.829618  4846 net.cpp:434] detection_out <- mbox_loc
I1018 15:42:57.829622  4846 net.cpp:434] detection_out <- mbox_conf_flatten
I1018 15:42:57.829627  4846 net.cpp:434] detection_out <- mbox_priorbox
I1018 15:42:57.829632  4846 net.cpp:408] detection_out -> detection_out
I1018 15:42:57.829712  4846 net.cpp:150] Setting up detection_out
I1018 15:42:57.829718  4846 net.cpp:157] Top shape: 1 1 1 7 (7)
I1018 15:42:57.829720  4846 net.cpp:165] Memory required for data: 271523148
I1018 15:42:57.829723  4846 layer_factory.hpp:77] Creating layer detection_eval
I1018 15:42:57.829732  4846 net.cpp:100] Creating Layer detection_eval
I1018 15:42:57.829736  4846 net.cpp:434] detection_eval <- detection_out
I1018 15:42:57.829740  4846 net.cpp:434] detection_eval <- label
I1018 15:42:57.829744  4846 net.cpp:408] detection_eval -> detection_eval
I1018 15:42:57.829799  4846 net.cpp:150] Setting up detection_eval
I1018 15:42:57.829807  4846 net.cpp:157] Top shape: 1 1 6 5 (30)
I1018 15:42:57.829810  4846 net.cpp:165] Memory required for data: 271523268
I1018 15:42:57.829814  4846 net.cpp:228] detection_eval does not need backward computation.
I1018 15:42:57.829818  4846 net.cpp:228] detection_out does not need backward computation.
I1018 15:42:57.829821  4846 net.cpp:228] mbox_conf_flatten does not need backward computation.
I1018 15:42:57.829824  4846 net.cpp:228] mbox_conf_softmax does not need backward computation.
…
