…
state {
  phase: TRAIN
}
layer {
  name: "data"
  type: "AnnotatedDataWithSeg"
  top: "data"
  top: "label"
  top: "label_seg"
  include {
    phase: TRAIN
  }
  transform_param {
    scale: 0.007843
    mean_value: 127.5
    mean_value: 127.5
    mean_value: 127.5
    resize_param {
      prob: 1
      resize_mode: WARP
      height: 320
      width: 480
      interp_mode: LINEAR
    }
  }
  data_param {
    source: "lmdb/seg_trainval_lmdb/"
    batch_size: 4
    backend: LMDB
  }
  annotated_data_param {
    label_map_file: "labelmap.prototxt"
  }
}
layer {
  name: "conv0"
  type: "Convolution"
  bottom: "data"
  top: "conv0"
  param {
    lr_mult: 0.1
    decay_mult: 0.1
  }
  convolution_param {
    num_output: 32
    bias_term: false
    pad: 1
    kernel_size: 3
    stride: 2
    weight_filler {
      type: "msra"
    }
  }
}
layer {
  name: "conv0/bn"
  type: "BatchNorm"
  bottom: "conv0"
  top: "conv0"
}
layer {
  name: "conv0/scale"
  type: "Scale"
  bottom: "conv0"
  top: "conv0"
  param {
    lr_mult: 0.1
    decay_mult: 0
  }
  param {
    lr_mult: 0.2
    decay_mult: 0
  }
  scale_param {
    filler {
      value: 1
    }
    bias_term: true
    bias_filler {
      value: 0
    }
  }
}
layer {
  name: "conv0/relu"
  type: "ReLU"
  bottom: "conv0"
  top: "conv0"
}
layer {
  name: "conv1/dw"
  type: "Convolution"
  bottom: "conv0"
  top: "conv1/dw"
  param {
    lr_mult: 0.1
    decay_mult: 0.1
  }
  convolution_param {
    num_output: 32
    bias_term: false
    pad: 1
    kernel_size: 3
    group: 32
    weight_filler {
      type: "msra"
    }
    engine: CAFFE
  }
}
layer {
  name: "conv1/dw/bn"
  type: "BatchNorm"
  bottom: "conv1/dw"
  top: "conv1/dw"
}
layer {
  name: "conv1/dw/scale"
  type: "Scale"
  bottom: "conv1/dw"
  top: "conv1/dw"
  param {
    lr_mult: 0.1
    decay_mult: 0
  }
  param {
    lr_mult: 0.2
    decay_mult: 0
  }
  scale_param {
    filler {
      value: 1
    }
    bias_term: true
    bias_filler {
      value: 0
    }
  }
}
layer {
  name: "conv1/dw/relu"
  type: "ReLU"
  bottom: "conv1/dw"
  top: "conv1/dw"
}
layer {
  name: "conv1"
  type: "Convolution"
  bottom: "conv1/dw"
  top: "conv1"
  param {
    lr_mult: 0.1
    decay_mult: 0.1
  }
  convolution_param {
    num_output: 64
    bias_term: false
    kernel_size: 1
    weight_filler {
      type: "msra"
    }
  }
}
layer {
  name: "conv1/bn"
  type: "BatchNorm"
  bottom: "conv1"
  top: "conv1"
}
layer {
  name: "conv1/scale"
  type: "Scale"
  bottom: "conv1"
  top: "conv1"
  param {
    lr_mult: 0.1
    decay_mult: 0
  }
  param {
    lr_mult: 0.2
    decay_mult: 0
  }
  scale_param {
    filler {
      value: 1
    }
    bias_term: true
    bias_filler {
      value: 0
    }
  }
}
layer {
  name: "conv1/relu"
  type: "ReLU"
  bottom: "conv1"
  top: "conv1"
}
layer {
  name: "conv2/dw"
  type: "Convolution"
  bottom: "conv1"
  top: "conv2/dw"
  param {
    lr_mult: 0.1
    decay_mult: 0.1
  }
  convolution_param {
    num_output: 64
    bias_term: false
    pad: 1
    kernel_size: 3
    group: 64
    stride: 2
    weight_filler {
      type: "msra"
    }
    engine: CAFFE
  }
}
layer {
  name: "conv2/dw/bn"
  type: "BatchNorm"
  bottom: "conv2/dw"
  top: "conv2/dw"
}
layer {
  name: "conv2/dw/scale"
  type: "Scale"
  bottom: "conv2/dw"
  top: "conv2/dw"
  param {
    lr_mult: 0.1
    decay_mult: 0
  }
  param {
    lr_mult: 0.2
    decay_mult: 0
  }
  scale_param {
    filler {
      value: 1
    }
    bias_term: true
    bias_filler {
      value: 0
    }
  }
}
layer {
  name: "conv2/dw/relu"
  type: "ReLU"
  bottom: "conv2/dw"
  top: "conv2/dw"
}
layer {
  name: "conv2"
  type: "Convolution"
  bottom: "conv2/dw"
  top: "conv2"
  param {
    lr_mult: 0.1
    decay_mult: 0.1
  }
  convolution_param {
    num_output: 128
    bias_term: false
    kernel_size: 1
    weight_filler {
      type: "msra"
    }
  }
}
layer {
  name: "conv2/bn"
  type: "BatchNorm"
  bottom: "conv2"
  top: "conv2"
}
layer {
  name: "conv2/scale"
  type: "Scale"
  bottom: "conv2"
  top: "conv2"
  param {
    lr_mult: 0.1
    decay_mult: 0
  }
  param {
    lr_mult: 0.2
    decay_mult: 0
  }
  scale_param {
    filler {
      value: 1
    }
    bias_term: true
    bias_filler {
      value: 0
    }
  }
}
layer {
  name: "conv2/relu"
  type: "ReLU"
  bottom: "conv2"
  top: "conv2"
}
layer {
  name: "conv3/dw"
  type: "Convolution"
  bottom: "conv2"
  top: "conv3/dw"
  param {
    lr_mult: 0.1
    decay_mult: 0.1
  }
  convolution_param {
    num_output: 128
    bias_term: false
    pad: 1
    kernel_size: 3
    group: 128
    weight_filler {
      type: "msra"
    }
    engine: CAFFE
  }
}
layer {
  name: "conv3/dw/bn"
  type: "BatchNorm"
  bottom: "conv3/dw"
  top: "conv3/dw"
}
layer {
  name: "conv3/dw/scale"
  type: "Scale"
  bottom: "conv3/dw"
  top: "conv3/dw"
  param {
    lr_mult: 0.1
    decay_mult: 0
  }
  param {
    lr_mult: 0.2
    decay_mult: 0
  }
  scale_param {
    filler {
      value: 1
    }
    bias_term: true
    bias_filler {
      value: 0
    }
  }
}
layer {
  name: "conv3/dw/relu"
  type: "ReLU"
  bottom: "conv3/dw"
  top: "conv3/dw"
}
layer {
  name: "conv3"
  type: "Convolution"
  bottom: "conv3/dw"
  top: "conv3"
  param {
    lr_mult: 0.1
    decay_mult: 0.1
  }
  convolution_param {
    num_output: 128
    bias_term: false
    kernel_size: 1
    weight_filler {
      type: "msra"
    }
  }
}
layer {
  name: "conv3/bn"
  type: "BatchNorm"
  bottom: "conv3"
  top: "conv3"
}
layer {
  name: "conv3/scale"
  type: "Scale"
  bottom: "conv3"
  top: "conv3"
  param {
    lr_mult: 0.1
    decay_mult: 0
  }
  param {
    lr_mult: 0.2
    decay_mult: 0
  }
  scale_param {
    filler {
      value: 1
    }
    bias_term: true
    bias_filler {
      value: 0
    }
  }
}
layer {
  name: "conv3/relu"
  type: "ReLU"
  bottom: "conv3"
  top: "conv3"
}
layer {
  name: "conv4/dw"
  type: "Convolution"
  bottom: "conv3"
  top: "conv4/dw"
  param {
    lr_mult: 0.1
    decay_mult: 0.1
  }
  convolution_param {
    num_output: 128
    bias_term: false
    pad: 1
    kernel_size: 3
    group: 128
    stride: 2
    weight_filler {
      type: "msra"
    }
    engine: CAFFE
  }
}
layer {
  name: "conv4/dw/bn"
  type: "BatchNorm"
  bottom: "conv4/dw"
  top: "conv4/dw"
}
layer {
  name: "conv4/dw/scale"
  type: "Scale"
  bottom: "conv4/dw"
  top: "conv4/dw"
  param {
    lr_mult: 0.1
    decay_mult: 0
  }
  param {
    lr_mult: 0.2
    decay_mult: 0
  }
  scale_param {
    filler {
      value: 1
    }
    bias_term: true
    bias_filler {
      value: 0
    }
  }
}
layer {
  name: "conv4/dw/relu"
  type: "ReLU"
  bottom: "conv4/dw"
  top: "conv4/dw"
}
layer {
  name: "conv4"
  type: "Convolution"
  bottom: "conv4/dw"
  top: "conv4"
  param {
    lr_mult: 0.1
    decay_mult: 0.1
  }
  convolution_param {
    num_output: 256
    bias_term: false
    kernel_size: 1
    weight_filler {
      type: "msra"
    }
  }
}
layer {
  name: "conv4/bn"
  type: "BatchNorm"
  bottom: "conv4"
  top: "conv4"
}
layer {
  name: "conv4/scale"
  type: "Scale"
  bottom: "conv4"
  top: "conv4"
  param {
    lr_mult: 0.1
    decay_mult: 0
  }
  param {
    lr_mult: 0.2
    decay_mult: 0
  }
  scale_param {
    filler {
      value: 1
    }
    bias_term: true
    bias_filler {
      value: 0
    }
  }
}
layer {
  name: "conv4/relu"
  type: "ReLU"
  bottom: "conv4"
  top: "conv4"
}
layer {
  name: "conv5/dw"
  type: "Convolution"
  bottom: "conv4"
  top: "conv5/dw"
  param {
    lr_mult: 0.1
    decay_mult: 0.1
  }
  convolution_param {
    num_output: 256
    bias_term: false
    pad: 1
    kernel_size: 3
    group: 256
    weight_filler {
      type: "msra"
    }
    engine: CAFFE
  }
}
layer {
  name: "conv5/dw/bn"
  type: "BatchNorm"
  bottom: "conv5/dw"
  top: "conv5/dw"
}
layer {
  name: "conv5/dw/scale"
  type: "Scale"
  bottom: "conv5/dw"
  top: "conv5/dw"
  param {
    lr_mult: 0.1
    decay_mult: 0
  }
  param {
    lr_mult: 0.2
    decay_mult: 0
  }
  scale_param {
    filler {
      value: 1
    }
    bias_term: true
    bias_filler {
      value: 0
    }
  }
}
layer {
  name: "conv5/dw/relu"
  type: "ReLU"
  bottom: "conv5/dw"
  top: "conv5/dw"
}
layer {
  name: "conv5"
  type: "Convolution"
  bottom: "conv5/dw"
  top: "conv5"
  param {
    lr_mult: 0.1
    decay_mult: 0.1
  }
  convolution_param {
    num_output: 256
    bias_term: false
    kernel_size: 1
    weight_filler {
      type: "msra"
    }
  }
}
layer {
  name: "conv5/bn"
  type: "BatchNorm"
  bottom: "conv5"
  top: "conv5"
}
layer {
  name: "conv5/scale"
  type: "Scale"
  bottom: "conv5"
  top: "conv5"
  param {
    lr_mult: 0.1
    decay_mult: 0
  }
  param {
    lr_mult: 0.2
    decay_mult: 0
  }
  scale_param {
    filler {
      value: 1
    }
    bias_term: true
    bias_filler {
      value: 0
    }
  }
}
layer {
  name: "conv5/relu"
  type: "ReLU"
  bottom: "conv5"
  top: "conv5"
}
layer {
  name: "conv6/dw"
  type: "Convolution"
  bottom: "conv5"
  top: "conv6/dw"
  param {
    lr_mult: 0.1
    decay_mult: 0.1
  }
  convolution_param {
    num_output: 256
    bias_term: false
    pad: 1
    kernel_size: 3
    group: 256
    stride: 2
    weight_filler {
      type: "msra"
    }
    engine: CAFFE
  }
}
layer {
  name: "conv6/dw/bn"
  type: "BatchNorm"
  bottom: "conv6/dw"
  top: "conv6/dw"
}
layer {
  name: "conv6/dw/scale"
  type: "Scale"
  bottom: "conv6/dw"
  top: "conv6/dw"
  param {
    lr_mult: 0.1
    decay_mult: 0
  }
  param {
    lr_mult: 0.2
    decay_mult: 0
  }
  scale_param {
    filler {
      value: 1
    }
    bias_term: true
    bias_filler {
      value: 0
    }
  }
}
layer {
  name: "conv6/dw/relu"
  type: "ReLU"
  bottom: "conv6/dw"
  top: "conv6/dw"
}
layer {
  name: "conv6"
  type: "Convolution"
  bottom: "conv6/dw"
  top: "conv6"
  param {
    lr_mult: 0.1
    decay_mult: 0.1
  }
  convolution_param {
    num_output: 512
    bias_term: false
    kernel_size: 1
    weight_filler {
      type: "msra"
    }
  }
}
layer {
  name: "conv6/bn"
  type: "BatchNorm"
  bottom: "conv6"
  top: "conv6"
}
layer {
  name: "conv6/scale"
  type: "Scale"
  bottom: "conv6"
  top: "conv6"
  param {
    lr_mult: 0.1
    decay_mult: 0
  }
  param {
    lr_mult: 0.2
    decay_mult: 0
  }
  scale_param {
    filler {
      value: 1
    }
    bias_term: true
    bias_filler {
      value: 0
    }
  }
}
layer {
  name: "conv6/relu"
  type: "ReLU"
  bottom: "conv6"
  top: "conv6"
}
layer {
  name: "conv7/dw"
  type: "Convolution"
  bottom: "conv6"
  top: "conv7/dw"
  param {
    lr_mult: 0.1
    decay_mult: 0.1
  }
  convolution_param {
    num_output: 512
    bias_term: false
    pad: 1
    kernel_size: 3
    group: 512
    weight_filler {
      type: "msra"
    }
    engine: CAFFE
  }
}
layer {
  name: "conv7/dw/bn"
  type: "BatchNorm"
  bottom: "conv7/dw"
  top: "conv7/dw"
}
layer {
  name: "conv7/dw/scale"
  type: "Scale"
  bottom: "conv7/dw"
  top: "conv7/dw"
  param {
    lr_mult: 0.1
    decay_mult: 0
  }
  param {
    lr_mult: 0.2
    decay_mult: 0
  }
  scale_param {
    filler {
      value: 1
    }
    bias_term: true
    bias_filler {
      value: 0
    }
  }
}
layer {
  name: "conv7/dw/relu"
  type: "ReLU"
  bottom: "conv7/dw"
  top: "conv7/dw"
}
layer {
  name: "conv7"
  type: "Convolution"
  bottom: "conv7/dw"
  top: "conv7"
  param {
    lr_mult: 0.1
    decay_mult: 0.1
  }
  convolution_param {
    num_output: 512
    bias_term: false
    kernel_size: 1
    weight_filler {
      type: "msra"
    }
  }
}
layer {
  name: "conv7/bn"
  type: "BatchNorm"
  bottom: "conv7"
  top: "conv7"
}
layer {
  name: "conv7/scale"
  type: "Scale"
  bottom: "conv7"
  top: "conv7"
  param {
    lr_mult: 0.1
    decay_mult: 0
  }
  param {
    lr_mult: 0.2
    decay_mult: 0
  }
  scale_param {
    filler {
      value: 1
    }
    bias_term: true
    bias_filler {
      value: 0
    }
  }
}
layer {
  name: "conv7/relu"
  type: "ReLU"
  bottom: "conv7"
  top: "conv7"
}
layer {
  name: "conv8/dw"
  type: "Convolution"
  bottom: "conv7"
  top: "conv8/dw"
  param {
    lr_mult: 0.1
    decay_mult: 0.1
  }
  convolution_param {
    num_output: 512
    bias_term: false
    pad: 1
    kernel_size: 3
    group: 512
    weight_filler {
      type: "msra"
    }
    engine: CAFFE
  }
}
layer {
  name: "conv8/dw/bn"
  type: "BatchNorm"
  bottom: "conv8/dw"
  top: "conv8/dw"
}
layer {
  name: "conv8/dw/scale"
  type: "Scale"
  bottom: "conv8/dw"
  top: "conv8/dw"
  param {
    lr_mult: 0.1
    decay_mult: 0
  }
  param {
    lr_mult: 0.2
    decay_mult: 0
  }
  scale_param {
    filler {
      value: 1
    }
    bias_term: true
    bias_filler {
      value: 0
    }
  }
}
layer {
  name: "conv8/dw/relu"
  type: "ReLU"
  bottom: "conv8/dw"
  top: "conv8/dw"
}
layer {
  name: "conv8"
  type: "Convolution"
  bottom: "conv8/dw"
  top: "conv8"
  param {
    lr_mult: 0.1
    decay_mult: 0.1
  }
  convolution_param {
    num_output: 512
    bias_term: false
    kernel_size: 1
    weight_filler {
      type: "msra"
    }
  }
}
layer {
  name: "conv8/bn"
  type: "BatchNorm"
  bottom: "conv8"
  top: "conv8"
}
layer {
  name: "conv8/scale"
  type: "Scale"
  bottom: "conv8"
  top: "conv8"
  param {
    lr_mult: 0.1
    decay_mult: 0
  }
  param {
    lr_mult: 0.2
    decay_mult: 0
  }
  scale_param {
    filler {
      value: 1
    }
    bias_term: true
    bias_filler {
      value: 0
    }
  }
}
layer {
  name: "conv8/relu"
  type: "ReLU"
  bottom: "conv8"
  top: "conv8"
}
layer {
  name: "conv9/dw"
  type: "Convolution"
  bottom: "conv8"
  top: "conv9/dw"
  param {
    lr_mult: 0.1
    decay_mult: 0.1
  }
  convolution_param {
    num_output: 512
    bias_term: false
    pad: 1
    kernel_size: 3
    group: 512
    weight_filler {
      type: "msra"
    }
    engine: CAFFE
  }
}
layer {
  name: "conv9/dw/bn"
  type: "BatchNorm"
  bottom: "conv9/dw"
  top: "conv9/dw"
}
layer {
  name: "conv9/dw/scale"
  type: "Scale"
  bottom: "conv9/dw"
  top: "conv9/dw"
  param {
    lr_mult: 0.1
    decay_mult: 0
  }
  param {
    lr_mult: 0.2
    decay_mult: 0
  }
  scale_param {
    filler {
      value: 1
    }
    bias_term: true
    bias_filler {
      value: 0
    }
  }
}
layer {
  name: "conv9/dw/relu"
  type: "ReLU"
  bottom: "conv9/dw"
  top: "conv9/dw"
}
layer {
  name: "conv9"
  type: "Convolution"
  bottom: "conv9/dw"
  top: "conv9"
  param {
    lr_mult: 0.1
    decay_mult: 0.1
  }
  convolution_param {
    num_output: 512
    bias_term: false
    kernel_size: 1
    weight_filler {
      type: "msra"
    }
  }
}
layer {
  name: "conv9/bn"
  type: "BatchNorm"
  bottom: "conv9"
  top: "conv9"
}
layer {
  name: "conv9/scale"
  type: "Scale"
  bottom: "conv9"
  top: "conv9"
  param {
    lr_mult: 0.1
    decay_mult: 0
  }
  param {
    lr_mult: 0.2
    decay_mult: 0
  }
  scale_param {
    filler {
      value: 1
    }
    bias_term: true
    bias_filler {
      value: 0
    }
  }
}
layer {
  name: "conv9/relu"
  type: "ReLU"
  bottom: "conv9"
  top: "conv9"
}
layer {
  name: "conv10/dw"
  type: "Convolution"
  bottom: "conv9"
  top: "conv10/dw"
  param {
    lr_mult: 0.1
    decay_mult: 0.1
  }
  convolution_param {
    num_output: 512
    bias_term: false
    pad: 1
    kernel_size: 3
    group: 512
    weight_filler {
      type: "msra"
    }
    engine: CAFFE
  }
}
layer {
  name: "conv10/dw/bn"
  type: "BatchNorm"
  bottom: "conv10/dw"
  top: "conv10/dw"
}
layer {
  name: "conv10/dw/scale"
  type: "Scale"
  bottom: "conv10/dw"
  top: "conv10/dw"
  param {
    lr_mult: 0.1
    decay_mult: 0
  }
  param {
    lr_mult: 0.2
    decay_mult: 0
  }
  scale_param {
    filler {
      value: 1
    }
    bias_term: true
    bias_filler {
      value: 0
    }
  }
}
layer {
  name: "conv10/dw/relu"
  type: "ReLU"
  bottom: "conv10/dw"
  top: "conv10/dw"
}
layer {
  name: "conv10"
  type: "Convolution"
  bottom: "conv10/dw"
  top: "conv10"
  param {
    lr_mult: 0.1
    decay_mult: 0.1
  }
  convolution_param {
    num_output: 512
    bias_term: false
    kernel_size: 1
    weight_filler {
      type: "msra"
    }
  }
}
layer {
  name: "conv10/bn"
  type: "BatchNorm"
  bottom: "conv10"
  top: "conv10"
}
layer {
  name: "conv10/scale"
  type: "Scale"
  bottom: "conv10"
  top: "conv10"
  param {
    lr_mult: 0.1
    decay_mult: 0
  }
  param {
    lr_mult: 0.2
    decay_mult: 0
  }
  scale_param {
    filler {
      value: 1
    }
    bias_term: true
    bias_filler {
      value: 0
    }
  }
}
layer {
  name: "conv10/relu"
  type: "ReLU"
  bottom: "conv10"
  top: "conv10"
}
layer {
  name: "conv11/dw"
  type: "Convolution"
  bottom: "conv10"
  top: "conv11/dw"
  param {
    lr_mult: 0.1
    decay_mult: 0.1
  }
  convolution_param {
    num_output: 512
    bias_term: false
    pad: 1
    kernel_size: 3
    group: 512
    weight_filler {
      type: "msra"
    }
    engine: CAFFE
  }
}
layer {
  name: "conv11/dw/bn"
  type: "BatchNorm"
  bottom: "conv11/dw"
  top: "conv11/dw"
}
layer {
  name: "conv11/dw/scale"
  type: "Scale"
  bottom: "conv11/dw"
  top: "conv11/dw"
  param {
    lr_mult: 0.1
    decay_mult: 0
  }
  param {
    lr_mult: 0.2
    decay_mult: 0
  }
  scale_param {
    filler {
      value: 1
    }
    bias_term: true
    bias_filler {
      value: 0
    }
  }
}
layer {
  name: "conv11/dw/relu"
  type: "ReLU"
  bottom: "conv11/dw"
  top: "conv11/dw"
}
layer {
  name: "conv11"
  type: "Convolution"
  bottom: "conv11/dw"
  top: "conv11"
  param {
    lr_mult: 0.1
    decay_mult: 0.1
  }
  convolution_param {
    num_output: 512
    bias_term: false
    kernel_size: 1
    weight_filler {
      type: "msra"
    }
  }
}
layer {
  name: "conv11/bn"
  type: "BatchNorm"
  bottom: "conv11"
  top: "conv11"
}
layer {
  name: "conv11/scale"
  type: "Scale"
  bottom: "conv11"
  top: "conv11"
  param {
    lr_mult: 0.1
    decay_mult: 0
  }
  param {
    lr_mult: 0.2
    decay_mult: 0
  }
  scale_param {
    filler {
      value: 1
    }
    bias_term: true
    bias_filler {
      value: 0
    }
  }
}
layer {
  name: "conv11/relu"
  type: "ReLU"
  bottom: "conv11"
  top: "conv11"
}
layer {
  name: "conv12/dw"
  type: "Convolution"
  bottom: "conv11"
  top: "conv12/dw"
  param {
    lr_mult: 0.1
    decay_mult: 0.1
  }
  convolution_param {
    num_output: 512
    bias_term: false
    pad: 1
    kernel_size: 3
    group: 512
    stride: 2
    weight_filler {
      type: "msra"
    }
    engine: CAFFE
  }
}
layer {
  name: "conv12/dw/bn"
  type: "BatchNorm"
  bottom: "conv12/dw"
  top: "conv12/dw"
}
layer {
  name: "conv12/dw/scale"
  type: "Scale"
  bottom: "conv12/dw"
  top: "conv12/dw"
  param {
    lr_mult: 0.1
    decay_mult: 0
  }
  param {
    lr_mult: 0.2
    decay_mult: 0
  }
  scale_param {
    filler {
      value: 1
    }
    bias_term: true
    bias_filler {
      value: 0
    }
  }
}
layer {
  name: "conv12/dw/relu"
  type: "ReLU"
  bottom: "conv12/dw"
  top: "conv12/dw"
}
layer {
  name: "conv12"
  type: "Convolution"
  bottom: "conv12/dw"
  top: "conv12"
  param {
    lr_mult: 0.1
    decay_mult: 0.1
  }
  convolution_param {
    num_output: 1024
    bias_term: false
    kernel_size: 1
    weight_filler {
      type: "msra"
    }
  }
}
layer {
  name: "conv12/bn"
  type: "BatchNorm"
  bottom: "conv12"
  top: "conv12"
}
layer {
  name: "conv12/scale"
  type: "Scale"
  bottom: "conv12"
  top: "conv12"
  param {
    lr_mult: 0.1
    decay_mult: 0
  }
  param {
    lr_mult: 0.2
    decay_mult: 0
  }
  scale_param {
    filler {
      value: 1
    }
    bias_term: true
    bias_filler {
      value: 0
    }
  }
}
layer {
  name: "conv12/relu"
  type: "ReLU"
  bottom: "conv12"
  top: "conv12"
}
layer {
  name: "conv13/dw"
  type: "Convolution"
  bottom: "conv12"
  top: "conv13/dw"
  param {
    lr_mult: 0.1
    decay_mult: 0.1
  }
  convolution_param {
    num_output: 1024
    bias_term: false
    pad: 1
    kernel_size: 3
    group: 1024
    weight_filler {
      type: "msra"
    }
    engine: CAFFE
  }
}
layer {
  name: "conv13/dw/bn"
  type: "BatchNorm"
  bottom: "conv13/dw"
  top: "conv13/dw"
}
layer {
  name: "conv13/dw/scale"
  type: "Scale"
  bottom: "conv13/dw"
  top: "conv13/dw"
  param {
    lr_mult: 0.1
    decay_mult: 0
  }
  param {
    lr_mult: 0.2
    decay_mult: 0
  }
  scale_param {
    filler {
      value: 1
    }
    bias_term: true
    bias_filler {
      value: 0
    }
  }
}
layer {
  name: "conv13/dw/relu"
  type: "ReLU"
  bottom: "conv13/dw"
  top: "conv13/dw"
}
layer {
  name: "conv13"
  type: "Convolution"
  bottom: "conv13/dw"
  top: "conv13"
  param {
    lr_mult: 0.1
    decay_mult: 0.1
  }
  convolution_param {
    num_output: 1024
    bias_term: false
    kernel_size: 1
    weight_filler {
      type: "msra"
    }
  }
}
layer {
  name: "conv13/bn"
  type: "BatchNorm"
  bottom: "conv13"
  top: "conv13"
}
layer {
  name: "conv13/scale"
  type: "Scale"
  bottom: "conv13"
  top: "conv13"
  param {
    lr_mult: 0.1
    decay_mult: 0
  }
  param {
    lr_mult: 0.2
    decay_mult: 0
  }
  scale_param {
    filler {
      value: 1
    }
    bias_term: true
    bias_filler {
      value: 0
    }
  }
}
layer {
  name: "conv13/relu"
  type: "ReLU"
  bottom: "conv13"
  top: "conv13"
}
layer {
  name: "conv14_1"
  type: "Convolution"
  bottom: "conv13"
  top: "conv14_1"
  param {
    lr_mult: 0.1
    decay_mult: 0.1
  }
  convolution_param {
    num_output: 256
    bias_term: false
    kernel_size: 1
    weight_filler {
      type: "msra"
    }
  }
}
layer {
  name: "conv14_1/bn"
  type: "BatchNorm"
  bottom: "conv14_1"
  top: "conv14_1"
}
layer {
  name: "conv14_1/scale"
  type: "Scale"
  bottom: "conv14_1"
  top: "conv14_1"
  param {
    lr_mult: 0.1
    decay_mult: 0
  }
  param {
    lr_mult: 0.2
    decay_mult: 0
  }
  scale_param {
    filler {
      value: 1
    }
    bias_term: true
    bias_filler {
      value: 0
    }
  }
}
layer {
  name: "conv14_1/relu"
  type: "ReLU"
  bottom: "conv14_1"
  top: "conv14_1"
}
layer {
  name: "conv14_2"
  type: "Convolution"
  bottom: "conv14_1"
  top: "conv14_2"
  param {
    lr_mult: 0.1
    decay_mult: 0.1
  }
  convolution_param {
    num_output: 512
    bias_term: false
    pad: 1
    kernel_size: 3
    stride: 2
    weight_filler {
      type: "msra"
    }
  }
}
layer {
  name: "conv14_2/bn"
  type: "BatchNorm"
  bottom: "conv14_2"
  top: "conv14_2"
}
layer {
  name: "conv14_2/scale"
  type: "Scale"
  bottom: "conv14_2"
  top: "conv14_2"
  param {
    lr_mult: 0.1
    decay_mult: 0
  }
  param {
    lr_mult: 0.2
    decay_mult: 0
  }
  scale_param {
    filler {
      value: 1
    }
    bias_term: true
    bias_filler {
      value: 0
    }
  }
}
layer {
  name: "conv14_2/relu"
  type: "ReLU"
  bottom: "conv14_2"
  top: "conv14_2"
}
layer {
  name: "conv15_1"
  type: "Convolution"
  bottom: "conv14_2"
  top: "conv15_1"
  param {
    lr_mult: 0.1
    decay_mult: 0.1
  }
  convolution_param {
    num_output: 128
    bias_term: false
    kernel_size: 1
    weight_filler {
      type: "msra"
    }
  }
}
layer {
  name: "conv15_1/bn"
  type: "BatchNorm"
  bottom: "conv15_1"
  top: "conv15_1"
}
layer {
  name: "conv15_1/scale"
  type: "Scale"
  bottom: "conv15_1"
  top: "conv15_1"
  param {
    lr_mult: 0.1
    decay_mult: 0
  }
  param {
    lr_mult: 0.2
    decay_mult: 0
  }
  scale_param {
    filler {
      value: 1
    }
    bias_term: true
    bias_filler {
      value: 0
    }
  }
}
layer {
  name: "conv15_1/relu"
  type: "ReLU"
  bottom: "conv15_1"
  top: "conv15_1"
}
layer {
  name: "conv15_2"
  type: "Convolution"
  bottom: "conv15_1"
  top: "conv15_2"
  param {
    lr_mult: 0.1
    decay_mult: 0.1
  }
  convolution_param {
    num_output: 256
    bias_term: false
    pad: 1
    kernel_size: 3
    stride: 2
    weight_filler {
      type: "msra"
    }
  }
}
layer {
  name: "conv15_2/bn"
  type: "BatchNorm"
  bottom: "conv15_2"
  top: "conv15_2"
}
layer {
  name: "conv15_2/scale"
  type: "Scale"
  bottom: "conv15_2"
  top: "conv15_2"
  param {
    lr_mult: 0.1
    decay_mult: 0
  }
  param {
    lr_mult: 0.2
    decay_mult: 0
  }
  scale_param {
    filler {
      value: 1
    }
    bias_term: true
    bias_filler {
      value: 0
    }
  }
}
layer {
  name: "conv15_2/relu"
  type: "ReLU"
  bottom: "conv15_2"
  top: "conv15_2"
}
layer {
  name: "conv16_1"
  type: "Convolution"
  bottom: "conv15_2"
  top: "conv16_1"
  param {
    lr_mult: 0.1
    decay_mult: 0.1
  }
  convolution_param {
    num_output: 128
    bias_term: false
    kernel_size: 1
    weight_filler {
      type: "msra"
    }
  }
}
layer {
  name: "conv16_1/bn"
  type: "BatchNorm"
  bottom: "conv16_1"
  top: "conv16_1"
}
layer {
  name: "conv16_1/scale"
  type: "Scale"
  bottom: "conv16_1"
  top: "conv16_1"
  param {
    lr_mult: 0.1
    decay_mult: 0
  }
  param {
    lr_mult: 0.2
    decay_mult: 0
  }
  scale_param {
    filler {
      value: 1
    }
    bias_term: true
    bias_filler {
      value: 0
    }
  }
}
layer {
  name: "conv16_1/relu"
  type: "ReLU"
  bottom: "conv16_1"
  top: "conv16_1"
}
layer {
  name: "conv16_2"
  type: "Convolution"
  bottom: "conv16_1"
  top: "conv16_2"
  param {
    lr_mult: 0.1
    decay_mult: 0.1
  }
  convolution_param {
    num_output: 256
    bias_term: false
    pad: 1
    kernel_size: 3
    stride: 2
    weight_filler {
      type: "msra"
    }
  }
}
layer {
  name: "conv16_2/bn"
  type: "BatchNorm"
  bottom: "conv16_2"
  top: "conv16_2"
}
layer {
  name: "conv16_2/scale"
  type: "Scale"
  bottom: "conv16_2"
  top: "conv16_2"
  param {
    lr_mult: 0.1
    decay_mult: 0
  }
  param {
    lr_mult: 0.2
    decay_mult: 0
  }
  scale_param {
    filler {
      value: 1
    }
    bias_term: true
    bias_filler {
      value: 0
    }
  }
}
layer {
  name: "conv16_2/relu"
  type: "ReLU"
  bottom: "conv16_2"
  top: "conv16_2"
}
layer {
  name: "conv17_1"
  type: "Convolution"
  bottom: "conv16_2"
  top: "conv17_1"
  param {
    lr_mult: 0.1
    decay_mult: 0.1
  }
  convolution_param {
    num_output: 64
    bias_term: false
    kernel_size: 1
    weight_filler {
      type: "msra"
    }
  }
}
layer {
  name: "conv17_1/bn"
  type: "BatchNorm"
  bottom: "conv17_1"
  top: "conv17_1"
}
layer {
  name: "conv17_1/scale"
  type: "Scale"
  bottom: "conv17_1"
  top: "conv17_1"
  param {
    lr_mult: 0.1
    decay_mult: 0
  }
  param {
    lr_mult: 0.2
    decay_mult: 0
  }
  scale_param {
    filler {
      value: 1
    }
    bias_term: true
    bias_filler {
      value: 0
    }
  }
}
layer {
  name: "conv17_1/relu"
  type: "ReLU"
  bottom: "conv17_1"
  top: "conv17_1"
}
layer {
  name: "conv17_2"
  type: "Convolution"
  bottom: "conv17_1"
  top: "conv17_2"
  param {
    lr_mult: 0.1
    decay_mult: 0.1
  }
  convolution_param {
    num_output: 128
    bias_term: false
    pad: 1
    kernel_size: 3
    stride: 2
    weight_filler {
      type: "msra"
    }
  }
}
layer {
  name: "conv17_2/bn"
  type: "BatchNorm"
  bottom: "conv17_2"
  top: "conv17_2"
}
layer {
  name: "conv17_2/scale"
  type: "Scale"
  bottom: "conv17_2"
  top: "conv17_2"
  param {
    lr_mult: 0.1
    decay_mult: 0
  }
  param {
    lr_mult: 0.2
    decay_mult: 0
  }
  scale_param {
    filler {
      value: 1
    }
    bias_term: true
    bias_filler {
      value: 0
    }
  }
}
layer {
  name: "conv17_2/relu"
  type: "ReLU"
  bottom: "conv17_2"
  top: "conv17_2"
}
layer {
  name: "conv11_mbox_loc"
  type: "Convolution"
  bottom: "conv11"
  top: "conv11_mbox_loc"
  param {
    lr_mult: 0.1
    decay_mult: 0.1
  }
  param {
    lr_mult: 0.2
    decay_mult: 0
  }
  convolution_param {
    num_output: 12
    kernel_size: 1
    weight_filler {
      type: "msra"
    }
    bias_filler {
      type: "constant"
      value: 0
    }
  }
}
layer {
  name: "conv11_mbox_loc_perm"
  type: "Permute"
  bottom: "conv11_mbox_loc"
  top: "conv11_mbox_loc_perm"
  permute_param {
    order: 0
    order: 2
    order: 3
    order: 1
  }
}
layer {
  name: "conv11_mbox_loc_flat"
  type: "Flatten"
  bottom: "conv11_mbox_loc_perm"
  top: "conv11_mbox_loc_flat"
  flatten_param {
    axis: 1
  }
}
layer {
  name: "conv11_mbox_conf_new"
  type: "Convolution"
  bottom: "conv11"
  top: "conv11_mbox_conf"
  param {
    lr_mult: 1
    decay_mult: 1
  }
  param {
    lr_mult: 2
    decay_mult: 0
  }
  convolution_param {
    num_output: 9
    kernel_size: 1
    weight_filler {
      type: "msra"
    }
    bias_filler {
      type: "constant"
      value: 0
    }
  }
}
layer {
  name: "conv11_mbox_conf_perm"
  type: "Permute"
  bottom: "conv11_mbox_conf"
  top: "conv11_mbox_conf_perm"
  permute_param {
    order: 0
    order: 2
    order: 3
    order: 1
  }
}
layer {
  name: "conv11_mbox_conf_flat"
  type: "Flatten"
  bottom: "conv11_mbox_conf_perm"
  top: "conv11_mbox_conf_flat"
  flatten_param {
    axis: 1
  }
}
layer {
  name: "conv11_mbox_priorbox"
  type: "PriorBox"
  bottom: "conv11"
  bottom: "data"
  top: "conv11_mbox_priorbox"
  prior_box_param {
    min_size: 60
    aspect_ratio: 2
    flip: true
    clip: false
    variance: 0.1
    variance: 0.1
    variance: 0.2
    variance: 0.2
    offset: 0.5
  }
}
layer {
  name: "conv13_mbox_loc"
  type: "Convolution"
  bottom: "conv13"
  top: "conv13_mbox_loc"
  param {
    lr_mult: 0.1
    decay_mult: 0.1
  }
  param {
    lr_mult: 0.2
    decay_mult: 0
  }
  convolution_param {
    num_output: 24
    kernel_size: 1
    weight_filler {
      type: "msra"
    }
    bias_filler {
      type: "constant"
      value: 0
    }
  }
}
layer {
  name: "conv13_mbox_loc_perm"
  type: "Permute"
  bottom: "conv13_mbox_loc"
  top: "conv13_mbox_loc_perm"
  permute_param {
    order: 0
    order: 2
    order: 3
    order: 1
  }
}
layer {
  name: "conv13_mbox_loc_flat"
  type: "Flatten"
  bottom: "conv13_mbox_loc_perm"
  top: "conv13_mbox_loc_flat"
  flatten_param {
    axis: 1
  }
}
layer {
  name: "conv13_mbox_conf_new"
  type: "Convolution"
  bottom: "conv13"
  top: "conv13_mbox_conf"
  param {
    lr_mult: 1
    decay_mult: 1
  }
  param {
    lr_mult: 2
    decay_mult: 0
  }
  convolution_
I1016 09:56:11.284613   329 layer_factory.hpp:77] Creating layer data
I1016 09:56:11.284796   329 net.cpp:100] Creating Layer data
I1016 09:56:11.284808   329 net.cpp:408] data -> data
I1016 09:56:11.284835   329 net.cpp:408] data -> label
I1016 09:56:11.284842   329 net.cpp:408] data -> label_seg
I1016 09:56:11.284852   329 base_data_with_seg_layer.cpp:32] --------------lin 32 begin datalayersetup-------------------------
I1016 09:56:11.286911   365 db_lmdb.cpp:35] Opened lmdb lmdb/seg_trainval_lmdb/
I1016 09:56:11.374822   329 annotated_data_with_seg_layer.cpp:91] ----[top0]output data size: 4,3,320,480
I1016 09:56:11.391539   329 base_data_with_seg_layer.cpp:75] Initializing prefetch
I1016 09:56:11.391609   329 base_data_with_seg_layer.cpp:78] Prefetch initialized.
I1016 09:56:11.391614   329 net.cpp:150] Setting up data
I1016 09:56:11.391623   329 net.cpp:157] Top shape: 4 3 320 480 (1843200)
I1016 09:56:11.391628   329 net.cpp:157] Top shape: 1 1 6 8 (48)
I1016 09:56:11.391631   329 net.cpp:157] Top shape: 4 1 320 480 (614400)
I1016 09:56:11.391633   329 net.cpp:165] Memory required for data: 9830592
I1016 09:56:11.391639   329 layer_factory.hpp:77] Creating layer data_data_0_split
I1016 09:56:11.391652   329 net.cpp:100] Creating Layer data_data_0_split
I1016 09:56:11.391655   329 net.cpp:434] data_data_0_split <- data
I1016 09:56:11.391664   329 net.cpp:408] data_data_0_split -> data_data_0_split_0
I1016 09:56:11.391672   329 net.cpp:408] data_data_0_split -> data_data_0_split_1
I1016 09:56:11.391679   329 net.cpp:408] data_data_0_split -> data_data_0_split_2
I1016 09:56:11.391683   329 net.cpp:408] data_data_0_split -> data_data_0_split_3
I1016 09:56:11.391687   329 net.cpp:408] data_data_0_split -> data_data_0_split_4
I1016 09:56:11.391692   329 net.cpp:408] data_data_0_split -> data_data_0_split_5
I1016 09:56:11.391698   329 net.cpp:408] data_data_0_split -> data_data_0_split_6
I1016 09:56:11.391702   329 net.cpp:408] data_data_0_split -> data_data_0_split_7
I1016 09:56:11.391789   329 net.cpp:150] Setting up data_data_0_split
I1016 09:56:11.391793   329 net.cpp:157] Top shape: 4 3 320 480 (1843200)
I1016 09:56:11.391798   329 net.cpp:157] Top shape: 4 3 320 480 (1843200)
I1016 09:56:11.391800   329 net.cpp:157] Top shape: 4 3 320 480 (1843200)
I1016 09:56:11.391803   329 net.cpp:157] Top shape: 4 3 320 480 (1843200)
I1016 09:56:11.391805   329 net.cpp:157] Top shape: 4 3 320 480 (1843200)
I1016 09:56:11.391808   329 net.cpp:157] Top shape: 4 3 320 480 (1843200)
I1016 09:56:11.391811   329 net.cpp:157] Top shape: 4 3 320 480 (1843200)
I1016 09:56:11.391814   329 net.cpp:157] Top shape: 4 3 320 480 (1843200)
I1016 09:56:11.391816   329 net.cpp:165] Memory required for data: 68812992
I1016 09:56:11.391819   329 layer_factory.hpp:77] Creating layer conv0
I1016 09:56:11.391830   329 net.cpp:100] Creating Layer conv0
I1016 09:56:11.391834   329 net.cpp:434] conv0 <- data_data_0_split_0
I1016 09:56:11.391839   329 net.cpp:408] conv0 -> conv0
I1016 09:56:11.394085   366 base_data_with_seg_layer.cpp:84] --------------InternalThreadEntry---------------------
I1016 09:56:11.941548   329 net.cpp:150] Setting up conv0
I1016 09:56:11.941573   329 net.cpp:157] Top shape: 4 32 160 240 (4915200)
I1016 09:56:11.941578   329 net.cpp:165] Memory required for data: 88473792
I1016 09:56:11.941607   329 layer_factory.hpp:77] Creating layer conv0/bn
I1016 09:56:11.941617   329 net.cpp:100] Creating Layer conv0/bn
I1016 09:56:11.941620   329 net.cpp:434] conv0/bn <- conv0
I1016 09:56:11.941625   329 net.cpp:395] conv0/bn -> conv0 (in-place)
I1016 09:56:11.942633   329 net.cpp:150] Setting up conv0/bn
I1016 09:56:11.942646   329 net.cpp:157] Top shape: 4 32 160 240 (4915200)
I1016 09:56:11.942651   329 net.cpp:165] Memory required for data: 108134592
I1016 09:56:11.942663   329 layer_factory.hpp:77] Creating layer conv0/scale
I1016 09:56:11.942673   329 net.cpp:100] Creating Layer conv0/scale
I1016 09:56:11.942677   329 net.cpp:434] conv0/scale <- conv0
I1016 09:56:11.942680   329 net.cpp:395] conv0/scale -> conv0 (in-place)
I1016 09:56:11.942718   329 layer_factory.hpp:77] Creating layer conv0/scale
I1016 09:56:11.942869   329 net.cpp:150] Setting up conv0/scale
I1016 09:56:11.942876   329 net.cpp:157] Top shape: 4 32 160 240 (4915200)
I1016 09:56:11.942879   329 net.cpp:165] Memory required for data: 127795392
I1016 09:56:11.942885   329 layer_factory.hpp:77] Creating layer conv0/relu
I1016 09:56:11.942890   329 net.cpp:100] Creating Layer conv0/relu
I1016 09:56:11.942893   329 net.cpp:434] conv0/relu <- conv0
I1016 09:56:11.942896   329 net.cpp:395] conv0/relu -> conv0 (in-place)
I1016 09:56:11.943213   329 net.cpp:150] Setting up conv0/relu
I1016 09:56:11.943224   329 net.cpp:157] Top shape: 4 32 160 240 (4915200)
I1016 09:56:11.943228   329 net.cpp:165] Memory required for data: 147456192
I1016 09:56:11.943233   329 layer_factory.hpp:77] Creating layer conv1/dw
I1016 09:56:11.943243   329 net.cpp:100] Creating Layer conv1/dw
I1016 09:56:11.943245   329 net.cpp:434] conv1/dw <- conv0
I1016 09:56:11.943251   329 net.cpp:408] conv1/dw -> conv1/dw
I1016 09:56:11.943426   329 net.cpp:150] Setting up conv1/dw
I1016 09:56:11.943434   329 net.cpp:157] Top shape: 4 32 160 240 (4915200)
I1016 09:56:11.943439   329 net.cpp:165] Memory required for data: 167116992
I1016 09:56:11.943444   329 layer_factory.hpp:77] Creating layer conv1/dw/bn
I1016 09:56:11.943449   329 net.cpp:100] Creating Layer conv1/dw/bn
I1016 09:56:11.943450   329 net.cpp:434] conv1/dw/bn <- conv1/dw
I1016 09:56:11.943454   329 net.cpp:395] conv1/dw/bn -> conv1/dw (in-place)
I1016 09:56:11.943632   329 net.cpp:150] Setting up conv1/dw/bn
I1016 09:56:11.943640   329 net.cpp:157] Top shape: 4 32 160 240 (4915200)
I1016 09:56:11.943644   329 net.cpp:165] Memory required for data: 186777792
I1016 09:56:11.943653   329 layer_factory.hpp:77] Creating layer conv1/dw/scale
I1016 09:56:11.943660   329 net.cpp:100] Creating Layer conv1/dw/scale
I1016 09:56:11.943662   329 net.cpp:434] conv1/dw/scale <- conv1/dw
I1016 09:56:11.943667   329 net.cpp:395] conv1/dw/scale -> conv1/dw (in-place)
I1016 09:56:11.943701   329 layer_factory.hpp:77] Creating layer conv1/dw/scale
I1016 09:56:11.943833   329 net.cpp:150] Setting up conv1/dw/scale
I1016 09:56:11.943840   329 net.cpp:157] Top shape: 4 32 160 240 (4915200)
I1016 09:56:11.943841   329 net.cpp:165] Memory required for data: 206438592
I1016 09:56:11.943846   329 layer_factory.hpp:77] Creating layer conv1/dw/relu
I1016 09:56:11.943850   329 net.cpp:100] Creating Layer conv1/dw/relu
I1016 09:56:11.943852   329 net.cpp:434] conv1/dw/relu <- conv1/dw
I1016 09:56:11.943856   329 net.cpp:395] conv1/dw/relu -> conv1/dw (in-place)
I1016 09:56:11.944161   329 net.cpp:150] Setting up conv1/dw/relu
I1016 09:56:11.944171   329 net.cpp:157] Top shape: 4 32 160 240 (4915200)
I1016 09:56:11.944175   329 net.cpp:165] Memory required for data: 226099392
I1016 09:56:11.944178   329 layer_factory.hpp:77] Creating layer conv1
I1016 09:56:11.944186   329 net.cpp:100] Creating Layer conv1
I1016 09:56:11.944190   329 net.cpp:434] conv1 <- conv1/dw
I1016 09:56:11.944195   329 net.cpp:408] conv1 -> conv1
I1016 09:56:11.946362   329 net.cpp:150] Setting up conv1
I1016 09:56:11.946375   329 net.cpp:157] Top shape: 4 64 160 240 (9830400)
I1016 09:56:11.946379   329 net.cpp:165] Memory required for data: 265420992
I1016 09:56:11.946386   329 layer_factory.hpp:77] Creating layer conv1/bn
I1016 09:56:11.946393   329 net.cpp:100] Creating Layer conv1/bn
I1016 09:56:11.946395   329 net.cpp:434] conv1/bn <- conv1
I1016 09:56:11.946399   329 net.cpp:395] conv1/bn -> conv1 (in-place)
I1016 09:56:11.946584   329 net.cpp:150] Setting up conv1/bn
I1016 09:56:11.946593   329 net.cpp:157] Top shape: 4 64 160 240 (9830400)
I1016 09:56:11.946597   329 net.cpp:165] Memory required for data: 304742592
I1016 09:56:11.946604   329 layer_factory.hpp:77] Creating layer conv1/scale
I1016 09:56:11.946609   329 net.cpp:100] Creating Layer conv1/scale
I1016 09:56:11.946612   329 net.cpp:434] conv1/scale <- conv1
I1016 09:56:11.946617   329 net.cpp:395] conv1/scale -> conv1 (in-place)
I1016 09:56:11.946652   329 layer_factory.hpp:77] Creating layer conv1/scale
I1016 09:56:11.946794   329 net.cpp:150] Setting up conv1/scale
I1016 09:56:11.946802   329 net.cpp:157] Top shape: 4 64 160 240 (9830400)
I1016 09:56:11.946806   329 net.cpp:165] Memory required for data: 344064192
I1016 09:56:11.946815   329 layer_factory.hpp:77] Creating layer conv1/relu
I1016 09:56:11.946820   329 net.cpp:100] Creating Layer conv1/relu
I1016 09:56:11.946822   329 net.cpp:434] conv1/relu <- conv1
I1016 09:56:11.946827   329 net.cpp:395] conv1/relu -> conv1 (in-place)
I1016 09:56:11.947427   329 net.cpp:150] Setting up conv1/relu
I1016 09:56:11.947438   329 net.cpp:157] Top shape: 4 64 160 240 (9830400)
I1016 09:56:11.947443   329 net.cpp:165] Memory required for data: 383385792
I1016 09:56:11.947448   329 layer_factory.hpp:77] Creating layer conv2/dw
I1016 09:56:11.947456   329 net.cpp:100] Creating Layer conv2/dw
I1016 09:56:11.947458   329 net.cpp:434] conv2/dw <- conv1
I1016 09:56:11.947464   329 net.cpp:408] conv2/dw -> conv2/dw
I1016 09:56:11.947638   329 net.cpp:150] Setting up conv2/dw
I1016 09:56:11.947646   329 net.cpp:157] Top shape: 4 64 80 120 (2457600)
I1016 09:56:11.947650   329 net.cpp:165] Memory required for data: 393216192
I1016 09:56:11.947655   329 layer_factory.hpp:77] Creating layer conv2/dw/bn
I1016 09:56:11.947660   329 net.cpp:100] Creating Layer conv2/dw/bn
I1016 09:56:11.947662   329 net.cpp:434] conv2/dw/bn <- conv2/dw
I1016 09:56:11.947666   329 net.cpp:395] conv2/dw/bn -> conv2/dw (in-place)
I1016 09:56:11.948603   329 net.cpp:150] Setting up conv2/dw/bn
I1016 09:56:11.948616   329 net.cpp:157] Top shape: 4 64 80 120 (2457600)
I1016 09:56:11.948621   329 net.cpp:165] Memory required for data: 403046592
I1016 09:56:11.948629   329 layer_factory.hpp:77] Creating layer conv2/dw/scale
I1016 09:56:11.948637   329 net.cpp:100] Creating Layer conv2/dw/scale
I1016 09:56:11.948640   329 net.cpp:434] conv2/dw/scale <- conv2/dw
I1016 09:56:11.948647   329 net.cpp:395] conv2/dw/scale -> conv2/dw (in-place)
I1016 09:56:11.948688   329 layer_factory.hpp:77] Creating layer conv2/dw/scale
I1016 09:56:11.948792   329 net.cpp:150] Setting up conv2/dw/scale
I1016 09:56:11.948799   329 net.cpp:157] Top shape: 4 64 80 120 (2457600)
I1016 09:56:11.948801   329 net.cpp:165] Memory required for data: 412876992
I1016 09:56:11.948806   329 layer_factory.hpp:77] Creating layer conv2/dw/relu
I1016 09:56:11.948810   329 net.cpp:100] Creating Layer conv2/dw/relu
I1016 09:56:11.948813   329 net.cpp:434] conv2/dw/relu <- conv2/dw
I1016 09:56:11.948817   329 net.cpp:395] conv2/dw/relu -> conv2/dw (in-place)
I1016 09:56:11.949142   329 net.cpp:150] Setting up conv2/dw/relu
I1016 09:56:11.949152   329 net.cpp:157] Top shape: 4 64 80 120 (2457600)
I1016 09:56:11.949157   329 net.cpp:165] Memory required for data: 422707392
I1016 09:56:11.949162   329 layer_factory.hpp:77] Creating layer conv2
I1016 09:56:11.949168   329 net.cpp:100] Creating Layer conv2
I1016 09:56:11.949172   329 net.cpp:434] conv2 <- conv2/dw
I1016 09:56:11.949177   329 net.cpp:408] conv2 -> conv2
I1016 09:56:11.951107   329 net.cpp:150] Setting up conv2
I1016 09:56:11.951122   329 net.cpp:157] Top shape: 4 128 80 120 (4915200)
I1016 09:56:11.951125   329 net.cpp:165] Memory required for data: 442368192
I1016 09:56:11.951133   329 layer_factory.hpp:77] Creating layer conv2/bn
I1016 09:56:11.951140   329 net.cpp:100] Creating Layer conv2/bn
I1016 09:56:11.951143   329 net.cpp:434] conv2/bn <- conv2
I1016 09:56:11.951148   329 net.cpp:395] conv2/bn -> conv2 (in-place)
I1016 09:56:11.951328   329 net.cpp:150] Setting up conv2/bn
I1016 09:56:11.951336   329 net.cpp:157] Top shape: 4 128 80 120 (4915200)
I1016 09:56:11.951339   329 net.cpp:165] Memory required for data: 462028992
I1016 09:56:11.951346   329 layer_factory.hpp:77] Creating layer conv2/scale
I1016 09:56:11.951352   329 net.cpp:100] Creating Layer conv2/scale
I1016 09:56:11.951354   329 net.cpp:434] conv2/scale <- conv2
I1016 09:56:11.951359   329 net.cpp:395] conv2/scale -> conv2 (in-place)
I1016 09:56:11.951396   329 layer_factory.hpp:77] Creating layer conv2/scale
I1016 09:56:11.951501   329 net.cpp:150] Setting up conv2/scale
I1016 09:56:11.951508   329 net.cpp:157] Top shape: 4 128 80 120 (4915200)
I1016 09:56:11.951511   329 net.cpp:165] Memory required for data: 481689792
I1016 09:56:11.951517   329 layer_factory.hpp:77] Creating layer conv2/relu
I1016 09:56:11.951524   329 net.cpp:100] Creating Layer conv2/relu
I1016 09:56:11.951526   329 net.cpp:434] conv2/relu <- conv2
I1016 09:56:11.951530   329 net.cpp:395] conv2/relu -> conv2 (in-place)
I1016 09:56:11.951905   329 net.cpp:150] Setting up conv2/relu
I1016 09:56:11.951915   329 net.cpp:157] Top shape: 4 128 80 120 (4915200)
I1016 09:56:11.951920   329 net.cpp:165] Memory required for data: 501350592
I1016 09:56:11.951923   329 layer_factory.hpp:77] Creating layer conv3/dw
I1016 09:56:11.951931   329 net.cpp:100] Creating Layer conv3/dw
I1016 09:56:11.951934   329 net.cpp:434] conv3/dw <- conv2
I1016 09:56:11.951938   329 net.cpp:408] conv3/dw -> conv3/dw
I1016 09:56:11.952132   329 net.cpp:150] Setting up conv3/dw
I1016 09:56:11.952142   329 net.cpp:157] Top shape: 4 128 80 120 (4915200)
I1016 09:56:11.952145   329 net.cpp:165] Memory required for data: 521011392
I1016 09:56:11.952150   329 layer_factory.hpp:77] Creating layer conv3/dw/bn
I1016 09:56:11.952155   329 net.cpp:100] Creating Layer conv3/dw/bn
I1016 09:56:11.952158   329 net.cpp:434] conv3/dw/bn <- conv3/dw
I1016 09:56:11.952162   329 net.cpp:395] conv3/dw/bn -> conv3/dw (in-place)
I1016 09:56:11.952327   329 net.cpp:150] Setting up conv3/dw/bn
I1016 09:56:11.952335   329 net.cpp:157] Top shape: 4 128 80 120 (4915200)
I1016 09:56:11.952339   329 net.cpp:165] Memory required for data: 540672192
I1016 09:56:11.952349   329 layer_factory.hpp:77] Creating layer conv3/dw/scale
I1016 09:56:11.952354   329 net.cpp:100] Creating Layer conv3/dw/scale
I1016 09:56:11.952358   329 net.cpp:434] conv3/dw/scale <- conv3/dw
I1016 09:56:11.952363   329 net.cpp:395] conv3/dw/scale -> conv3/dw (in-place)
I1016 09:56:11.952400   329 layer_factory.hpp:77] Creating layer conv3/dw/scale
I1016 09:56:11.952502   329 net.cpp:150] Setting up conv3/dw/scale
I1016 09:56:11.952512   329 net.cpp:157] Top shape: 4 128 80 120 (4915200)
I1016 09:56:11.952513   329 net.cpp:165] Memory required for data: 560332992
I1016 09:56:11.952518   329 layer_factory.hpp:77] Creating layer conv3/dw/relu
I1016 09:56:11.952522   329 net.cpp:100] Creating Layer conv3/dw/relu
I1016 09:56:11.952524   329 net.cpp:434] conv3/dw/relu <- conv3/dw
I1016 09:56:11.952527   329 net.cpp:395] conv3/dw/relu -> conv3/dw (in-place)
I1016 09:56:11.953196   329 net.cpp:150] Setting up conv3/dw/relu
I1016 09:56:11.953208   329 net.cpp:157] Top shape: 4 128 80 120 (4915200)
I1016 09:56:11.953212   329 net.cpp:165] Memory required for data: 579993792
I1016 09:56:11.953217   329 layer_factory.hpp:77] Creating layer conv3
I1016 09:56:11.953227   329 net.cpp:100] Creating Layer conv3
I1016 09:56:11.953230   329 net.cpp:434] conv3 <- conv3/dw
I1016 09:56:11.953235   329 net.cpp:408] conv3 -> conv3
I1016 09:56:11.954952   329 net.cpp:150] Setting up conv3
I1016 09:56:11.954968   329 net.cpp:157] Top shape: 4 128 80 120 (4915200)
I1016 09:56:11.954973   329 net.cpp:165] Memory required for data: 599654592
I1016 09:56:11.954979   329 layer_factory.hpp:77] Creating layer conv3/bn
I1016 09:56:11.954984   329 net.cpp:100] Creating Layer conv3/bn
I1016 09:56:11.954989   329 net.cpp:434] conv3/bn <- conv3
I1016 09:56:11.954996   329 net.cpp:395] conv3/bn -> conv3 (in-place)
I1016 09:56:11.955178   329 net.cpp:150] Setting up conv3/bn
I1016 09:56:11.955188   329 net.cpp:157] Top shape: 4 128 80 120 (4915200)
I1016 09:56:11.955191   329 net.cpp:165] Memory required for data: 619315392
I1016 09:56:11.955199   329 layer_factory.hpp:77] Creating layer conv3/scale
I1016 09:56:11.955206   329 net.cpp:100] Creating Layer conv3/scale
I1016 09:56:11.955210   329 net.cpp:434] conv3/scale <- conv3
I1016 09:56:11.955215   329 net.cpp:395] conv3/scale -> conv3 (in-place)
I1016 09:56:11.955256   329 layer_factory.hpp:77] Creating layer conv3/scale
I1016 09:56:11.955368   329 net.cpp:150] Setting up conv3/scale
I1016 09:56:11.955376   329 net.cpp:157] Top shape: 4 128 80 120 (4915200)
I1016 09:56:11.955380   329 net.cpp:165] Memory required for data: 638976192
I1016 09:56:11.955386   329 layer_factory.hpp:77] Creating layer conv3/relu
I1016 09:56:11.955390   329 net.cpp:100] Creating Layer conv3/relu
I1016 09:56:11.955394   329 net.cpp:434] conv3/relu <- conv3
I1016 09:56:11.955400   329 net.cpp:395] conv3/relu -> conv3 (in-place)
I1016 09:56:11.955765   329 net.cpp:150] Setting up conv3/relu
I1016 09:56:11.955775   329 net.cpp:157] Top shape: 4 128 80 120 (4915200)
I1016 09:56:11.955780   329 net.cpp:165] Memory required for data: 658636992
I1016 09:56:11.955783   329 layer_factory.hpp:77] Creating layer conv3_conv3/relu_0_split
I1016 09:56:11.955790   329 net.cpp:100] Creating Layer conv3_conv3/relu_0_split
I1016 09:56:11.955794   329 net.cpp:434] conv3_conv3/relu_0_split <- conv3
I1016 09:56:11.955799   329 net.cpp:408] conv3_conv3/relu_0_split -> conv3_conv3/relu_0_split_0
I1016 09:56:11.955806   329 net.cpp:408] conv3_conv3/relu_0_split -> conv3_conv3/relu_0_split_1
I1016 09:56:11.955852   329 net.cpp:150] Setting up conv3_conv3/relu_0_split
I1016 09:56:11.955857   329 net.cpp:157] Top shape: 4 128 80 120 (4915200)
I1016 09:56:11.955860   329 net.cpp:157] Top shape: 4 128 80 120 (4915200)
I1016 09:56:11.955862   329 net.cpp:165] Memory required for data: 697958592
I1016 09:56:11.955865   329 layer_factory.hpp:77] Creating layer conv4/dw
I1016 09:56:11.955873   329 net.cpp:100] Creating Layer conv4/dw
I1016 09:56:11.955875   329 net.cpp:434] conv4/dw <- conv3_conv3/relu_0_split_0
I1016 09:56:11.955883   329 net.cpp:408] conv4/dw -> conv4/dw
I1016 09:56:11.956073   329 net.cpp:150] Setting up conv4/dw
I1016 09:56:11.956082   329 net.cpp:157] Top shape: 4 128 40 60 (1228800)
I1016 09:56:11.956085   329 net.cpp:165] Memory required for data: 702873792
I1016 09:56:11.956091   329 layer_factory.hpp:77] Creating layer conv4/dw/bn
I1016 09:56:11.956100   329 net.cpp:100] Creating Layer conv4/dw/bn
I1016 09:56:11.956104   329 net.cpp:434] conv4/dw/bn <- conv4/dw
I1016 09:56:11.956110   329 net.cpp:395] conv4/dw/bn -> conv4/dw (in-place)
I1016 09:56:11.956272   329 net.cpp:150] Setting up conv4/dw/bn
I1016 09:56:11.956279   329 net.cpp:157] Top shape: 4 128 40 60 (1228800)
I1016 09:56:11.956284   329 net.cpp:165] Memory required for data: 707788992
I1016 09:56:11.956290   329 layer_factory.hpp:77] Creating layer conv4/dw/scale
I1016 09:56:11.956295   329 net.cpp:100] Creating Layer conv4/dw/scale
I1016 09:56:11.956298   329 net.cpp:434] conv4/dw/scale <- conv4/dw
I1016 09:56:11.956303   329 net.cpp:395] conv4/dw/scale -> conv4/dw (in-place)
I1016 09:56:11.956343   329 layer_factory.hpp:77] Creating layer conv4/dw/scale
I1016 09:56:11.956459   329 net.cpp:150] Setting up conv4/dw/scale
I1016 09:56:11.956467   329 net.cpp:157] Top shape: 4 128 40 60 (1228800)
I1016 09:56:11.956471   329 net.cpp:165] Memory required for data: 712704192
I1016 09:56:11.956476   329 layer_factory.hpp:77] Creating layer conv4/dw/relu
I1016 09:56:11.956481   329 net.cpp:100] Creating Layer conv4/dw/relu
I1016 09:56:11.956485   329 net.cpp:434] conv4/dw/relu <- conv4/dw
I1016 09:56:11.956490   329 net.cpp:395] conv4/dw/relu -> conv4/dw (in-place)
I1016 09:56:11.956861   329 net.cpp:150] Setting up conv4/dw/relu
I1016 09:56:11.956873   329 net.cpp:157] Top shape: 4 128 40 60 (1228800)
I1016 09:56:11.956876   329 net.cpp:165] Memory required for data: 717619392
I1016 09:56:11.956881   329 layer_factory.hpp:77] Creating layer conv4
I1016 09:56:11.956889   329 net.cpp:100] Creating Layer conv4
I1016 09:56:11.956893   329 net.cpp:434] conv4 <- conv4/dw
I1016 09:56:11.956899   329 net.cpp:408] conv4 -> conv4
I1016 09:56:11.958971   329 net.cpp:150] Setting up conv4
I1016 09:56:11.958983   329 net.cpp:157] Top shape: 4 256 40 60 (2457600)
I1016 09:56:11.958988   329 net.cpp:165] Memory required for data: 727449792
I1016 09:56:11.958994   329 layer_factory.hpp:77] Creating layer conv4/bn
I1016 09:56:11.959002   329 net.cpp:100] Creating Layer conv4/bn
I1016 09:56:11.959005   329 net.cpp:434] conv4/bn <- conv4
I1016 09:56:11.959009   329 net.cpp:395] conv4/bn -> conv4 (in-place)
I1016 09:56:11.959197   329 net.cpp:150] Setting up conv4/bn
I1016 09:56:11.959208   329 net.cpp:157] Top shape: 4 256 40 60 (2457600)
I1016 09:56:11.959211   329 net.cpp:165] Memory required for data: 737280192
I1016 09:56:11.959218   329 layer_factory.hpp:77] Creating layer conv4/scale
I1016 09:56:11.959224   329 net.cpp:100] Creating Layer conv4/scale
I1016 09:56:11.959228   329 net.cpp:434] conv4/scale <- conv4
I1016 09:56:11.959233   329 net.cpp:395] conv4/scale -> conv4 (in-place)
I1016 09:56:11.959276   329 layer_factory.hpp:77] Creating layer conv4/scale
I1016 09:56:11.959388   329 net.cpp:150] Setting up conv4/scale
I1016 09:56:11.959395   329 net.cpp:157] Top shape: 4 256 40 60 (2457600)
I1016 09:56:11.959399   329 net.cpp:165] Memory required for data: 747110592
I1016 09:56:11.959405   329 layer_factory.hpp:77] Creating layer conv4/relu
I1016 09:56:11.959411   329 net.cpp:100] Creating Layer conv4/relu
I1016 09:56:11.959414   329 net.cpp:434] conv4/relu <- conv4
I1016 09:56:11.959419   329 net.cpp:395] conv4/relu -> conv4 (in-place)
I1016 09:56:11.959805   329 net.cpp:150] Setting up conv4/relu
I1016 09:56:11.959816   329 net.cpp:157] Top shape: 4 256 40 60 (2457600)
I1016 09:56:11.959820   329 net.cpp:165] Memory required for data: 756940992
I1016 09:56:11.959823   329 layer_factory.hpp:77] Creating layer conv5/dw
I1016 09:56:11.959831   329 net.cpp:100] Creating Layer conv5/dw
I1016 09:56:11.959836   329 net.cpp:434] conv5/dw <- conv4
I1016 09:56:11.959843   329 net.cpp:408] conv5/dw -> conv5/dw
I1016 09:56:11.960053   329 net.cpp:150] Setting up conv5/dw
I1016 09:56:11.960062   329 net.cpp:157] Top shape: 4 256 40 60 (2457600)
I1016 09:56:11.960067   329 net.cpp:165] Memory required for data: 766771392
I1016 09:56:11.960072   329 layer_factory.hpp:77] Creating layer conv5/dw/bn
I1016 09:56:11.960075   329 net.cpp:100] Creating Layer conv5/dw/bn
I1016 09:56:11.960078   329 net.cpp:434] conv5/dw/bn <- conv5/dw
I1016 09:56:11.960083   329 net.cpp:395] conv5/dw/bn -> conv5/dw (in-place)
I1016 09:56:11.960247   329 net.cpp:150] Setting up conv5/dw/bn
I1016 09:56:11.960256   329 net.cpp:157] Top shape: 4 256 40 60 (2457600)
I1016 09:56:11.960260   329 net.cpp:165] Memory required for data: 776601792
I1016 09:56:11.960266   329 layer_factory.hpp:77] Creating layer conv5/dw/scale
I1016 09:56:11.960271   329 net.cpp:100] Creating Layer conv5/dw/scale
I1016 09:56:11.960274   329 net.cpp:434] conv5/dw/scale <- conv5/dw
I1016 09:56:11.960279   329 net.cpp:395] conv5/dw/scale -> conv5/dw (in-place)
I1016 09:56:11.960317   329 layer_factory.hpp:77] Creating layer conv5/dw/scale
I1016 09:56:11.960427   329 net.cpp:150] Setting up conv5/dw/scale
I1016 09:56:11.960435   329 net.cpp:157] Top shape: 4 256 40 60 (2457600)
I1016 09:56:11.960438   329 net.cpp:165] Memory required for data: 786432192
I1016 09:56:11.960444   329 layer_factory.hpp:77] Creating layer conv5/dw/relu
I1016 09:56:11.960449   329 net.cpp:100] Creating Layer conv5/dw/relu
I1016 09:56:11.960453   329 net.cpp:434] conv5/dw/relu <- conv5/dw
I1016 09:56:11.960459   329 net.cpp:395] conv5/dw/relu -> conv5/dw (in-place)
I1016 09:56:11.961129   329 net.cpp:150] Setting up conv5/dw/relu
I1016 09:56:11.961141   329 net.cpp:157] Top shape: 4 256 40 60 (2457600)
I1016 09:56:11.961145   329 net.cpp:165] Memory required for data: 796262592
I1016 09:56:11.961149   329 layer_factory.hpp:77] Creating layer conv5
I1016 09:56:11.961159   329 net.cpp:100] Creating Layer conv5
I1016 09:56:11.961163   329 net.cpp:434] conv5 <- conv5/dw
I1016 09:56:11.961171   329 net.cpp:408] conv5 -> conv5
I1016 09:56:11.963948   329 net.cpp:150] Setting up conv5
I1016 09:56:11.963963   329 net.cpp:157] Top shape: 4 256 40 60 (2457600)
I1016 09:56:11.963966   329 net.cpp:165] Memory required for data: 806092992
I1016 09:56:11.963973   329 layer_factory.hpp:77] Creating layer conv5/bn
I1016 09:56:11.963979   329 net.cpp:100] Creating Layer conv5/bn
I1016 09:56:11.963982   329 net.cpp:434] conv5/bn <- conv5
I1016 09:56:11.963989   329 net.cpp:395] conv5/bn -> conv5 (in-place)
I1016 09:56:11.964165   329 net.cpp:150] Setting up conv5/bn
I1016 09:56:11.964174   329 net.cpp:157] Top shape: 4 256 40 60 (2457600)
I1016 09:56:11.964177   329 net.cpp:165] Memory required for data: 815923392
I1016 09:56:11.964184   329 layer_factory.hpp:77] Creating layer conv5/scale
I1016 09:56:11.964191   329 net.cpp:100] Creating Layer conv5/scale
I1016 09:56:11.964195   329 net.cpp:434] conv5/scale <- conv5
I1016 09:56:11.964200   329 net.cpp:395] conv5/scale -> conv5 (in-place)
I1016 09:56:11.964242   329 layer_factory.hpp:77] Creating layer conv5/scale
I1016 09:56:11.964354   329 net.cpp:150] Setting up conv5/scale
I1016 09:56:11.964361   329 net.cpp:157] Top shape: 4 256 40 60 (2457600)
I1016 09:56:11.964365   329 net.cpp:165] Memory required for data: 825753792
I1016 09:56:11.964378   329 layer_factory.hpp:77] Creating layer conv5/relu
I1016 09:56:11.964385   329 net.cpp:100] Creating Layer conv5/relu
I1016 09:56:11.964388   329 net.cpp:434] conv5/relu <- conv5
I1016 09:56:11.964392   329 net.cpp:395] conv5/relu -> conv5 (in-place)
I1016 09:56:11.964761   329 net.cpp:150] Setting up conv5/relu
I1016 09:56:11.964771   329 net.cpp:157] Top shape: 4 256 40 60 (2457600)
I1016 09:56:11.964776   329 net.cpp:165] Memory required for data: 835584192
I1016 09:56:11.964779   329 layer_factory.hpp:77] Creating layer conv5_conv5/relu_0_split
I1016 09:56:11.964785   329 net.cpp:100] Creating Layer conv5_conv5/relu_0_split
I1016 09:56:11.964787   329 net.cpp:434] conv5_conv5/relu_0_split <- conv5
I1016 09:56:11.964794   329 net.cpp:408] conv5_conv5/relu_0_split -> conv5_conv5/relu_0_split_0
I1016 09:56:11.964802   329 net.cpp:408] conv5_conv5/relu_0_split -> conv5_conv5/relu_0_split_1
I1016 09:56:11.964848   329 net.cpp:150] Setting up conv5_conv5/relu_0_split
I1016 09:56:11.964854   329 net.cpp:157] Top shape: 4 256 40 60 (2457600)
I1016 09:56:11.964859   329 net.cpp:157] Top shape: 4 256 40 60 (2457600)
I1016 09:56:11.964861   329 net.cpp:165] Memory required for data: 855244992
I1016 09:56:11.964864   329 layer_factory.hpp:77] Creating layer conv6/dw
I1016 09:56:11.964872   329 net.cpp:100] Creating Layer conv6/dw
I1016 09:56:11.964875   329 net.cpp:434] conv6/dw <- conv5_conv5/relu_0_split_0
I1016 09:56:11.964879   329 net.cpp:408] conv6/dw -> conv6/dw
I1016 09:56:11.965076   329 net.cpp:150] Setting up conv6/dw
I1016 09:56:11.965085   329 net.cpp:157] Top shape: 4 256 20 30 (614400)
I1016 09:56:11.965088   329 net.cpp:165] Memory required for data: 857702592
I1016 09:56:11.965101   329 layer_factory.hpp:77] Creating layer conv6/dw/bn
I1016 09:56:11.965106   329 net.cpp:100] Creating Layer conv6/dw/bn
I1016 09:56:11.965109   329 net.cpp:434] conv6/dw/bn <- conv6/dw
I1016 09:56:11.965114   329 net.cpp:395] conv6/dw/bn -> conv6/dw (in-place)
I1016 09:56:11.965294   329 net.cpp:150] Setting up conv6/dw/bn
I1016 09:56:11.965301   329 net.cpp:157] Top shape: 4 256 20 30 (614400)
I1016 09:56:11.965306   329 net.cpp:165] Memory required for data: 860160192
I1016 09:56:11.965312   329 layer_factory.hpp:77] Creating layer conv6/dw/scale
I1016 09:56:11.965318   329 net.cpp:100] Creating Layer conv6/dw/scale
I1016 09:56:11.965322   329 net.cpp:434] conv6/dw/scale <- conv6/dw
I1016 09:56:11.965328   329 net.cpp:395] conv6/dw/scale -> conv6/dw (in-place)
I1016 09:56:11.965368   329 layer_factory.hpp:77] Creating layer conv6/dw/scale
I1016 09:56:11.965484   329 net.cpp:150] Setting up conv6/dw/scale
I1016 09:56:11.965492   329 net.cpp:157] Top shape: 4 256 20 30 (614400)
I1016 09:56:11.965497   329 net.cpp:165] Memory required for data: 862617792
I1016 09:56:11.965502   329 layer_factory.hpp:77] Creating layer conv6/dw/relu
I1016 09:56:11.965507   329 net.cpp:100] Creating Layer conv6/dw/relu
I1016 09:56:11.965509   329 net.cpp:434] conv6/dw/relu <- conv6/dw
I1016 09:56:11.965515   329 net.cpp:395] conv6/dw/relu -> conv6/dw (in-place)
I1016 09:56:11.965895   329 net.cpp:150] Setting up conv6/dw/relu
I1016 09:56:11.965906   329 net.cpp:157] Top shape: 4 256 20 30 (614400)
I1016 09:56:11.965909   329 net.cpp:165] Memory required for data: 865075392
I1016 09:56:11.965914   329 layer_factory.hpp:77] Creating layer conv6
I1016 09:56:11.965922   329 net.cpp:100] Creating Layer conv6
I1016 09:56:11.965926   329 net.cpp:434] conv6 <- conv6/dw
I1016 09:56:11.965932   329 net.cpp:408] conv6 -> conv6
I1016 09:56:11.969280   329 net.cpp:150] Setting up conv6
I1016 09:56:11.969295   329 net.cpp:157] Top shape: 4 512 20 30 (1228800)
I1016 09:56:11.969300   329 net.cpp:165] Memory required for data: 869990592
I1016 09:56:11.969305   329 layer_factory.hpp:77] Creating layer conv6/bn
I1016 09:56:11.969311   329 net.cpp:100] Creating Layer conv6/bn
I1016 09:56:11.969314   329 net.cpp:434] conv6/bn <- conv6
I1016 09:56:11.969322   329 net.cpp:395] conv6/bn -> conv6 (in-place)
I1016 09:56:11.969506   329 net.cpp:150] Setting up conv6/bn
I1016 09:56:11.969516   329 net.cpp:157] Top shape: 4 512 20 30 (1228800)
I1016 09:56:11.969518   329 net.cpp:165] Memory required for data: 874905792
I1016 09:56:11.969525   329 layer_factory.hpp:77] Creating layer conv6/scale
I1016 09:56:11.969530   329 net.cpp:100] Creating Layer conv6/scale
I1016 09:56:11.969534   329 net.cpp:434] conv6/scale <- conv6
I1016 09:56:11.969542   329 net.cpp:395] conv6/scale -> conv6 (in-place)
I1016 09:56:11.969580   329 layer_factory.hpp:77] Creating layer conv6/scale
I1016 09:56:11.969696   329 net.cpp:150] Setting up conv6/scale
I1016 09:56:11.969703   329 net.cpp:157] Top shape: 4 512 20 30 (1228800)
I1016 09:56:11.969707   329 net.cpp:165] Memory required for data: 879820992
I1016 09:56:11.969713   329 layer_factory.hpp:77] Creating layer conv6/relu
I1016 09:56:11.969717   329 net.cpp:100] Creating Layer conv6/relu
I1016 09:56:11.969720   329 net.cpp:434] conv6/relu <- conv6
I1016 09:56:11.969725   329 net.cpp:395] conv6/relu -> conv6 (in-place)
I1016 09:56:11.970429   329 net.cpp:150] Setting up conv6/relu
I1016 09:56:11.970443   329 net.cpp:157] Top shape: 4 512 20 30 (1228800)
I1016 09:56:11.970446   329 net.cpp:165] Memory required for data: 884736192
I1016 09:56:11.970450   329 layer_factory.hpp:77] Creating layer conv7/dw
I1016 09:56:11.970460   329 net.cpp:100] Creating Layer conv7/dw
I1016 09:56:11.970464   329 net.cpp:434] conv7/dw <- conv6
I1016 09:56:11.970472   329 net.cpp:408] conv7/dw -> conv7/dw
I1016 09:56:11.970693   329 net.cpp:150] Setting up conv7/dw
I1016 09:56:11.970702   329 net.cpp:157] Top shape: 4 512 20 30 (1228800)
I1016 09:56:11.970706   329 net.cpp:165] Memory required for data: 889651392
I1016 09:56:11.970711   329 layer_factory.hpp:77] Creating layer conv7/dw/bn
I1016 09:56:11.970717   329 net.cpp:100] Creating Layer conv7/dw/bn
I1016 09:56:11.970721   329 net.cpp:434] conv7/dw/bn <- conv7/dw
I1016 09:56:11.970726   329 net.cpp:395] conv7/dw/bn -> conv7/dw (in-place)
I1016 09:56:11.970899   329 net.cpp:150] Setting up conv7/dw/bn
I1016 09:56:11.970907   329 net.cpp:157] Top shape: 4 512 20 30 (1228800)
I1016 09:56:11.970911   329 net.cpp:165] Memory required for data: 894566592
I1016 09:56:11.970918   329 layer_factory.hpp:77] Creating layer conv7/dw/scale
I1016 09:56:11.970926   329 net.cpp:100] Creating Layer conv7/dw/scale
I1016 09:56:11.970929   329 net.cpp:434] conv7/dw/scale <- conv7/dw
I1016 09:56:11.970934   329 net.cpp:395] conv7/dw/scale -> conv7/dw (in-place)
I1016 09:56:11.970978   329 layer_factory.hpp:77] Creating layer conv7/dw/scale
I1016 09:56:11.971091   329 net.cpp:150] Setting up conv7/dw/scale
I1016 09:56:11.971099   329 net.cpp:157] Top shape: 4 512 20 30 (1228800)
I1016 09:56:11.971102   329 net.cpp:165] Memory required for data: 899481792
I1016 09:56:11.971108   329 layer_factory.hpp:77] Creating layer conv7/dw/relu
I1016 09:56:11.971113   329 net.cpp:100] Creating Layer conv7/dw/relu
I1016 09:56:11.971117   329 net.cpp:434] conv7/dw/relu <- conv7/dw
I1016 09:56:11.971123   329 net.cpp:395] conv7/dw/relu -> conv7/dw (in-place)
I1016 09:56:11.971491   329 net.cpp:150] Setting up conv7/dw/relu
I1016 09:56:11.971503   329 net.cpp:157] Top shape: 4 512 20 30 (1228800)
I1016 09:56:11.971506   329 net.cpp:165] Memory required for data: 904396992
I1016 09:56:11.971509   329 layer_factory.hpp:77] Creating layer conv7
I1016 09:56:11.971518   329 net.cpp:100] Creating Layer conv7
I1016 09:56:11.971521   329 net.cpp:434] conv7 <- conv7/dw
I1016 09:56:11.971527   329 net.cpp:408] conv7 -> conv7
I1016 09:56:11.975081   329 net.cpp:150] Setting up conv7
I1016 09:56:11.975095   329 net.cpp:157] Top shape: 4 512 20 30 (1228800)
I1016 09:56:11.975098   329 net.cpp:165] Memory required for data: 909312192
I1016 09:56:11.975106   329 layer_factory.hpp:77] Creating layer conv7/bn
I1016 09:56:11.975113   329 net.cpp:100] Creating Layer conv7/bn
I1016 09:56:11.975116   329 net.cpp:434] conv7/bn <- conv7
I1016 09:56:11.975121   329 net.cpp:395] conv7/bn -> conv7 (in-place)
I1016 09:56:11.975304   329 net.cpp:150] Setting up conv7/bn
I1016 09:56:11.975312   329 net.cpp:157] Top shape: 4 512 20 30 (1228800)
I1016 09:56:11.975317   329 net.cpp:165] Memory required for data: 914227392
I1016 09:56:11.975323   329 layer_factory.hpp:77] Creating layer conv7/scale
I1016 09:56:11.975330   329 net.cpp:100] Creating Layer conv7/scale
I1016 09:56:11.975334   329 net.cpp:434] conv7/scale <- conv7
I1016 09:56:11.975339   329 net.cpp:395] conv7/scale -> conv7 (in-place)
I1016 09:56:11.975383   329 layer_factory.hpp:77] Creating layer conv7/scale
I1016 09:56:11.975497   329 net.cpp:150] Setting up conv7/scale
I1016 09:56:11.975504   329 net.cpp:157] Top shape: 4 512 20 30 (1228800)
I1016 09:56:11.975507   329 net.cpp:165] Memory required for data: 919142592
I1016 09:56:11.975513   329 layer_factory.hpp:77] Creating layer conv7/relu
I1016 09:56:11.975520   329 net.cpp:100] Creating Layer conv7/relu
I1016 09:56:11.975524   329 net.cpp:434] conv7/relu <- conv7
I1016 09:56:11.975528   329 net.cpp:395] conv7/relu -> conv7 (in-place)
I1016 09:56:11.975925   329 net.cpp:150] Setting up conv7/relu
I1016 09:56:11.975936   329 net.cpp:157] Top shape: 4 512 20 30 (1228800)
I1016 09:56:11.975939   329 net.cpp:165] Memory required for data: 924057792
I1016 09:56:11.975944   329 layer_factory.hpp:77] Creating layer conv8/dw
I1016 09:56:11.975961   329 net.cpp:100] Creating Layer conv8/dw
I1016 09:56:11.975965   329 net.cpp:434] conv8/dw <- conv7
I1016 09:56:11.975970   329 net.cpp:408] conv8/dw -> conv8/dw
I1016 09:56:11.976186   329 net.cpp:150] Setting up conv8/dw
I1016 09:56:11.976195   329 net.cpp:157] Top shape: 4 512 20 30 (1228800)
I1016 09:56:11.976199   329 net.cpp:165] Memory required for data: 928972992
I1016 09:56:11.976205   329 layer_factory.hpp:77] Creating layer conv8/dw/bn
I1016 09:56:11.976210   329 net.cpp:100] Creating Layer conv8/dw/bn
I1016 09:56:11.976214   329 net.cpp:434] conv8/dw/bn <- conv8/dw
I1016 09:56:11.976219   329 net.cpp:395] conv8/dw/bn -> conv8/dw (in-place)
I1016 09:56:11.976397   329 net.cpp:150] Setting up conv8/dw/bn
I1016 09:56:11.976404   329 net.cpp:157] Top shape: 4 512 20 30 (1228800)
I1016 09:56:11.976408   329 net.cpp:165] Memory required for data: 933888192
I1016 09:56:11.976415   329 layer_factory.hpp:77] Creating layer conv8/dw/scale
I1016 09:56:11.976420   329 net.cpp:100] Creating Layer conv8/dw/scale
I1016 09:56:11.976423   329 net.cpp:434] conv8/dw/scale <- conv8/dw
I1016 09:56:11.976428   329 net.cpp:395] conv8/dw/scale -> conv8/dw (in-place)
I1016 09:56:11.976472   329 layer_factory.hpp:77] Creating layer conv8/dw/scale
I1016 09:56:11.976585   329 net.cpp:150] Setting up conv8/dw/scale
I1016 09:56:11.976594   329 net.cpp:157] Top shape: 4 512 20 30 (1228800)
I1016 09:56:11.976598   329 net.cpp:165] Memory required for data: 938803392
I1016 09:56:11.976603   329 layer_factory.hpp:77] Creating layer conv8/dw/relu
I1016 09:56:11.976608   329 net.cpp:100] Creating Layer conv8/dw/relu
I1016 09:56:11.976610   329 net.cpp:434] conv8/dw/relu <- conv8/dw
I1016 09:56:11.976615   329 net.cpp:395] conv8/dw/relu -> conv8/dw (in-place)
I1016 09:56:11.977298   329 net.cpp:150] Setting up conv8/dw/relu
I1016 09:56:11.977313   329 net.cpp:157] Top shape: 4 512 20 30 (1228800)
I1016 09:56:11.977318   329 net.cpp:165] Memory required for data: 943718592
I1016 09:56:11.977321   329 layer_factory.hpp:77] Creating layer conv8
I1016 09:56:11.977331   329 net.cpp:100] Creating Layer conv8
I1016 09:56:11.977335   329 net.cpp:434] conv8 <- conv8/dw
I1016 09:56:11.977342   329 net.cpp:408] conv8 -> conv8
I1016 09:56:11.982560   329 net.cpp:150] Setting up conv8
I1016 09:56:11.982578   329 net.cpp:157] Top shape: 4 512 20 30 (1228800)
I1016 09:56:11.982581   329 net.cpp:165] Memory required for data: 948633792
I1016 09:56:11.982589   329 layer_factory.hpp:77] Creating layer conv8/bn
I1016 09:56:11.982596   329 net.cpp:100] Creating Layer conv8/bn
I1016 09:56:11.982599   329 net.cpp:434] conv8/bn <- conv8
I1016 09:56:11.982604   329 net.cpp:395] conv8/bn -> conv8 (in-place)
I1016 09:56:11.982792   329 net.cpp:150] Setting up conv8/bn
I1016 09:56:11.982800   329 net.cpp:157] Top shape: 4 512 20 30 (1228800)
I1016 09:56:11.982805   329 net.cpp:165] Memory required for data: 953548992
I1016 09:56:11.982811   329 layer_factory.hpp:77] Creating layer conv8/scale
I1016 09:56:11.982817   329 net.cpp:100] Creating Layer conv8/scale
I1016 09:56:11.982821   329 net.cpp:434] conv8/scale <- conv8
I1016 09:56:11.982826   329 net.cpp:395] conv8/scale -> conv8 (in-place)
I1016 09:56:11.982872   329 layer_factory.hpp:77] Creating layer conv8/scale
I1016 09:56:11.982983   329 net.cpp:150] Setting up conv8/scale
I1016 09:56:11.982992   329 net.cpp:157] Top shape: 4 512 20 30 (1228800)
I1016 09:56:11.982996   329 net.cpp:165] Memory required for data: 958464192
I1016 09:56:11.983001   329 layer_factory.hpp:77] Creating layer conv8/relu
I1016 09:56:11.983006   329 net.cpp:100] Creating Layer conv8/relu
I1016 09:56:11.983008   329 net.cpp:434] conv8/relu <- conv8
I1016 09:56:11.983012   329 net.cpp:395] conv8/relu -> conv8 (in-place)
I1016 09:56:11.983472   329 net.cpp:150] Setting up conv8/relu
I1016 09:56:11.983486   329 net.cpp:157] Top shape: 4 512 20 30 (1228800)
I1016 09:56:11.983489   329 net.cpp:165] Memory required for data: 963379392
I1016 09:56:11.983494   329 layer_factory.hpp:77] Creating layer conv9/dw
I1016 09:56:11.983505   329 net.cpp:100] Creating Layer conv9/dw
I1016 09:56:11.983510   329 net.cpp:434] conv9/dw <- conv8
I1016 09:56:11.983517   329 net.cpp:408] conv9/dw -> conv9/dw
I1016 09:56:11.983834   329 net.cpp:150] Setting up conv9/dw
I1016 09:56:11.983844   329 net.cpp:157] Top shape: 4 512 20 30 (1228800)
I1016 09:56:11.983849   329 net.cpp:165] Memory required for data: 968294592
I1016 09:56:11.983853   329 layer_factory.hpp:77] Creating layer conv9/dw/bn
I1016 09:56:11.983860   329 net.cpp:100] Creating Layer conv9/dw/bn
I1016 09:56:11.983865   329 net.cpp:434] conv9/dw/bn <- conv9/dw
I1016 09:56:11.983870   329 net.cpp:395] conv9/dw/bn -> conv9/dw (in-place)
I1016 09:56:11.984112   329 net.cpp:150] Setting up conv9/dw/bn
I1016 09:56:11.984122   329 net.cpp:157] Top shape: 4 512 20 30 (1228800)
I1016 09:56:11.984125   329 net.cpp:165] Memory required for data: 973209792
I1016 09:56:11.984134   329 layer_factory.hpp:77] Creating layer conv9/dw/scale
I1016 09:56:11.984143   329 net.cpp:100] Creating Layer conv9/dw/scale
I1016 09:56:11.984148   329 net.cpp:434] conv9/dw/scale <- conv9/dw
I1016 09:56:11.984153   329 net.cpp:395] conv9/dw/scale -> conv9/dw (in-place)
I1016 09:56:11.984206   329 layer_factory.hpp:77] Creating layer conv9/dw/scale
I1016 09:56:11.984354   329 net.cpp:150] Setting up conv9/dw/scale
I1016 09:56:11.984362   329 net.cpp:157] Top shape: 4 512 20 30 (1228800)
I1016 09:56:11.984365   329 net.cpp:165] Memory required for data: 978124992
I1016 09:56:11.984372   329 layer_factory.hpp:77] Creating layer conv9/dw/relu
I1016 09:56:11.984380   329 net.cpp:100] Creating Layer conv9/dw/relu
I1016 09:56:11.984385   329 net.cpp:434] conv9/dw/relu <- conv9/dw
I1016 09:56:11.984390   329 net.cpp:395] conv9/dw/relu -> conv9/dw (in-place)
I1016 09:56:11.984936   329 net.cpp:150] Setting up conv9/dw/relu
I1016 09:56:11.984947   329 net.cpp:157] Top shape: 4 512 20 30 (1228800)
I1016 09:56:11.984951   329 net.cpp:165] Memory required for data: 983040192
I1016 09:56:11.984956   329 layer_factory.hpp:77] Creating layer conv9
I1016 09:56:11.984972   329 net.cpp:100] Creating Layer conv9
I1016 09:56:11.984977   329 net.cpp:434] conv9 <- conv9/dw
I1016 09:56:11.984982   329 net.cpp:408] conv9 -> conv9
I1016 09:56:11.989161   329 net.cpp:150] Setting up conv9
I1016 09:56:11.989178   329 net.cpp:157] Top shape: 4 512 20 30 (1228800)
I1016 09:56:11.989182   329 net.cpp:165] Memory required for data: 987955392
I1016 09:56:11.989190   329 layer_factory.hpp:77] Creating layer conv9/bn
I1016 09:56:11.989197   329 net.cpp:100] Creating Layer conv9/bn
I1016 09:56:11.989199   329 net.cpp:434] conv9/bn <- conv9
I1016 09:56:11.989204   329 net.cpp:395] conv9/bn -> conv9 (in-place)
I1016 09:56:11.989398   329 net.cpp:150] Setting up conv9/bn
I1016 09:56:11.989405   329 net.cpp:157] Top shape: 4 512 20 30 (1228800)
I1016 09:56:11.989409   329 net.cpp:165] Memory required for data: 992870592
I1016 09:56:11.989416   329 layer_factory.hpp:77] Creating layer conv9/scale
I1016 09:56:11.989424   329 net.cpp:100] Creating Layer conv9/scale
I1016 09:56:11.989428   329 net.cpp:434] conv9/scale <- conv9
I1016 09:56:11.989434   329 net.cpp:395] conv9/scale -> conv9 (in-place)
I1016 09:56:11.989480   329 layer_factory.hpp:77] Creating layer conv9/scale
I1016 09:56:11.989593   329 net.cpp:150] Setting up conv9/scale
I1016 09:56:11.989600   329 net.cpp:157] Top shape: 4 512 20 30 (1228800)
I1016 09:56:11.989603   329 net.cpp:165] Memory required for data: 997785792
I1016 09:56:11.989610   329 layer_factory.hpp:77] Creating layer conv9/relu
I1016 09:56:11.989615   329 net.cpp:100] Creating Layer conv9/relu
I1016 09:56:11.989617   329 net.cpp:434] conv9/relu <- conv9
I1016 09:56:11.989622   329 net.cpp:395] conv9/relu -> conv9 (in-place)
I1016 09:56:11.990028   329 net.cpp:150] Setting up conv9/relu
I1016 09:56:11.990039   329 net.cpp:157] Top shape: 4 512 20 30 (1228800)
I1016 09:56:11.990043   329 net.cpp:165] Memory required for data: 1002700992
I1016 09:56:11.990047   329 layer_factory.hpp:77] Creating layer conv10/dw
I1016 09:56:11.990056   329 net.cpp:100] Creating Layer conv10/dw
I1016 09:56:11.990061   329 net.cpp:434] conv10/dw <- conv9
I1016 09:56:11.990068   329 net.cpp:408] conv10/dw -> conv10/dw
I1016 09:56:11.990293   329 net.cpp:150] Setting up conv10/dw
I1016 09:56:11.990301   329 net.cpp:157] Top shape: 4 512 20 30 (1228800)
I1016 09:56:11.990304   329 net.cpp:165] Memory required for data: 1007616192
I1016 09:56:11.990310   329 layer_factory.hpp:77] Creating layer conv10/dw/bn
I1016 09:56:11.990314   329 net.cpp:100] Creating Layer conv10/dw/bn
I1016 09:56:11.990319   329 net.cpp:434] conv10/dw/bn <- conv10/dw
I1016 09:56:11.990324   329 net.cpp:395] conv10/dw/bn -> conv10/dw (in-place)
I1016 09:56:11.990499   329 net.cpp:150] Setting up conv10/dw/bn
I1016 09:56:11.990506   329 net.cpp:157] Top shape: 4 512 20 30 (1228800)
I1016 09:56:11.990509   329 net.cpp:165] Memory required for data: 1012531392
I1016 09:56:11.990517   329 layer_factory.hpp:77] Creating layer conv10/dw/scale
I1016 09:56:11.990523   329 net.cpp:100] Creating Layer conv10/dw/scale
I1016 09:56:11.990527   329 net.cpp:434] conv10/dw/scale <- conv10/dw
I1016 09:56:11.990532   329 net.cpp:395] conv10/dw/scale -> conv10/dw (in-place)
I1016 09:56:11.990576   329 layer_factory.hpp:77] Creating layer conv10/dw/scale
I1016 09:56:11.990687   329 net.cpp:150] Setting up conv10/dw/scale
I1016 09:56:11.990695   329 net.cpp:157] Top shape: 4 512 20 30 (1228800)
I1016 09:56:11.990698   329 net.cpp:165] Memory required for data: 1017446592
I1016 09:56:11.990705   329 layer_factory.hpp:77] Creating layer conv10/dw/relu
I1016 09:56:11.990710   329 net.cpp:100] Creating Layer conv10/dw/relu
I1016 09:56:11.990713   329 net.cpp:434] conv10/dw/relu <- conv10/dw
I1016 09:56:11.990720   329 net.cpp:395] conv10/dw/relu -> conv10/dw (in-place)
I1016 09:56:11.991401   329 net.cpp:150] Setting up conv10/dw/relu
I1016 09:56:11.991413   329 net.cpp:157] Top shape: 4 512 20 30 (1228800)
I1016 09:56:11.991417   329 net.cpp:165] Memory required for data: 1022361792
I1016 09:56:11.991421   329 layer_factory.hpp:77] Creating layer conv10
I1016 09:56:11.991436   329 net.cpp:100] Creating Layer conv10
I1016 09:56:11.991441   329 net.cpp:434] conv10 <- conv10/dw
I1016 09:56:11.991447   329 net.cpp:408] conv10 -> conv10
I1016 09:56:11.995833   329 net.cpp:150] Setting up conv10
I1016 09:56:11.995847   329 net.cpp:157] Top shape: 4 512 20 30 (1228800)
I1016 09:56:11.995852   329 net.cpp:165] Memory required for data: 1027276992
I1016 09:56:11.995858   329 layer_factory.hpp:77] Creating layer conv10/bn
I1016 09:56:11.995864   329 net.cpp:100] Creating Layer conv10/bn
I1016 09:56:11.995868   329 net.cpp:434] conv10/bn <- conv10
I1016 09:56:11.995874   329 net.cpp:395] conv10/bn -> conv10 (in-place)
I1016 09:56:11.996060   329 net.cpp:150] Setting up conv10/bn
I1016 09:56:11.996069   329 net.cpp:157] Top shape: 4 512 20 30 (1228800)
I1016 09:56:11.996073   329 net.cpp:165] Memory required for data: 1032192192
I1016 09:56:11.996080   329 layer_factory.hpp:77] Creating layer conv10/scale
I1016 09:56:11.996088   329 net.cpp:100] Creating Layer conv10/scale
I1016 09:56:11.996091   329 net.cpp:434] conv10/scale <- conv10
I1016 09:56:11.996098   329 net.cpp:395] conv10/scale -> conv10 (in-place)
I1016 09:56:11.996143   329 layer_factory.hpp:77] Creating layer conv10/scale
I1016 09:56:11.996258   329 net.cpp:150] Setting up conv10/scale
I1016 09:56:11.996265   329 net.cpp:157] Top shape: 4 512 20 30 (1228800)
I1016 09:56:11.996269   329 net.cpp:165] Memory required for data: 1037107392
I1016 09:56:11.996275   329 layer_factory.hpp:77] Creating layer conv10/relu
I1016 09:56:11.996280   329 net.cpp:100] Creating Layer conv10/relu
I1016 09:56:11.996284   329 net.cpp:434] conv10/relu <- conv10
I1016 09:56:11.996289   329 net.cpp:395] conv10/relu -> conv10 (in-place)
I1016 09:56:11.996664   329 net.cpp:150] Setting up conv10/relu
I1016 09:56:11.996675   329 net.cpp:157] Top shape: 4 512 20 30 (1228800)
I1016 09:56:11.996677   329 net.cpp:165] Memory required for data: 1042022592
I1016 09:56:11.996682   329 layer_factory.hpp:77] Creating layer conv11/dw
I1016 09:56:11.996692   329 net.cpp:100] Creating Layer conv11/dw
I1016 09:56:11.996696   329 net.cpp:434] conv11/dw <- conv10
I1016 09:56:11.996703   329 net.cpp:408] conv11/dw -> conv11/dw
I1016 09:56:11.996920   329 net.cpp:150] Setting up conv11/dw
I1016 09:56:11.996929   329 net.cpp:157] Top shape: 4 512 20 30 (1228800)
I1016 09:56:11.996932   329 net.cpp:165] Memory required for data: 1046937792
I1016 09:56:11.996938   329 layer_factory.hpp:77] Creating layer conv11/dw/bn
I1016 09:56:11.996943   329 net.cpp:100] Creating Layer conv11/dw/bn
I1016 09:56:11.996948   329 net.cpp:434] conv11/dw/bn <- conv11/dw
I1016 09:56:11.996953   329 net.cpp:395] conv11/dw/bn -> conv11/dw (in-place)
I1016 09:56:11.997130   329 net.cpp:150] Setting up conv11/dw/bn
I1016 09:56:11.997139   329 net.cpp:157] Top shape: 4 512 20 30 (1228800)
I1016 09:56:11.997143   329 net.cpp:165] Memory required for data: 1051852992
I1016 09:56:11.997164   329 layer_factory.hpp:77] Creating layer conv11/dw/scale
I1016 09:56:11.997169   329 net.cpp:100] Creating Layer conv11/dw/scale
I1016 09:56:11.997172   329 net.cpp:434] conv11/dw/scale <- conv11/dw
I1016 09:56:11.997176   329 net.cpp:395] conv11/dw/scale -> conv11/dw (in-place)
I1016 09:56:11.997225   329 layer_factory.hpp:77] Creating layer conv11/dw/scale
I1016 09:56:11.997334   329 net.cpp:150] Setting up conv11/dw/scale
I1016 09:56:11.997341   329 net.cpp:157] Top shape: 4 512 20 30 (1228800)
I1016 09:56:11.997345   329 net.cpp:165] Memory required for data: 1056768192
I1016 09:56:11.997351   329 layer_factory.hpp:77] Creating layer conv11/dw/relu
I1016 09:56:11.997355   329 net.cpp:100] Creating Layer conv11/dw/relu
I1016 09:56:11.997360   329 net.cpp:434] conv11/dw/relu <- conv11/dw
I1016 09:56:11.997365   329 net.cpp:395] conv11/dw/relu -> conv11/dw (in-place)
I1016 09:56:11.997737   329 net.cpp:150] Setting up conv11/dw/relu
I1016 09:56:11.997748   329 net.cpp:157] Top shape: 4 512 20 30 (1228800)
I1016 09:56:11.997752   329 net.cpp:165] Memory required for data: 1061683392
I1016 09:56:11.997756   329 layer_factory.hpp:77] Creating layer conv11
I1016 09:56:11.997766   329 net.cpp:100] Creating Layer conv11
I1016 09:56:11.997769   329 net.cpp:434] conv11 <- conv11/dw
I1016 09:56:11.997776   329 net.cpp:408] conv11 -> conv11
I1016 09:56:12.001623   329 net.cpp:150] Setting up conv11
I1016 09:56:12.001638   329 net.cpp:157] Top shape: 4 512 20 30 (1228800)
I1016 09:56:12.001643   329 net.cpp:165] Memory required for data: 1066598592
I1016 09:56:12.001649   329 layer_factory.hpp:77] Creating layer conv11/bn
I1016 09:56:12.001657   329 net.cpp:100] Creating Layer conv11/bn
I1016 09:56:12.001660   329 net.cpp:434] conv11/bn <- conv11
I1016 09:56:12.001665   329 net.cpp:395] conv11/bn -> conv11 (in-place)
I1016 09:56:12.001863   329 net.cpp:150] Setting up conv11/bn
I1016 09:56:12.001873   329 net.cpp:157] Top shape: 4 512 20 30 (1228800)
I1016 09:56:12.001876   329 net.cpp:165] Memory required for data: 1071513792
I1016 09:56:12.001883   329 layer_factory.hpp:77] Creating layer conv11/scale
I1016 09:56:12.001890   329 net.cpp:100] Creating Layer conv11/scale
I1016 09:56:12.001894   329 net.cpp:434] conv11/scale <- conv11
I1016 09:56:12.001899   329 net.cpp:395] conv11/scale -> conv11 (in-place)
I1016 09:56:12.001948   329 layer_factory.hpp:77] Creating layer conv11/scale
I1016 09:56:12.002063   329 net.cpp:150] Setting up conv11/scale
I1016 09:56:12.002071   329 net.cpp:157] Top shape: 4 512 20 30 (1228800)
I1016 09:56:12.002074   329 net.cpp:165] Memory required for data: 1076428992
I1016 09:56:12.002080   329 layer_factory.hpp:77] Creating layer conv11/relu
I1016 09:56:12.002085   329 net.cpp:100] Creating Layer conv11/relu
I1016 09:56:12.002089   329 net.cpp:434] conv11/relu <- conv11
I1016 09:56:12.002094   329 net.cpp:395] conv11/relu -> conv11 (in-place)
I1016 09:56:12.002847   329 net.cpp:150] Setting up conv11/relu
I1016 09:56:12.002859   329 net.cpp:157] Top shape: 4 512 20 30 (1228800)
I1016 09:56:12.002863   329 net.cpp:165] Memory required for data: 1081344192
I1016 09:56:12.002867   329 layer_factory.hpp:77] Creating layer conv11_conv11/relu_0_split
I1016 09:56:12.002876   329 net.cpp:100] Creating Layer conv11_conv11/relu_0_split
I1016 09:56:12.002882   329 net.cpp:434] conv11_conv11/relu_0_split <- conv11
I1016 09:56:12.002887   329 net.cpp:408] conv11_conv11/relu_0_split -> conv11_conv11/relu_0_split_0
I1016 09:56:12.002895   329 net.cpp:408] conv11_conv11/relu_0_split -> conv11_conv11/relu_0_split_1
I1016 09:56:12.002900   329 net.cpp:408] conv11_conv11/relu_0_split -> conv11_conv11/relu_0_split_2
I1016 09:56:12.002907   329 net.cpp:408] conv11_conv11/relu_0_split -> conv11_conv11/relu_0_split_3
I1016 09:56:12.002913   329 net.cpp:408] conv11_conv11/relu_0_split -> conv11_conv11/relu_0_split_4
I1016 09:56:12.003001   329 net.cpp:150] Setting up conv11_conv11/relu_0_split
I1016 09:56:12.003008   329 net.cpp:157] Top shape: 4 512 20 30 (1228800)
I1016 09:56:12.003013   329 net.cpp:157] Top shape: 4 512 20 30 (1228800)
I1016 09:56:12.003018   329 net.cpp:157] Top shape: 4 512 20 30 (1228800)
I1016 09:56:12.003021   329 net.cpp:157] Top shape: 4 512 20 30 (1228800)
I1016 09:56:12.003024   329 net.cpp:157] Top shape: 4 512 20 30 (1228800)
I1016 09:56:12.003027   329 net.cpp:165] Memory required for data: 1105920192
I1016 09:56:12.003031   329 layer_factory.hpp:77] Creating layer conv12/dw
I1016 09:56:12.003039   329 net.cpp:100] Creating Layer conv12/dw
I1016 09:56:12.003042   329 net.cpp:434] conv12/dw <- conv11_conv11/relu_0_split_0
I1016 09:56:12.003047   329 net.cpp:408] conv12/dw -> conv12/dw
I1016 09:56:12.003262   329 net.cpp:150] Setting up conv12/dw
I1016 09:56:12.003269   329 net.cpp:157] Top shape: 4 512 10 15 (307200)
I1016 09:56:12.003273   329 net.cpp:165] Memory required for data: 1107148992
I1016 09:56:12.003278   329 layer_factory.hpp:77] Creating layer conv12/dw/bn
I1016 09:56:12.003283   329 net.cpp:100] Creating Layer conv12/dw/bn
I1016 09:56:12.003288   329 net.cpp:434] conv12/dw/bn <- conv12/dw
I1016 09:56:12.003293   329 net.cpp:395] conv12/dw/bn -> conv12/dw (in-place)
I1016 09:56:12.003484   329 net.cpp:150] Setting up conv12/dw/bn
I1016 09:56:12.003492   329 net.cpp:157] Top shape: 4 512 10 15 (307200)
I1016 09:56:12.003495   329 net.cpp:165] Memory required for data: 1108377792
I1016 09:56:12.003504   329 layer_factory.hpp:77] Creating layer conv12/dw/scale
I1016 09:56:12.003509   329 net.cpp:100] Creating Layer conv12/dw/scale
I1016 09:56:12.003513   329 net.cpp:434] conv12/dw/scale <- conv12/dw
I1016 09:56:12.003518   329 net.cpp:395] conv12/dw/scale -> conv12/dw (in-place)
I1016 09:56:12.003559   329 layer_factory.hpp:77] Creating layer conv12/dw/scale
I1016 09:56:12.003679   329 net.cpp:150] Setting up conv12/dw/scale
I1016 09:56:12.003690   329 net.cpp:157] Top shape: 4 512 10 15 (307200)
I1016 09:56:12.003692   329 net.cpp:165] Memory required for data: 1109606592
I1016 09:56:12.003696   329 layer_factory.hpp:77] Creating layer conv12/dw/relu
I1016 09:56:12.003700   329 net.cpp:100] Creating Layer conv12/dw/relu
I1016 09:56:12.003703   329 net.cpp:434] conv12/dw/relu <- conv12/dw
I1016 09:56:12.003706   329 net.cpp:395] conv12/dw/relu -> conv12/dw (in-place)
I1016 09:56:12.004076   329 net.cpp:150] Setting up conv12/dw/relu
I1016 09:56:12.004086   329 net.cpp:157] Top shape: 4 512 10 15 (307200)
I1016 09:56:12.004087   329 net.cpp:165] Memory required for data: 1110835392
I1016 09:56:12.004091   329 layer_factory.hpp:77] Creating layer conv12
I1016 09:56:12.004098   329 net.cpp:100] Creating Layer conv12
I1016 09:56:12.004101   329 net.cpp:434] conv12 <- conv12/dw
I1016 09:56:12.004108   329 net.cpp:408] conv12 -> conv12
I1016 09:56:12.010622   329 net.cpp:150] Setting up conv12
I1016 09:56:12.010634   329 net.cpp:157] Top shape: 4 1024 10 15 (614400)
I1016 09:56:12.010653   329 net.cpp:165] Memory required for data: 1113292992
I1016 09:56:12.010658   329 layer_factory.hpp:77] Creating layer conv12/bn
I1016 09:56:12.010663   329 net.cpp:100] Creating Layer conv12/bn
I1016 09:56:12.010666   329 net.cpp:434] conv12/bn <- conv12
I1016 09:56:12.010670   329 net.cpp:395] conv12/bn -> conv12 (in-place)
I1016 09:56:12.010848   329 net.cpp:150] Setting up conv12/bn
I1016 09:56:12.010854   329 net.cpp:157] Top shape: 4 1024 10 15 (614400)
I1016 09:56:12.010856   329 net.cpp:165] Memory required for data: 1115750592
I1016 09:56:12.010862   329 layer_factory.hpp:77] Creating layer conv12/scale
I1016 09:56:12.010867   329 net.cpp:100] Creating Layer conv12/scale
I1016 09:56:12.010869   329 net.cpp:434] conv12/scale <- conv12
I1016 09:56:12.010874   329 net.cpp:395] conv12/scale -> conv12 (in-place)
I1016 09:56:12.010908   329 layer_factory.hpp:77] Creating layer conv12/scale
I1016 09:56:12.011008   329 net.cpp:150] Setting up conv12/scale
I1016 09:56:12.011013   329 net.cpp:157] Top shape: 4 1024 10 15 (614400)
I1016 09:56:12.011014   329 net.cpp:165] Memory required for data: 1118208192
I1016 09:56:12.011019   329 layer_factory.hpp:77] Creating layer conv12/relu
I1016 09:56:12.011023   329 net.cpp:100] Creating Layer conv12/relu
I1016 09:56:12.011025   329 net.cpp:434] conv12/relu <- conv12
I1016 09:56:12.011029   329 net.cpp:395] conv12/relu -> conv12 (in-place)
I1016 09:56:12.011407   329 net.cpp:150] Setting up conv12/relu
I1016 09:56:12.011416   329 net.cpp:157] Top shape: 4 1024 10 15 (614400)
I1016 09:56:12.011418   329 net.cpp:165] Memory required for data: 1120665792
I1016 09:56:12.011421   329 layer_factory.hpp:77] Creating layer conv13/dw
I1016 09:56:12.011430   329 net.cpp:100] Creating Layer conv13/dw
I1016 09:56:12.011432   329 net.cpp:434] conv13/dw <- conv12
I1016 09:56:12.011436   329 net.cpp:408] conv13/dw -> conv13/dw
I1016 09:56:12.011682   329 net.cpp:150] Setting up conv13/dw
I1016 09:56:12.011689   329 net.cpp:157] Top shape: 4 1024 10 15 (614400)
I1016 09:56:12.011692   329 net.cpp:165] Memory required for data: 1123123392
I1016 09:56:12.011695   329 layer_factory.hpp:77] Creating layer conv13/dw/bn
I1016 09:56:12.011699   329 net.cpp:100] Creating Layer conv13/dw/bn
I1016 09:56:12.011703   329 net.cpp:434] conv13/dw/bn <- conv13/dw
I1016 09:56:12.011705   329 net.cpp:395] conv13/dw/bn -> conv13/dw (in-place)
I1016 09:56:12.011870   329 net.cpp:150] Setting up conv13/dw/bn
I1016 09:56:12.011878   329 net.cpp:157] Top shape: 4 1024 10 15 (614400)
I1016 09:56:12.011879   329 net.cpp:165] Memory required for data: 1125580992
I1016 09:56:12.011884   329 layer_factory.hpp:77] Creating layer conv13/dw/scale
I1016 09:56:12.011889   329 net.cpp:100] Creating Layer conv13/dw/scale
I1016 09:56:12.011891   329 net.cpp:434] conv13/dw/scale <- conv13/dw
I1016 09:56:12.011895   329 net.cpp:395] conv13/dw/scale -> conv13/dw (in-place)
I1016 09:56:12.011930   329 layer_factory.hpp:77] Creating layer conv13/dw/scale
I1016 09:56:12.012027   329 net.cpp:150] Setting up conv13/dw/scale
I1016 09:56:12.012033   329 net.cpp:157] Top shape: 4 1024 10 15 (614400)
I1016 09:56:12.012035   329 net.cpp:165] Memory required for data: 1128038592
I1016 09:56:12.012040   329 layer_factory.hpp:77] Creating layer conv13/dw/relu
I1016 09:56:12.012043   329 net.cpp:100] Creating Layer conv13/dw/relu
I1016 09:56:12.012046   329 net.cpp:434] conv13/dw/relu <- conv13/dw
I1016 09:56:12.012049   329 net.cpp:395] conv13/dw/relu -> conv13/dw (in-place)
I1016 09:56:12.012723   329 net.cpp:150] Setting up conv13/dw/relu
I1016 09:56:12.012735   329 net.cpp:157] Top shape: 4 1024 10 15 (614400)
I1016 09:56:12.012738   329 net.cpp:165] Memory required for data: 1130496192
I1016 09:56:12.012742   329 layer_factory.hpp:77] Creating layer conv13
I1016 09:56:12.012748   329 net.cpp:100] Creating Layer conv13
I1016 09:56:12.012751   329 net.cpp:434] conv13 <- conv13/dw
I1016 09:56:12.012756   329 net.cpp:408] conv13 -> conv13
I1016 09:56:12.023972   329 net.cpp:150] Setting up conv13
I1016 09:56:12.023986   329 net.cpp:157] Top shape: 4 1024 10 15 (614400)
I1016 09:56:12.023989   329 net.cpp:165] Memory required for data: 1132953792
I1016 09:56:12.023994   329 layer_factory.hpp:77] Creating layer conv13/bn
I1016 09:56:12.024001   329 net.cpp:100] Creating Layer conv13/bn
I1016 09:56:12.024005   329 net.cpp:434] conv13/bn <- conv13
I1016 09:56:12.024010   329 net.cpp:395] conv13/bn -> conv13 (in-place)
I1016 09:56:12.024196   329 net.cpp:150] Setting up conv13/bn
I1016 09:56:12.024204   329 net.cpp:157] Top shape: 4 1024 10 15 (614400)
I1016 09:56:12.024205   329 net.cpp:165] Memory required for data: 1135411392
I1016 09:56:12.024210   329 layer_factory.hpp:77] Creating layer conv13/scale
I1016 09:56:12.024216   329 net.cpp:100] Creating Layer conv13/scale
I1016 09:56:12.024219   329 net.cpp:434] conv13/scale <- conv13
I1016 09:56:12.024222   329 net.cpp:395] conv13/scale -> conv13 (in-place)
I1016 09:56:12.024260   329 layer_factory.hpp:77] Creating layer conv13/scale
I1016 09:56:12.024358   329 net.cpp:150] Setting up conv13/scale
I1016 09:56:12.024365   329 net.cpp:157] Top shape: 4 1024 10 15 (614400)
I1016 09:56:12.024368   329 net.cpp:165] Memory required for data: 1137868992
I1016 09:56:12.024371   329 layer_factory.hpp:77] Creating layer conv13/relu
I1016 09:56:12.024375   329 net.cpp:100] Creating Layer conv13/relu
I1016 09:56:12.024379   329 net.cpp:434] conv13/relu <- conv13
I1016 09:56:12.024381   329 net.cpp:395] conv13/relu -> conv13 (in-place)
I1016 09:56:12.024734   329 net.cpp:150] Setting up conv13/relu
I1016 09:56:12.024754   329 net.cpp:157] Top shape: 4 1024 10 15 (614400)
I1016 09:56:12.024756   329 net.cpp:165] Memory required for data: 1140326592
I1016 09:56:12.024758   329 layer_factory.hpp:77] Creating layer conv13_conv13/relu_0_split
I1016 09:56:12.024765   329 net.cpp:100] Creating Layer conv13_conv13/relu_0_split
I1016 09:56:12.024766   329 net.cpp:434] conv13_conv13/relu_0_split <- conv13
I1016 09:56:12.024772   329 net.cpp:408] conv13_conv13/relu_0_split -> conv13_conv13/relu_0_split_0
I1016 09:56:12.024778   329 net.cpp:408] conv13_conv13/relu_0_split -> conv13_conv13/relu_0_split_1
I1016 09:56:12.024783   329 net.cpp:408] conv13_conv13/relu_0_split -> conv13_conv13/relu_0_split_2
I1016 09:56:12.024788   329 net.cpp:408] conv13_conv13/relu_0_split -> conv13_conv13/relu_0_split_3
I1016 09:56:12.024792   329 net.cpp:408] conv13_conv13/relu_0_split -> conv13_conv13/relu_0_split_4
I1016 09:56:12.024863   329 net.cpp:150] Setting up conv13_conv13/relu_0_split
I1016 09:56:12.024868   329 net.cpp:157] Top shape: 4 1024 10 15 (614400)
I1016 09:56:12.024871   329 net.cpp:157] Top shape: 4 1024 10 15 (614400)
I1016 09:56:12.024874   329 net.cpp:157] Top shape: 4 1024 10 15 (614400)
I1016 09:56:12.024876   329 net.cpp:157] Top shape: 4 1024 10 15 (614400)
I1016 09:56:12.024879   329 net.cpp:157] Top shape: 4 1024 10 15 (614400)
I1016 09:56:12.024881   329 net.cpp:165] Memory required for data: 1152614592
I1016 09:56:12.024883   329 layer_factory.hpp:77] Creating layer conv14_1
I1016 09:56:12.024891   329 net.cpp:100] Creating Layer conv14_1
I1016 09:56:12.024893   329 net.cpp:434] conv14_1 <- conv13_conv13/relu_0_split_0
I1016 09:56:12.024899   329 net.cpp:408] conv14_1 -> conv14_1
I1016 09:56:12.029220   329 net.cpp:150] Setting up conv14_1
I1016 09:56:12.029233   329 net.cpp:157] Top shape: 4 256 10 15 (153600)
I1016 09:56:12.029235   329 net.cpp:165] Memory required for data: 1153228992
I1016 09:56:12.029240   329 layer_factory.hpp:77] Creating layer conv14_1/bn
I1016 09:56:12.029247   329 net.cpp:100] Creating Layer conv14_1/bn
I1016 09:56:12.029250   329 net.cpp:434] conv14_1/bn <- conv14_1
I1016 09:56:12.029254   329 net.cpp:395] conv14_1/bn -> conv14_1 (in-place)
I1016 09:56:12.029425   329 net.cpp:150] Setting up conv14_1/bn
I1016 09:56:12.029433   329 net.cpp:157] Top shape: 4 256 10 15 (153600)
I1016 09:56:12.029434   329 net.cpp:165] Memory required for data: 1153843392
I1016 09:56:12.029440   329 layer_factory.hpp:77] Creating layer conv14_1/scale
I1016 09:56:12.029444   329 net.cpp:100] Creating Layer conv14_1/scale
I1016 09:56:12.029448   329 net.cpp:434] conv14_1/scale <- conv14_1
I1016 09:56:12.029450   329 net.cpp:395] conv14_1/scale -> conv14_1 (in-place)
I1016 09:56:12.029486   329 layer_factory.hpp:77] Creating layer conv14_1/scale
I1016 09:56:12.029579   329 net.cpp:150] Setting up conv14_1/scale
I1016 09:56:12.029585   329 net.cpp:157] Top shape: 4 256 10 15 (153600)
I1016 09:56:12.029587   329 net.cpp:165] Memory required for data: 1154457792
I1016 09:56:12.029592   329 layer_factory.hpp:77] Creating layer conv14_1/relu
I1016 09:56:12.029597   329 net.cpp:100] Creating Layer conv14_1/relu
I1016 09:56:12.029600   329 net.cpp:434] conv14_1/relu <- conv14_1
I1016 09:56:12.029603   329 net.cpp:395] conv14_1/relu -> conv14_1 (in-place)
I1016 09:56:12.029966   329 net.cpp:150] Setting up conv14_1/relu
I1016 09:56:12.029976   329 net.cpp:157] Top shape: 4 256 10 15 (153600)
I1016 09:56:12.029979   329 net.cpp:165] Memory required for data: 1155072192
I1016 09:56:12.029981   329 layer_factory.hpp:77] Creating layer conv14_2
I1016 09:56:12.029989   329 net.cpp:100] Creating Layer conv14_2
I1016 09:56:12.029990   329 net.cpp:434] conv14_2 <- conv14_1
I1016 09:56:12.029996   329 net.cpp:408] conv14_2 -> conv14_2
I1016 09:56:12.042454   329 net.cpp:150] Setting up conv14_2
I1016 09:56:12.042476   329 net.cpp:157] Top shape: 4 512 5 8 (81920)
I1016 09:56:12.042480   329 net.cpp:165] Memory required for data: 1155399872
I1016 09:56:12.042487   329 layer_factory.hpp:77] Creating layer conv14_2/bn
I1016 09:56:12.042495   329 net.cpp:100] Creating Layer conv14_2/bn
I1016 09:56:12.042500   329 net.cpp:434] conv14_2/bn <- conv14_2
I1016 09:56:12.042507   329 net.cpp:395] conv14_2/bn -> conv14_2 (in-place)
I1016 09:56:12.042707   329 net.cpp:150] Setting up conv14_2/bn
I1016 09:56:12.042712   329 net.cpp:157] Top shape: 4 512 5 8 (81920)
I1016 09:56:12.042716   329 net.cpp:165] Memory required for data: 1155727552
I1016 09:56:12.042721   329 layer_factory.hpp:77] Creating layer conv14_2/scale
I1016 09:56:12.042727   329 net.cpp:100] Creating Layer conv14_2/scale
I1016 09:56:12.042731   329 net.cpp:434] conv14_2/scale <- conv14_2
I1016 09:56:12.042734   329 net.cpp:395] conv14_2/scale -> conv14_2 (in-place)
I1016 09:56:12.042770   329 layer_factory.hpp:77] Creating layer conv14_2/scale
I1016 09:56:12.042876   329 net.cpp:150] Setting up conv14_2/scale
I1016 09:56:12.042881   329 net.cpp:157] Top shape: 4 512 5 8 (81920)
I1016 09:56:12.042882   329 net.cpp:165] Memory required for data: 1156055232
I1016 09:56:12.042886   329 layer_factory.hpp:77] Creating layer conv14_2/relu
I1016 09:56:12.042891   329 net.cpp:100] Creating Layer conv14_2/relu
I1016 09:56:12.042893   329 net.cpp:434] conv14_2/relu <- conv14_2
I1016 09:56:12.042896   329 net.cpp:395] conv14_2/relu -> conv14_2 (in-place)
I1016 09:56:12.043269   329 net.cpp:150] Setting up conv14_2/relu
I1016 09:56:12.043280   329 net.cpp:157] Top shape: 4 512 5 8 (81920)
I1016 09:56:12.043282   329 net.cpp:165] Memory required for data: 1156382912
I1016 09:56:12.043285   329 layer_factory.hpp:77] Creating layer conv14_2_conv14_2/relu_0_split
I1016 09:56:12.043290   329 net.cpp:100] Creating Layer conv14_2_conv14_2/relu_0_split
I1016 09:56:12.043293   329 net.cpp:434] conv14_2_conv14_2/relu_0_split <- conv14_2
I1016 09:56:12.043298   329 net.cpp:408] conv14_2_conv14_2/relu_0_split -> conv14_2_conv14_2/relu_0_split_0
I1016 09:56:12.043304   329 net.cpp:408] conv14_2_conv14_2/relu_0_split -> conv14_2_conv14_2/relu_0_split_1
I1016 09:56:12.043310   329 net.cpp:408] conv14_2_conv14_2/relu_0_split -> conv14_2_conv14_2/relu_0_split_2
I1016 09:56:12.043315   329 net.cpp:408] conv14_2_conv14_2/relu_0_split -> conv14_2_conv14_2/relu_0_split_3
I1016 09:56:12.043376   329 net.cpp:150] Setting up conv14_2_conv14_2/relu_0_split
I1016 09:56:12.043381   329 net.cpp:157] Top shape: 4 512 5 8 (81920)
I1016 09:56:12.043383   329 net.cpp:157] Top shape: 4 512 5 8 (81920)
I1016 09:56:12.043386   329 net.cpp:157] Top shape: 4 512 5 8 (81920)
I1016 09:56:12.043390   329 net.cpp:157] Top shape: 4 512 5 8 (81920)
I1016 09:56:12.043391   329 net.cpp:165] Memory required for data: 1157693632
I1016 09:56:12.043393   329 layer_factory.hpp:77] Creating layer conv15_1
I1016 09:56:12.043401   329 net.cpp:100] Creating Layer conv15_1
I1016 09:56:12.043404   329 net.cpp:434] conv15_1 <- conv14_2_conv14_2/relu_0_split_0
I1016 09:56:12.043409   329 net.cpp:408] conv15_1 -> conv15_1
I1016 09:56:12.045544   329 net.cpp:150] Setting up conv15_1
I1016 09:56:12.045557   329 net.cpp:157] Top shape: 4 128 5 8 (20480)
I1016 09:56:12.045559   329 net.cpp:165] Memory required for data: 1157775552
I1016 09:56:12.045563   329 layer_factory.hpp:77] Creating layer conv15_1/bn
I1016 09:56:12.045568   329 net.cpp:100] Creating Layer conv15_1/bn
I1016 09:56:12.045573   329 net.cpp:434] conv15_1/bn <- conv15_1
I1016 09:56:12.045578   329 net.cpp:395] conv15_1/bn -> conv15_1 (in-place)
I1016 09:56:12.045749   329 net.cpp:150] Setting up conv15_1/bn
I1016 09:56:12.045758   329 net.cpp:157] Top shape: 4 128 5 8 (20480)
I1016 09:56:12.045760   329 net.cpp:165] Memory required for data: 1157857472
I1016 09:56:12.045765   329 layer_factory.hpp:77] Creating layer conv15_1/scale
I1016 09:56:12.045770   329 net.cpp:100] Creating Layer conv15_1/scale
I1016 09:56:12.045773   329 net.cpp:434] conv15_1/scale <- conv15_1
I1016 09:56:12.045778   329 net.cpp:395] conv15_1/scale -> conv15_1 (in-place)
I1016 09:56:12.045814   329 layer_factory.hpp:77] Creating layer conv15_1/scale
I1016 09:56:12.045917   329 net.cpp:150] Setting up conv15_1/scale
I1016 09:56:12.045922   329 net.cpp:157] Top shape: 4 128 5 8 (20480)
I1016 09:56:12.045924   329 net.cpp:165] Memory required for data: 1157939392
I1016 09:56:12.045928   329 layer_factory.hpp:77] Creating layer conv15_1/relu
I1016 09:56:12.045933   329 net.cpp:100] Creating Layer conv15_1/relu
I1016 09:56:12.045936   329 net.cpp:434] conv15_1/relu <- conv15_1
I1016 09:56:12.045940   329 net.cpp:395] conv15_1/relu -> conv15_1 (in-place)
I1016 09:56:12.046615   329 net.cpp:150] Setting up conv15_1/relu
I1016 09:56:12.046627   329 net.cpp:157] Top shape: 4 128 5 8 (20480)
I1016 09:56:12.046629   329 net.cpp:165] Memory required for data: 1158021312
I1016 09:56:12.046633   329 layer_factory.hpp:77] Creating layer conv15_2
I1016 09:56:12.046640   329 net.cpp:100] Creating Layer conv15_2
I1016 09:56:12.046643   329 net.cpp:434] conv15_2 <- conv15_1
I1016 09:56:12.046649   329 net.cpp:408] conv15_2 -> conv15_2
I1016 09:56:12.051319   329 net.cpp:150] Setting up conv15_2
I1016 09:56:12.051332   329 net.cpp:157] Top shape: 4 256 3 4 (12288)
I1016 09:56:12.051335   329 net.cpp:165] Memory required for data: 1158070464
I1016 09:56:12.051339   329 layer_factory.hpp:77] Creating layer conv15_2/bn
I1016 09:56:12.051362   329 net.cpp:100] Creating Layer conv15_2/bn
I1016 09:56:12.051367   329 net.cpp:434] conv15_2/bn <- conv15_2
I1016 09:56:12.051370   329 net.cpp:395] conv15_2/bn -> conv15_2 (in-place)
I1016 09:56:12.051548   329 net.cpp:150] Setting up conv15_2/bn
I1016 09:56:12.051555   329 net.cpp:157] Top shape: 4 256 3 4 (12288)
I1016 09:56:12.051558   329 net.cpp:165] Memory required for data: 1158119616
I1016 09:56:12.051563   329 layer_factory.hpp:77] Creating layer conv15_2/scale
I1016 09:56:12.051570   329 net.cpp:100] Creating Layer conv15_2/scale
I1016 09:56:12.051573   329 net.cpp:434] conv15_2/scale <- conv15_2
I1016 09:56:12.051576   329 net.cpp:395] conv15_2/scale -> conv15_2 (in-place)
I1016 09:56:12.051614   329 layer_factory.hpp:77] Creating layer conv15_2/scale
I1016 09:56:12.051710   329 net.cpp:150] Setting up conv15_2/scale
I1016 09:56:12.051717   329 net.cpp:157] Top shape: 4 256 3 4 (12288)
I1016 09:56:12.051718   329 net.cpp:165] Memory required for data: 1158168768
I1016 09:56:12.051723   329 layer_factory.hpp:77] Creating layer conv15_2/relu
I1016 09:56:12.051728   329 net.cpp:100] Creating Layer conv15_2/relu
I1016 09:56:12.051730   329 net.cpp:434] conv15_2/relu <- conv15_2
I1016 09:56:12.051734   329 net.cpp:395] conv15_2/relu -> conv15_2 (in-place)
I1016 09:56:12.052093   329 net.cpp:150] Setting up conv15_2/relu
I1016 09:56:12.052101   329 net.cpp:157] Top shape: 4 256 3 4 (12288)
I1016 09:56:12.052104   329 net.cpp:165] Memory required for data: 1158217920
I1016 09:56:12.052108   329 layer_factory.hpp:77] Creating layer conv15_2_conv15_2/relu_0_split
I1016 09:56:12.052114   329 net.cpp:100] Creating Layer conv15_2_conv15_2/relu_0_split
I1016 09:56:12.052115   329 net.cpp:434] conv15_2_conv15_2/relu_0_split <- conv15_2
I1016 09:56:12.052122   329 net.cpp:408] conv15_2_conv15_2/relu_0_split -> conv15_2_conv15_2/relu_0_split_0
I1016 09:56:12.052129   329 net.cpp:408] conv15_2_conv15_2/relu_0_split -> conv15_2_conv15_2/relu_0_split_1
I1016 09:56:12.052134   329 net.cpp:408] conv15_2_conv15_2/relu_0_split -> conv15_2_conv15_2/relu_0_split_2
I1016 09:56:12.052137   329 net.cpp:408] conv15_2_conv15_2/relu_0_split -> conv15_2_conv15_2/relu_0_split_3
I1016 09:56:12.052199   329 net.cpp:150] Setting up conv15_2_conv15_2/relu_0_split
I1016 09:56:12.052204   329 net.cpp:157] Top shape: 4 256 3 4 (12288)
I1016 09:56:12.052207   329 net.cpp:157] Top shape: 4 256 3 4 (12288)
I1016 09:56:12.052209   329 net.cpp:157] Top shape: 4 256 3 4 (12288)
I1016 09:56:12.052212   329 net.cpp:157] Top shape: 4 256 3 4 (12288)
I1016 09:56:12.052214   329 net.cpp:165] Memory required for data: 1158414528
I1016 09:56:12.052217   329 layer_factory.hpp:77] Creating layer conv16_1
I1016 09:56:12.052223   329 net.cpp:100] Creating Layer conv16_1
I1016 09:56:12.052227   329 net.cpp:434] conv16_1 <- conv15_2_conv15_2/relu_0_split_0
I1016 09:56:12.052232   329 net.cpp:408] conv16_1 -> conv16_1
I1016 09:56:12.056499   329 net.cpp:150] Setting up conv16_1
I1016 09:56:12.056519   329 net.cpp:157] Top shape: 4 128 3 4 (6144)
I1016 09:56:12.056522   329 net.cpp:165] Memory required for data: 1158439104
I1016 09:56:12.056529   329 layer_factory.hpp:77] Creating layer conv16_1/bn
I1016 09:56:12.056535   329 net.cpp:100] Creating Layer conv16_1/bn
I1016 09:56:12.056540   329 net.cpp:434] conv16_1/bn <- conv16_1
I1016 09:56:12.056547   329 net.cpp:395] conv16_1/bn -> conv16_1 (in-place)
I1016 09:56:12.056730   329 net.cpp:150] Setting up conv16_1/bn
I1016 09:56:12.056735   329 net.cpp:157] Top shape: 4 128 3 4 (6144)
I1016 09:56:12.056738   329 net.cpp:165] Memory required for data: 1158463680
I1016 09:56:12.056743   329 layer_factory.hpp:77] Creating layer conv16_1/scale
I1016 09:56:12.056751   329 net.cpp:100] Creating Layer conv16_1/scale
I1016 09:56:12.056753   329 net.cpp:434] conv16_1/scale <- conv16_1
I1016 09:56:12.056758   329 net.cpp:395] conv16_1/scale -> conv16_1 (in-place)
I1016 09:56:12.056795   329 layer_factory.hpp:77] Creating layer conv16_1/scale
I1016 09:56:12.056901   329 net.cpp:150] Setting up conv16_1/scale
I1016 09:56:12.056906   329 net.cpp:157] Top shape: 4 128 3 4 (6144)
I1016 09:56:12.056908   329 net.cpp:165] Memory required for data: 1158488256
I1016 09:56:12.056913   329 layer_factory.hpp:77] Creating layer conv16_1/relu
I1016 09:56:12.056918   329 net.cpp:100] Creating Layer conv16_1/relu
I1016 09:56:12.056921   329 net.cpp:434] conv16_1/relu <- conv16_1
I1016 09:56:12.056924   329 net.cpp:395] conv16_1/relu -> conv16_1 (in-place)
I1016 09:56:12.057286   329 net.cpp:150] Setting up conv16_1/relu
I1016 09:56:12.057296   329 net.cpp:157] Top shape: 4 128 3 4 (6144)
I1016 09:56:12.057297   329 net.cpp:165] Memory required for data: 1158512832
I1016 09:56:12.057301   329 layer_factory.hpp:77] Creating layer conv16_2
I1016 09:56:12.057310   329 net.cpp:100] Creating Layer conv16_2
I1016 09:56:12.057313   329 net.cpp:434] conv16_2 <- conv16_1
I1016 09:56:12.057317   329 net.cpp:408] conv16_2 -> conv16_2
I1016 09:56:12.062866   329 net.cpp:150] Setting up conv16_2
I1016 09:56:12.062880   329 net.cpp:157] Top shape: 4 256 2 2 (4096)
I1016 09:56:12.062882   329 net.cpp:165] Memory required for data: 1158529216
I1016 09:56:12.062887   329 layer_factory.hpp:77] Creating layer conv16_2/bn
I1016 09:56:12.062891   329 net.cpp:100] Creating Layer conv16_2/bn
I1016 09:56:12.062896   329 net.cpp:434] conv16_2/bn <- conv16_2
I1016 09:56:12.062899   329 net.cpp:395] conv16_2/bn -> conv16_2 (in-place)
I1016 09:56:12.063078   329 net.cpp:150] Setting up conv16_2/bn
I1016 09:56:12.063083   329 net.cpp:157] Top shape: 4 256 2 2 (4096)
I1016 09:56:12.063086   329 net.cpp:165] Memory required for data: 1158545600
I1016 09:56:12.063091   329 layer_factory.hpp:77] Creating layer conv16_2/scale
I1016 09:56:12.063098   329 net.cpp:100] Creating Layer conv16_2/scale
I1016 09:56:12.063100   329 net.cpp:434] conv16_2/scale <- conv16_2
I1016 09:56:12.063105   329 net.cpp:395] conv16_2/scale -> conv16_2 (in-place)
I1016 09:56:12.063140   329 layer_factory.hpp:77] Creating layer conv16_2/scale
I1016 09:56:12.063237   329 net.cpp:150] Setting up conv16_2/scale
I1016 09:56:12.063243   329 net.cpp:157] Top shape: 4 256 2 2 (4096)
I1016 09:56:12.063246   329 net.cpp:165] Memory required for data: 1158561984
I1016 09:56:12.063251   329 layer_factory.hpp:77] Creating layer conv16_2/relu
I1016 09:56:12.063254   329 net.cpp:100] Creating Layer conv16_2/relu
I1016 09:56:12.063256   329 net.cpp:434] conv16_2/relu <- conv16_2
I1016 09:56:12.063261   329 net.cpp:395] conv16_2/relu -> conv16_2 (in-place)
I1016 09:56:12.063971   329 net.cpp:150] Setting up conv16_2/relu
I1016 09:56:12.063983   329 net.cpp:157] Top shape: 4 256 2 2 (4096)
I1016 09:56:12.063987   329 net.cpp:165] Memory required for data: 1158578368
I1016 09:56:12.063989   329 layer_factory.hpp:77] Creating layer conv16_2_conv16_2/relu_0_split
I1016 09:56:12.063995   329 net.cpp:100] Creating Layer conv16_2_conv16_2/relu_0_split
I1016 09:56:12.063997   329 net.cpp:434] conv16_2_conv16_2/relu_0_split <- conv16_2
I1016 09:56:12.064003   329 net.cpp:408] conv16_2_conv16_2/relu_0_split -> conv16_2_conv16_2/relu_0_split_0
I1016 09:56:12.064010   329 net.cpp:408] conv16_2_conv16_2/relu_0_split -> conv16_2_conv16_2/relu_0_split_1
I1016 09:56:12.064014   329 net.cpp:408] conv16_2_conv16_2/relu_0_split -> conv16_2_conv16_2/relu_0_split_2
I1016 09:56:12.064020   329 net.cpp:408] conv16_2_conv16_2/relu_0_split -> conv16_2_conv16_2/relu_0_split_3
I1016 09:56:12.064085   329 net.cpp:150] Setting up conv16_2_conv16_2/relu_0_split
I1016 09:56:12.064090   329 net.cpp:157] Top shape: 4 256 2 2 (4096)
I1016 09:56:12.064093   329 net.cpp:157] Top shape: 4 256 2 2 (4096)
I1016 09:56:12.064096   329 net.cpp:157] Top shape: 4 256 2 2 (4096)
I1016 09:56:12.064098   329 net.cpp:157] Top shape: 4 256 2 2 (4096)
I1016 09:56:12.064101   329 net.cpp:165] Memory required for data: 1158643904
I1016 09:56:12.064103   329 layer_factory.hpp:77] Creating layer conv17_1
I1016 09:56:12.064110   329 net.cpp:100] Creating Layer conv17_1
I1016 09:56:12.064113   329 net.cpp:434] conv17_1 <- conv16_2_conv16_2/relu_0_split_0
I1016 09:56:12.064119   329 net.cpp:408] conv17_1 -> conv17_1
I1016 09:56:12.065903   329 net.cpp:150] Setting up conv17_1
I1016 09:56:12.065915   329 net.cpp:157] Top shape: 4 64 2 2 (1024)
I1016 09:56:12.065917   329 net.cpp:165] Memory required for data: 1158648000
I1016 09:56:12.065922   329 layer_factory.hpp:77] Creating layer conv17_1/bn
I1016 09:56:12.065927   329 net.cpp:100] Creating Layer conv17_1/bn
I1016 09:56:12.065929   329 net.cpp:434] conv17_1/bn <- conv17_1
I1016 09:56:12.065942   329 net.cpp:395] conv17_1/bn -> conv17_1 (in-place)
I1016 09:56:12.066130   329 net.cpp:150] Setting up conv17_1/bn
I1016 09:56:12.066138   329 net.cpp:157] Top shape: 4 64 2 2 (1024)
I1016 09:56:12.066140   329 net.cpp:165] Memory required for data: 1158652096
I1016 09:56:12.066145   329 layer_factory.hpp:77] Creating layer conv17_1/scale
I1016 09:56:12.066151   329 net.cpp:100] Creating Layer conv17_1/scale
I1016 09:56:12.066154   329 net.cpp:434] conv17_1/scale <- conv17_1
I1016 09:56:12.066157   329 net.cpp:395] conv17_1/scale -> conv17_1 (in-place)
I1016 09:56:12.066195   329 layer_factory.hpp:77] Creating layer conv17_1/scale
I1016 09:56:12.066298   329 net.cpp:150] Setting up conv17_1/scale
I1016 09:56:12.066303   329 net.cpp:157] Top shape: 4 64 2 2 (1024)
I1016 09:56:12.066304   329 net.cpp:165] Memory required for data: 1158656192
I1016 09:56:12.066309   329 layer_factory.hpp:77] Creating layer conv17_1/relu
I1016 09:56:12.066314   329 net.cpp:100] Creating Layer conv17_1/relu
I1016 09:56:12.066318   329 net.cpp:434] conv17_1/relu <- conv17_1
I1016 09:56:12.066320   329 net.cpp:395] conv17_1/relu -> conv17_1 (in-place)
I1016 09:56:12.066684   329 net.cpp:150] Setting up conv17_1/relu
I1016 09:56:12.066694   329 net.cpp:157] Top shape: 4 64 2 2 (1024)
I1016 09:56:12.066695   329 net.cpp:165] Memory required for data: 1158660288
I1016 09:56:12.066699   329 layer_factory.hpp:77] Creating layer conv17_2
I1016 09:56:12.066706   329 net.cpp:100] Creating Layer conv17_2
I1016 09:56:12.066709   329 net.cpp:434] conv17_2 <- conv17_1
I1016 09:56:12.066715   329 net.cpp:408] conv17_2 -> conv17_2
I1016 09:56:12.068898   329 net.cpp:150] Setting up conv17_2
I1016 09:56:12.068909   329 net.cpp:157] Top shape: 4 128 1 1 (512)
I1016 09:56:12.068912   329 net.cpp:165] Memory required for data: 1158662336
I1016 09:56:12.068917   329 layer_factory.hpp:77] Creating layer conv17_2/bn
I1016 09:56:12.068924   329 net.cpp:100] Creating Layer conv17_2/bn
I1016 09:56:12.068928   329 net.cpp:434] conv17_2/bn <- conv17_2
I1016 09:56:12.068933   329 net.cpp:395] conv17_2/bn -> conv17_2 (in-place)
I1016 09:56:12.069105   329 net.cpp:150] Setting up conv17_2/bn
I1016 09:56:12.069113   329 net.cpp:157] Top shape: 4 128 1 1 (512)
I1016 09:56:12.069114   329 net.cpp:165] Memory required for data: 1158664384
I1016 09:56:12.069119   329 layer_factory.hpp:77] Creating layer conv17_2/scale
I1016 09:56:12.069125   329 net.cpp:100] Creating Layer conv17_2/scale
I1016 09:56:12.069128   329 net.cpp:434] conv17_2/scale <- conv17_2
I1016 09:56:12.069131   329 net.cpp:395] conv17_2/scale -> conv17_2 (in-place)
I1016 09:56:12.069169   329 layer_factory.hpp:77] Creating layer conv17_2/scale
I1016 09:56:12.069269   329 net.cpp:150] Setting up conv17_2/scale
I1016 09:56:12.069277   329 net.cpp:157] Top shape: 4 128 1 1 (512)
I1016 09:56:12.069278   329 net.cpp:165] Memory required for data: 1158666432
I1016 09:56:12.069283   329 layer_factory.hpp:77] Creating layer conv17_2/relu
I1016 09:56:12.069288   329 net.cpp:100] Creating Layer conv17_2/relu
I1016 09:56:12.069289   329 net.cpp:434] conv17_2/relu <- conv17_2
I1016 09:56:12.069293   329 net.cpp:395] conv17_2/relu -> conv17_2 (in-place)
I1016 09:56:12.069655   329 net.cpp:150] Setting up conv17_2/relu
I1016 09:56:12.069664   329 net.cpp:157] Top shape: 4 128 1 1 (512)
I1016 09:56:12.069666   329 net.cpp:165] Memory required for data: 1158668480
I1016 09:56:12.069669   329 layer_factory.hpp:77] Creating layer conv17_2_conv17_2/relu_0_split
I1016 09:56:12.069674   329 net.cpp:100] Creating Layer conv17_2_conv17_2/relu_0_split
I1016 09:56:12.069677   329 net.cpp:434] conv17_2_conv17_2/relu_0_split <- conv17_2
I1016 09:56:12.069681   329 net.cpp:408] conv17_2_conv17_2/relu_0_split -> conv17_2_conv17_2/relu_0_split_0
I1016 09:56:12.069687   329 net.cpp:408] conv17_2_conv17_2/relu_0_split -> conv17_2_conv17_2/relu_0_split_1
I1016 09:56:12.069694   329 net.cpp:408] conv17_2_conv17_2/relu_0_split -> conv17_2_conv17_2/relu_0_split_2
I1016 09:56:12.069746   329 net.cpp:150] Setting up conv17_2_conv17_2/relu_0_split
I1016 09:56:12.069749   329 net.cpp:157] Top shape: 4 128 1 1 (512)
I1016 09:56:12.069752   329 net.cpp:157] Top shape: 4 128 1 1 (512)
I1016 09:56:12.069756   329 net.cpp:157] Top shape: 4 128 1 1 (512)
I1016 09:56:12.069757   329 net.cpp:165] Memory required for data: 1158674624
I1016 09:56:12.069759   329 layer_factory.hpp:77] Creating layer conv11_mbox_loc
I1016 09:56:12.069767   329 net.cpp:100] Creating Layer conv11_mbox_loc
I1016 09:56:12.069772   329 net.cpp:434] conv11_mbox_loc <- conv11_conv11/relu_0_split_1
I1016 09:56:12.069777   329 net.cpp:408] conv11_mbox_loc -> conv11_mbox_loc
I1016 09:56:12.071516   329 net.cpp:150] Setting up conv11_mbox_loc
I1016 09:56:12.071528   329 net.cpp:157] Top shape: 4 12 20 30 (28800)
I1016 09:56:12.071532   329 net.cpp:165] Memory required for data: 1158789824
I1016 09:56:12.071537   329 layer_factory.hpp:77] Creating layer conv11_mbox_loc_perm
I1016 09:56:12.071543   329 net.cpp:100] Creating Layer conv11_mbox_loc_perm
I1016 09:56:12.071547   329 net.cpp:434] conv11_mbox_loc_perm <- conv11_mbox_loc
I1016 09:56:12.071552   329 net.cpp:408] conv11_mbox_loc_perm -> conv11_mbox_loc_perm
I1016 09:56:12.071650   329 net.cpp:150] Setting up conv11_mbox_loc_perm
I1016 09:56:12.071655   329 net.cpp:157] Top shape: 4 20 30 12 (28800)
I1016 09:56:12.071657   329 net.cpp:165] Memory required for data: 1158905024
I1016 09:56:12.071660   329 layer_factory.hpp:77] Creating layer conv11_mbox_loc_flat
I1016 09:56:12.071666   329 net.cpp:100] Creating Layer conv11_mbox_loc_flat
I1016 09:56:12.071669   329 net.cpp:434] conv11_mbox_loc_flat <- conv11_mbox_loc_perm
I1016 09:56:12.071672   329 net.cpp:408] conv11_mbox_loc_flat -> conv11_mbox_loc_flat
I1016 09:56:12.071696   329 net.cpp:150] Setting up conv11_mbox_loc_flat
I1016 09:56:12.071700   329 net.cpp:157] Top shape: 4 7200 (28800)
I1016 09:56:12.071702   329 net.cpp:165] Memory required for data: 1159020224
I1016 09:56:12.071704   329 layer_factory.hpp:77] Creating layer conv11_mbox_conf_new
I1016 09:56:12.071712   329 net.cpp:100] Creating Layer conv11_mbox_conf_new
I1016 09:56:12.071714   329 net.cpp:434] conv11_mbox_conf_new <- conv11_conv11/relu_0_split_2
I1016 09:56:12.071720   329 net.cpp:408] conv11_mbox_conf_new -> conv11_mbox_conf
I1016 09:56:12.073482   329 net.cpp:150] Setting up conv11_mbox_conf_new
I1016 09:56:12.073495   329 net.cpp:157] Top shape: 4 9 20 30 (21600)
I1016 09:56:12.073498   329 net.cpp:165] Memory required for data: 1159106624
I1016 09:56:12.073503   329 layer_factory.hpp:77] Creating layer conv11_mbox_conf_perm
I1016 09:56:12.073508   329 net.cpp:100] Creating Layer conv11_mbox_conf_perm
I1016 09:56:12.073511   329 net.cpp:434] conv11_mbox_conf_perm <- conv11_mbox_conf
I1016 09:56:12.073518   329 net.cpp:408] conv11_mbox_conf_perm -> conv11_mbox_conf_perm
I1016 09:56:12.073616   329 net.cpp:150] Setting up conv11_mbox_conf_perm
I1016 09:56:12.073621   329 net.cpp:157] Top shape: 4 20 30 9 (21600)
I1016 09:56:12.073623   329 net.cpp:165] Memory required for data: 1159193024
I1016 09:56:12.073626   329 layer_factory.hpp:77] Creating layer conv11_mbox_conf_flat
I1016 09:56:12.073631   329 net.cpp:100] Creating Layer conv11_mbox_conf_flat
I1016 09:56:12.073633   329 net.cpp:434] conv11_mbox_conf_flat <- conv11_mbox_conf_perm
I1016 09:56:12.073638   329 net.cpp:408] conv11_mbox_conf_flat -> conv11_mbox_conf_flat
I1016 09:56:12.073660   329 net.cpp:150] Setting up conv11_mbox_conf_flat
I1016 09:56:12.073667   329 net.cpp:157] Top shape: 4 5400 (21600)
I1016 09:56:12.073668   329 net.cpp:165] Memory required for data: 1159279424
I1016 09:56:12.073670   329 layer_factory.hpp:77] Creating layer conv11_mbox_priorbox
I1016 09:56:12.073675   329 net.cpp:100] Creating Layer conv11_mbox_priorbox
I1016 09:56:12.073678   329 net.cpp:434] conv11_mbox_priorbox <- conv11_conv11/relu_0_split_3
I1016 09:56:12.073683   329 net.cpp:434] conv11_mbox_priorbox <- data_data_0_split_1
I1016 09:56:12.073688   329 net.cpp:408] conv11_mbox_priorbox -> conv11_mbox_priorbox
I1016 09:56:12.073712   329 net.cpp:150] Setting up conv11_mbox_priorbox
I1016 09:56:12.073717   329 net.cpp:157] Top shape: 1 2 7200 (14400)
I1016 09:56:12.073719   329 net.cpp:165] Memory required for data: 1159337024
I1016 09:56:12.073721   329 layer_factory.hpp:77] Creating layer conv13_mbox_loc
I1016 09:56:12.073729   329 net.cpp:100] Creating Layer conv13_mbox_loc
I1016 09:56:12.073732   329 net.cpp:434] conv13_mbox_loc <- conv13_conv13/relu_0_split_1
I1016 09:56:12.073737   329 net.cpp:408] conv13_mbox_loc -> conv13_mbox_loc
I1016 09:56:12.075633   329 net.cpp:150] Setting up conv13_mbox_loc
I1016 09:56:12.075644   329 net.cpp:157] Top shape: 4 24 10 15 (14400)
I1016 09:56:12.075646   329 net.cpp:165] Memory required for data: 1159394624
I1016 09:56:12.075651   329 layer_factory.hpp:77] Creating layer conv13_mbox_loc_perm
I1016 09:56:12.075659   329 net.cpp:100] Creating Layer conv13_mbox_loc_perm
I1016 09:56:12.075661   329 net.cpp:434] conv13_mbox_loc_perm <- conv13_mbox_loc
I1016 09:56:12.075666   329 net.cpp:408] conv13_mbox_loc_perm -> conv13_mbox_loc_perm
I1016 09:56:12.075767   329 net.cpp:150] Setting up conv13_mbox_loc_perm
I1016 09:56:12.075773   329 net.cpp:157] Top shape: 4 10 15 24 (14400)
I1016 09:56:12.075774   329 net.cpp:165] Memory required for data: 1159452224
I1016 09:56:12.075778   329 layer_factory.hpp:77] Creating layer conv13_mbox_loc_flat
I1016 09:56:12.075781   329 net.cpp:100] Creating Layer conv13_mbox_loc_flat
I1016 09:56:12.075784   329 net.cpp:434] conv13_mbox_loc_flat <- conv13_mbox_loc_perm
I1016 09:56:12.075789   329 net.cpp:408] conv13_mbox_loc_flat -> conv13_mbox_loc_flat
I1016 09:56:12.075812   329 net.cpp:150] Setting up conv13_mbox_loc_flat
I1016 09:56:12.075816   329 net.cpp:157] Top shape: 4 3600 (14400)
I1016 09:56:12.075819   329 net.cpp:165] Memory required for data: 1159509824
I1016 09:56:12.075820   329 layer_factory.hpp:77] Creating layer conv13_mbox_conf_new
I1016 09:56:12.075829   329 net.cpp:100] Creating Layer conv13_mbox_conf_new
I1016 09:56:12.075831   329 net.cpp:434] conv13_mbox_conf_new <- conv13_conv13/relu_0_split_2
I1016 09:56:12.075836   329 net.cpp:408] conv13_mbox_conf_new -> conv13_mbox_conf
I1016 09:56:12.077668   329 net.cpp:150] Setting up conv13_mbox_conf_new
I1016 09:56:12.077679   329 net.cpp:157] Top shape: 4 18 10 15 (10800)
I1016 09:56:12.077682   329 net.cpp:165] Memory required for data: 1159553024
I1016 09:56:12.077688   329 layer_factory.hpp:77] Creating layer conv13_mbox_conf_perm
I1016 09:56:12.077695   329 net.cpp:100] Creating Layer conv13_mbox_conf_perm
I1016 09:56:12.077698   329 net.cpp:434] conv13_mbox_conf_perm <- conv13_mbox_conf
I1016 09:56:12.077702   329 net.cpp:408] conv13_mbox_conf_perm -> conv13_mbox_conf_perm
I1016 09:56:12.077800   329 net.cpp:150] Setting up conv13_mbox_conf_perm
I1016 09:56:12.077807   329 net.cpp:157] Top shape: 4 10 15 18 (10800)
I1016 09:56:12.077810   329 net.cpp:165] Memory required for data: 1159596224
I1016 09:56:12.077811   329 layer_factory.hpp:77] Creating layer conv13_mbox_conf_flat
I1016 09:56:12.077817   329 net.cpp:100] Creating Layer conv13_mbox_conf_flat
I1016 09:56:12.077826   329 net.cpp:434] conv13_mbox_conf_flat <- conv13_mbox_conf_perm
I1016 09:56:12.077829   329 net.cpp:408] conv13_mbox_conf_flat -> conv13_mbox_conf_flat
I1016 09:56:12.077854   329 net.cpp:150] Setting up conv13_mbox_conf_flat
I1016 09:56:12.077859   329 net.cpp:157] Top shape: 4 2700 (10800)
I1016 09:56:12.077862   329 net.cpp:165] Memory required for data: 1159639424
I1016 09:56:12.077863   329 layer_factory.hpp:77] Creating layer conv13_mbox_priorbox
I1016 09:56:12.077869   329 net.cpp:100] Creating Layer conv13_mbox_priorbox
I1016 09:56:12.077872   329 net.cpp:434] conv13_mbox_priorbox <- conv13_conv13/relu_0_split_3
I1016 09:56:12.077875   329 net.cpp:434] conv13_mbox_priorbox <- data_data_0_split_2
I1016 09:56:12.077881   329 net.cpp:408] conv13_mbox_priorbox -> conv13_mbox_priorbox
I1016 09:56:12.077904   329 net.cpp:150] Setting up conv13_mbox_priorbox
I1016 09:56:12.077909   329 net.cpp:157] Top shape: 1 2 3600 (7200)
I1016 09:56:12.077910   329 net.cpp:165] Memory required for data: 1159668224
I1016 09:56:12.077913   329 layer_factory.hpp:77] Creating layer conv14_2_mbox_loc
I1016 09:56:12.077922   329 net.cpp:100] Creating Layer conv14_2_mbox_loc
I1016 09:56:12.077925   329 net.cpp:434] conv14_2_mbox_loc <- conv14_2_conv14_2/relu_0_split_1
I1016 09:56:12.077929   329 net.cpp:408] conv14_2_mbox_loc -> conv14_2_mbox_loc
I1016 09:56:12.079717   329 net.cpp:150] Setting up conv14_2_mbox_loc
I1016 09:56:12.079730   329 net.cpp:157] Top shape: 4 24 5 8 (3840)
I1016 09:56:12.079733   329 net.cpp:165] Memory required for data: 1159683584
I1016 09:56:12.079738   329 layer_factory.hpp:77] Creating layer conv14_2_mbox_loc_perm
I1016 09:56:12.079743   329 net.cpp:100] Creating Layer conv14_2_mbox_loc_perm
I1016 09:56:12.079746   329 net.cpp:434] conv14_2_mbox_loc_perm <- conv14_2_mbox_loc
I1016 09:56:12.079752   329 net.cpp:408] conv14_2_mbox_loc_perm -> conv14_2_mbox_loc_perm
I1016 09:56:12.079854   329 net.cpp:150] Setting up conv14_2_mbox_loc_perm
I1016 09:56:12.079859   329 net.cpp:157] Top shape: 4 5 8 24 (3840)
I1016 09:56:12.079859   329 net.cpp:165] Memory required for data: 1159698944
I1016 09:56:12.079862   329 layer_factory.hpp:77] Creating layer conv14_2_mbox_loc_flat
I1016 09:56:12.079867   329 net.cpp:100] Creating Layer conv14_2_mbox_loc_flat
I1016 09:56:12.079870   329 net.cpp:434] conv14_2_mbox_loc_flat <- conv14_2_mbox_loc_perm
I1016 09:56:12.079875   329 net.cpp:408] conv14_2_mbox_loc_flat -> conv14_2_mbox_loc_flat
I1016 09:56:12.079896   329 net.cpp:150] Setting up conv14_2_mbox_loc_flat
I1016 09:56:12.079900   329 net.cpp:157] Top shape: 4 960 (3840)
I1016 09:56:12.079902   329 net.cpp:165] Memory required for data: 1159714304
I1016 09:56:12.079905   329 layer_factory.hpp:77] Creating layer conv14_2_mbox_conf_new
I1016 09:56:12.079915   329 net.cpp:100] Creating Layer conv14_2_mbox_conf_new
I1016 09:56:12.079917   329 net.cpp:434] conv14_2_mbox_conf_new <- conv14_2_conv14_2/relu_0_split_2
I1016 09:56:12.079921   329 net.cpp:408] conv14_2_mbox_conf_new -> conv14_2_mbox_conf
I1016 09:56:12.082021   329 net.cpp:150] Setting up conv14_2_mbox_conf_new
I1016 09:56:12.082032   329 net.cpp:157] Top shape: 4 18 5 8 (2880)
I1016 09:56:12.082036   329 net.cpp:165] Memory required for data: 1159725824
I1016 09:56:12.082041   329 layer_factory.hpp:77] Creating layer conv14_2_mbox_conf_perm
I1016 09:56:12.082047   329 net.cpp:100] Creating Layer conv14_2_mbox_conf_perm
I1016 09:56:12.082051   329 net.cpp:434] conv14_2_mbox_conf_perm <- conv14_2_mbox_conf
I1016 09:56:12.082056   329 net.cpp:408] conv14_2_mbox_conf_perm -> conv14_2_mbox_conf_perm
I1016 09:56:12.082154   329 net.cpp:150] Setting up conv14_2_mbox_conf_perm
I1016 09:56:12.082160   329 net.cpp:157] Top shape: 4 5 8 18 (2880)
I1016 09:56:12.082164   329 net.cpp:165] Memory required for data: 1159737344
I1016 09:56:12.082165   329 layer_factory.hpp:77] Creating layer conv14_2_mbox_conf_flat
I1016 09:56:12.082170   329 net.cpp:100] Creating Layer conv14_2_mbox_conf_flat
I1016 09:56:12.082172   329 net.cpp:434] conv14_2_mbox_conf_flat <- conv14_2_mbox_conf_perm
I1016 09:56:12.082178   329 net.cpp:408] conv14_2_mbox_conf_flat -> conv14_2_mbox_conf_flat
I1016 09:56:12.082202   329 net.cpp:150] Setting up conv14_2_mbox_conf_flat
I1016 09:56:12.082206   329 net.cpp:157] Top shape: 4 720 (2880)
I1016 09:56:12.082208   329 net.cpp:165] Memory required for data: 1159748864
I1016 09:56:12.082211   329 layer_factory.hpp:77] Creating layer conv14_2_mbox_priorbox
I1016 09:56:12.082216   329 net.cpp:100] Creating Layer conv14_2_mbox_priorbox
I1016 09:56:12.082219   329 net.cpp:434] conv14_2_mbox_priorbox <- conv14_2_conv14_2/relu_0_split_3
I1016 09:56:12.082223   329 net.cpp:434] conv14_2_mbox_priorbox <- data_data_0_split_3
I1016 09:56:12.082227   329 net.cpp:408] conv14_2_mbox_priorbox -> conv14_2_mbox_priorbox
I1016 09:56:12.082252   329 net.cpp:150] Setting up conv14_2_mbox_priorbox
I1016 09:56:12.082257   329 net.cpp:157] Top shape: 1 2 960 (1920)
I1016 09:56:12.082258   329 net.cpp:165] Memory required for data: 1159756544
I1016 09:56:12.082260   329 layer_factory.hpp:77] Creating layer conv15_2_mbox_loc
I1016 09:56:12.082268   329 net.cpp:100] Creating Layer conv15_2_mbox_loc
I1016 09:56:12.082271   329 net.cpp:434] conv15_2_mbox_loc <- conv15_2_conv15_2/relu_0_split_1
I1016 09:56:12.082275   329 net.cpp:408] conv15_2_mbox_loc -> conv15_2_mbox_loc
I1016 09:56:12.084038   329 net.cpp:150] Setting up conv15_2_mbox_loc
I1016 09:56:12.084049   329 net.cpp:157] Top shape: 4 24 3 4 (1152)
I1016 09:56:12.084051   329 net.cpp:165] Memory required for data: 1159761152
I1016 09:56:12.084058   329 layer_factory.hpp:77] Creating layer conv15_2_mbox_loc_perm
I1016 09:56:12.084064   329 net.cpp:100] Creating Layer conv15_2_mbox_loc_perm
I1016 09:56:12.084067   329 net.cpp:434] conv15_2_mbox_loc_perm <- conv15_2_mbox_loc
I1016 09:56:12.084071   329 net.cpp:408] conv15_2_mbox_loc_perm -> conv15_2_mbox_loc_perm
I1016 09:56:12.084172   329 net.cpp:150] Setting up conv15_2_mbox_loc_perm
I1016 09:56:12.084177   329 net.cpp:157] Top shape: 4 3 4 24 (1152)
I1016 09:56:12.084179   329 net.cpp:165] Memory required for data: 1159765760
I1016 09:56:12.084182   329 layer_factory.hpp:77] Creating layer conv15_2_mbox_loc_flat
I1016 09:56:12.084187   329 net.cpp:100] Creating Layer conv15_2_mbox_loc_flat
I1016 09:56:12.084189   329 net.cpp:434] conv15_2_mbox_loc_flat <- conv15_2_mbox_loc_perm
I1016 09:56:12.084194   329 net.cpp:408] conv15_2_mbox_loc_flat -> conv15_2_mbox_loc_flat
I1016 09:56:12.084216   329 net.cpp:150] Setting up conv15_2_mbox_loc_flat
I1016 09:56:12.084220   329 net.cpp:157] Top shape: 4 288 (1152)
I1016 09:56:12.084223   329 net.cpp:165] Memory required for data: 1159770368
I1016 09:56:12.084225   329 layer_factory.hpp:77] Creating layer conv15_2_mbox_conf_new
I1016 09:56:12.084233   329 net.cpp:100] Creating Layer conv15_2_mbox_conf_new
I1016 09:56:12.084236   329 net.cpp:434] conv15_2_mbox_conf_new <- conv15_2_conv15_2/relu_0_split_2
I1016 09:56:12.084241   329 net.cpp:408] conv15_2_mbox_conf_new -> conv15_2_mbox_conf
I1016 09:56:12.086068   329 net.cpp:150] Setting up conv15_2_mbox_conf_new
I1016 09:56:12.086084   329 net.cpp:157] Top shape: 4 18 3 4 (864)
I1016 09:56:12.086086   329 net.cpp:165] Memory required for data: 1159773824
I1016 09:56:12.086096   329 layer_factory.hpp:77] Creating layer conv15_2_mbox_conf_perm
I1016 09:56:12.086103   329 net.cpp:100] Creating Layer conv15_2_mbox_conf_perm
I1016 09:56:12.086108   329 net.cpp:434] conv15_2_mbox_conf_perm <- conv15_2_mbox_conf
I1016 09:56:12.086115   329 net.cpp:408] conv15_2_mbox_conf_perm -> conv15_2_mbox_conf_perm
I1016 09:56:12.086282   329 net.cpp:150] Setting up conv15_2_mbox_conf_perm
I1016 09:56:12.086290   329 net.cpp:157] Top shape: 4 3 4 18 (864)
I1016 09:56:12.086292   329 net.cpp:165] Memory required for data: 1159777280
I1016 09:56:12.086295   329 layer_factory.hpp:77] Creating layer conv15_2_mbox_conf_flat
I1016 09:56:12.086300   329 net.cpp:100] Creating Layer conv15_2_mbox_conf_flat
I1016 09:56:12.086303   329 net.cpp:434] conv15_2_mbox_conf_flat <- conv15_2_mbox_conf_perm
I1016 09:56:12.086308   329 net.cpp:408] conv15_2_mbox_conf_flat -> conv15_2_mbox_conf_flat
I1016 09:56:12.086347   329 net.cpp:150] Setting up conv15_2_mbox_conf_flat
I1016 09:56:12.086352   329 net.cpp:157] Top shape: 4 216 (864)
I1016 09:56:12.086354   329 net.cpp:165] Memory required for data: 1159780736
I1016 09:56:12.086356   329 layer_factory.hpp:77] Creating layer conv15_2_mbox_priorbox
I1016 09:56:12.086361   329 net.cpp:100] Creating Layer conv15_2_mbox_priorbox
I1016 09:56:12.086364   329 net.cpp:434] conv15_2_mbox_priorbox <- conv15_2_conv15_2/relu_0_split_3
I1016 09:56:12.086369   329 net.cpp:434] conv15_2_mbox_priorbox <- data_data_0_split_4
I1016 09:56:12.086374   329 net.cpp:408] conv15_2_mbox_priorbox -> conv15_2_mbox_priorbox
I1016 09:56:12.086400   329 net.cpp:150] Setting up conv15_2_mbox_priorbox
I1016 09:56:12.086405   329 net.cpp:157] Top shape: 1 2 288 (576)
I1016 09:56:12.086406   329 net.cpp:165] Memory required for data: 1159783040
I1016 09:56:12.086408   329 layer_factory.hpp:77] Creating layer conv16_2_mbox_loc
I1016 09:56:12.086416   329 net.cpp:100] Creating Layer conv16_2_mbox_loc
I1016 09:56:12.086421   329 net.cpp:434] conv16_2_mbox_loc <- conv16_2_conv16_2/relu_0_split_1
I1016 09:56:12.086426   329 net.cpp:408] conv16_2_mbox_loc -> conv16_2_mbox_loc
I1016 09:56:12.088439   329 net.cpp:150] Setting up conv16_2_mbox_loc
I1016 09:56:12.088451   329 net.cpp:157] Top shape: 4 24 2 2 (384)
I1016 09:56:12.088454   329 net.cpp:165] Memory required for data: 1159784576
I1016 09:56:12.088459   329 layer_factory.hpp:77] Creating layer conv16_2_mbox_loc_perm
I1016 09:56:12.088465   329 net.cpp:100] Creating Layer conv16_2_mbox_loc_perm
I1016 09:56:12.088469   329 net.cpp:434] conv16_2_mbox_loc_perm <- conv16_2_mbox_loc
I1016 09:56:12.088475   329 net.cpp:408] conv16_2_mbox_loc_perm -> conv16_2_mbox_loc_perm
I1016 09:56:12.088575   329 net.cpp:150] Setting up conv16_2_mbox_loc_perm
I1016 09:56:12.088580   329 net.cpp:157] Top shape: 4 2 2 24 (384)
I1016 09:56:12.088582   329 net.cpp:165] Memory required for data: 1159786112
I1016 09:56:12.088584   329 layer_factory.hpp:77] Creating layer conv16_2_mbox_loc_flat
I1016 09:56:12.088590   329 net.cpp:100] Creating Layer conv16_2_mbox_loc_flat
I1016 09:56:12.088593   329 net.cpp:434] conv16_2_mbox_loc_flat <- conv16_2_mbox_loc_perm
I1016 09:56:12.088596   329 net.cpp:408] conv16_2_mbox_loc_flat -> conv16_2_mbox_loc_flat
I1016 09:56:12.088619   329 net.cpp:150] Setting up conv16_2_mbox_loc_flat
I1016 09:56:12.088624   329 net.cpp:157] Top shape: 4 96 (384)
I1016 09:56:12.088625   329 net.cpp:165] Memory required for data: 1159787648
I1016 09:56:12.088627   329 layer_factory.hpp:77] Creating layer conv16_2_mbox_conf_new
I1016 09:56:12.088635   329 net.cpp:100] Creating Layer conv16_2_mbox_conf_new
I1016 09:56:12.088639   329 net.cpp:434] conv16_2_mbox_conf_new <- conv16_2_conv16_2/relu_0_split_2
I1016 09:56:12.088644   329 net.cpp:408] conv16_2_mbox_conf_new -> conv16_2_mbox_conf
I1016 09:56:12.090417   329 net.cpp:150] Setting up conv16_2_mbox_conf_new
I1016 09:56:12.090430   329 net.cpp:157] Top shape: 4 18 2 2 (288)
I1016 09:56:12.090431   329 net.cpp:165] Memory required for data: 1159788800
I1016 09:56:12.090437   329 layer_factory.hpp:77] Creating layer conv16_2_mbox_conf_perm
I1016 09:56:12.090443   329 net.cpp:100] Creating Layer conv16_2_mbox_conf_perm
I1016 09:56:12.090447   329 net.cpp:434] conv16_2_mbox_conf_perm <- conv16_2_mbox_conf
I1016 09:56:12.090452   329 net.cpp:408] conv16_2_mbox_conf_perm -> conv16_2_mbox_conf_perm
I1016 09:56:12.090553   329 net.cpp:150] Setting up conv16_2_mbox_conf_perm
I1016 09:56:12.090559   329 net.cpp:157] Top shape: 4 2 2 18 (288)
I1016 09:56:12.090560   329 net.cpp:165] Memory required for data: 1159789952
I1016 09:56:12.090564   329 layer_factory.hpp:77] Creating layer conv16_2_mbox_conf_flat
I1016 09:56:12.090569   329 net.cpp:100] Creating Layer conv16_2_mbox_conf_flat
I1016 09:56:12.090571   329 net.cpp:434] conv16_2_mbox_conf_flat <- conv16_2_mbox_conf_perm
I1016 09:56:12.090575   329 net.cpp:408] conv16_2_mbox_conf_flat -> conv16_2_mbox_conf_flat
I1016 09:56:12.090600   329 net.cpp:150] Setting up conv16_2_mbox_conf_flat
I1016 09:56:12.090603   329 net.cpp:157] Top shape: 4 72 (288)
I1016 09:56:12.090605   329 net.cpp:165] Memory required for data: 1159791104
I1016 09:56:12.090607   329 layer_factory.hpp:77] Creating layer conv16_2_mbox_priorbox
I1016 09:56:12.090613   329 net.cpp:100] Creating Layer conv16_2_mbox_priorbox
I1016 09:56:12.090616   329 net.cpp:434] conv16_2_mbox_priorbox <- conv16_2_conv16_2/relu_0_split_3
I1016 09:56:12.090620   329 net.cpp:434] conv16_2_mbox_priorbox <- data_data_0_split_5
I1016 09:56:12.090625   329 net.cpp:408] conv16_2_mbox_priorbox -> conv16_2_mbox_priorbox
I1016 09:56:12.090649   329 net.cpp:150] Setting up conv16_2_mbox_priorbox
I1016 09:56:12.090653   329 net.cpp:157] Top shape: 1 2 96 (192)
I1016 09:56:12.090656   329 net.cpp:165] Memory required for data: 1159791872
I1016 09:56:12.090658   329 layer_factory.hpp:77] Creating layer conv17_2_mbox_loc
I1016 09:56:12.090665   329 net.cpp:100] Creating Layer conv17_2_mbox_loc
I1016 09:56:12.090668   329 net.cpp:434] conv17_2_mbox_loc <- conv17_2_conv17_2/relu_0_split_0
I1016 09:56:12.090675   329 net.cpp:408] conv17_2_mbox_loc -> conv17_2_mbox_loc
I1016 09:56:12.092552   329 net.cpp:150] Setting up conv17_2_mbox_loc
I1016 09:56:12.092564   329 net.cpp:157] Top shape: 4 24 1 1 (96)
I1016 09:56:12.092566   329 net.cpp:165] Memory required for data: 1159792256
I1016 09:56:12.092572   329 layer_factory.hpp:77] Creating layer conv17_2_mbox_loc_perm
I1016 09:56:12.092579   329 net.cpp:100] Creating Layer conv17_2_mbox_loc_perm
I1016 09:56:12.092582   329 net.cpp:434] conv17_2_mbox_loc_perm <- conv17_2_mbox_loc
I1016 09:56:12.092587   329 net.cpp:408] conv17_2_mbox_loc_perm -> conv17_2_mbox_loc_perm
I1016 09:56:12.092689   329 net.cpp:150] Setting up conv17_2_mbox_loc_perm
I1016 09:56:12.092694   329 net.cpp:157] Top shape: 4 1 1 24 (96)
I1016 09:56:12.092696   329 net.cpp:165] Memory required for data: 1159792640
I1016 09:56:12.092698   329 layer_factory.hpp:77] Creating layer conv17_2_mbox_loc_flat
I1016 09:56:12.092705   329 net.cpp:100] Creating Layer conv17_2_mbox_loc_flat
I1016 09:56:12.092708   329 net.cpp:434] conv17_2_mbox_loc_flat <- conv17_2_mbox_loc_perm
I1016 09:56:12.092712   329 net.cpp:408] conv17_2_mbox_loc_flat -> conv17_2_mbox_loc_flat
I1016 09:56:12.092736   329 net.cpp:150] Setting up conv17_2_mbox_loc_flat
I1016 09:56:12.092741   329 net.cpp:157] Top shape: 4 24 (96)
I1016 09:56:12.092743   329 net.cpp:165] Memory required for data: 1159793024
I1016 09:56:12.092746   329 layer_factory.hpp:77] Creating layer conv17_2_mbox_conf_new
I1016 09:56:12.092753   329 net.cpp:100] Creating Layer conv17_2_mbox_conf_new
I1016 09:56:12.092756   329 net.cpp:434] conv17_2_mbox_conf_new <- conv17_2_conv17_2/relu_0_split_1
I1016 09:56:12.092762   329 net.cpp:408] conv17_2_mbox_conf_new -> conv17_2_mbox_conf
I1016 09:56:12.094512   329 net.cpp:150] Setting up conv17_2_mbox_conf_new
I1016 09:56:12.094525   329 net.cpp:157] Top shape: 4 18 1 1 (72)
I1016 09:56:12.094528   329 net.cpp:165] Memory required for data: 1159793312
I1016 09:56:12.094533   329 layer_factory.hpp:77] Creating layer conv17_2_mbox_conf_perm
I1016 09:56:12.094539   329 net.cpp:100] Creating Layer conv17_2_mbox_conf_perm
I1016 09:56:12.094542   329 net.cpp:434] conv17_2_mbox_conf_perm <- conv17_2_mbox_conf
I1016 09:56:12.094548   329 net.cpp:408] conv17_2_mbox_conf_perm -> conv17_2_mbox_conf_perm
I1016 09:56:12.094651   329 net.cpp:150] Setting up conv17_2_mbox_conf_perm
I1016 09:56:12.094660   329 net.cpp:157] Top shape: 4 1 1 18 (72)
I1016 09:56:12.094662   329 net.cpp:165] Memory required for data: 1159793600
I1016 09:56:12.094666   329 layer_factory.hpp:77] Creating layer conv17_2_mbox_conf_flat
I1016 09:56:12.094676   329 net.cpp:100] Creating Layer conv17_2_mbox_conf_flat
I1016 09:56:12.094678   329 net.cpp:434] conv17_2_mbox_conf_flat <- conv17_2_mbox_conf_perm
I1016 09:56:12.094683   329 net.cpp:408] conv17_2_mbox_conf_flat -> conv17_2_mbox_conf_flat
I1016 09:56:12.094708   329 net.cpp:150] Setting up conv17_2_mbox_conf_flat
I1016 09:56:12.094713   329 net.cpp:157] Top shape: 4 18 (72)
I1016 09:56:12.094715   329 net.cpp:165] Memory required for data: 1159793888
I1016 09:56:12.094717   329 layer_factory.hpp:77] Creating layer conv17_2_mbox_priorbox
I1016 09:56:12.094723   329 net.cpp:100] Creating Layer conv17_2_mbox_priorbox
I1016 09:56:12.094727   329 net.cpp:434] conv17_2_mbox_priorbox <- conv17_2_conv17_2/relu_0_split_2
I1016 09:56:12.094730   329 net.cpp:434] conv17_2_mbox_priorbox <- data_data_0_split_6
I1016 09:56:12.094736   329 net.cpp:408] conv17_2_mbox_priorbox -> conv17_2_mbox_priorbox
I1016 09:56:12.094759   329 net.cpp:150] Setting up conv17_2_mbox_priorbox
I1016 09:56:12.094764   329 net.cpp:157] Top shape: 1 2 24 (48)
I1016 09:56:12.094766   329 net.cpp:165] Memory required for data: 1159794080
I1016 09:56:12.094769   329 layer_factory.hpp:77] Creating layer mbox_loc
I1016 09:56:12.094775   329 net.cpp:100] Creating Layer mbox_loc
I1016 09:56:12.094779   329 net.cpp:434] mbox_loc <- conv11_mbox_loc_flat
I1016 09:56:12.094782   329 net.cpp:434] mbox_loc <- conv13_mbox_loc_flat
I1016 09:56:12.094786   329 net.cpp:434] mbox_loc <- conv14_2_mbox_loc_flat
I1016 09:56:12.094789   329 net.cpp:434] mbox_loc <- conv15_2_mbox_loc_flat
I1016 09:56:12.094792   329 net.cpp:434] mbox_loc <- conv16_2_mbox_loc_flat
I1016 09:56:12.094795   329 net.cpp:434] mbox_loc <- conv17_2_mbox_loc_flat
I1016 09:56:12.094799   329 net.cpp:408] mbox_loc -> mbox_loc
I1016 09:56:12.094825   329 net.cpp:150] Setting up mbox_loc
I1016 09:56:12.094828   329 net.cpp:157] Top shape: 4 12168 (48672)
I1016 09:56:12.094830   329 net.cpp:165] Memory required for data: 1159988768
I1016 09:56:12.094832   329 layer_factory.hpp:77] Creating layer mbox_conf
I1016 09:56:12.094838   329 net.cpp:100] Creating Layer mbox_conf
I1016 09:56:12.094841   329 net.cpp:434] mbox_conf <- conv11_mbox_conf_flat
I1016 09:56:12.094846   329 net.cpp:434] mbox_conf <- conv13_mbox_conf_flat
I1016 09:56:12.094848   329 net.cpp:434] mbox_conf <- conv14_2_mbox_conf_flat
I1016 09:56:12.094851   329 net.cpp:434] mbox_conf <- conv15_2_mbox_conf_flat
I1016 09:56:12.094854   329 net.cpp:434] mbox_conf <- conv16_2_mbox_conf_flat
I1016 09:56:12.094857   329 net.cpp:434] mbox_conf <- conv17_2_mbox_conf_flat
I1016 09:56:12.094861   329 net.cpp:408] mbox_conf -> mbox_conf
I1016 09:56:12.094882   329 net.cpp:150] Setting up mbox_conf
I1016 09:56:12.094887   329 net.cpp:157] Top shape: 4 9126 (36504)
I1016 09:56:12.094889   329 net.cpp:165] Memory required for data: 1160134784
I1016 09:56:12.094892   329 layer_factory.hpp:77] Creating layer mbox_priorbox
I1016 09:56:12.094895   329 net.cpp:100] Creating Layer mbox_priorbox
I1016 09:56:12.094898   329 net.cpp:434] mbox_priorbox <- conv11_mbox_priorbox
I1016 09:56:12.094902   329 net.cpp:434] mbox_priorbox <- conv13_mbox_priorbox
I1016 09:56:12.094905   329 net.cpp:434] mbox_priorbox <- conv14_2_mbox_priorbox
I1016 09:56:12.094908   329 net.cpp:434] mbox_priorbox <- conv15_2_mbox_priorbox
I1016 09:56:12.094911   329 net.cpp:434] mbox_priorbox <- conv16_2_mbox_priorbox
I1016 09:56:12.094913   329 net.cpp:434] mbox_priorbox <- conv17_2_mbox_priorbox
I1016 09:56:12.094918   329 net.cpp:408] mbox_priorbox -> mbox_priorbox
I1016 09:56:12.094938   329 net.cpp:150] Setting up mbox_priorbox
I1016 09:56:12.094944   329 net.cpp:157] Top shape: 1 2 12168 (24336)
I1016 09:56:12.094945   329 net.cpp:165] Memory required for data: 1160232128
I1016 09:56:12.094947   329 layer_factory.hpp:77] Creating layer mbox_loss
I1016 09:56:12.094956   329 net.cpp:100] Creating Layer mbox_loss
I1016 09:56:12.094959   329 net.cpp:434] mbox_loss <- mbox_loc
I1016 09:56:12.094961   329 net.cpp:434] mbox_loss <- mbox_conf
I1016 09:56:12.094964   329 net.cpp:434] mbox_loss <- mbox_priorbox
I1016 09:56:12.094967   329 net.cpp:434] mbox_loss <- label
I1016 09:56:12.094971   329 net.cpp:408] mbox_loss -> mbox_loss
I1016 09:56:12.095023   329 layer_factory.hpp:77] Creating layer mbox_loss_smooth_L1_loc
I1016 09:56:12.095108   329 layer_factory.hpp:77] Creating layer mbox_loss_softmax_conf
I1016 09:56:12.095118   329 layer_factory.hpp:77] Creating layer mbox_loss_softmax_conf
I1016 09:56:12.095962   329 net.cpp:150] Setting up mbox_loss
I1016 09:56:12.095973   329 net.cpp:157] Top shape: (1)
I1016 09:56:12.095975   329 net.cpp:160]     with loss weight 1
I1016 09:56:12.095983   329 net.cpp:165] Memory required for data: 1160232132
I1016 09:56:12.095985   329 layer_factory.hpp:77] Creating layer score_32
I1016 09:56:12.095994   329 net.cpp:100] Creating Layer score_32
I1016 09:56:12.095999   329 net.cpp:434] score_32 <- conv13_conv13/relu_0_split_4
I1016 09:56:12.096004   329 net.cpp:408] score_32 -> score_32
I1016 09:56:12.097736   329 net.cpp:150] Setting up score_32
I1016 09:56:12.097748   329 net.cpp:157] Top shape: 4 2 10 15 (1200)
I1016 09:56:12.097750   329 net.cpp:165] Memory required for data: 1160236932
I1016 09:56:12.097756   329 layer_factory.hpp:77] Creating layer upscore_16
I1016 09:56:12.097764   329 net.cpp:100] Creating Layer upscore_16
I1016 09:56:12.097767   329 net.cpp:434] upscore_16 <- score_32
I1016 09:56:12.097771   329 net.cpp:408] upscore_16 -> upscore_16
I1016 09:56:12.097987   329 net.cpp:150] Setting up upscore_16
I1016 09:56:12.097996   329 net.cpp:157] Top shape: 4 2 20 30 (4800)
I1016 09:56:12.097998   329 net.cpp:165] Memory required for data: 1160256132
I1016 09:56:12.098002   329 layer_factory.hpp:77] Creating layer score_16
I1016 09:56:12.098008   329 net.cpp:100] Creating Layer score_16
I1016 09:56:12.098012   329 net.cpp:434] score_16 <- conv11_conv11/relu_0_split_4
I1016 09:56:12.098016   329 net.cpp:408] score_16 -> score_16
I1016 09:56:12.099867   329 net.cpp:150] Setting up score_16
I1016 09:56:12.099879   329 net.cpp:157] Top shape: 4 2 20 30 (4800)
I1016 09:56:12.099882   329 net.cpp:165] Memory required for data: 1160275332
I1016 09:56:12.099889   329 layer_factory.hpp:77] Creating layer fuse_16
I1016 09:56:12.099894   329 net.cpp:100] Creating Layer fuse_16
I1016 09:56:12.099896   329 net.cpp:434] fuse_16 <- upscore_16
I1016 09:56:12.099900   329 net.cpp:434] fuse_16 <- score_16
I1016 09:56:12.099906   329 net.cpp:408] fuse_16 -> fuse_16
I1016 09:56:12.099946   329 net.cpp:150] Setting up fuse_16
I1016 09:56:12.099951   329 net.cpp:157] Top shape: 4 2 20 30 (4800)
I1016 09:56:12.099953   329 net.cpp:165] Memory required for data: 1160294532
I1016 09:56:12.099956   329 layer_factory.hpp:77] Creating layer upscore_8
I1016 09:56:12.099963   329 net.cpp:100] Creating Layer upscore_8
I1016 09:56:12.099967   329 net.cpp:434] upscore_8 <- fuse_16
I1016 09:56:12.099975   329 net.cpp:408] upscore_8 -> upscore_8
I1016 09:56:12.100164   329 net.cpp:150] Setting up upscore_8
I1016 09:56:12.100172   329 net.cpp:157] Top shape: 4 2 40 60 (19200)
I1016 09:56:12.100173   329 net.cpp:165] Memory required for data: 1160371332
I1016 09:56:12.100178   329 layer_factory.hpp:77] Creating layer score_8
I1016 09:56:12.100183   329 net.cpp:100] Creating Layer score_8
I1016 09:56:12.100185   329 net.cpp:434] score_8 <- conv5_conv5/relu_0_split_1
I1016 09:56:12.100190   329 net.cpp:408] score_8 -> score_8
I1016 09:56:12.103679   329 net.cpp:150] Setting up score_8
I1016 09:56:12.103691   329 net.cpp:157] Top shape: 4 2 40 60 (19200)
I1016 09:56:12.103694   329 net.cpp:165] Memory required for data: 1160448132
I1016 09:56:12.103699   329 layer_factory.hpp:77] Creating layer fuse_8
I1016 09:56:12.103706   329 net.cpp:100] Creating Layer fuse_8
I1016 09:56:12.103709   329 net.cpp:434] fuse_8 <- upscore_8
I1016 09:56:12.103713   329 net.cpp:434] fuse_8 <- score_8
I1016 09:56:12.103716   329 net.cpp:408] fuse_8 -> fuse_8
I1016 09:56:12.103745   329 net.cpp:150] Setting up fuse_8
I1016 09:56:12.103750   329 net.cpp:157] Top shape: 4 2 40 60 (19200)
I1016 09:56:12.103752   329 net.cpp:165] Memory required for data: 1160524932
I1016 09:56:12.103755   329 layer_factory.hpp:77] Creating layer upscore_4
I1016 09:56:12.103761   329 net.cpp:100] Creating Layer upscore_4
I1016 09:56:12.103763   329 net.cpp:434] upscore_4 <- fuse_8
I1016 09:56:12.103768   329 net.cpp:408] upscore_4 -> upscore_4
I1016 09:56:12.103969   329 net.cpp:150] Setting up upscore_4
I1016 09:56:12.103976   329 net.cpp:157] Top shape: 4 2 80 120 (76800)
I1016 09:56:12.103978   329 net.cpp:165] Memory required for data: 1160832132
I1016 09:56:12.103982   329 layer_factory.hpp:77] Creating layer score_4
I1016 09:56:12.103987   329 net.cpp:100] Creating Layer score_4
I1016 09:56:12.103991   329 net.cpp:434] score_4 <- conv3_conv3/relu_0_split_1
I1016 09:56:12.103994   329 net.cpp:408] score_4 -> score_4
I1016 09:56:12.105916   329 net.cpp:150] Setting up score_4
I1016 09:56:12.105928   329 net.cpp:157] Top shape: 4 2 80 120 (76800)
I1016 09:56:12.105931   329 net.cpp:165] Memory required for data: 1161139332
I1016 09:56:12.105937   329 layer_factory.hpp:77] Creating layer fuse_4
I1016 09:56:12.105942   329 net.cpp:100] Creating Layer fuse_4
I1016 09:56:12.105944   329 net.cpp:434] fuse_4 <- upscore_4
I1016 09:56:12.105947   329 net.cpp:434] fuse_4 <- score_4
I1016 09:56:12.105952   329 net.cpp:408] fuse_4 -> fuse_4
I1016 09:56:12.105980   329 net.cpp:150] Setting up fuse_4
I1016 09:56:12.105985   329 net.cpp:157] Top shape: 4 2 80 120 (76800)
I1016 09:56:12.105988   329 net.cpp:165] Memory required for data: 1161446532
I1016 09:56:12.105989   329 layer_factory.hpp:77] Creating layer upscore
I1016 09:56:12.105996   329 net.cpp:100] Creating Layer upscore
I1016 09:56:12.105999   329 net.cpp:434] upscore <- fuse_4
I1016 09:56:12.106004   329 net.cpp:408] upscore -> upscore
I1016 09:56:12.106187   329 net.cpp:150] Setting up upscore
I1016 09:56:12.106194   329 net.cpp:157] Top shape: 4 2 331 491 (1300168)
I1016 09:56:12.106196   329 net.cpp:165] Memory required for data: 1166647204
I1016 09:56:12.106200   329 layer_factory.hpp:77] Creating layer score
I1016 09:56:12.106207   329 net.cpp:100] Creating Layer score
I1016 09:56:12.106209   329 net.cpp:434] score <- upscore
I1016 09:56:12.106212   329 net.cpp:434] score <- data_data_0_split_7
I1016 09:56:12.106216   329 net.cpp:408] score -> score
I1016 09:56:12.106240   329 net.cpp:150] Setting up score
I1016 09:56:12.106245   329 net.cpp:157] Top shape: 4 2 320 480 (1228800)
I1016 09:56:12.106246   329 net.cpp:165] Memory required for data: 1171562404
I1016 09:56:12.106250   329 layer_factory.hpp:77] Creating layer seg_loss
I1016 09:56:12.106256   329 net.cpp:100] Creating Layer seg_loss
I1016 09:56:12.106257   329 net.cpp:434] seg_loss <- score
I1016 09:56:12.106261   329 net.cpp:434] seg_loss <- label_seg
I1016 09:56:12.106264   329 net.cpp:408] seg_loss -> seg_loss
…
name: "MobileNet-SSD"
state {
  phase: TEST
}
layer {
  name: "data"
  type: "AnnotatedDataWithSeg"
  top: "data"
  top: "label"
  top: "label_seg"
  include {
    phase: TEST
  }
  transform_param {
    scale: 0.007843
    mean_value: 127.5
    mean_value: 127.5
    mean_value: 127.5
    resize_param {
      prob: 1
      resize_mode: WARP
      height: 320
      width: 480
      interp_mode: LINEAR
    }
  }
  data_param {
    source: "lmdb/seg_test_lmdb"
    batch_size: 1
    backend: LMDB
  }
  annotated_data_param {
    label_map_file: "labelmap.prototxt"
  }
}
layer {
  name: "conv0"
  type: "Convolution"
  bottom: "data"
  top: "conv0"
  param {
    lr_mult: 1
    decay_mult: 1
  }
  convolution_param {
    num_output: 32
    bias_term: false
    pad: 1
    kernel_size: 3
    stride: 2
    weight_filler {
      type: "msra"
    }
  }
}
layer {
  name: "conv0/bn"
  type: "BatchNorm"
  bottom: "conv0"
  top: "conv0"
}
layer {
  name: "conv0/scale"
  type: "Scale"
  bottom: "conv0"
  top: "conv0"
  param {
    lr_mult: 1
    decay_mult: 0
  }
  param {
    lr_mult: 2
    decay_mult: 0
  }
  scale_param {
    filler {
      value: 1
    }
    bias_term: true
    bias_filler {
      value: 0
    }
  }
}
layer {
  name: "conv0/relu"
  type: "ReLU"
  bottom: "conv0"
  top: "conv0"
}
layer {
  name: "conv1/dw"
  type: "Convolution"
  bottom: "conv0"
  top: "conv1/dw"
  param {
    lr_mult: 1
    decay_mult: 1
  }
  convolution_param {
    num_output: 32
    bias_term: false
    pad: 1
    kernel_size: 3
    group: 32
    weight_filler {
      type: "msra"
    }
    engine: CAFFE
  }
}
layer {
  name: "conv1/dw/bn"
  type: "BatchNorm"
  bottom: "conv1/dw"
  top: "conv1/dw"
}
layer {
  name: "conv1/dw/scale"
  type: "Scale"
  bottom: "conv1/dw"
  top: "conv1/dw"
  param {
    lr_mult: 1
    decay_mult: 0
  }
  param {
    lr_mult: 2
    decay_mult: 0
  }
  scale_param {
    filler {
      value: 1
    }
    bias_term: true
    bias_filler {
      value: 0
    }
  }
}
layer {
  name: "conv1/dw/relu"
  type: "ReLU"
  bottom: "conv1/dw"
  top: "conv1/dw"
}
layer {
  name: "conv1"
  type: "Convolution"
  bottom: "conv1/dw"
  top: "conv1"
  param {
    lr_mult: 1
    decay_mult: 1
  }
  convolution_param {
    num_output: 64
    bias_term: false
    kernel_size: 1
    weight_filler {
      type: "msra"
    }
  }
}
layer {
  name: "conv1/bn"
  type: "BatchNorm"
  bottom: "conv1"
  top: "conv1"
}
layer {
  name: "conv1/scale"
  type: "Scale"
  bottom: "conv1"
  top: "conv1"
  param {
    lr_mult: 1
    decay_mult: 0
  }
  param {
    lr_mult: 2
    decay_mult: 0
  }
  scale_param {
    filler {
      value: 1
    }
    bias_term: true
    bias_filler {
      value: 0
    }
  }
}
layer {
  name: "conv1/relu"
…
I1016 09:56:12.353155   329 net.cpp:150] Setting up conv15_1/scale
I1016 09:56:12.353160   329 net.cpp:157] Top shape: 1 128 5 8 (5120)
I1016 09:56:12.353163   329 net.cpp:165] Memory required for data: 289484864
I1016 09:56:12.353166   329 layer_factory.hpp:77] Creating layer conv15_1/relu
I1016 09:56:12.353171   329 net.cpp:100] Creating Layer conv15_1/relu
I1016 09:56:12.353173   329 net.cpp:434] conv15_1/relu <- conv15_1
I1016 09:56:12.353178   329 net.cpp:395] conv15_1/relu -> conv15_1 (in-place)
I1016 09:56:12.353577   329 net.cpp:150] Setting up conv15_1/relu
I1016 09:56:12.353587   329 net.cpp:157] Top shape: 1 128 5 8 (5120)
I1016 09:56:12.353590   329 net.cpp:165] Memory required for data: 289505344
I1016 09:56:12.353592   329 layer_factory.hpp:77] Creating layer conv15_2
I1016 09:56:12.353600   329 net.cpp:100] Creating Layer conv15_2
I1016 09:56:12.353605   329 net.cpp:434] conv15_2 <- conv15_1
I1016 09:56:12.353610   329 net.cpp:408] conv15_2 -> conv15_2
I1016 09:56:12.358808   329 net.cpp:150] Setting up conv15_2
I1016 09:56:12.358820   329 net.cpp:157] Top shape: 1 256 3 4 (3072)
I1016 09:56:12.358824   329 net.cpp:165] Memory required for data: 289517632
I1016 09:56:12.358827   329 layer_factory.hpp:77] Creating layer conv15_2/bn
I1016 09:56:12.358855   329 net.cpp:100] Creating Layer conv15_2/bn
I1016 09:56:12.358858   329 net.cpp:434] conv15_2/bn <- conv15_2
I1016 09:56:12.358863   329 net.cpp:395] conv15_2/bn -> conv15_2 (in-place)
I1016 09:56:12.359088   329 net.cpp:150] Setting up conv15_2/bn
I1016 09:56:12.359097   329 net.cpp:157] Top shape: 1 256 3 4 (3072)
I1016 09:56:12.359098   329 net.cpp:165] Memory required for data: 289529920
I1016 09:56:12.359104   329 layer_factory.hpp:77] Creating layer conv15_2/scale
I1016 09:56:12.359112   329 net.cpp:100] Creating Layer conv15_2/scale
I1016 09:56:12.359115   329 net.cpp:434] conv15_2/scale <- conv15_2
I1016 09:56:12.359119   329 net.cpp:395] conv15_2/scale -> conv15_2 (in-place)
I1016 09:56:12.359163   329 layer_factory.hpp:77] Creating layer conv15_2/scale
I1016 09:56:12.359287   329 net.cpp:150] Setting up conv15_2/scale
I1016 09:56:12.359294   329 net.cpp:157] Top shape: 1 256 3 4 (3072)
I1016 09:56:12.359297   329 net.cpp:165] Memory required for data: 289542208
I1016 09:56:12.359302   329 layer_factory.hpp:77] Creating layer conv15_2/relu
I1016 09:56:12.359306   329 net.cpp:100] Creating Layer conv15_2/relu
I1016 09:56:12.359309   329 net.cpp:434] conv15_2/relu <- conv15_2
I1016 09:56:12.359313   329 net.cpp:395] conv15_2/relu -> conv15_2 (in-place)
I1016 09:56:12.359714   329 net.cpp:150] Setting up conv15_2/relu
I1016 09:56:12.359725   329 net.cpp:157] Top shape: 1 256 3 4 (3072)
I1016 09:56:12.359727   329 net.cpp:165] Memory required for data: 289554496
I1016 09:56:12.359730   329 layer_factory.hpp:77] Creating layer conv15_2_conv15_2/relu_0_split
I1016 09:56:12.359735   329 net.cpp:100] Creating Layer conv15_2_conv15_2/relu_0_split
I1016 09:56:12.359738   329 net.cpp:434] conv15_2_conv15_2/relu_0_split <- conv15_2
I1016 09:56:12.359745   329 net.cpp:408] conv15_2_conv15_2/relu_0_split -> conv15_2_conv15_2/relu_0_split_0
I1016 09:56:12.359751   329 net.cpp:408] conv15_2_conv15_2/relu_0_split -> conv15_2_conv15_2/relu_0_split_1
I1016 09:56:12.359756   329 net.cpp:408] conv15_2_conv15_2/relu_0_split -> conv15_2_conv15_2/relu_0_split_2
I1016 09:56:12.359761   329 net.cpp:408] conv15_2_conv15_2/relu_0_split -> conv15_2_conv15_2/relu_0_split_3
I1016 09:56:12.359848   329 net.cpp:150] Setting up conv15_2_conv15_2/relu_0_split
I1016 09:56:12.359853   329 net.cpp:157] Top shape: 1 256 3 4 (3072)
I1016 09:56:12.359856   329 net.cpp:157] Top shape: 1 256 3 4 (3072)
I1016 09:56:12.359858   329 net.cpp:157] Top shape: 1 256 3 4 (3072)
I1016 09:56:12.359861   329 net.cpp:157] Top shape: 1 256 3 4 (3072)
I1016 09:56:12.359863   329 net.cpp:165] Memory required for data: 289603648
I1016 09:56:12.359865   329 layer_factory.hpp:77] Creating layer conv16_1
I1016 09:56:12.359874   329 net.cpp:100] Creating Layer conv16_1
I1016 09:56:12.359876   329 net.cpp:434] conv16_1 <- conv15_2_conv15_2/relu_0_split_0
I1016 09:56:12.359881   329 net.cpp:408] conv16_1 -> conv16_1
I1016 09:56:12.362897   329 net.cpp:150] Setting up conv16_1
I1016 09:56:12.362910   329 net.cpp:157] Top shape: 1 128 3 4 (1536)
I1016 09:56:12.362913   329 net.cpp:165] Memory required for data: 289609792
I1016 09:56:12.362918   329 layer_factory.hpp:77] Creating layer conv16_1/bn
I1016 09:56:12.362923   329 net.cpp:100] Creating Layer conv16_1/bn
I1016 09:56:12.362926   329 net.cpp:434] conv16_1/bn <- conv16_1
I1016 09:56:12.362931   329 net.cpp:395] conv16_1/bn -> conv16_1 (in-place)
I1016 09:56:12.363152   329 net.cpp:150] Setting up conv16_1/bn
I1016 09:56:12.363160   329 net.cpp:157] Top shape: 1 128 3 4 (1536)
I1016 09:56:12.363162   329 net.cpp:165] Memory required for data: 289615936
I1016 09:56:12.363168   329 layer_factory.hpp:77] Creating layer conv16_1/scale
I1016 09:56:12.363173   329 net.cpp:100] Creating Layer conv16_1/scale
I1016 09:56:12.363176   329 net.cpp:434] conv16_1/scale <- conv16_1
I1016 09:56:12.363180   329 net.cpp:395] conv16_1/scale -> conv16_1 (in-place)
I1016 09:56:12.363224   329 layer_factory.hpp:77] Creating layer conv16_1/scale
I1016 09:56:12.363371   329 net.cpp:150] Setting up conv16_1/scale
I1016 09:56:12.363379   329 net.cpp:157] Top shape: 1 128 3 4 (1536)
I1016 09:56:12.363381   329 net.cpp:165] Memory required for data: 289622080
I1016 09:56:12.363389   329 layer_factory.hpp:77] Creating layer conv16_1/relu
I1016 09:56:12.363394   329 net.cpp:100] Creating Layer conv16_1/relu
I1016 09:56:12.363399   329 net.cpp:434] conv16_1/relu <- conv16_1
I1016 09:56:12.363401   329 net.cpp:395] conv16_1/relu -> conv16_1 (in-place)
I1016 09:56:12.363811   329 net.cpp:150] Setting up conv16_1/relu
I1016 09:56:12.363821   329 net.cpp:157] Top shape: 1 128 3 4 (1536)
I1016 09:56:12.363826   329 net.cpp:165] Memory required for data: 289628224
I1016 09:56:12.363829   329 layer_factory.hpp:77] Creating layer conv16_2
I1016 09:56:12.363840   329 net.cpp:100] Creating Layer conv16_2
I1016 09:56:12.363843   329 net.cpp:434] conv16_2 <- conv16_1
I1016 09:56:12.363849   329 net.cpp:408] conv16_2 -> conv16_2
I1016 09:56:12.368727   329 net.cpp:150] Setting up conv16_2
I1016 09:56:12.368742   329 net.cpp:157] Top shape: 1 256 2 2 (1024)
I1016 09:56:12.368746   329 net.cpp:165] Memory required for data: 289632320
I1016 09:56:12.368753   329 layer_factory.hpp:77] Creating layer conv16_2/bn
I1016 09:56:12.368762   329 net.cpp:100] Creating Layer conv16_2/bn
I1016 09:56:12.368765   329 net.cpp:434] conv16_2/bn <- conv16_2
I1016 09:56:12.368772   329 net.cpp:395] conv16_2/bn -> conv16_2 (in-place)
I1016 09:56:12.369007   329 net.cpp:150] Setting up conv16_2/bn
I1016 09:56:12.369016   329 net.cpp:157] Top shape: 1 256 2 2 (1024)
I1016 09:56:12.369020   329 net.cpp:165] Memory required for data: 289636416
I1016 09:56:12.369027   329 layer_factory.hpp:77] Creating layer conv16_2/scale
I1016 09:56:12.369035   329 net.cpp:100] Creating Layer conv16_2/scale
I1016 09:56:12.369040   329 net.cpp:434] conv16_2/scale <- conv16_2
I1016 09:56:12.369043   329 net.cpp:395] conv16_2/scale -> conv16_2 (in-place)
I1016 09:56:12.369098   329 layer_factory.hpp:77] Creating layer conv16_2/scale
I1016 09:56:12.369238   329 net.cpp:150] Setting up conv16_2/scale
I1016 09:56:12.369246   329 net.cpp:157] Top shape: 1 256 2 2 (1024)
I1016 09:56:12.369249   329 net.cpp:165] Memory required for data: 289640512
I1016 09:56:12.369256   329 layer_factory.hpp:77] Creating layer conv16_2/relu
I1016 09:56:12.369261   329 net.cpp:100] Creating Layer conv16_2/relu
I1016 09:56:12.369264   329 net.cpp:434] conv16_2/relu <- conv16_2
I1016 09:56:12.369269   329 net.cpp:395] conv16_2/relu -> conv16_2 (in-place)
I1016 09:56:12.370095   329 net.cpp:150] Setting up conv16_2/relu
I1016 09:56:12.370108   329 net.cpp:157] Top shape: 1 256 2 2 (1024)
I1016 09:56:12.370112   329 net.cpp:165] Memory required for data: 289644608
I1016 09:56:12.370117   329 layer_factory.hpp:77] Creating layer conv16_2_conv16_2/relu_0_split
I1016 09:56:12.370123   329 net.cpp:100] Creating Layer conv16_2_conv16_2/relu_0_split
I1016 09:56:12.370127   329 net.cpp:434] conv16_2_conv16_2/relu_0_split <- conv16_2
I1016 09:56:12.370134   329 net.cpp:408] conv16_2_conv16_2/relu_0_split -> conv16_2_conv16_2/relu_0_split_0
I1016 09:56:12.370143   329 net.cpp:408] conv16_2_conv16_2/relu_0_split -> conv16_2_conv16_2/relu_0_split_1
I1016 09:56:12.370149   329 net.cpp:408] conv16_2_conv16_2/relu_0_split -> conv16_2_conv16_2/relu_0_split_2
I1016 09:56:12.370154   329 net.cpp:408] conv16_2_conv16_2/relu_0_split -> conv16_2_conv16_2/relu_0_split_3
I1016 09:56:12.370249   329 net.cpp:150] Setting up conv16_2_conv16_2/relu_0_split
I1016 09:56:12.370256   329 net.cpp:157] Top shape: 1 256 2 2 (1024)
I1016 09:56:12.370261   329 net.cpp:157] Top shape: 1 256 2 2 (1024)
I1016 09:56:12.370265   329 net.cpp:157] Top shape: 1 256 2 2 (1024)
I1016 09:56:12.370267   329 net.cpp:157] Top shape: 1 256 2 2 (1024)
I1016 09:56:12.370270   329 net.cpp:165] Memory required for data: 289660992
I1016 09:56:12.370271   329 layer_factory.hpp:77] Creating layer conv17_1
I1016 09:56:12.370281   329 net.cpp:100] Creating Layer conv17_1
I1016 09:56:12.370285   329 net.cpp:434] conv17_1 <- conv16_2_conv16_2/relu_0_split_0
I1016 09:56:12.370290   329 net.cpp:408] conv17_1 -> conv17_1
I1016 09:56:12.372246   329 net.cpp:150] Setting up conv17_1
I1016 09:56:12.372258   329 net.cpp:157] Top shape: 1 64 2 2 (256)
I1016 09:56:12.372262   329 net.cpp:165] Memory required for data: 289662016
I1016 09:56:12.372268   329 layer_factory.hpp:77] Creating layer conv17_1/bn
I1016 09:56:12.372275   329 net.cpp:100] Creating Layer conv17_1/bn
I1016 09:56:12.372279   329 net.cpp:434] conv17_1/bn <- conv17_1
I1016 09:56:12.372285   329 net.cpp:395] conv17_1/bn -> conv17_1 (in-place)
I1016 09:56:12.372531   329 net.cpp:150] Setting up conv17_1/bn
I1016 09:56:12.372540   329 net.cpp:157] Top shape: 1 64 2 2 (256)
I1016 09:56:12.372543   329 net.cpp:165] Memory required for data: 289663040
I1016 09:56:12.372551   329 layer_factory.hpp:77] Creating layer conv17_1/scale
I1016 09:56:12.372557   329 net.cpp:100] Creating Layer conv17_1/scale
I1016 09:56:12.372560   329 net.cpp:434] conv17_1/scale <- conv17_1
I1016 09:56:12.372566   329 net.cpp:395] conv17_1/scale -> conv17_1 (in-place)
I1016 09:56:12.372619   329 layer_factory.hpp:77] Creating layer conv17_1/scale
I1016 09:56:12.372773   329 net.cpp:150] Setting up conv17_1/scale
I1016 09:56:12.372781   329 net.cpp:157] Top shape: 1 64 2 2 (256)
I1016 09:56:12.372784   329 net.cpp:165] Memory required for data: 289664064
I1016 09:56:12.372792   329 layer_factory.hpp:77] Creating layer conv17_1/relu
I1016 09:56:12.372797   329 net.cpp:100] Creating Layer conv17_1/relu
I1016 09:56:12.372800   329 net.cpp:434] conv17_1/relu <- conv17_1
I1016 09:56:12.372807   329 net.cpp:395] conv17_1/relu -> conv17_1 (in-place)
I1016 09:56:12.373211   329 net.cpp:150] Setting up conv17_1/relu
I1016 09:56:12.373221   329 net.cpp:157] Top shape: 1 64 2 2 (256)
I1016 09:56:12.373225   329 net.cpp:165] Memory required for data: 289665088
I1016 09:56:12.373229   329 layer_factory.hpp:77] Creating layer conv17_2
I1016 09:56:12.373239   329 net.cpp:100] Creating Layer conv17_2
I1016 09:56:12.373242   329 net.cpp:434] conv17_2 <- conv17_1
I1016 09:56:12.373250   329 net.cpp:408] conv17_2 -> conv17_2
I1016 09:56:12.375619   329 net.cpp:150] Setting up conv17_2
I1016 09:56:12.375633   329 net.cpp:157] Top shape: 1 128 1 1 (128)
I1016 09:56:12.375636   329 net.cpp:165] Memory required for data: 289665600
I1016 09:56:12.375643   329 layer_factory.hpp:77] Creating layer conv17_2/bn
I1016 09:56:12.375649   329 net.cpp:100] Creating Layer conv17_2/bn
I1016 09:56:12.375653   329 net.cpp:434] conv17_2/bn <- conv17_2
I1016 09:56:12.375658   329 net.cpp:395] conv17_2/bn -> conv17_2 (in-place)
I1016 09:56:12.375893   329 net.cpp:150] Setting up conv17_2/bn
I1016 09:56:12.375901   329 net.cpp:157] Top shape: 1 128 1 1 (128)
I1016 09:56:12.375905   329 net.cpp:165] Memory required for data: 289666112
I1016 09:56:12.375912   329 layer_factory.hpp:77] Creating layer conv17_2/scale
I1016 09:56:12.375918   329 net.cpp:100] Creating Layer conv17_2/scale
I1016 09:56:12.375921   329 net.cpp:434] conv17_2/scale <- conv17_2
I1016 09:56:12.375928   329 net.cpp:395] conv17_2/scale -> conv17_2 (in-place)
I1016 09:56:12.375977   329 layer_factory.hpp:77] Creating layer conv17_2/scale
I1016 09:56:12.376121   329 net.cpp:150] Setting up conv17_2/scale
I1016 09:56:12.376128   329 net.cpp:157] Top shape: 1 128 1 1 (128)
I1016 09:56:12.376132   329 net.cpp:165] Memory required for data: 289666624
I1016 09:56:12.376138   329 layer_factory.hpp:77] Creating layer conv17_2/relu
I1016 09:56:12.376142   329 net.cpp:100] Creating Layer conv17_2/relu
I1016 09:56:12.376145   329 net.cpp:434] conv17_2/relu <- conv17_2
I1016 09:56:12.376152   329 net.cpp:395] conv17_2/relu -> conv17_2 (in-place)
I1016 09:56:12.376559   329 net.cpp:150] Setting up conv17_2/relu
I1016 09:56:12.376570   329 net.cpp:157] Top shape: 1 128 1 1 (128)
I1016 09:56:12.376574   329 net.cpp:165] Memory required for data: 289667136
I1016 09:56:12.376577   329 layer_factory.hpp:77] Creating layer conv17_2_conv17_2/relu_0_split
I1016 09:56:12.376585   329 net.cpp:100] Creating Layer conv17_2_conv17_2/relu_0_split
I1016 09:56:12.376587   329 net.cpp:434] conv17_2_conv17_2/relu_0_split <- conv17_2
I1016 09:56:12.376595   329 net.cpp:408] conv17_2_conv17_2/relu_0_split -> conv17_2_conv17_2/relu_0_split_0
I1016 09:56:12.376602   329 net.cpp:408] conv17_2_conv17_2/relu_0_split -> conv17_2_conv17_2/relu_0_split_1
I1016 09:56:12.376607   329 net.cpp:408] conv17_2_conv17_2/relu_0_split -> conv17_2_conv17_2/relu_0_split_2
I1016 09:56:12.376683   329 net.cpp:150] Setting up conv17_2_conv17_2/relu_0_split
I1016 09:56:12.376689   329 net.cpp:157] Top shape: 1 128 1 1 (128)
I1016 09:56:12.376693   329 net.cpp:157] Top shape: 1 128 1 1 (128)
I1016 09:56:12.376694   329 net.cpp:157] Top shape: 1 128 1 1 (128)
I1016 09:56:12.376696   329 net.cpp:165] Memory required for data: 289668672
I1016 09:56:12.376698   329 layer_factory.hpp:77] Creating layer conv11_mbox_loc
I1016 09:56:12.376708   329 net.cpp:100] Creating Layer conv11_mbox_loc
I1016 09:56:12.376710   329 net.cpp:434] conv11_mbox_loc <- conv11_conv11/relu_0_split_1
I1016 09:56:12.376716   329 net.cpp:408] conv11_mbox_loc -> conv11_mbox_loc
I1016 09:56:12.378644   329 net.cpp:150] Setting up conv11_mbox_loc
I1016 09:56:12.378659   329 net.cpp:157] Top shape: 1 12 20 30 (7200)
I1016 09:56:12.378662   329 net.cpp:165] Memory required for data: 289697472
I1016 09:56:12.378670   329 layer_factory.hpp:77] Creating layer conv11_mbox_loc_perm
I1016 09:56:12.378679   329 net.cpp:100] Creating Layer conv11_mbox_loc_perm
I1016 09:56:12.378684   329 net.cpp:434] conv11_mbox_loc_perm <- conv11_mbox_loc
I1016 09:56:12.378690   329 net.cpp:408] conv11_mbox_loc_perm -> conv11_mbox_loc_perm
I1016 09:56:12.378829   329 net.cpp:150] Setting up conv11_mbox_loc_perm
I1016 09:56:12.378839   329 net.cpp:157] Top shape: 1 20 30 12 (7200)
I1016 09:56:12.378841   329 net.cpp:165] Memory required for data: 289726272
I1016 09:56:12.378845   329 layer_factory.hpp:77] Creating layer conv11_mbox_loc_flat
I1016 09:56:12.378852   329 net.cpp:100] Creating Layer conv11_mbox_loc_flat
I1016 09:56:12.378855   329 net.cpp:434] conv11_mbox_loc_flat <- conv11_mbox_loc_perm
I1016 09:56:12.378860   329 net.cpp:408] conv11_mbox_loc_flat -> conv11_mbox_loc_flat
I1016 09:56:12.378892   329 net.cpp:150] Setting up conv11_mbox_loc_flat
I1016 09:56:12.378897   329 net.cpp:157] Top shape: 1 7200 (7200)
I1016 09:56:12.378901   329 net.cpp:165] Memory required for data: 289755072
I1016 09:56:12.378904   329 layer_factory.hpp:77] Creating layer conv11_mbox_conf_new
I1016 09:56:12.378916   329 net.cpp:100] Creating Layer conv11_mbox_conf_new
I1016 09:56:12.378921   329 net.cpp:434] conv11_mbox_conf_new <- conv11_conv11/relu_0_split_2
I1016 09:56:12.378927   329 net.cpp:408] conv11_mbox_conf_new -> conv11_mbox_conf
I1016 09:56:12.381366   329 net.cpp:150] Setting up conv11_mbox_conf_new
I1016 09:56:12.381381   329 net.cpp:157] Top shape: 1 9 20 30 (5400)
I1016 09:56:12.381386   329 net.cpp:165] Memory required for data: 289776672
I1016 09:56:12.381393   329 layer_factory.hpp:77] Creating layer conv11_mbox_conf_perm
I1016 09:56:12.381399   329 net.cpp:100] Creating Layer conv11_mbox_conf_perm
I1016 09:56:12.381402   329 net.cpp:434] conv11_mbox_conf_perm <- conv11_mbox_conf
I1016 09:56:12.381408   329 net.cpp:408] conv11_mbox_conf_perm -> conv11_mbox_conf_perm
I1016 09:56:12.381551   329 net.cpp:150] Setting up conv11_mbox_conf_perm
I1016 09:56:12.381561   329 net.cpp:157] Top shape: 1 20 30 9 (5400)
I1016 09:56:12.381563   329 net.cpp:165] Memory required for data: 289798272
I1016 09:56:12.381567   329 layer_factory.hpp:77] Creating layer conv11_mbox_conf_flat
I1016 09:56:12.381572   329 net.cpp:100] Creating Layer conv11_mbox_conf_flat
I1016 09:56:12.381575   329 net.cpp:434] conv11_mbox_conf_flat <- conv11_mbox_conf_perm
I1016 09:56:12.381580   329 net.cpp:408] conv11_mbox_conf_flat -> conv11_mbox_conf_flat
I1016 09:56:12.381611   329 net.cpp:150] Setting up conv11_mbox_conf_flat
I1016 09:56:12.381618   329 net.cpp:157] Top shape: 1 5400 (5400)
I1016 09:56:12.381619   329 net.cpp:165] Memory required for data: 289819872
I1016 09:56:12.381621   329 layer_factory.hpp:77] Creating layer conv11_mbox_priorbox
I1016 09:56:12.381630   329 net.cpp:100] Creating Layer conv11_mbox_priorbox
I1016 09:56:12.381634   329 net.cpp:434] conv11_mbox_priorbox <- conv11_conv11/relu_0_split_3
I1016 09:56:12.381640   329 net.cpp:434] conv11_mbox_priorbox <- data_data_0_split_1
I1016 09:56:12.381649   329 net.cpp:408] conv11_mbox_priorbox -> conv11_mbox_priorbox
I1016 09:56:12.381681   329 net.cpp:150] Setting up conv11_mbox_priorbox
I1016 09:56:12.381686   329 net.cpp:157] Top shape: 1 2 7200 (14400)
I1016 09:56:12.381688   329 net.cpp:165] Memory required for data: 289877472
I1016 09:56:12.381691   329 layer_factory.hpp:77] Creating layer conv13_mbox_loc
I1016 09:56:12.381703   329 net.cpp:100] Creating Layer conv13_mbox_loc
I1016 09:56:12.381708   329 net.cpp:434] conv13_mbox_loc <- conv13_conv13/relu_0_split_1
I1016 09:56:12.381713   329 net.cpp:408] conv13_mbox_loc -> conv13_mbox_loc
I1016 09:56:12.384745   329 net.cpp:150] Setting up conv13_mbox_loc
I1016 09:56:12.384758   329 net.cpp:157] Top shape: 1 24 10 15 (3600)
I1016 09:56:12.384763   329 net.cpp:165] Memory required for data: 289891872
I1016 09:56:12.384770   329 layer_factory.hpp:77] Creating layer conv13_mbox_loc_perm
I1016 09:56:12.384778   329 net.cpp:100] Creating Layer conv13_mbox_loc_perm
I1016 09:56:12.384780   329 net.cpp:434] conv13_mbox_loc_perm <- conv13_mbox_loc
I1016 09:56:12.384786   329 net.cpp:408] conv13_mbox_loc_perm -> conv13_mbox_loc_perm
I1016 09:56:12.384932   329 net.cpp:150] Setting up conv13_mbox_loc_perm
I1016 09:56:12.384940   329 net.cpp:157] Top shape: 1 10 15 24 (3600)
I1016 09:56:12.384944   329 net.cpp:165] Memory required for data: 289906272
I1016 09:56:12.384948   329 layer_factory.hpp:77] Creating layer conv13_mbox_loc_flat
I1016 09:56:12.384953   329 net.cpp:100] Creating Layer conv13_mbox_loc_flat
I1016 09:56:12.384958   329 net.cpp:434] conv13_mbox_loc_flat <- conv13_mbox_loc_perm
I1016 09:56:12.384961   329 net.cpp:408] conv13_mbox_loc_flat -> conv13_mbox_loc_flat
I1016 09:56:12.384994   329 net.cpp:150] Setting up conv13_mbox_loc_flat
I1016 09:56:12.384999   329 net.cpp:157] Top shape: 1 3600 (3600)
I1016 09:56:12.385001   329 net.cpp:165] Memory required for data: 289920672
I1016 09:56:12.385004   329 layer_factory.hpp:77] Creating layer conv13_mbox_conf_new
I1016 09:56:12.385012   329 net.cpp:100] Creating Layer conv13_mbox_conf_new
I1016 09:56:12.385016   329 net.cpp:434] conv13_mbox_conf_new <- conv13_conv13/relu_0_split_2
I1016 09:56:12.385025   329 net.cpp:408] conv13_mbox_conf_new -> conv13_mbox_conf
I1016 09:56:12.387264   329 net.cpp:150] Setting up conv13_mbox_conf_new
I1016 09:56:12.387279   329 net.cpp:157] Top shape: 1 18 10 15 (2700)
I1016 09:56:12.387282   329 net.cpp:165] Memory required for data: 289931472
I1016 09:56:12.387290   329 layer_factory.hpp:77] Creating layer conv13_mbox_conf_perm
I1016 09:56:12.387297   329 net.cpp:100] Creating Layer conv13_mbox_conf_perm
I1016 09:56:12.387300   329 net.cpp:434] conv13_mbox_conf_perm <- conv13_mbox_conf
I1016 09:56:12.387307   329 net.cpp:408] conv13_mbox_conf_perm -> conv13_mbox_conf_perm
I1016 09:56:12.387446   329 net.cpp:150] Setting up conv13_mbox_conf_perm
I1016 09:56:12.387455   329 net.cpp:157] Top shape: 1 10 15 18 (2700)
I1016 09:56:12.387459   329 net.cpp:165] Memory required for data: 289942272
I1016 09:56:12.387462   329 layer_factory.hpp:77] Creating layer conv13_mbox_conf_flat
I1016 09:56:12.387470   329 net.cpp:100] Creating Layer conv13_mbox_conf_flat
I1016 09:56:12.387473   329 net.cpp:434] conv13_mbox_conf_flat <- conv13_mbox_conf_perm
I1016 09:56:12.387480   329 net.cpp:408] conv13_mbox_conf_flat -> conv13_mbox_conf_flat
I1016 09:56:12.387513   329 net.cpp:150] Setting up conv13_mbox_conf_flat
I1016 09:56:12.387519   329 net.cpp:157] Top shape: 1 2700 (2700)
I1016 09:56:12.387521   329 net.cpp:165] Memory required for data: 289953072
I1016 09:56:12.387524   329 layer_factory.hpp:77] Creating layer conv13_mbox_priorbox
I1016 09:56:12.387532   329 net.cpp:100] Creating Layer conv13_mbox_priorbox
I1016 09:56:12.387536   329 net.cpp:434] conv13_mbox_priorbox <- conv13_conv13/relu_0_split_3
I1016 09:56:12.387539   329 net.cpp:434] conv13_mbox_priorbox <- data_data_0_split_2
I1016 09:56:12.387544   329 net.cpp:408] conv13_mbox_priorbox -> conv13_mbox_priorbox
I1016 09:56:12.387578   329 net.cpp:150] Setting up conv13_mbox_priorbox
I1016 09:56:12.387583   329 net.cpp:157] Top shape: 1 2 3600 (7200)
I1016 09:56:12.387584   329 net.cpp:165] Memory required for data: 289981872
I1016 09:56:12.387588   329 layer_factory.hpp:77] Creating layer conv14_2_mbox_loc
I1016 09:56:12.387595   329 net.cpp:100] Creating Layer conv14_2_mbox_loc
I1016 09:56:12.387598   329 net.cpp:434] conv14_2_mbox_loc <- conv14_2_conv14_2/relu_0_split_1
I1016 09:56:12.387605   329 net.cpp:408] conv14_2_mbox_loc -> conv14_2_mbox_loc
I1016 09:56:12.389576   329 net.cpp:150] Setting up conv14_2_mbox_loc
I1016 09:56:12.389588   329 net.cpp:157] Top shape: 1 24 5 8 (960)
I1016 09:56:12.389592   329 net.cpp:165] Memory required for data: 289985712
I1016 09:56:12.389600   329 layer_factory.hpp:77] Creating layer conv14_2_mbox_loc_perm
I1016 09:56:12.389609   329 net.cpp:100] Creating Layer conv14_2_mbox_loc_perm
I1016 09:56:12.389613   329 net.cpp:434] conv14_2_mbox_loc_perm <- conv14_2_mbox_loc
I1016 09:56:12.389621   329 net.cpp:408] conv14_2_mbox_loc_perm -> conv14_2_mbox_loc_perm
I1016 09:56:12.389762   329 net.cpp:150] Setting up conv14_2_mbox_loc_perm
I1016 09:56:12.389772   329 net.cpp:157] Top shape: 1 5 8 24 (960)
I1016 09:56:12.389775   329 net.cpp:165] Memory required for data: 289989552
I1016 09:56:12.389780   329 layer_factory.hpp:77] Creating layer conv14_2_mbox_loc_flat
I1016 09:56:12.389784   329 net.cpp:100] Creating Layer conv14_2_mbox_loc_flat
I1016 09:56:12.389787   329 net.cpp:434] conv14_2_mbox_loc_flat <- conv14_2_mbox_loc_perm
I1016 09:56:12.389794   329 net.cpp:408] conv14_2_mbox_loc_flat -> conv14_2_mbox_loc_flat
I1016 09:56:12.389832   329 net.cpp:150] Setting up conv14_2_mbox_loc_flat
I1016 09:56:12.389842   329 net.cpp:157] Top shape: 1 960 (960)
I1016 09:56:12.389844   329 net.cpp:165] Memory required for data: 289993392
I1016 09:56:12.389847   329 layer_factory.hpp:77] Creating layer conv14_2_mbox_conf_new
I1016 09:56:12.389855   329 net.cpp:100] Creating Layer conv14_2_mbox_conf_new
I1016 09:56:12.389860   329 net.cpp:434] conv14_2_mbox_conf_new <- conv14_2_conv14_2/relu_0_split_2
I1016 09:56:12.389866   329 net.cpp:408] conv14_2_mbox_conf_new -> conv14_2_mbox_conf
I1016 09:56:12.391808   329 net.cpp:150] Setting up conv14_2_mbox_conf_new
I1016 09:56:12.391820   329 net.cpp:157] Top shape: 1 18 5 8 (720)
I1016 09:56:12.391824   329 net.cpp:165] Memory required for data: 289996272
I1016 09:56:12.391832   329 layer_factory.hpp:77] Creating layer conv14_2_mbox_conf_perm
I1016 09:56:12.391839   329 net.cpp:100] Creating Layer conv14_2_mbox_conf_perm
I1016 09:56:12.391841   329 net.cpp:434] conv14_2_mbox_conf_perm <- conv14_2_mbox_conf
I1016 09:56:12.391851   329 net.cpp:408] conv14_2_mbox_conf_perm -> conv14_2_mbox_conf_perm
I1016 09:56:12.391990   329 net.cpp:150] Setting up conv14_2_mbox_conf_perm
I1016 09:56:12.391999   329 net.cpp:157] Top shape: 1 5 8 18 (720)
I1016 09:56:12.392002   329 net.cpp:165] Memory required for data: 289999152
I1016 09:56:12.392006   329 layer_factory.hpp:77] Creating layer conv14_2_mbox_conf_flat
I1016 09:56:12.392011   329 net.cpp:100] Creating Layer conv14_2_mbox_conf_flat
I1016 09:56:12.392014   329 net.cpp:434] conv14_2_mbox_conf_flat <- conv14_2_mbox_conf_perm
I1016 09:56:12.392021   329 net.cpp:408] conv14_2_mbox_conf_flat -> conv14_2_mbox_conf_flat
I1016 09:56:12.392060   329 net.cpp:150] Setting up conv14_2_mbox_conf_flat
I1016 09:56:12.392068   329 net.cpp:157] Top shape: 1 720 (720)
I1016 09:56:12.392071   329 net.cpp:165] Memory required for data: 290002032
I1016 09:56:12.392073   329 layer_factory.hpp:77] Creating layer conv14_2_mbox_priorbox
I1016 09:56:12.392079   329 net.cpp:100] Creating Layer conv14_2_mbox_priorbox
I1016 09:56:12.392084   329 net.cpp:434] conv14_2_mbox_priorbox <- conv14_2_conv14_2/relu_0_split_3
I1016 09:56:12.392087   329 net.cpp:434] conv14_2_mbox_priorbox <- data_data_0_split_3
I1016 09:56:12.392093   329 net.cpp:408] conv14_2_mbox_priorbox -> conv14_2_mbox_priorbox
I1016 09:56:12.392128   329 net.cpp:150] Setting up conv14_2_mbox_priorbox
I1016 09:56:12.392134   329 net.cpp:157] Top shape: 1 2 960 (1920)
I1016 09:56:12.392135   329 net.cpp:165] Memory required for data: 290009712
I1016 09:56:12.392138   329 layer_factory.hpp:77] Creating layer conv15_2_mbox_loc
I1016 09:56:12.392146   329 net.cpp:100] Creating Layer conv15_2_mbox_loc
I1016 09:56:12.392149   329 net.cpp:434] conv15_2_mbox_loc <- conv15_2_conv15_2/relu_0_split_1
I1016 09:56:12.392156   329 net.cpp:408] conv15_2_mbox_loc -> conv15_2_mbox_loc
I1016 09:56:12.394102   329 net.cpp:150] Setting up conv15_2_mbox_loc
I1016 09:56:12.394114   329 net.cpp:157] Top shape: 1 24 3 4 (288)
I1016 09:56:12.394119   329 net.cpp:165] Memory required for data: 290010864
I1016 09:56:12.394126   329 layer_factory.hpp:77] Creating layer conv15_2_mbox_loc_perm
I1016 09:56:12.394135   329 net.cpp:100] Creating Layer conv15_2_mbox_loc_perm
I1016 09:56:12.394138   329 net.cpp:434] conv15_2_mbox_loc_perm <- conv15_2_mbox_loc
I1016 09:56:12.394145   329 net.cpp:408] conv15_2_mbox_loc_perm -> conv15_2_mbox_loc_perm
I1016 09:56:12.394284   329 net.cpp:150] Setting up conv15_2_mbox_loc_perm
I1016 09:56:12.394291   329 net.cpp:157] Top shape: 1 3 4 24 (288)
I1016 09:56:12.394295   329 net.cpp:165] Memory required for data: 290012016
I1016 09:56:12.394299   329 layer_factory.hpp:77] Creating layer conv15_2_mbox_loc_flat
I1016 09:56:12.394305   329 net.cpp:100] Creating Layer conv15_2_mbox_loc_flat
I1016 09:56:12.394309   329 net.cpp:434] conv15_2_mbox_loc_flat <- conv15_2_mbox_loc_perm
I1016 09:56:12.394315   329 net.cpp:408] conv15_2_mbox_loc_flat -> conv15_2_mbox_loc_flat
I1016 09:56:12.394346   329 net.cpp:150] Setting up conv15_2_mbox_loc_flat
I1016 09:56:12.394353   329 net.cpp:157] Top shape: 1 288 (288)
I1016 09:56:12.394356   329 net.cpp:165] Memory required for data: 290013168
I1016 09:56:12.394359   329 layer_factory.hpp:77] Creating layer conv15_2_mbox_conf_new
I1016 09:56:12.394369   329 net.cpp:100] Creating Layer conv15_2_mbox_conf_new
I1016 09:56:12.394373   329 net.cpp:434] conv15_2_mbox_conf_new <- conv15_2_conv15_2/relu_0_split_2
I1016 09:56:12.394379   329 net.cpp:408] conv15_2_mbox_conf_new -> conv15_2_mbox_conf
I1016 09:56:12.396286   329 net.cpp:150] Setting up conv15_2_mbox_conf_new
I1016 09:56:12.396297   329 net.cpp:157] Top shape: 1 18 3 4 (216)
I1016 09:56:12.396301   329 net.cpp:165] Memory required for data: 290014032
I1016 09:56:12.396309   329 layer_factory.hpp:77] Creating layer conv15_2_mbox_conf_perm
I1016 09:56:12.396317   329 net.cpp:100] Creating Layer conv15_2_mbox_conf_perm
I1016 09:56:12.396322   329 net.cpp:434] conv15_2_mbox_conf_perm <- conv15_2_mbox_conf
I1016 09:56:12.396329   329 net.cpp:408] conv15_2_mbox_conf_perm -> conv15_2_mbox_conf_perm
I1016 09:56:12.396469   329 net.cpp:150] Setting up conv15_2_mbox_conf_perm
I1016 09:56:12.396478   329 net.cpp:157] Top shape: 1 3 4 18 (216)
I1016 09:56:12.396481   329 net.cpp:165] Memory required for data: 290014896
I1016 09:56:12.396486   329 layer_factory.hpp:77] Creating layer conv15_2_mbox_conf_flat
I1016 09:56:12.396492   329 net.cpp:100] Creating Layer conv15_2_mbox_conf_flat
I1016 09:56:12.396494   329 net.cpp:434] conv15_2_mbox_conf_flat <- conv15_2_mbox_conf_perm
I1016 09:56:12.396502   329 net.cpp:408] conv15_2_mbox_conf_flat -> conv15_2_mbox_conf_flat
I1016 09:56:12.396534   329 net.cpp:150] Setting up conv15_2_mbox_conf_flat
I1016 09:56:12.396541   329 net.cpp:157] Top shape: 1 216 (216)
I1016 09:56:12.396543   329 net.cpp:165] Memory required for data: 290015760
I1016 09:56:12.396546   329 layer_factory.hpp:77] Creating layer conv15_2_mbox_priorbox
I1016 09:56:12.396553   329 net.cpp:100] Creating Layer conv15_2_mbox_priorbox
I1016 09:56:12.396559   329 net.cpp:434] conv15_2_mbox_priorbox <- conv15_2_conv15_2/relu_0_split_3
I1016 09:56:12.396562   329 net.cpp:434] conv15_2_mbox_priorbox <- data_data_0_split_4
I1016 09:56:12.396567   329 net.cpp:408] conv15_2_mbox_priorbox -> conv15_2_mbox_priorbox
I1016 09:56:12.396600   329 net.cpp:150] Setting up conv15_2_mbox_priorbox
I1016 09:56:12.396605   329 net.cpp:157] Top shape: 1 2 288 (576)
I1016 09:56:12.396607   329 net.cpp:165] Memory required for data: 290018064
I1016 09:56:12.396610   329 layer_factory.hpp:77] Creating layer conv16_2_mbox_loc
I1016 09:56:12.396620   329 net.cpp:100] Creating Layer conv16_2_mbox_loc
I1016 09:56:12.396622   329 net.cpp:434] conv16_2_mbox_loc <- conv16_2_conv16_2/relu_0_split_1
I1016 09:56:12.396628   329 net.cpp:408] conv16_2_mbox_loc -> conv16_2_mbox_loc
I1016 09:56:12.398613   329 net.cpp:150] Setting up conv16_2_mbox_loc
I1016 09:56:12.398627   329 net.cpp:157] Top shape: 1 24 2 2 (96)
I1016 09:56:12.398630   329 net.cpp:165] Memory required for data: 290018448
I1016 09:56:12.398638   329 layer_factory.hpp:77] Creating layer conv16_2_mbox_loc_perm
I1016 09:56:12.398645   329 net.cpp:100] Creating Layer conv16_2_mbox_loc_perm
I1016 09:56:12.398648   329 net.cpp:434] conv16_2_mbox_loc_perm <- conv16_2_mbox_loc
I1016 09:56:12.398655   329 net.cpp:408] conv16_2_mbox_loc_perm -> conv16_2_mbox_loc_perm
I1016 09:56:12.398797   329 net.cpp:150] Setting up conv16_2_mbox_loc_perm
I1016 09:56:12.398805   329 net.cpp:157] Top shape: 1 2 2 24 (96)
I1016 09:56:12.398808   329 net.cpp:165] Memory required for data: 290018832
I1016 09:56:12.398811   329 layer_factory.hpp:77] Creating layer conv16_2_mbox_loc_flat
I1016 09:56:12.398818   329 net.cpp:100] Creating Layer conv16_2_mbox_loc_flat
I1016 09:56:12.398820   329 net.cpp:434] conv16_2_mbox_loc_flat <- conv16_2_mbox_loc_perm
I1016 09:56:12.398828   329 net.cpp:408] conv16_2_mbox_loc_flat -> conv16_2_mbox_loc_flat
I1016 09:56:12.398859   329 net.cpp:150] Setting up conv16_2_mbox_loc_flat
I1016 09:56:12.398865   329 net.cpp:157] Top shape: 1 96 (96)
I1016 09:56:12.398869   329 net.cpp:165] Memory required for data: 290019216
I1016 09:56:12.398872   329 layer_factory.hpp:77] Creating layer conv16_2_mbox_conf_new
I1016 09:56:12.398882   329 net.cpp:100] Creating Layer conv16_2_mbox_conf_new
I1016 09:56:12.398886   329 net.cpp:434] conv16_2_mbox_conf_new <- conv16_2_conv16_2/relu_0_split_2
I1016 09:56:12.398895   329 net.cpp:408] conv16_2_mbox_conf_new -> conv16_2_mbox_conf
I1016 09:56:12.400846   329 net.cpp:150] Setting up conv16_2_mbox_conf_new
I1016 09:56:12.400861   329 net.cpp:157] Top shape: 1 18 2 2 (72)
I1016 09:56:12.400863   329 net.cpp:165] Memory required for data: 290019504
I1016 09:56:12.400872   329 layer_factory.hpp:77] Creating layer conv16_2_mbox_conf_perm
I1016 09:56:12.400882   329 net.cpp:100] Creating Layer conv16_2_mbox_conf_perm
I1016 09:56:12.400885   329 net.cpp:434] conv16_2_mbox_conf_perm <- conv16_2_mbox_conf
I1016 09:56:12.400890   329 net.cpp:408] conv16_2_mbox_conf_perm -> conv16_2_mbox_conf_perm
I1016 09:56:12.401031   329 net.cpp:150] Setting up conv16_2_mbox_conf_perm
I1016 09:56:12.401039   329 net.cpp:157] Top shape: 1 2 2 18 (72)
I1016 09:56:12.401043   329 net.cpp:165] Memory required for data: 290019792
I1016 09:56:12.401046   329 layer_factory.hpp:77] Creating layer conv16_2_mbox_conf_flat
I1016 09:56:12.401055   329 net.cpp:100] Creating Layer conv16_2_mbox_conf_flat
I1016 09:56:12.401060   329 net.cpp:434] conv16_2_mbox_conf_flat <- conv16_2_mbox_conf_perm
I1016 09:56:12.401064   329 net.cpp:408] conv16_2_mbox_conf_flat -> conv16_2_mbox_conf_flat
I1016 09:56:12.401099   329 net.cpp:150] Setting up conv16_2_mbox_conf_flat
I1016 09:56:12.401105   329 net.cpp:157] Top shape: 1 72 (72)
I1016 09:56:12.401109   329 net.cpp:165] Memory required for data: 290020080
I1016 09:56:12.401113   329 layer_factory.hpp:77] Creating layer conv16_2_mbox_priorbox
I1016 09:56:12.401120   329 net.cpp:100] Creating Layer conv16_2_mbox_priorbox
I1016 09:56:12.401124   329 net.cpp:434] conv16_2_mbox_priorbox <- conv16_2_conv16_2/relu_0_split_3
I1016 09:56:12.401127   329 net.cpp:434] conv16_2_mbox_priorbox <- data_data_0_split_5
I1016 09:56:12.401134   329 net.cpp:408] conv16_2_mbox_priorbox -> conv16_2_mbox_priorbox
I1016 09:56:12.401168   329 net.cpp:150] Setting up conv16_2_mbox_priorbox
I1016 09:56:12.401173   329 net.cpp:157] Top shape: 1 2 96 (192)
I1016 09:56:12.401176   329 net.cpp:165] Memory required for data: 290020848
I1016 09:56:12.401180   329 layer_factory.hpp:77] Creating layer conv17_2_mbox_loc
I1016 09:56:12.401191   329 net.cpp:100] Creating Layer conv17_2_mbox_loc
I1016 09:56:12.401196   329 net.cpp:434] conv17_2_mbox_loc <- conv17_2_conv17_2/relu_0_split_0
I1016 09:56:12.401203   329 net.cpp:408] conv17_2_mbox_loc -> conv17_2_mbox_loc
I1016 09:56:12.403661   329 net.cpp:150] Setting up conv17_2_mbox_loc
I1016 09:56:12.403672   329 net.cpp:157] Top shape: 1 24 1 1 (24)
I1016 09:56:12.403677   329 net.cpp:165] Memory required for data: 290020944
I1016 09:56:12.403686   329 layer_factory.hpp:77] Creating layer conv17_2_mbox_loc_perm
I1016 09:56:12.403693   329 net.cpp:100] Creating Layer conv17_2_mbox_loc_perm
I1016 09:56:12.403697   329 net.cpp:434] conv17_2_mbox_loc_perm <- conv17_2_mbox_loc
I1016 09:56:12.403703   329 net.cpp:408] conv17_2_mbox_loc_perm -> conv17_2_mbox_loc_perm
I1016 09:56:12.403846   329 net.cpp:150] Setting up conv17_2_mbox_loc_perm
I1016 09:56:12.403854   329 net.cpp:157] Top shape: 1 1 1 24 (24)
I1016 09:56:12.403857   329 net.cpp:165] Memory required for data: 290021040
I1016 09:56:12.403861   329 layer_factory.hpp:77] Creating layer conv17_2_mbox_loc_flat
I1016 09:56:12.403868   329 net.cpp:100] Creating Layer conv17_2_mbox_loc_flat
I1016 09:56:12.403870   329 net.cpp:434] conv17_2_mbox_loc_flat <- conv17_2_mbox_loc_perm
I1016 09:56:12.403877   329 net.cpp:408] conv17_2_mbox_loc_flat -> conv17_2_mbox_loc_flat
I1016 09:56:12.403908   329 net.cpp:150] Setting up conv17_2_mbox_loc_flat
I1016 09:56:12.403913   329 net.cpp:157] Top shape: 1 24 (24)
I1016 09:56:12.403914   329 net.cpp:165] Memory required for data: 290021136
I1016 09:56:12.403918   329 layer_factory.hpp:77] Creating layer conv17_2_mbox_conf_new
I1016 09:56:12.403929   329 net.cpp:100] Creating Layer conv17_2_mbox_conf_new
I1016 09:56:12.403934   329 net.cpp:434] conv17_2_mbox_conf_new <- conv17_2_conv17_2/relu_0_split_1
I1016 09:56:12.403941   329 net.cpp:408] conv17_2_mbox_conf_new -> conv17_2_mbox_conf
I1016 09:56:12.406805   329 net.cpp:150] Setting up conv17_2_mbox_conf_new
I1016 09:56:12.406817   329 net.cpp:157] Top shape: 1 18 1 1 (18)
I1016 09:56:12.406821   329 net.cpp:165] Memory required for data: 290021208
I1016 09:56:12.406829   329 layer_factory.hpp:77] Creating layer conv17_2_mbox_conf_perm
I1016 09:56:12.406844   329 net.cpp:100] Creating Layer conv17_2_mbox_conf_perm
I1016 09:56:12.406848   329 net.cpp:434] conv17_2_mbox_conf_perm <- conv17_2_mbox_conf
I1016 09:56:12.406854   329 net.cpp:408] conv17_2_mbox_conf_perm -> conv17_2_mbox_conf_perm
I1016 09:56:12.406997   329 net.cpp:150] Setting up conv17_2_mbox_conf_perm
I1016 09:56:12.407006   329 net.cpp:157] Top shape: 1 1 1 18 (18)
I1016 09:56:12.407011   329 net.cpp:165] Memory required for data: 290021280
I1016 09:56:12.407014   329 layer_factory.hpp:77] Creating layer conv17_2_mbox_conf_flat
I1016 09:56:12.407019   329 net.cpp:100] Creating Layer conv17_2_mbox_conf_flat
I1016 09:56:12.407022   329 net.cpp:434] conv17_2_mbox_conf_flat <- conv17_2_mbox_conf_perm
I1016 09:56:12.407029   329 net.cpp:408] conv17_2_mbox_conf_flat -> conv17_2_mbox_conf_flat
I1016 09:56:12.407060   329 net.cpp:150] Setting up conv17_2_mbox_conf_flat
I1016 09:56:12.407066   329 net.cpp:157] Top shape: 1 18 (18)
I1016 09:56:12.407068   329 net.cpp:165] Memory required for data: 290021352
I1016 09:56:12.407070   329 layer_factory.hpp:77] Creating layer conv17_2_mbox_priorbox
I1016 09:56:12.407076   329 net.cpp:100] Creating Layer conv17_2_mbox_priorbox
I1016 09:56:12.407078   329 net.cpp:434] conv17_2_mbox_priorbox <- conv17_2_conv17_2/relu_0_split_2
I1016 09:56:12.407083   329 net.cpp:434] conv17_2_mbox_priorbox <- data_data_0_split_6
I1016 09:56:12.407088   329 net.cpp:408] conv17_2_mbox_priorbox -> conv17_2_mbox_priorbox
I1016 09:56:12.407117   329 net.cpp:150] Setting up conv17_2_mbox_priorbox
I1016 09:56:12.407121   329 net.cpp:157] Top shape: 1 2 24 (48)
I1016 09:56:12.407124   329 net.cpp:165] Memory required for data: 290021544
I1016 09:56:12.407126   329 layer_factory.hpp:77] Creating layer mbox_loc
I1016 09:56:12.407131   329 net.cpp:100] Creating Layer mbox_loc
I1016 09:56:12.407135   329 net.cpp:434] mbox_loc <- conv11_mbox_loc_flat
I1016 09:56:12.407138   329 net.cpp:434] mbox_loc <- conv13_mbox_loc_flat
I1016 09:56:12.407142   329 net.cpp:434] mbox_loc <- conv14_2_mbox_loc_flat
I1016 09:56:12.407146   329 net.cpp:434] mbox_loc <- conv15_2_mbox_loc_flat
I1016 09:56:12.407148   329 net.cpp:434] mbox_loc <- conv16_2_mbox_loc_flat
I1016 09:56:12.407151   329 net.cpp:434] mbox_loc <- conv17_2_mbox_loc_flat
I1016 09:56:12.407156   329 net.cpp:408] mbox_loc -> mbox_loc
I1016 09:56:12.407191   329 net.cpp:150] Setting up mbox_loc
I1016 09:56:12.407198   329 net.cpp:157] Top shape: 1 12168 (12168)
I1016 09:56:12.407202   329 net.cpp:165] Memory required for data: 290070216
I1016 09:56:12.407205   329 layer_factory.hpp:77] Creating layer mbox_conf
I1016 09:56:12.407212   329 net.cpp:100] Creating Layer mbox_conf
I1016 09:56:12.407215   329 net.cpp:434] mbox_conf <- conv11_mbox_conf_flat
I1016 09:56:12.407220   329 net.cpp:434] mbox_conf <- conv13_mbox_conf_flat
I1016 09:56:12.407224   329 net.cpp:434] mbox_conf <- conv14_2_mbox_conf_flat
I1016 09:56:12.407228   329 net.cpp:434] mbox_conf <- conv15_2_mbox_conf_flat
I1016 09:56:12.407232   329 net.cpp:434] mbox_conf <- conv16_2_mbox_conf_flat
I1016 09:56:12.407238   329 net.cpp:434] mbox_conf <- conv17_2_mbox_conf_flat
I1016 09:56:12.407241   329 net.cpp:408] mbox_conf -> mbox_conf
I1016 09:56:12.407272   329 net.cpp:150] Setting up mbox_conf
I1016 09:56:12.407277   329 net.cpp:157] Top shape: 1 9126 (9126)
I1016 09:56:12.407281   329 net.cpp:165] Memory required for data: 290106720
I1016 09:56:12.407285   329 layer_factory.hpp:77] Creating layer mbox_priorbox
I1016 09:56:12.407289   329 net.cpp:100] Creating Layer mbox_priorbox
I1016 09:56:12.407292   329 net.cpp:434] mbox_priorbox <- conv11_mbox_priorbox
I1016 09:56:12.407295   329 net.cpp:434] mbox_priorbox <- conv13_mbox_priorbox
I1016 09:56:12.407299   329 net.cpp:434] mbox_priorbox <- conv14_2_mbox_priorbox
I1016 09:56:12.407301   329 net.cpp:434] mbox_priorbox <- conv15_2_mbox_priorbox
I1016 09:56:12.407305   329 net.cpp:434] mbox_priorbox <- conv16_2_mbox_priorbox
I1016 09:56:12.407306   329 net.cpp:434] mbox_priorbox <- conv17_2_mbox_priorbox
I1016 09:56:12.407310   329 net.cpp:408] mbox_priorbox -> mbox_priorbox
I1016 09:56:12.407343   329 net.cpp:150] Setting up mbox_priorbox
I1016 09:56:12.407351   329 net.cpp:157] Top shape: 1 2 12168 (24336)
I1016 09:56:12.407353   329 net.cpp:165] Memory required for data: 290204064
I1016 09:56:12.407357   329 layer_factory.hpp:77] Creating layer mbox_conf_reshape
I1016 09:56:12.407366   329 net.cpp:100] Creating Layer mbox_conf_reshape
I1016 09:56:12.407369   329 net.cpp:434] mbox_conf_reshape <- mbox_conf
I1016 09:56:12.407377   329 net.cpp:408] mbox_conf_reshape -> mbox_conf_reshape
I1016 09:56:12.407413   329 net.cpp:150] Setting up mbox_conf_reshape
I1016 09:56:12.407418   329 net.cpp:157] Top shape: 1 3042 3 (9126)
I1016 09:56:12.407421   329 net.cpp:165] Memory required for data: 290240568
I1016 09:56:12.407424   329 layer_factory.hpp:77] Creating layer mbox_conf_softmax
I1016 09:56:12.407433   329 net.cpp:100] Creating Layer mbox_conf_softmax
I1016 09:56:12.407436   329 net.cpp:434] mbox_conf_softmax <- mbox_conf_reshape
I1016 09:56:12.407441   329 net.cpp:408] mbox_conf_softmax -> mbox_conf_softmax
I1016 09:56:12.408325   329 net.cpp:150] Setting up mbox_conf_softmax
I1016 09:56:12.408339   329 net.cpp:157] Top shape: 1 3042 3 (9126)
I1016 09:56:12.408341   329 net.cpp:165] Memory required for data: 290277072
I1016 09:56:12.408346   329 layer_factory.hpp:77] Creating layer mbox_conf_flatten
I1016 09:56:12.408352   329 net.cpp:100] Creating Layer mbox_conf_flatten
I1016 09:56:12.408356   329 net.cpp:434] mbox_conf_flatten <- mbox_conf_softmax
I1016 09:56:12.408362   329 net.cpp:408] mbox_conf_flatten -> mbox_conf_flatten
I1016 09:56:12.408397   329 net.cpp:150] Setting up mbox_conf_flatten
I1016 09:56:12.408402   329 net.cpp:157] Top shape: 1 9126 (9126)
I1016 09:56:12.408406   329 net.cpp:165] Memory required for data: 290313576
I1016 09:56:12.408409   329 layer_factory.hpp:77] Creating layer detection_out
I1016 09:56:12.408421   329 net.cpp:100] Creating Layer detection_out
I1016 09:56:12.408424   329 net.cpp:434] detection_out <- mbox_loc
I1016 09:56:12.408432   329 net.cpp:434] detection_out <- mbox_conf_flatten
I1016 09:56:12.408434   329 net.cpp:434] detection_out <- mbox_priorbox
I1016 09:56:12.408442   329 net.cpp:408] detection_out -> detection_out
I1016 09:56:12.408521   329 net.cpp:150] Setting up detection_out
I1016 09:56:12.408527   329 net.cpp:157] Top shape: 1 1 1 7 (7)
I1016 09:56:12.408529   329 net.cpp:165] Memory required for data: 290313604
I1016 09:56:12.408531   329 layer_factory.hpp:77] Creating layer detection_eval
I1016 09:56:12.408538   329 net.cpp:100] Creating Layer detection_eval
I1016 09:56:12.408542   329 net.cpp:434] detection_eval <- detection_out
I1016 09:56:12.408547   329 net.cpp:434] detection_eval <- label
I1016 09:56:12.408553   329 net.cpp:408] detection_eval -> detection_eval
I1016 09:56:12.408614   329 net.cpp:150] Setting up detection_eval
I1016 09:56:12.408622   329 net.cpp:157] Top shape: 1 1 3 5 (15)
I1016 09:56:12.408624   329 net.cpp:165] Memory required for data: 290313664
I1016 09:56:12.408627   329 layer_factory.hpp:77] Creating layer score_32
I1016 09:56:12.408634   329 net.cpp:100] Creating Layer score_32
I1016 09:56:12.408638   329 net.cpp:434] score_32 <- conv13_conv13/relu_0_split_4
I1016 09:56:12.408643   329 net.cpp:408] score_32 -> score_32
I1016 09:56:12.410619   329 net.cpp:150] Setting up score_32
I1016 09:56:12.410635   329 net.cpp:157] Top shape: 1 2 10 15 (300)
I1016 09:56:12.410640   329 net.cpp:165] Memory required for data: 290314864
I1016 09:56:12.410648   329 layer_factory.hpp:77] Creating layer upscore_16
I1016 09:56:12.410656   329 net.cpp:100] Creating Layer upscore_16
I1016 09:56:12.410660   329 net.cpp:434] upscore_16 <- score_32
I1016 09:56:12.410668   329 net.cpp:408] upscore_16 -> upscore_16
I1016 09:56:12.410923   329 net.cpp:150] Setting up upscore_16
I1016 09:56:12.410931   329 net.cpp:157] Top shape: 1 2 20 30 (1200)
I1016 09:56:12.410935   329 net.cpp:165] Memory required for data: 290319664
I1016 09:56:12.410940   329 layer_factory.hpp:77] Creating layer score_16
I1016 09:56:12.410946   329 net.cpp:100] Creating Layer score_16
I1016 09:56:12.410950   329 net.cpp:434] score_16 <- conv11_conv11/relu_0_split_4
I1016 09:56:12.410959   329 net.cpp:408] score_16 -> score_16
I1016 09:56:12.413218   329 net.cpp:150] Setting up score_16
I1016 09:56:12.413230   329 net.cpp:157] Top shape: 1 2 20 30 (1200)
I1016 09:56:12.413234   329 net.cpp:165] Memory required for data: 290324464
I1016 09:56:12.413242   329 layer_factory.hpp:77] Creating layer fuse_16
I1016 09:56:12.413251   329 net.cpp:100] Creating Layer fuse_16
I1016 09:56:12.413254   329 net.cpp:434] fuse_16 <- upscore_16
I1016 09:56:12.413257   329 net.cpp:434] fuse_16 <- score_16
I1016 09:56:12.413261   329 net.cpp:408] fuse_16 -> fuse_16
I1016 09:56:12.413321   329 net.cpp:150] Setting up fuse_16
I1016 09:56:12.413331   329 net.cpp:157] Top shape: 1 2 20 30 (1200)
I1016 09:56:12.413333   329 net.cpp:165] Memory required for data: 290329264
I1016 09:56:12.413336   329 layer_factory.hpp:77] Creating layer upscore_8
I1016 09:56:12.413341   329 net.cpp:100] Creating Layer upscore_8
I1016 09:56:12.413343   329 net.cpp:434] upscore_8 <- fuse_16
I1016 09:56:12.413348   329 net.cpp:408] upscore_8 -> upscore_8
I1016 09:56:12.413594   329 net.cpp:150] Setting up upscore_8
I1016 09:56:12.413604   329 net.cpp:157] Top shape: 1 2 40 60 (4800)
I1016 09:56:12.413606   329 net.cpp:165] Memory required for data: 290348464
I1016 09:56:12.413609   329 layer_factory.hpp:77] Creating layer score_8
I1016 09:56:12.413615   329 net.cpp:100] Creating Layer score_8
I1016 09:56:12.413619   329 net.cpp:434] score_8 <- conv5_conv5/relu_0_split_1
I1016 09:56:12.413625   329 net.cpp:408] score_8 -> score_8
I1016 09:56:12.415925   329 net.cpp:150] Setting up score_8
I1016 09:56:12.415936   329 net.cpp:157] Top shape: 1 2 40 60 (4800)
I1016 09:56:12.415940   329 net.cpp:165] Memory required for data: 290367664
I1016 09:56:12.415946   329 layer_factory.hpp:77] Creating layer fuse_8
I1016 09:56:12.415951   329 net.cpp:100] Creating Layer fuse_8
I1016 09:56:12.415954   329 net.cpp:434] fuse_8 <- upscore_8
I1016 09:56:12.415958   329 net.cpp:434] fuse_8 <- score_8
I1016 09:56:12.415962   329 net.cpp:408] fuse_8 -> fuse_8
I1016 09:56:12.415994   329 net.cpp:150] Setting up fuse_8
I1016 09:56:12.415999   329 net.cpp:157] Top shape: 1 2 40 60 (4800)
I1016 09:56:12.416002   329 net.cpp:165] Memory required for data: 290386864
I1016 09:56:12.416003   329 layer_factory.hpp:77] Creating layer upscore_4
I1016 09:56:12.416009   329 net.cpp:100] Creating Layer upscore_4
I1016 09:56:12.416013   329 net.cpp:434] upscore_4 <- fuse_8
I1016 09:56:12.416016   329 net.cpp:408] upscore_4 -> upscore_4
I1016 09:56:12.416281   329 net.cpp:150] Setting up upscore_4
I1016 09:56:12.416290   329 net.cpp:157] Top shape: 1 2 80 120 (19200)
I1016 09:56:12.416293   329 net.cpp:165] Memory required for data: 290463664
I1016 09:56:12.416298   329 layer_factory.hpp:77] Creating layer score_4
I1016 09:56:12.416309   329 net.cpp:100] Creating Layer score_4
I1016 09:56:12.416313   329 net.cpp:434] score_4 <- conv3_conv3/relu_0_split_1
I1016 09:56:12.416321   329 net.cpp:408] score_4 -> score_4
I1016 09:56:12.418244   329 net.cpp:150] Setting up score_4
I1016 09:56:12.418256   329 net.cpp:157] Top shape: 1 2 80 120 (19200)
I1016 09:56:12.418259   329 net.cpp:165] Memory required for data: 290540464
I1016 09:56:12.418267   329 layer_factory.hpp:77] Creating layer fuse_4
I1016 09:56:12.418275   329 net.cpp:100] Creating Layer fuse_4
I1016 09:56:12.418280   329 net.cpp:434] fuse_4 <- upscore_4
I1016 09:56:12.418285   329 net.cpp:434] fuse_4 <- score_4
I1016 09:56:12.418290   329 net.cpp:408] fuse_4 -> fuse_4
I1016 09:56:12.418336   329 net.cpp:150] Setting up fuse_4
I1016 09:56:12.418345   329 net.cpp:157] Top shape: 1 2 80 120 (19200)
I1016 09:56:12.418349   329 net.cpp:165] Memory required for data: 290617264
I1016 09:56:12.418352   329 layer_factory.hpp:77] Creating layer upscore
I1016 09:56:12.418362   329 net.cpp:100] Creating Layer upscore
I1016 09:56:12.418367   329 net.cpp:434] upscore <- fuse_4
I1016 09:56:12.418372   329 net.cpp:408] upscore -> upscore
I1016 09:56:12.418637   329 net.cpp:150] Setting up upscore
I1016 09:56:12.418645   329 net.cpp:157] Top shape: 1 2 331 491 (325042)
I1016 09:56:12.418648   329 net.cpp:165] Memory required for data: 291917432
I1016 09:56:12.418653   329 layer_factory.hpp:77] Creating layer score
I1016 09:56:12.418661   329 net.cpp:100] Creating Layer score
I1016 09:56:12.418668   329 net.cpp:434] score <- upscore
I1016 09:56:12.418673   329 net.cpp:434] score <- data_data_0_split_7
I1016 09:56:12.418678   329 net.cpp:408] score -> score
I1016 09:56:12.418720   329 net.cpp:150] Setting up score
I1016 09:56:12.418728   329 net.cpp:157] Top shape: 1 2 320 480 (307200)
I1016 09:56:12.418732   329 net.cpp:165] Memory required for data: 293146232
I1016 09:56:12.418735   329 layer_factory.hpp:77] Creating layer seg_loss
I1016 09:56:12.418741   329 net.cpp:100] Creating Layer seg_loss
I1016 09:56:12.418745   329 net.cpp:434] seg_loss <- score
I1016 09:56:12.418751   329 net.cpp:434] seg_loss <- label_seg
I1016 09:56:12.418758   329 net.cpp:408] seg_loss -> seg_loss
…
