…
state {
  phase: TRAIN
}
layer {
  name: "data"
  type: "AnnotatedDataWithSeg"
  top: "data"
  top: "label"
  top: "label_seg"
  include {
    phase: TRAIN
  }
  transform_param {
    scale: 0.007843
    mean_value: 127.5
    mean_value: 127.5
    mean_value: 127.5
    resize_param {
      prob: 1
      resize_mode: WARP
      height: 320
      width: 480
      interp_mode: LINEAR
    }
  }
  data_param {
    source: "lmdb/seg_trainval_lmdb/"
    batch_size: 4
    backend: LMDB
  }
  annotated_data_param {
    label_map_file: "labelmap.prototxt"
  }
}
layer {
  name: "conv0"
  type: "Convolution"
  bottom: "data"
  top: "conv0"
  param {
    lr_mult: 0.1
    decay_mult: 0.1
  }
  convolution_param {
    num_output: 32
    bias_term: false
    pad: 1
    kernel_size: 3
    stride: 2
    weight_filler {
      type: "msra"
    }
  }
}
layer {
  name: "conv0/bn"
  type: "BatchNorm"
  bottom: "conv0"
  top: "conv0"
}
layer {
  name: "conv0/scale"
  type: "Scale"
  bottom: "conv0"
  top: "conv0"
  param {
    lr_mult: 0.1
    decay_mult: 0
  }
  param {
    lr_mult: 0.2
    decay_mult: 0
  }
  scale_param {
    filler {
      value: 1
    }
    bias_term: true
    bias_filler {
      value: 0
    }
  }
}
layer {
  name: "conv0/relu"
  type: "ReLU"
  bottom: "conv0"
  top: "conv0"
}
layer {
  name: "conv1/dw"
  type: "Convolution"
  bottom: "conv0"
  top: "conv1/dw"
  param {
    lr_mult: 0.1
    decay_mult: 0.1
  }
  convolution_param {
    num_output: 32
    bias_term: false
    pad: 1
    kernel_size: 3
    group: 32
    weight_filler {
      type: "msra"
    }
    engine: CAFFE
  }
}
layer {
  name: "conv1/dw/bn"
  type: "BatchNorm"
  bottom: "conv1/dw"
  top: "conv1/dw"
}
layer {
  name: "conv1/dw/scale"
  type: "Scale"
  bottom: "conv1/dw"
  top: "conv1/dw"
  param {
    lr_mult: 0.1
    decay_mult: 0
  }
  param {
    lr_mult: 0.2
    decay_mult: 0
  }
  scale_param {
    filler {
      value: 1
    }
    bias_term: true
    bias_filler {
      value: 0
    }
  }
}
layer {
  name: "conv1/dw/relu"
  type: "ReLU"
  bottom: "conv1/dw"
  top: "conv1/dw"
}
layer {
  name: "conv1"
  type: "Convolution"
  bottom: "conv1/dw"
  top: "conv1"
  param {
    lr_mult: 0.1
    decay_mult: 0.1
  }
  convolution_param {
    num_output: 64
    bias_term: false
    kernel_size: 1
    weight_filler {
      type: "msra"
    }
  }
}
layer {
  name: "conv1/bn"
  type: "BatchNorm"
  bottom: "conv1"
  top: "conv1"
}
layer {
  name: "conv1/scale"
  type: "Scale"
  bottom: "conv1"
  top: "conv1"
  param {
    lr_mult: 0.1
    decay_mult: 0
  }
  param {
    lr_mult: 0.2
    decay_mult: 0
  }
  scale_param {
    filler {
      value: 1
    }
    bias_term: true
    bias_filler {
      value: 0
    }
  }
}
layer {
  name: "conv1/relu"
  type: "ReLU"
  bottom: "conv1"
  top: "conv1"
}
layer {
  name: "conv2/dw"
  type: "Convolution"
  bottom: "conv1"
  top: "conv2/dw"
  param {
    lr_mult: 0.1
    decay_mult: 0.1
  }
  convolution_param {
    num_output: 64
    bias_term: false
    pad: 1
    kernel_size: 3
    group: 64
    stride: 2
    weight_filler {
      type: "msra"
    }
    engine: CAFFE
  }
}
layer {
  name: "conv2/dw/bn"
  type: "BatchNorm"
  bottom: "conv2/dw"
  top: "conv2/dw"
}
layer {
  name: "conv2/dw/scale"
  type: "Scale"
  bottom: "conv2/dw"
  top: "conv2/dw"
  param {
    lr_mult: 0.1
    decay_mult: 0
  }
  param {
    lr_mult: 0.2
    decay_mult: 0
  }
  scale_param {
    filler {
      value: 1
    }
    bias_term: true
    bias_filler {
      value: 0
    }
  }
}
layer {
  name: "conv2/dw/relu"
  type: "ReLU"
  bottom: "conv2/dw"
  top: "conv2/dw"
}
layer {
  name: "conv2"
  type: "Convolution"
  bottom: "conv2/dw"
  top: "conv2"
  param {
    lr_mult: 0.1
    decay_mult: 0.1
  }
  convolution_param {
    num_output: 128
    bias_term: false
    kernel_size: 1
    weight_filler {
      type: "msra"
    }
  }
}
layer {
  name: "conv2/bn"
  type: "BatchNorm"
  bottom: "conv2"
  top: "conv2"
}
layer {
  name: "conv2/scale"
  type: "Scale"
  bottom: "conv2"
  top: "conv2"
  param {
    lr_mult: 0.1
    decay_mult: 0
  }
  param {
    lr_mult: 0.2
    decay_mult: 0
  }
  scale_param {
    filler {
      value: 1
    }
    bias_term: true
    bias_filler {
      value: 0
    }
  }
}
layer {
  name: "conv2/relu"
  type: "ReLU"
  bottom: "conv2"
  top: "conv2"
}
layer {
  name: "conv3/dw"
  type: "Convolution"
  bottom: "conv2"
  top: "conv3/dw"
  param {
    lr_mult: 0.1
    decay_mult: 0.1
  }
  convolution_param {
    num_output: 128
    bias_term: false
    pad: 1
    kernel_size: 3
    group: 128
    weight_filler {
      type: "msra"
    }
    engine: CAFFE
  }
}
layer {
  name: "conv3/dw/bn"
  type: "BatchNorm"
  bottom: "conv3/dw"
  top: "conv3/dw"
}
layer {
  name: "conv3/dw/scale"
  type: "Scale"
  bottom: "conv3/dw"
  top: "conv3/dw"
  param {
    lr_mult: 0.1
    decay_mult: 0
  }
  param {
    lr_mult: 0.2
    decay_mult: 0
  }
  scale_param {
    filler {
      value: 1
    }
    bias_term: true
    bias_filler {
      value: 0
    }
  }
}
layer {
  name: "conv3/dw/relu"
  type: "ReLU"
  bottom: "conv3/dw"
  top: "conv3/dw"
}
layer {
  name: "conv3"
  type: "Convolution"
  bottom: "conv3/dw"
  top: "conv3"
  param {
    lr_mult: 0.1
    decay_mult: 0.1
  }
  convolution_param {
    num_output: 128
    bias_term: false
    kernel_size: 1
    weight_filler {
      type: "msra"
    }
  }
}
layer {
  name: "conv3/bn"
  type: "BatchNorm"
  bottom: "conv3"
  top: "conv3"
}
layer {
  name: "conv3/scale"
  type: "Scale"
  bottom: "conv3"
  top: "conv3"
  param {
    lr_mult: 0.1
    decay_mult: 0
  }
  param {
    lr_mult: 0.2
    decay_mult: 0
  }
  scale_param {
    filler {
      value: 1
    }
    bias_term: true
    bias_filler {
      value: 0
    }
  }
}
layer {
  name: "conv3/relu"
  type: "ReLU"
  bottom: "conv3"
  top: "conv3"
}
layer {
  name: "conv4/dw"
  type: "Convolution"
  bottom: "conv3"
  top: "conv4/dw"
  param {
    lr_mult: 0.1
    decay_mult: 0.1
  }
  convolution_param {
    num_output: 128
    bias_term: false
    pad: 1
    kernel_size: 3
    group: 128
    stride: 2
    weight_filler {
      type: "msra"
    }
    engine: CAFFE
  }
}
layer {
  name: "conv4/dw/bn"
  type: "BatchNorm"
  bottom: "conv4/dw"
  top: "conv4/dw"
}
layer {
  name: "conv4/dw/scale"
  type: "Scale"
  bottom: "conv4/dw"
  top: "conv4/dw"
  param {
    lr_mult: 0.1
    decay_mult: 0
  }
  param {
    lr_mult: 0.2
    decay_mult: 0
  }
  scale_param {
    filler {
      value: 1
    }
    bias_term: true
    bias_filler {
      value: 0
    }
  }
}
layer {
  name: "conv4/dw/relu"
  type: "ReLU"
  bottom: "conv4/dw"
  top: "conv4/dw"
}
layer {
  name: "conv4"
  type: "Convolution"
  bottom: "conv4/dw"
  top: "conv4"
  param {
    lr_mult: 0.1
    decay_mult: 0.1
  }
  convolution_param {
    num_output: 256
    bias_term: false
    kernel_size: 1
    weight_filler {
      type: "msra"
    }
  }
}
layer {
  name: "conv4/bn"
  type: "BatchNorm"
  bottom: "conv4"
  top: "conv4"
}
layer {
  name: "conv4/scale"
  type: "Scale"
  bottom: "conv4"
  top: "conv4"
  param {
    lr_mult: 0.1
    decay_mult: 0
  }
  param {
    lr_mult: 0.2
    decay_mult: 0
  }
  scale_param {
    filler {
      value: 1
    }
    bias_term: true
    bias_filler {
      value: 0
    }
  }
}
layer {
  name: "conv4/relu"
  type: "ReLU"
  bottom: "conv4"
  top: "conv4"
}
layer {
  name: "conv5/dw"
  type: "Convolution"
  bottom: "conv4"
  top: "conv5/dw"
  param {
    lr_mult: 0.1
    decay_mult: 0.1
  }
  convolution_param {
    num_output: 256
    bias_term: false
    pad: 1
    kernel_size: 3
    group: 256
    weight_filler {
      type: "msra"
    }
    engine: CAFFE
  }
}
layer {
  name: "conv5/dw/bn"
  type: "BatchNorm"
  bottom: "conv5/dw"
  top: "conv5/dw"
}
layer {
  name: "conv5/dw/scale"
  type: "Scale"
  bottom: "conv5/dw"
  top: "conv5/dw"
  param {
    lr_mult: 0.1
    decay_mult: 0
  }
  param {
    lr_mult: 0.2
    decay_mult: 0
  }
  scale_param {
    filler {
      value: 1
    }
    bias_term: true
    bias_filler {
      value: 0
    }
  }
}
layer {
  name: "conv5/dw/relu"
  type: "ReLU"
  bottom: "conv5/dw"
  top: "conv5/dw"
}
layer {
  name: "conv5"
  type: "Convolution"
  bottom: "conv5/dw"
  top: "conv5"
  param {
    lr_mult: 0.1
    decay_mult: 0.1
  }
  convolution_param {
    num_output: 256
    bias_term: false
    kernel_size: 1
    weight_filler {
      type: "msra"
    }
  }
}
layer {
  name: "conv5/bn"
  type: "BatchNorm"
  bottom: "conv5"
  top: "conv5"
}
layer {
  name: "conv5/scale"
  type: "Scale"
  bottom: "conv5"
  top: "conv5"
  param {
    lr_mult: 0.1
    decay_mult: 0
  }
  param {
    lr_mult: 0.2
    decay_mult: 0
  }
  scale_param {
    filler {
      value: 1
    }
    bias_term: true
    bias_filler {
      value: 0
    }
  }
}
layer {
  name: "conv5/relu"
  type: "ReLU"
  bottom: "conv5"
  top: "conv5"
}
layer {
  name: "conv6/dw"
  type: "Convolution"
  bottom: "conv5"
  top: "conv6/dw"
  param {
    lr_mult: 0.1
    decay_mult: 0.1
  }
  convolution_param {
    num_output: 256
    bias_term: false
    pad: 1
    kernel_size: 3
    group: 256
    stride: 2
    weight_filler {
      type: "msra"
    }
    engine: CAFFE
  }
}
layer {
  name: "conv6/dw/bn"
  type: "BatchNorm"
  bottom: "conv6/dw"
  top: "conv6/dw"
}
layer {
  name: "conv6/dw/scale"
  type: "Scale"
  bottom: "conv6/dw"
  top: "conv6/dw"
  param {
    lr_mult: 0.1
    decay_mult: 0
  }
  param {
    lr_mult: 0.2
    decay_mult: 0
  }
  scale_param {
    filler {
      value: 1
    }
    bias_term: true
    bias_filler {
      value: 0
    }
  }
}
layer {
  name: "conv6/dw/relu"
  type: "ReLU"
  bottom: "conv6/dw"
  top: "conv6/dw"
}
layer {
  name: "conv6"
  type: "Convolution"
  bottom: "conv6/dw"
  top: "conv6"
  param {
    lr_mult: 0.1
    decay_mult: 0.1
  }
  convolution_param {
    num_output: 512
    bias_term: false
    kernel_size: 1
    weight_filler {
      type: "msra"
    }
  }
}
layer {
  name: "conv6/bn"
  type: "BatchNorm"
  bottom: "conv6"
  top: "conv6"
}
layer {
  name: "conv6/scale"
  type: "Scale"
  bottom: "conv6"
  top: "conv6"
  param {
    lr_mult: 0.1
    decay_mult: 0
  }
  param {
    lr_mult: 0.2
    decay_mult: 0
  }
  scale_param {
    filler {
      value: 1
    }
    bias_term: true
    bias_filler {
      value: 0
    }
  }
}
layer {
  name: "conv6/relu"
  type: "ReLU"
  bottom: "conv6"
  top: "conv6"
}
layer {
  name: "conv7/dw"
  type: "Convolution"
  bottom: "conv6"
  top: "conv7/dw"
  param {
    lr_mult: 0.1
    decay_mult: 0.1
  }
  convolution_param {
    num_output: 512
    bias_term: false
    pad: 1
    kernel_size: 3
    group: 512
    weight_filler {
      type: "msra"
    }
    engine: CAFFE
  }
}
layer {
  name: "conv7/dw/bn"
  type: "BatchNorm"
  bottom: "conv7/dw"
  top: "conv7/dw"
}
layer {
  name: "conv7/dw/scale"
  type: "Scale"
  bottom: "conv7/dw"
  top: "conv7/dw"
  param {
    lr_mult: 0.1
    decay_mult: 0
  }
  param {
    lr_mult: 0.2
    decay_mult: 0
  }
  scale_param {
    filler {
      value: 1
    }
    bias_term: true
    bias_filler {
      value: 0
    }
  }
}
layer {
  name: "conv7/dw/relu"
  type: "ReLU"
  bottom: "conv7/dw"
  top: "conv7/dw"
}
layer {
  name: "conv7"
  type: "Convolution"
  bottom: "conv7/dw"
  top: "conv7"
  param {
    lr_mult: 0.1
    decay_mult: 0.1
  }
  convolution_param {
    num_output: 512
    bias_term: false
    kernel_size: 1
    weight_filler {
      type: "msra"
    }
  }
}
layer {
  name: "conv7/bn"
  type: "BatchNorm"
  bottom: "conv7"
  top: "conv7"
}
layer {
  name: "conv7/scale"
  type: "Scale"
  bottom: "conv7"
  top: "conv7"
  param {
    lr_mult: 0.1
    decay_mult: 0
  }
  param {
    lr_mult: 0.2
    decay_mult: 0
  }
  scale_param {
    filler {
      value: 1
    }
    bias_term: true
    bias_filler {
      value: 0
    }
  }
}
layer {
  name: "conv7/relu"
  type: "ReLU"
  bottom: "conv7"
  top: "conv7"
}
layer {
  name: "conv8/dw"
  type: "Convolution"
  bottom: "conv7"
  top: "conv8/dw"
  param {
    lr_mult: 0.1
    decay_mult: 0.1
  }
  convolution_param {
    num_output: 512
    bias_term: false
    pad: 1
    kernel_size: 3
    group: 512
    weight_filler {
      type: "msra"
    }
    engine: CAFFE
  }
}
layer {
  name: "conv8/dw/bn"
  type: "BatchNorm"
  bottom: "conv8/dw"
  top: "conv8/dw"
}
layer {
  name: "conv8/dw/scale"
  type: "Scale"
  bottom: "conv8/dw"
  top: "conv8/dw"
  param {
    lr_mult: 0.1
    decay_mult: 0
  }
  param {
    lr_mult: 0.2
    decay_mult: 0
  }
  scale_param {
    filler {
      value: 1
    }
    bias_term: true
    bias_filler {
      value: 0
    }
  }
}
layer {
  name: "conv8/dw/relu"
  type: "ReLU"
  bottom: "conv8/dw"
  top: "conv8/dw"
}
layer {
  name: "conv8"
  type: "Convolution"
  bottom: "conv8/dw"
  top: "conv8"
  param {
    lr_mult: 0.1
    decay_mult: 0.1
  }
  convolution_param {
    num_output: 512
    bias_term: false
    kernel_size: 1
    weight_filler {
      type: "msra"
    }
  }
}
layer {
  name: "conv8/bn"
  type: "BatchNorm"
  bottom: "conv8"
  top: "conv8"
}
layer {
  name: "conv8/scale"
  type: "Scale"
  bottom: "conv8"
  top: "conv8"
  param {
    lr_mult: 0.1
    decay_mult: 0
  }
  param {
    lr_mult: 0.2
    decay_mult: 0
  }
  scale_param {
    filler {
      value: 1
    }
    bias_term: true
    bias_filler {
      value: 0
    }
  }
}
layer {
  name: "conv8/relu"
  type: "ReLU"
  bottom: "conv8"
  top: "conv8"
}
layer {
  name: "conv9/dw"
  type: "Convolution"
  bottom: "conv8"
  top: "conv9/dw"
  param {
    lr_mult: 0.1
    decay_mult: 0.1
  }
  convolution_param {
    num_output: 512
    bias_term: false
    pad: 1
    kernel_size: 3
    group: 512
    weight_filler {
      type: "msra"
    }
    engine: CAFFE
  }
}
layer {
  name: "conv9/dw/bn"
  type: "BatchNorm"
  bottom: "conv9/dw"
  top: "conv9/dw"
}
layer {
  name: "conv9/dw/scale"
  type: "Scale"
  bottom: "conv9/dw"
  top: "conv9/dw"
  param {
    lr_mult: 0.1
    decay_mult: 0
  }
  param {
    lr_mult: 0.2
    decay_mult: 0
  }
  scale_param {
    filler {
      value: 1
    }
    bias_term: true
    bias_filler {
      value: 0
    }
  }
}
layer {
  name: "conv9/dw/relu"
  type: "ReLU"
  bottom: "conv9/dw"
  top: "conv9/dw"
}
layer {
  name: "conv9"
  type: "Convolution"
  bottom: "conv9/dw"
  top: "conv9"
  param {
    lr_mult: 0.1
    decay_mult: 0.1
  }
  convolution_param {
    num_output: 512
    bias_term: false
    kernel_size: 1
    weight_filler {
      type: "msra"
    }
  }
}
layer {
  name: "conv9/bn"
  type: "BatchNorm"
  bottom: "conv9"
  top: "conv9"
}
layer {
  name: "conv9/scale"
  type: "Scale"
  bottom: "conv9"
  top: "conv9"
  param {
    lr_mult: 0.1
    decay_mult: 0
  }
  param {
    lr_mult: 0.2
    decay_mult: 0
  }
  scale_param {
    filler {
      value: 1
    }
    bias_term: true
    bias_filler {
      value: 0
    }
  }
}
layer {
  name: "conv9/relu"
  type: "ReLU"
  bottom: "conv9"
  top: "conv9"
}
layer {
  name: "conv10/dw"
  type: "Convolution"
  bottom: "conv9"
  top: "conv10/dw"
  param {
    lr_mult: 0.1
    decay_mult: 0.1
  }
  convolution_param {
    num_output: 512
    bias_term: false
    pad: 1
    kernel_size: 3
    group: 512
    weight_filler {
      type: "msra"
    }
    engine: CAFFE
  }
}
layer {
  name: "conv10/dw/bn"
  type: "BatchNorm"
  bottom: "conv10/dw"
  top: "conv10/dw"
}
layer {
  name: "conv10/dw/scale"
  type: "Scale"
  bottom: "conv10/dw"
  top: "conv10/dw"
  param {
    lr_mult: 0.1
    decay_mult: 0
  }
  param {
    lr_mult: 0.2
    decay_mult: 0
  }
  scale_param {
    filler {
      value: 1
    }
    bias_term: true
    bias_filler {
      value: 0
    }
  }
}
layer {
  name: "conv10/dw/relu"
  type: "ReLU"
  bottom: "conv10/dw"
  top: "conv10/dw"
}
layer {
  name: "conv10"
  type: "Convolution"
  bottom: "conv10/dw"
  top: "conv10"
  param {
    lr_mult: 0.1
    decay_mult: 0.1
  }
  convolution_param {
    num_output: 512
    bias_term: false
    kernel_size: 1
    weight_filler {
      type: "msra"
    }
  }
}
layer {
  name: "conv10/bn"
  type: "BatchNorm"
  bottom: "conv10"
  top: "conv10"
}
layer {
  name: "conv10/scale"
  type: "Scale"
  bottom: "conv10"
  top: "conv10"
  param {
    lr_mult: 0.1
    decay_mult: 0
  }
  param {
    lr_mult: 0.2
    decay_mult: 0
  }
  scale_param {
    filler {
      value: 1
    }
    bias_term: true
    bias_filler {
      value: 0
    }
  }
}
layer {
  name: "conv10/relu"
  type: "ReLU"
  bottom: "conv10"
  top: "conv10"
}
layer {
  name: "conv11/dw"
  type: "Convolution"
  bottom: "conv10"
  top: "conv11/dw"
  param {
    lr_mult: 0.1
    decay_mult: 0.1
  }
  convolution_param {
    num_output: 512
    bias_term: false
    pad: 1
    kernel_size: 3
    group: 512
    weight_filler {
      type: "msra"
    }
    engine: CAFFE
  }
}
layer {
  name: "conv11/dw/bn"
  type: "BatchNorm"
  bottom: "conv11/dw"
  top: "conv11/dw"
}
layer {
  name: "conv11/dw/scale"
  type: "Scale"
  bottom: "conv11/dw"
  top: "conv11/dw"
  param {
    lr_mult: 0.1
    decay_mult: 0
  }
  param {
    lr_mult: 0.2
    decay_mult: 0
  }
  scale_param {
    filler {
      value: 1
    }
    bias_term: true
    bias_filler {
      value: 0
    }
  }
}
layer {
  name: "conv11/dw/relu"
  type: "ReLU"
  bottom: "conv11/dw"
  top: "conv11/dw"
}
layer {
  name: "conv11"
  type: "Convolution"
  bottom: "conv11/dw"
  top: "conv11"
  param {
    lr_mult: 0.1
    decay_mult: 0.1
  }
  convolution_param {
    num_output: 512
    bias_term: false
    kernel_size: 1
    weight_filler {
      type: "msra"
    }
  }
}
layer {
  name: "conv11/bn"
  type: "BatchNorm"
  bottom: "conv11"
  top: "conv11"
}
layer {
  name: "conv11/scale"
  type: "Scale"
  bottom: "conv11"
  top: "conv11"
  param {
    lr_mult: 0.1
    decay_mult: 0
  }
  param {
    lr_mult: 0.2
    decay_mult: 0
  }
  scale_param {
    filler {
      value: 1
    }
    bias_term: true
    bias_filler {
      value: 0
    }
  }
}
layer {
  name: "conv11/relu"
  type: "ReLU"
  bottom: "conv11"
  top: "conv11"
}
layer {
  name: "conv12/dw"
  type: "Convolution"
  bottom: "conv11"
  top: "conv12/dw"
  param {
    lr_mult: 0.1
    decay_mult: 0.1
  }
  convolution_param {
    num_output: 512
    bias_term: false
    pad: 1
    kernel_size: 3
    group: 512
    stride: 2
    weight_filler {
      type: "msra"
    }
    engine: CAFFE
  }
}
layer {
  name: "conv12/dw/bn"
  type: "BatchNorm"
  bottom: "conv12/dw"
  top: "conv12/dw"
}
layer {
  name: "conv12/dw/scale"
  type: "Scale"
  bottom: "conv12/dw"
  top: "conv12/dw"
  param {
    lr_mult: 0.1
    decay_mult: 0
  }
  param {
    lr_mult: 0.2
    decay_mult: 0
  }
  scale_param {
    filler {
      value: 1
    }
    bias_term: true
    bias_filler {
      value: 0
    }
  }
}
layer {
  name: "conv12/dw/relu"
  type: "ReLU"
  bottom: "conv12/dw"
  top: "conv12/dw"
}
layer {
  name: "conv12"
  type: "Convolution"
  bottom: "conv12/dw"
  top: "conv12"
  param {
    lr_mult: 0.1
    decay_mult: 0.1
  }
  convolution_param {
    num_output: 1024
    bias_term: false
    kernel_size: 1
    weight_filler {
      type: "msra"
    }
  }
}
layer {
  name: "conv12/bn"
  type: "BatchNorm"
  bottom: "conv12"
  top: "conv12"
}
layer {
  name: "conv12/scale"
  type: "Scale"
  bottom: "conv12"
  top: "conv12"
  param {
    lr_mult: 0.1
    decay_mult: 0
  }
  param {
    lr_mult: 0.2
    decay_mult: 0
  }
  scale_param {
    filler {
      value: 1
    }
    bias_term: true
    bias_filler {
      value: 0
    }
  }
}
layer {
  name: "conv12/relu"
  type: "ReLU"
  bottom: "conv12"
  top: "conv12"
}
layer {
  name: "conv13/dw"
  type: "Convolution"
  bottom: "conv12"
  top: "conv13/dw"
  param {
    lr_mult: 0.1
    decay_mult: 0.1
  }
  convolution_param {
    num_output: 1024
    bias_term: false
    pad: 1
    kernel_size: 3
    group: 1024
    weight_filler {
      type: "msra"
    }
    engine: CAFFE
  }
}
layer {
  name: "conv13/dw/bn"
  type: "BatchNorm"
  bottom: "conv13/dw"
  top: "conv13/dw"
}
layer {
  name: "conv13/dw/scale"
  type: "Scale"
  bottom: "conv13/dw"
  top: "conv13/dw"
  param {
    lr_mult: 0.1
    decay_mult: 0
  }
  param {
    lr_mult: 0.2
    decay_mult: 0
  }
  scale_param {
    filler {
      value: 1
    }
    bias_term: true
    bias_filler {
      value: 0
    }
  }
}
layer {
  name: "conv13/dw/relu"
  type: "ReLU"
  bottom: "conv13/dw"
  top: "conv13/dw"
}
layer {
  name: "conv13"
  type: "Convolution"
  bottom: "conv13/dw"
  top: "conv13"
  param {
    lr_mult: 0.1
    decay_mult: 0.1
  }
  convolution_param {
    num_output: 1024
    bias_term: false
    kernel_size: 1
    weight_filler {
      type: "msra"
    }
  }
}
layer {
  name: "conv13/bn"
  type: "BatchNorm"
  bottom: "conv13"
  top: "conv13"
}
layer {
  name: "conv13/scale"
  type: "Scale"
  bottom: "conv13"
  top: "conv13"
  param {
    lr_mult: 0.1
    decay_mult: 0
  }
  param {
    lr_mult: 0.2
    decay_mult: 0
  }
  scale_param {
    filler {
      value: 1
    }
    bias_term: true
    bias_filler {
      value: 0
    }
  }
}
layer {
  name: "conv13/relu"
  type: "ReLU"
  bottom: "conv13"
  top: "conv13"
}
layer {
  name: "conv14_1"
  type: "Convolution"
  bottom: "conv13"
  top: "conv14_1"
  param {
    lr_mult: 0.1
    decay_mult: 0.1
  }
  convolution_param {
    num_output: 256
    bias_term: false
    kernel_size: 1
    weight_filler {
      type: "msra"
    }
  }
}
layer {
  name: "conv14_1/bn"
  type: "BatchNorm"
  bottom: "conv14_1"
  top: "conv14_1"
}
layer {
  name: "conv14_1/scale"
  type: "Scale"
  bottom: "conv14_1"
  top: "conv14_1"
  param {
    lr_mult: 0.1
    decay_mult: 0
  }
  param {
    lr_mult: 0.2
    decay_mult: 0
  }
  scale_param {
    filler {
      value: 1
    }
    bias_term: true
    bias_filler {
      value: 0
    }
  }
}
layer {
  name: "conv14_1/relu"
  type: "ReLU"
  bottom: "conv14_1"
  top: "conv14_1"
}
layer {
  name: "conv14_2"
  type: "Convolution"
  bottom: "conv14_1"
  top: "conv14_2"
  param {
    lr_mult: 0.1
    decay_mult: 0.1
  }
  convolution_param {
    num_output: 512
    bias_term: false
    pad: 1
    kernel_size: 3
    stride: 2
    weight_filler {
      type: "msra"
    }
  }
}
layer {
  name: "conv14_2/bn"
  type: "BatchNorm"
  bottom: "conv14_2"
  top: "conv14_2"
}
layer {
  name: "conv14_2/scale"
  type: "Scale"
  bottom: "conv14_2"
  top: "conv14_2"
  param {
    lr_mult: 0.1
    decay_mult: 0
  }
  param {
    lr_mult: 0.2
    decay_mult: 0
  }
  scale_param {
    filler {
      value: 1
    }
    bias_term: true
    bias_filler {
      value: 0
    }
  }
}
layer {
  name: "conv14_2/relu"
  type: "ReLU"
  bottom: "conv14_2"
  top: "conv14_2"
}
layer {
  name: "conv15_1"
  type: "Convolution"
  bottom: "conv14_2"
  top: "conv15_1"
  param {
    lr_mult: 0.1
    decay_mult: 0.1
  }
  convolution_param {
    num_output: 128
    bias_term: false
    kernel_size: 1
    weight_filler {
      type: "msra"
    }
  }
}
layer {
  name: "conv15_1/bn"
  type: "BatchNorm"
  bottom: "conv15_1"
  top: "conv15_1"
}
layer {
  name: "conv15_1/scale"
  type: "Scale"
  bottom: "conv15_1"
  top: "conv15_1"
  param {
    lr_mult: 0.1
    decay_mult: 0
  }
  param {
    lr_mult: 0.2
    decay_mult: 0
  }
  scale_param {
    filler {
      value: 1
    }
    bias_term: true
    bias_filler {
      value: 0
    }
  }
}
layer {
  name: "conv15_1/relu"
  type: "ReLU"
  bottom: "conv15_1"
  top: "conv15_1"
}
layer {
  name: "conv15_2"
  type: "Convolution"
  bottom: "conv15_1"
  top: "conv15_2"
  param {
    lr_mult: 0.1
    decay_mult: 0.1
  }
  convolution_param {
    num_output: 256
    bias_term: false
    pad: 1
    kernel_size: 3
    stride: 2
    weight_filler {
      type: "msra"
    }
  }
}
layer {
  name: "conv15_2/bn"
  type: "BatchNorm"
  bottom: "conv15_2"
  top: "conv15_2"
}
layer {
  name: "conv15_2/scale"
  type: "Scale"
  bottom: "conv15_2"
  top: "conv15_2"
  param {
    lr_mult: 0.1
    decay_mult: 0
  }
  param {
    lr_mult: 0.2
    decay_mult: 0
  }
  scale_param {
    filler {
      value: 1
    }
    bias_term: true
    bias_filler {
      value: 0
    }
  }
}
layer {
  name: "conv15_2/relu"
  type: "ReLU"
  bottom: "conv15_2"
  top: "conv15_2"
}
layer {
  name: "conv16_1"
  type: "Convolution"
  bottom: "conv15_2"
  top: "conv16_1"
  param {
    lr_mult: 0.1
    decay_mult: 0.1
  }
  convolution_param {
    num_output: 128
    bias_term: false
    kernel_size: 1
    weight_filler {
      type: "msra"
    }
  }
}
layer {
  name: "conv16_1/bn"
  type: "BatchNorm"
  bottom: "conv16_1"
  top: "conv16_1"
}
layer {
  name: "conv16_1/scale"
  type: "Scale"
  bottom: "conv16_1"
  top: "conv16_1"
  param {
    lr_mult: 0.1
    decay_mult: 0
  }
  param {
    lr_mult: 0.2
    decay_mult: 0
  }
  scale_param {
    filler {
      value: 1
    }
    bias_term: true
    bias_filler {
      value: 0
    }
  }
}
layer {
  name: "conv16_1/relu"
  type: "ReLU"
  bottom: "conv16_1"
  top: "conv16_1"
}
layer {
  name: "conv16_2"
  type: "Convolution"
  bottom: "conv16_1"
  top: "conv16_2"
  param {
    lr_mult: 0.1
    decay_mult: 0.1
  }
  convolution_param {
    num_output: 256
    bias_term: false
    pad: 1
    kernel_size: 3
    stride: 2
    weight_filler {
      type: "msra"
    }
  }
}
layer {
  name: "conv16_2/bn"
  type: "BatchNorm"
  bottom: "conv16_2"
  top: "conv16_2"
}
layer {
  name: "conv16_2/scale"
  type: "Scale"
  bottom: "conv16_2"
  top: "conv16_2"
  param {
    lr_mult: 0.1
    decay_mult: 0
  }
  param {
    lr_mult: 0.2
    decay_mult: 0
  }
  scale_param {
    filler {
      value: 1
    }
    bias_term: true
    bias_filler {
      value: 0
    }
  }
}
layer {
  name: "conv16_2/relu"
  type: "ReLU"
  bottom: "conv16_2"
  top: "conv16_2"
}
layer {
  name: "conv17_1"
  type: "Convolution"
  bottom: "conv16_2"
  top: "conv17_1"
  param {
    lr_mult: 0.1
    decay_mult: 0.1
  }
  convolution_param {
    num_output: 64
    bias_term: false
    kernel_size: 1
    weight_filler {
      type: "msra"
    }
  }
}
layer {
  name: "conv17_1/bn"
  type: "BatchNorm"
  bottom: "conv17_1"
  top: "conv17_1"
}
layer {
  name: "conv17_1/scale"
  type: "Scale"
  bottom: "conv17_1"
  top: "conv17_1"
  param {
    lr_mult: 0.1
    decay_mult: 0
  }
  param {
    lr_mult: 0.2
    decay_mult: 0
  }
  scale_param {
    filler {
      value: 1
    }
    bias_term: true
    bias_filler {
      value: 0
    }
  }
}
layer {
  name: "conv17_1/relu"
  type: "ReLU"
  bottom: "conv17_1"
  top: "conv17_1"
}
layer {
  name: "conv17_2"
  type: "Convolution"
  bottom: "conv17_1"
  top: "conv17_2"
  param {
    lr_mult: 0.1
    decay_mult: 0.1
  }
  convolution_param {
    num_output: 128
    bias_term: false
    pad: 1
    kernel_size: 3
    stride: 2
    weight_filler {
      type: "msra"
    }
  }
}
layer {
  name: "conv17_2/bn"
  type: "BatchNorm"
  bottom: "conv17_2"
  top: "conv17_2"
}
layer {
  name: "conv17_2/scale"
  type: "Scale"
  bottom: "conv17_2"
  top: "conv17_2"
  param {
    lr_mult: 0.1
    decay_mult: 0
  }
  param {
    lr_mult: 0.2
    decay_mult: 0
  }
  scale_param {
    filler {
      value: 1
    }
    bias_term: true
    bias_filler {
      value: 0
    }
  }
}
layer {
  name: "conv17_2/relu"
  type: "ReLU"
  bottom: "conv17_2"
  top: "conv17_2"
}
layer {
  name: "conv11_mbox_loc"
  type: "Convolution"
  bottom: "conv11"
  top: "conv11_mbox_loc"
  param {
    lr_mult: 0.1
    decay_mult: 0.1
  }
  param {
    lr_mult: 0.2
    decay_mult: 0
  }
  convolution_param {
    num_output: 12
    kernel_size: 1
    weight_filler {
      type: "msra"
    }
    bias_filler {
      type: "constant"
      value: 0
    }
  }
}
layer {
  name: "conv11_mbox_loc_perm"
  type: "Permute"
  bottom: "conv11_mbox_loc"
  top: "conv11_mbox_loc_perm"
  permute_param {
    order: 0
    order: 2
    order: 3
    order: 1
  }
}
layer {
  name: "conv11_mbox_loc_flat"
  type: "Flatten"
  bottom: "conv11_mbox_loc_perm"
  top: "conv11_mbox_loc_flat"
  flatten_param {
    axis: 1
  }
}
layer {
  name: "conv11_mbox_conf_new"
  type: "Convolution"
  bottom: "conv11"
  top: "conv11_mbox_conf"
  param {
    lr_mult: 1
    decay_mult: 1
  }
  param {
    lr_mult: 2
    decay_mult: 0
  }
  convolution_param {
    num_output: 9
    kernel_size: 1
    weight_filler {
      type: "msra"
    }
    bias_filler {
      type: "constant"
      value: 0
    }
  }
}
layer {
  name: "conv11_mbox_conf_perm"
  type: "Permute"
  bottom: "conv11_mbox_conf"
  top: "conv11_mbox_conf_perm"
  permute_param {
    order: 0
    order: 2
    order: 3
    order: 1
  }
}
layer {
  name: "conv11_mbox_conf_flat"
  type: "Flatten"
  bottom: "conv11_mbox_conf_perm"
  top: "conv11_mbox_conf_flat"
  flatten_param {
    axis: 1
  }
}
layer {
  name: "conv11_mbox_priorbox"
  type: "PriorBox"
  bottom: "conv11"
  bottom: "data"
  top: "conv11_mbox_priorbox"
  prior_box_param {
    min_size: 60
    aspect_ratio: 2
    flip: true
    clip: false
    variance: 0.1
    variance: 0.1
    variance: 0.2
    variance: 0.2
    offset: 0.5
  }
}
layer {
  name: "conv13_mbox_loc"
  type: "Convolution"
  bottom: "conv13"
  top: "conv13_mbox_loc"
  param {
    lr_mult: 0.1
    decay_mult: 0.1
  }
  param {
    lr_mult: 0.2
    decay_mult: 0
  }
  convolution_param {
    num_output: 24
    kernel_size: 1
    weight_filler {
      type: "msra"
    }
    bias_filler {
      type: "constant"
      value: 0
    }
  }
}
layer {
  name: "conv13_mbox_loc_perm"
  type: "Permute"
  bottom: "conv13_mbox_loc"
  top: "conv13_mbox_loc_perm"
  permute_param {
    order: 0
    order: 2
    order: 3
    order: 1
  }
}
layer {
  name: "conv13_mbox_loc_flat"
  type: "Flatten"
  bottom: "conv13_mbox_loc_perm"
  top: "conv13_mbox_loc_flat"
  flatten_param {
    axis: 1
  }
}
layer {
  name: "conv13_mbox_conf_new"
  type: "Convolution"
  bottom: "conv13"
  top: "conv13_mbox_conf"
  param {
    lr_mult: 1
    decay_mult: 1
  }
  param {
    lr_mult: 2
    decay_mult: 0
  }
  convolution_
I1015 15:32:51.338842  4233 layer_factory.hpp:77] Creating layer data
I1015 15:32:51.339093  4233 net.cpp:100] Creating Layer data
I1015 15:32:51.339120  4233 net.cpp:408] data -> data
I1015 15:32:51.339143  4233 net.cpp:408] data -> label
I1015 15:32:51.339159  4233 net.cpp:408] data -> label_seg
I1015 15:32:51.339174  4233 base_data_with_seg_layer.cpp:32] --------------lin 32 begin datalayersetup-------------------------
I1015 15:32:51.342962  4264 db_lmdb.cpp:35] Opened lmdb lmdb/seg_trainval_lmdb/
I1015 15:32:51.448809  4233 annotated_data_with_seg_layer.cpp:91] ----[top0]output data size: 4,3,320,480
I1015 15:32:51.466537  4233 base_data_with_seg_layer.cpp:75] Initializing prefetch
I1015 15:32:51.466601  4233 base_data_with_seg_layer.cpp:78] Prefetch initialized.
I1015 15:32:51.466606  4233 net.cpp:150] Setting up data
I1015 15:32:51.466615  4233 net.cpp:157] Top shape: 4 3 320 480 (1843200)
I1015 15:32:51.466620  4233 net.cpp:157] Top shape: 1 1 6 8 (48)
I1015 15:32:51.466624  4233 net.cpp:157] Top shape: 4 1 320 480 (614400)
I1015 15:32:51.466626  4233 net.cpp:165] Memory required for data: 9830592
I1015 15:32:51.466632  4233 layer_factory.hpp:77] Creating layer data_data_0_split
I1015 15:32:51.466646  4233 net.cpp:100] Creating Layer data_data_0_split
I1015 15:32:51.466650  4233 net.cpp:434] data_data_0_split <- data
I1015 15:32:51.466657  4233 net.cpp:408] data_data_0_split -> data_data_0_split_0
I1015 15:32:51.466667  4233 net.cpp:408] data_data_0_split -> data_data_0_split_1
I1015 15:32:51.466675  4233 net.cpp:408] data_data_0_split -> data_data_0_split_2
I1015 15:32:51.466679  4233 net.cpp:408] data_data_0_split -> data_data_0_split_3
I1015 15:32:51.466683  4233 net.cpp:408] data_data_0_split -> data_data_0_split_4
I1015 15:32:51.466688  4233 net.cpp:408] data_data_0_split -> data_data_0_split_5
I1015 15:32:51.466694  4233 net.cpp:408] data_data_0_split -> data_data_0_split_6
I1015 15:32:51.466699  4233 net.cpp:408] data_data_0_split -> data_data_0_split_7
I1015 15:32:51.466806  4233 net.cpp:150] Setting up data_data_0_split
I1015 15:32:51.466812  4233 net.cpp:157] Top shape: 4 3 320 480 (1843200)
I1015 15:32:51.466816  4233 net.cpp:157] Top shape: 4 3 320 480 (1843200)
I1015 15:32:51.466820  4233 net.cpp:157] Top shape: 4 3 320 480 (1843200)
I1015 15:32:51.466822  4233 net.cpp:157] Top shape: 4 3 320 480 (1843200)
I1015 15:32:51.466825  4233 net.cpp:157] Top shape: 4 3 320 480 (1843200)
I1015 15:32:51.466828  4233 net.cpp:157] Top shape: 4 3 320 480 (1843200)
I1015 15:32:51.466831  4233 net.cpp:157] Top shape: 4 3 320 480 (1843200)
I1015 15:32:51.466835  4233 net.cpp:157] Top shape: 4 3 320 480 (1843200)
I1015 15:32:51.466836  4233 net.cpp:165] Memory required for data: 68812992
I1015 15:32:51.466840  4233 layer_factory.hpp:77] Creating layer conv0
I1015 15:32:51.466856  4233 net.cpp:100] Creating Layer conv0
I1015 15:32:51.466858  4233 net.cpp:434] conv0 <- data_data_0_split_0
I1015 15:32:51.466863  4233 net.cpp:408] conv0 -> conv0
I1015 15:32:51.469179  4265 base_data_with_seg_layer.cpp:84] --------------InternalThreadEntry---------------------
I1015 15:32:52.000320  4233 net.cpp:150] Setting up conv0
I1015 15:32:52.000344  4233 net.cpp:157] Top shape: 4 32 160 240 (4915200)
I1015 15:32:52.000347  4233 net.cpp:165] Memory required for data: 88473792
I1015 15:32:52.000358  4233 layer_factory.hpp:77] Creating layer conv0/bn
I1015 15:32:52.000367  4233 net.cpp:100] Creating Layer conv0/bn
I1015 15:32:52.000371  4233 net.cpp:434] conv0/bn <- conv0
I1015 15:32:52.000376  4233 net.cpp:395] conv0/bn -> conv0 (in-place)
I1015 15:32:52.001324  4233 net.cpp:150] Setting up conv0/bn
I1015 15:32:52.001336  4233 net.cpp:157] Top shape: 4 32 160 240 (4915200)
I1015 15:32:52.001338  4233 net.cpp:165] Memory required for data: 108134592
I1015 15:32:52.001348  4233 layer_factory.hpp:77] Creating layer conv0/scale
I1015 15:32:52.001358  4233 net.cpp:100] Creating Layer conv0/scale
I1015 15:32:52.001360  4233 net.cpp:434] conv0/scale <- conv0
I1015 15:32:52.001364  4233 net.cpp:395] conv0/scale -> conv0 (in-place)
I1015 15:32:52.001400  4233 layer_factory.hpp:77] Creating layer conv0/scale
I1015 15:32:52.001519  4233 net.cpp:150] Setting up conv0/scale
I1015 15:32:52.001525  4233 net.cpp:157] Top shape: 4 32 160 240 (4915200)
I1015 15:32:52.001528  4233 net.cpp:165] Memory required for data: 127795392
I1015 15:32:52.001533  4233 layer_factory.hpp:77] Creating layer conv0/relu
I1015 15:32:52.001538  4233 net.cpp:100] Creating Layer conv0/relu
I1015 15:32:52.001540  4233 net.cpp:434] conv0/relu <- conv0
I1015 15:32:52.001544  4233 net.cpp:395] conv0/relu -> conv0 (in-place)
I1015 15:32:52.001864  4233 net.cpp:150] Setting up conv0/relu
I1015 15:32:52.001874  4233 net.cpp:157] Top shape: 4 32 160 240 (4915200)
I1015 15:32:52.001876  4233 net.cpp:165] Memory required for data: 147456192
I1015 15:32:52.001879  4233 layer_factory.hpp:77] Creating layer conv1/dw
I1015 15:32:52.001888  4233 net.cpp:100] Creating Layer conv1/dw
I1015 15:32:52.001890  4233 net.cpp:434] conv1/dw <- conv0
I1015 15:32:52.001895  4233 net.cpp:408] conv1/dw -> conv1/dw
I1015 15:32:52.002055  4233 net.cpp:150] Setting up conv1/dw
I1015 15:32:52.002063  4233 net.cpp:157] Top shape: 4 32 160 240 (4915200)
I1015 15:32:52.002065  4233 net.cpp:165] Memory required for data: 167116992
I1015 15:32:52.002069  4233 layer_factory.hpp:77] Creating layer conv1/dw/bn
I1015 15:32:52.002074  4233 net.cpp:100] Creating Layer conv1/dw/bn
I1015 15:32:52.002075  4233 net.cpp:434] conv1/dw/bn <- conv1/dw
I1015 15:32:52.002079  4233 net.cpp:395] conv1/dw/bn -> conv1/dw (in-place)
I1015 15:32:52.002238  4233 net.cpp:150] Setting up conv1/dw/bn
I1015 15:32:52.002245  4233 net.cpp:157] Top shape: 4 32 160 240 (4915200)
I1015 15:32:52.002248  4233 net.cpp:165] Memory required for data: 186777792
I1015 15:32:52.002255  4233 layer_factory.hpp:77] Creating layer conv1/dw/scale
I1015 15:32:52.002261  4233 net.cpp:100] Creating Layer conv1/dw/scale
I1015 15:32:52.002264  4233 net.cpp:434] conv1/dw/scale <- conv1/dw
I1015 15:32:52.002267  4233 net.cpp:395] conv1/dw/scale -> conv1/dw (in-place)
I1015 15:32:52.002297  4233 layer_factory.hpp:77] Creating layer conv1/dw/scale
I1015 15:32:52.002411  4233 net.cpp:150] Setting up conv1/dw/scale
I1015 15:32:52.002418  4233 net.cpp:157] Top shape: 4 32 160 240 (4915200)
I1015 15:32:52.002419  4233 net.cpp:165] Memory required for data: 206438592
I1015 15:32:52.002424  4233 layer_factory.hpp:77] Creating layer conv1/dw/relu
I1015 15:32:52.002427  4233 net.cpp:100] Creating Layer conv1/dw/relu
I1015 15:32:52.002429  4233 net.cpp:434] conv1/dw/relu <- conv1/dw
I1015 15:32:52.002434  4233 net.cpp:395] conv1/dw/relu -> conv1/dw (in-place)
I1015 15:32:52.002732  4233 net.cpp:150] Setting up conv1/dw/relu
I1015 15:32:52.002740  4233 net.cpp:157] Top shape: 4 32 160 240 (4915200)
I1015 15:32:52.002743  4233 net.cpp:165] Memory required for data: 226099392
I1015 15:32:52.002745  4233 layer_factory.hpp:77] Creating layer conv1
I1015 15:32:52.002751  4233 net.cpp:100] Creating Layer conv1
I1015 15:32:52.002754  4233 net.cpp:434] conv1 <- conv1/dw
I1015 15:32:52.002758  4233 net.cpp:408] conv1 -> conv1
I1015 15:32:52.004899  4233 net.cpp:150] Setting up conv1
I1015 15:32:52.004914  4233 net.cpp:157] Top shape: 4 64 160 240 (9830400)
I1015 15:32:52.004916  4233 net.cpp:165] Memory required for data: 265420992
I1015 15:32:52.004920  4233 layer_factory.hpp:77] Creating layer conv1/bn
I1015 15:32:52.004926  4233 net.cpp:100] Creating Layer conv1/bn
I1015 15:32:52.004930  4233 net.cpp:434] conv1/bn <- conv1
I1015 15:32:52.004933  4233 net.cpp:395] conv1/bn -> conv1 (in-place)
I1015 15:32:52.005134  4233 net.cpp:150] Setting up conv1/bn
I1015 15:32:52.005143  4233 net.cpp:157] Top shape: 4 64 160 240 (9830400)
I1015 15:32:52.005146  4233 net.cpp:165] Memory required for data: 304742592
I1015 15:32:52.005152  4233 layer_factory.hpp:77] Creating layer conv1/scale
I1015 15:32:52.005157  4233 net.cpp:100] Creating Layer conv1/scale
I1015 15:32:52.005161  4233 net.cpp:434] conv1/scale <- conv1
I1015 15:32:52.005164  4233 net.cpp:395] conv1/scale -> conv1 (in-place)
I1015 15:32:52.005197  4233 layer_factory.hpp:77] Creating layer conv1/scale
I1015 15:32:52.005321  4233 net.cpp:150] Setting up conv1/scale
I1015 15:32:52.005327  4233 net.cpp:157] Top shape: 4 64 160 240 (9830400)
I1015 15:32:52.005331  4233 net.cpp:165] Memory required for data: 344064192
I1015 15:32:52.005337  4233 layer_factory.hpp:77] Creating layer conv1/relu
I1015 15:32:52.005342  4233 net.cpp:100] Creating Layer conv1/relu
I1015 15:32:52.005344  4233 net.cpp:434] conv1/relu <- conv1
I1015 15:32:52.005348  4233 net.cpp:395] conv1/relu -> conv1 (in-place)
I1015 15:32:52.005934  4233 net.cpp:150] Setting up conv1/relu
I1015 15:32:52.005945  4233 net.cpp:157] Top shape: 4 64 160 240 (9830400)
I1015 15:32:52.005947  4233 net.cpp:165] Memory required for data: 383385792
I1015 15:32:52.005951  4233 layer_factory.hpp:77] Creating layer conv2/dw
I1015 15:32:52.005959  4233 net.cpp:100] Creating Layer conv2/dw
I1015 15:32:52.005961  4233 net.cpp:434] conv2/dw <- conv1
I1015 15:32:52.005965  4233 net.cpp:408] conv2/dw -> conv2/dw
I1015 15:32:52.006124  4233 net.cpp:150] Setting up conv2/dw
I1015 15:32:52.006132  4233 net.cpp:157] Top shape: 4 64 80 120 (2457600)
I1015 15:32:52.006135  4233 net.cpp:165] Memory required for data: 393216192
I1015 15:32:52.006139  4233 layer_factory.hpp:77] Creating layer conv2/dw/bn
I1015 15:32:52.006144  4233 net.cpp:100] Creating Layer conv2/dw/bn
I1015 15:32:52.006146  4233 net.cpp:434] conv2/dw/bn <- conv2/dw
I1015 15:32:52.006150  4233 net.cpp:395] conv2/dw/bn -> conv2/dw (in-place)
I1015 15:32:52.007045  4233 net.cpp:150] Setting up conv2/dw/bn
I1015 15:32:52.007056  4233 net.cpp:157] Top shape: 4 64 80 120 (2457600)
I1015 15:32:52.007059  4233 net.cpp:165] Memory required for data: 403046592
I1015 15:32:52.007066  4233 layer_factory.hpp:77] Creating layer conv2/dw/scale
I1015 15:32:52.007073  4233 net.cpp:100] Creating Layer conv2/dw/scale
I1015 15:32:52.007076  4233 net.cpp:434] conv2/dw/scale <- conv2/dw
I1015 15:32:52.007081  4233 net.cpp:395] conv2/dw/scale -> conv2/dw (in-place)
I1015 15:32:52.007115  4233 layer_factory.hpp:77] Creating layer conv2/dw/scale
I1015 15:32:52.007203  4233 net.cpp:150] Setting up conv2/dw/scale
I1015 15:32:52.007210  4233 net.cpp:157] Top shape: 4 64 80 120 (2457600)
I1015 15:32:52.007211  4233 net.cpp:165] Memory required for data: 412876992
I1015 15:32:52.007215  4233 layer_factory.hpp:77] Creating layer conv2/dw/relu
I1015 15:32:52.007220  4233 net.cpp:100] Creating Layer conv2/dw/relu
I1015 15:32:52.007222  4233 net.cpp:434] conv2/dw/relu <- conv2/dw
I1015 15:32:52.007225  4233 net.cpp:395] conv2/dw/relu -> conv2/dw (in-place)
I1015 15:32:52.007529  4233 net.cpp:150] Setting up conv2/dw/relu
I1015 15:32:52.007537  4233 net.cpp:157] Top shape: 4 64 80 120 (2457600)
I1015 15:32:52.007541  4233 net.cpp:165] Memory required for data: 422707392
I1015 15:32:52.007544  4233 layer_factory.hpp:77] Creating layer conv2
I1015 15:32:52.007550  4233 net.cpp:100] Creating Layer conv2
I1015 15:32:52.007553  4233 net.cpp:434] conv2 <- conv2/dw
I1015 15:32:52.007557  4233 net.cpp:408] conv2 -> conv2
I1015 15:32:52.009254  4233 net.cpp:150] Setting up conv2
I1015 15:32:52.009266  4233 net.cpp:157] Top shape: 4 128 80 120 (4915200)
I1015 15:32:52.009269  4233 net.cpp:165] Memory required for data: 442368192
I1015 15:32:52.009274  4233 layer_factory.hpp:77] Creating layer conv2/bn
I1015 15:32:52.009279  4233 net.cpp:100] Creating Layer conv2/bn
I1015 15:32:52.009281  4233 net.cpp:434] conv2/bn <- conv2
I1015 15:32:52.009285  4233 net.cpp:395] conv2/bn -> conv2 (in-place)
I1015 15:32:52.009435  4233 net.cpp:150] Setting up conv2/bn
I1015 15:32:52.009443  4233 net.cpp:157] Top shape: 4 128 80 120 (4915200)
I1015 15:32:52.009445  4233 net.cpp:165] Memory required for data: 462028992
I1015 15:32:52.009450  4233 layer_factory.hpp:77] Creating layer conv2/scale
I1015 15:32:52.009456  4233 net.cpp:100] Creating Layer conv2/scale
I1015 15:32:52.009459  4233 net.cpp:434] conv2/scale <- conv2
I1015 15:32:52.009462  4233 net.cpp:395] conv2/scale -> conv2 (in-place)
I1015 15:32:52.009492  4233 layer_factory.hpp:77] Creating layer conv2/scale
I1015 15:32:52.009573  4233 net.cpp:150] Setting up conv2/scale
I1015 15:32:52.009578  4233 net.cpp:157] Top shape: 4 128 80 120 (4915200)
I1015 15:32:52.009582  4233 net.cpp:165] Memory required for data: 481689792
I1015 15:32:52.009585  4233 layer_factory.hpp:77] Creating layer conv2/relu
I1015 15:32:52.009589  4233 net.cpp:100] Creating Layer conv2/relu
I1015 15:32:52.009591  4233 net.cpp:434] conv2/relu <- conv2
I1015 15:32:52.009595  4233 net.cpp:395] conv2/relu -> conv2 (in-place)
I1015 15:32:52.009908  4233 net.cpp:150] Setting up conv2/relu
I1015 15:32:52.009917  4233 net.cpp:157] Top shape: 4 128 80 120 (4915200)
I1015 15:32:52.009920  4233 net.cpp:165] Memory required for data: 501350592
I1015 15:32:52.009922  4233 layer_factory.hpp:77] Creating layer conv3/dw
I1015 15:32:52.009929  4233 net.cpp:100] Creating Layer conv3/dw
I1015 15:32:52.009932  4233 net.cpp:434] conv3/dw <- conv2
I1015 15:32:52.009938  4233 net.cpp:408] conv3/dw -> conv3/dw
I1015 15:32:52.010098  4233 net.cpp:150] Setting up conv3/dw
I1015 15:32:52.010107  4233 net.cpp:157] Top shape: 4 128 80 120 (4915200)
I1015 15:32:52.010109  4233 net.cpp:165] Memory required for data: 521011392
I1015 15:32:52.010113  4233 layer_factory.hpp:77] Creating layer conv3/dw/bn
I1015 15:32:52.010118  4233 net.cpp:100] Creating Layer conv3/dw/bn
I1015 15:32:52.010119  4233 net.cpp:434] conv3/dw/bn <- conv3/dw
I1015 15:32:52.010123  4233 net.cpp:395] conv3/dw/bn -> conv3/dw (in-place)
I1015 15:32:52.010260  4233 net.cpp:150] Setting up conv3/dw/bn
I1015 15:32:52.010264  4233 net.cpp:157] Top shape: 4 128 80 120 (4915200)
I1015 15:32:52.010267  4233 net.cpp:165] Memory required for data: 540672192
I1015 15:32:52.010277  4233 layer_factory.hpp:77] Creating layer conv3/dw/scale
I1015 15:32:52.010282  4233 net.cpp:100] Creating Layer conv3/dw/scale
I1015 15:32:52.010283  4233 net.cpp:434] conv3/dw/scale <- conv3/dw
I1015 15:32:52.010288  4233 net.cpp:395] conv3/dw/scale -> conv3/dw (in-place)
I1015 15:32:52.010316  4233 layer_factory.hpp:77] Creating layer conv3/dw/scale
I1015 15:32:52.010398  4233 net.cpp:150] Setting up conv3/dw/scale
I1015 15:32:52.010404  4233 net.cpp:157] Top shape: 4 128 80 120 (4915200)
I1015 15:32:52.010406  4233 net.cpp:165] Memory required for data: 560332992
I1015 15:32:52.010411  4233 layer_factory.hpp:77] Creating layer conv3/dw/relu
I1015 15:32:52.010414  4233 net.cpp:100] Creating Layer conv3/dw/relu
I1015 15:32:52.010416  4233 net.cpp:434] conv3/dw/relu <- conv3/dw
I1015 15:32:52.010419  4233 net.cpp:395] conv3/dw/relu -> conv3/dw (in-place)
I1015 15:32:52.010996  4233 net.cpp:150] Setting up conv3/dw/relu
I1015 15:32:52.011008  4233 net.cpp:157] Top shape: 4 128 80 120 (4915200)
I1015 15:32:52.011010  4233 net.cpp:165] Memory required for data: 579993792
I1015 15:32:52.011013  4233 layer_factory.hpp:77] Creating layer conv3
I1015 15:32:52.011020  4233 net.cpp:100] Creating Layer conv3
I1015 15:32:52.011023  4233 net.cpp:434] conv3 <- conv3/dw
I1015 15:32:52.011027  4233 net.cpp:408] conv3 -> conv3
I1015 15:32:52.012861  4233 net.cpp:150] Setting up conv3
I1015 15:32:52.012877  4233 net.cpp:157] Top shape: 4 128 80 120 (4915200)
I1015 15:32:52.012881  4233 net.cpp:165] Memory required for data: 599654592
I1015 15:32:52.012888  4233 layer_factory.hpp:77] Creating layer conv3/bn
I1015 15:32:52.012897  4233 net.cpp:100] Creating Layer conv3/bn
I1015 15:32:52.012902  4233 net.cpp:434] conv3/bn <- conv3
I1015 15:32:52.012908  4233 net.cpp:395] conv3/bn -> conv3 (in-place)
I1015 15:32:52.013134  4233 net.cpp:150] Setting up conv3/bn
I1015 15:32:52.013144  4233 net.cpp:157] Top shape: 4 128 80 120 (4915200)
I1015 15:32:52.013149  4233 net.cpp:165] Memory required for data: 619315392
I1015 15:32:52.013157  4233 layer_factory.hpp:77] Creating layer conv3/scale
I1015 15:32:52.013165  4233 net.cpp:100] Creating Layer conv3/scale
I1015 15:32:52.013170  4233 net.cpp:434] conv3/scale <- conv3
I1015 15:32:52.013176  4233 net.cpp:395] conv3/scale -> conv3 (in-place)
I1015 15:32:52.013223  4233 layer_factory.hpp:77] Creating layer conv3/scale
I1015 15:32:52.013358  4233 net.cpp:150] Setting up conv3/scale
I1015 15:32:52.013368  4233 net.cpp:157] Top shape: 4 128 80 120 (4915200)
I1015 15:32:52.013373  4233 net.cpp:165] Memory required for data: 638976192
I1015 15:32:52.013381  4233 layer_factory.hpp:77] Creating layer conv3/relu
I1015 15:32:52.013386  4233 net.cpp:100] Creating Layer conv3/relu
I1015 15:32:52.013389  4233 net.cpp:434] conv3/relu <- conv3
I1015 15:32:52.013396  4233 net.cpp:395] conv3/relu -> conv3 (in-place)
I1015 15:32:52.013835  4233 net.cpp:150] Setting up conv3/relu
I1015 15:32:52.013855  4233 net.cpp:157] Top shape: 4 128 80 120 (4915200)
I1015 15:32:52.013859  4233 net.cpp:165] Memory required for data: 658636992
I1015 15:32:52.013864  4233 layer_factory.hpp:77] Creating layer conv3_conv3/relu_0_split
I1015 15:32:52.013871  4233 net.cpp:100] Creating Layer conv3_conv3/relu_0_split
I1015 15:32:52.013875  4233 net.cpp:434] conv3_conv3/relu_0_split <- conv3
I1015 15:32:52.013882  4233 net.cpp:408] conv3_conv3/relu_0_split -> conv3_conv3/relu_0_split_0
I1015 15:32:52.013890  4233 net.cpp:408] conv3_conv3/relu_0_split -> conv3_conv3/relu_0_split_1
I1015 15:32:52.013942  4233 net.cpp:150] Setting up conv3_conv3/relu_0_split
I1015 15:32:52.013949  4233 net.cpp:157] Top shape: 4 128 80 120 (4915200)
I1015 15:32:52.013954  4233 net.cpp:157] Top shape: 4 128 80 120 (4915200)
I1015 15:32:52.013958  4233 net.cpp:165] Memory required for data: 697958592
I1015 15:32:52.013962  4233 layer_factory.hpp:77] Creating layer conv4/dw
I1015 15:32:52.013973  4233 net.cpp:100] Creating Layer conv4/dw
I1015 15:32:52.013978  4233 net.cpp:434] conv4/dw <- conv3_conv3/relu_0_split_0
I1015 15:32:52.013984  4233 net.cpp:408] conv4/dw -> conv4/dw
I1015 15:32:52.014220  4233 net.cpp:150] Setting up conv4/dw
I1015 15:32:52.014230  4233 net.cpp:157] Top shape: 4 128 40 60 (1228800)
I1015 15:32:52.014235  4233 net.cpp:165] Memory required for data: 702873792
I1015 15:32:52.014240  4233 layer_factory.hpp:77] Creating layer conv4/dw/bn
I1015 15:32:52.014251  4233 net.cpp:100] Creating Layer conv4/dw/bn
I1015 15:32:52.014256  4233 net.cpp:434] conv4/dw/bn <- conv4/dw
I1015 15:32:52.014261  4233 net.cpp:395] conv4/dw/bn -> conv4/dw (in-place)
I1015 15:32:52.014478  4233 net.cpp:150] Setting up conv4/dw/bn
I1015 15:32:52.014488  4233 net.cpp:157] Top shape: 4 128 40 60 (1228800)
I1015 15:32:52.014492  4233 net.cpp:165] Memory required for data: 707788992
I1015 15:32:52.014500  4233 layer_factory.hpp:77] Creating layer conv4/dw/scale
I1015 15:32:52.014508  4233 net.cpp:100] Creating Layer conv4/dw/scale
I1015 15:32:52.014513  4233 net.cpp:434] conv4/dw/scale <- conv4/dw
I1015 15:32:52.014518  4233 net.cpp:395] conv4/dw/scale -> conv4/dw (in-place)
I1015 15:32:52.014564  4233 layer_factory.hpp:77] Creating layer conv4/dw/scale
I1015 15:32:52.014696  4233 net.cpp:150] Setting up conv4/dw/scale
I1015 15:32:52.014705  4233 net.cpp:157] Top shape: 4 128 40 60 (1228800)
I1015 15:32:52.014709  4233 net.cpp:165] Memory required for data: 712704192
I1015 15:32:52.014716  4233 layer_factory.hpp:77] Creating layer conv4/dw/relu
I1015 15:32:52.014722  4233 net.cpp:100] Creating Layer conv4/dw/relu
I1015 15:32:52.014726  4233 net.cpp:434] conv4/dw/relu <- conv4/dw
I1015 15:32:52.014732  4233 net.cpp:395] conv4/dw/relu -> conv4/dw (in-place)
I1015 15:32:52.015172  4233 net.cpp:150] Setting up conv4/dw/relu
I1015 15:32:52.015183  4233 net.cpp:157] Top shape: 4 128 40 60 (1228800)
I1015 15:32:52.015187  4233 net.cpp:165] Memory required for data: 717619392
I1015 15:32:52.015192  4233 layer_factory.hpp:77] Creating layer conv4
I1015 15:32:52.015202  4233 net.cpp:100] Creating Layer conv4
I1015 15:32:52.015205  4233 net.cpp:434] conv4 <- conv4/dw
I1015 15:32:52.015211  4233 net.cpp:408] conv4 -> conv4
I1015 15:32:52.017330  4233 net.cpp:150] Setting up conv4
I1015 15:32:52.017344  4233 net.cpp:157] Top shape: 4 256 40 60 (2457600)
I1015 15:32:52.017347  4233 net.cpp:165] Memory required for data: 727449792
I1015 15:32:52.017352  4233 layer_factory.hpp:77] Creating layer conv4/bn
I1015 15:32:52.017357  4233 net.cpp:100] Creating Layer conv4/bn
I1015 15:32:52.017360  4233 net.cpp:434] conv4/bn <- conv4
I1015 15:32:52.017364  4233 net.cpp:395] conv4/bn -> conv4 (in-place)
I1015 15:32:52.017518  4233 net.cpp:150] Setting up conv4/bn
I1015 15:32:52.017522  4233 net.cpp:157] Top shape: 4 256 40 60 (2457600)
I1015 15:32:52.017524  4233 net.cpp:165] Memory required for data: 737280192
I1015 15:32:52.017530  4233 layer_factory.hpp:77] Creating layer conv4/scale
I1015 15:32:52.017535  4233 net.cpp:100] Creating Layer conv4/scale
I1015 15:32:52.017539  4233 net.cpp:434] conv4/scale <- conv4
I1015 15:32:52.017541  4233 net.cpp:395] conv4/scale -> conv4 (in-place)
I1015 15:32:52.017573  4233 layer_factory.hpp:77] Creating layer conv4/scale
I1015 15:32:52.017658  4233 net.cpp:150] Setting up conv4/scale
I1015 15:32:52.017663  4233 net.cpp:157] Top shape: 4 256 40 60 (2457600)
I1015 15:32:52.017665  4233 net.cpp:165] Memory required for data: 747110592
I1015 15:32:52.017670  4233 layer_factory.hpp:77] Creating layer conv4/relu
I1015 15:32:52.017674  4233 net.cpp:100] Creating Layer conv4/relu
I1015 15:32:52.017678  4233 net.cpp:434] conv4/relu <- conv4
I1015 15:32:52.017680  4233 net.cpp:395] conv4/relu -> conv4 (in-place)
I1015 15:32:52.017989  4233 net.cpp:150] Setting up conv4/relu
I1015 15:32:52.017998  4233 net.cpp:157] Top shape: 4 256 40 60 (2457600)
I1015 15:32:52.018000  4233 net.cpp:165] Memory required for data: 756940992
I1015 15:32:52.018003  4233 layer_factory.hpp:77] Creating layer conv5/dw
I1015 15:32:52.018010  4233 net.cpp:100] Creating Layer conv5/dw
I1015 15:32:52.018013  4233 net.cpp:434] conv5/dw <- conv4
I1015 15:32:52.018018  4233 net.cpp:408] conv5/dw -> conv5/dw
I1015 15:32:52.018194  4233 net.cpp:150] Setting up conv5/dw
I1015 15:32:52.018203  4233 net.cpp:157] Top shape: 4 256 40 60 (2457600)
I1015 15:32:52.018204  4233 net.cpp:165] Memory required for data: 766771392
I1015 15:32:52.018208  4233 layer_factory.hpp:77] Creating layer conv5/dw/bn
I1015 15:32:52.018213  4233 net.cpp:100] Creating Layer conv5/dw/bn
I1015 15:32:52.018215  4233 net.cpp:434] conv5/dw/bn <- conv5/dw
I1015 15:32:52.018218  4233 net.cpp:395] conv5/dw/bn -> conv5/dw (in-place)
I1015 15:32:52.018355  4233 net.cpp:150] Setting up conv5/dw/bn
I1015 15:32:52.018362  4233 net.cpp:157] Top shape: 4 256 40 60 (2457600)
I1015 15:32:52.018363  4233 net.cpp:165] Memory required for data: 776601792
I1015 15:32:52.018368  4233 layer_factory.hpp:77] Creating layer conv5/dw/scale
I1015 15:32:52.018373  4233 net.cpp:100] Creating Layer conv5/dw/scale
I1015 15:32:52.018375  4233 net.cpp:434] conv5/dw/scale <- conv5/dw
I1015 15:32:52.018379  4233 net.cpp:395] conv5/dw/scale -> conv5/dw (in-place)
I1015 15:32:52.018409  4233 layer_factory.hpp:77] Creating layer conv5/dw/scale
I1015 15:32:52.018489  4233 net.cpp:150] Setting up conv5/dw/scale
I1015 15:32:52.018496  4233 net.cpp:157] Top shape: 4 256 40 60 (2457600)
I1015 15:32:52.018497  4233 net.cpp:165] Memory required for data: 786432192
I1015 15:32:52.018502  4233 layer_factory.hpp:77] Creating layer conv5/dw/relu
I1015 15:32:52.018505  4233 net.cpp:100] Creating Layer conv5/dw/relu
I1015 15:32:52.018508  4233 net.cpp:434] conv5/dw/relu <- conv5/dw
I1015 15:32:52.018512  4233 net.cpp:395] conv5/dw/relu -> conv5/dw (in-place)
I1015 15:32:52.019101  4233 net.cpp:150] Setting up conv5/dw/relu
I1015 15:32:52.019114  4233 net.cpp:157] Top shape: 4 256 40 60 (2457600)
I1015 15:32:52.019115  4233 net.cpp:165] Memory required for data: 796262592
I1015 15:32:52.019119  4233 layer_factory.hpp:77] Creating layer conv5
I1015 15:32:52.019125  4233 net.cpp:100] Creating Layer conv5
I1015 15:32:52.019129  4233 net.cpp:434] conv5 <- conv5/dw
I1015 15:32:52.019132  4233 net.cpp:408] conv5 -> conv5
I1015 15:32:52.021028  4233 net.cpp:150] Setting up conv5
I1015 15:32:52.021039  4233 net.cpp:157] Top shape: 4 256 40 60 (2457600)
I1015 15:32:52.021042  4233 net.cpp:165] Memory required for data: 806092992
I1015 15:32:52.021046  4233 layer_factory.hpp:77] Creating layer conv5/bn
I1015 15:32:52.021051  4233 net.cpp:100] Creating Layer conv5/bn
I1015 15:32:52.021054  4233 net.cpp:434] conv5/bn <- conv5
I1015 15:32:52.021059  4233 net.cpp:395] conv5/bn -> conv5 (in-place)
I1015 15:32:52.021208  4233 net.cpp:150] Setting up conv5/bn
I1015 15:32:52.021214  4233 net.cpp:157] Top shape: 4 256 40 60 (2457600)
I1015 15:32:52.021216  4233 net.cpp:165] Memory required for data: 815923392
I1015 15:32:52.021221  4233 layer_factory.hpp:77] Creating layer conv5/scale
I1015 15:32:52.021227  4233 net.cpp:100] Creating Layer conv5/scale
I1015 15:32:52.021229  4233 net.cpp:434] conv5/scale <- conv5
I1015 15:32:52.021234  4233 net.cpp:395] conv5/scale -> conv5 (in-place)
I1015 15:32:52.021263  4233 layer_factory.hpp:77] Creating layer conv5/scale
I1015 15:32:52.021347  4233 net.cpp:150] Setting up conv5/scale
I1015 15:32:52.021351  4233 net.cpp:157] Top shape: 4 256 40 60 (2457600)
I1015 15:32:52.021353  4233 net.cpp:165] Memory required for data: 825753792
I1015 15:32:52.021364  4233 layer_factory.hpp:77] Creating layer conv5/relu
I1015 15:32:52.021368  4233 net.cpp:100] Creating Layer conv5/relu
I1015 15:32:52.021371  4233 net.cpp:434] conv5/relu <- conv5
I1015 15:32:52.021374  4233 net.cpp:395] conv5/relu -> conv5 (in-place)
I1015 15:32:52.021675  4233 net.cpp:150] Setting up conv5/relu
I1015 15:32:52.021687  4233 net.cpp:157] Top shape: 4 256 40 60 (2457600)
I1015 15:32:52.021690  4233 net.cpp:165] Memory required for data: 835584192
I1015 15:32:52.021694  4233 layer_factory.hpp:77] Creating layer conv5_conv5/relu_0_split
I1015 15:32:52.021701  4233 net.cpp:100] Creating Layer conv5_conv5/relu_0_split
I1015 15:32:52.021705  4233 net.cpp:434] conv5_conv5/relu_0_split <- conv5
I1015 15:32:52.021711  4233 net.cpp:408] conv5_conv5/relu_0_split -> conv5_conv5/relu_0_split_0
I1015 15:32:52.021718  4233 net.cpp:408] conv5_conv5/relu_0_split -> conv5_conv5/relu_0_split_1
I1015 15:32:52.021765  4233 net.cpp:150] Setting up conv5_conv5/relu_0_split
I1015 15:32:52.021773  4233 net.cpp:157] Top shape: 4 256 40 60 (2457600)
I1015 15:32:52.021776  4233 net.cpp:157] Top shape: 4 256 40 60 (2457600)
I1015 15:32:52.021778  4233 net.cpp:165] Memory required for data: 855244992
I1015 15:32:52.021780  4233 layer_factory.hpp:77] Creating layer conv6/dw
I1015 15:32:52.021787  4233 net.cpp:100] Creating Layer conv6/dw
I1015 15:32:52.021790  4233 net.cpp:434] conv6/dw <- conv5_conv5/relu_0_split_0
I1015 15:32:52.021795  4233 net.cpp:408] conv6/dw -> conv6/dw
I1015 15:32:52.021975  4233 net.cpp:150] Setting up conv6/dw
I1015 15:32:52.021982  4233 net.cpp:157] Top shape: 4 256 20 30 (614400)
I1015 15:32:52.021984  4233 net.cpp:165] Memory required for data: 857702592
I1015 15:32:52.021988  4233 layer_factory.hpp:77] Creating layer conv6/dw/bn
I1015 15:32:52.021992  4233 net.cpp:100] Creating Layer conv6/dw/bn
I1015 15:32:52.021994  4233 net.cpp:434] conv6/dw/bn <- conv6/dw
I1015 15:32:52.021998  4233 net.cpp:395] conv6/dw/bn -> conv6/dw (in-place)
I1015 15:32:52.022168  4233 net.cpp:150] Setting up conv6/dw/bn
I1015 15:32:52.022176  4233 net.cpp:157] Top shape: 4 256 20 30 (614400)
I1015 15:32:52.022178  4233 net.cpp:165] Memory required for data: 860160192
I1015 15:32:52.022184  4233 layer_factory.hpp:77] Creating layer conv6/dw/scale
I1015 15:32:52.022191  4233 net.cpp:100] Creating Layer conv6/dw/scale
I1015 15:32:52.022192  4233 net.cpp:434] conv6/dw/scale <- conv6/dw
I1015 15:32:52.022197  4233 net.cpp:395] conv6/dw/scale -> conv6/dw (in-place)
I1015 15:32:52.022228  4233 layer_factory.hpp:77] Creating layer conv6/dw/scale
I1015 15:32:52.022315  4233 net.cpp:150] Setting up conv6/dw/scale
I1015 15:32:52.022321  4233 net.cpp:157] Top shape: 4 256 20 30 (614400)
I1015 15:32:52.022323  4233 net.cpp:165] Memory required for data: 862617792
I1015 15:32:52.022327  4233 layer_factory.hpp:77] Creating layer conv6/dw/relu
I1015 15:32:52.022331  4233 net.cpp:100] Creating Layer conv6/dw/relu
I1015 15:32:52.022334  4233 net.cpp:434] conv6/dw/relu <- conv6/dw
I1015 15:32:52.022337  4233 net.cpp:395] conv6/dw/relu -> conv6/dw (in-place)
I1015 15:32:52.022637  4233 net.cpp:150] Setting up conv6/dw/relu
I1015 15:32:52.022645  4233 net.cpp:157] Top shape: 4 256 20 30 (614400)
I1015 15:32:52.022647  4233 net.cpp:165] Memory required for data: 865075392
I1015 15:32:52.022650  4233 layer_factory.hpp:77] Creating layer conv6
I1015 15:32:52.022656  4233 net.cpp:100] Creating Layer conv6
I1015 15:32:52.022660  4233 net.cpp:434] conv6 <- conv6/dw
I1015 15:32:52.022663  4233 net.cpp:408] conv6 -> conv6
I1015 15:32:52.025928  4233 net.cpp:150] Setting up conv6
I1015 15:32:52.025944  4233 net.cpp:157] Top shape: 4 512 20 30 (1228800)
I1015 15:32:52.025948  4233 net.cpp:165] Memory required for data: 869990592
I1015 15:32:52.025952  4233 layer_factory.hpp:77] Creating layer conv6/bn
I1015 15:32:52.025957  4233 net.cpp:100] Creating Layer conv6/bn
I1015 15:32:52.025960  4233 net.cpp:434] conv6/bn <- conv6
I1015 15:32:52.025965  4233 net.cpp:395] conv6/bn -> conv6 (in-place)
I1015 15:32:52.026129  4233 net.cpp:150] Setting up conv6/bn
I1015 15:32:52.026137  4233 net.cpp:157] Top shape: 4 512 20 30 (1228800)
I1015 15:32:52.026140  4233 net.cpp:165] Memory required for data: 874905792
I1015 15:32:52.026145  4233 layer_factory.hpp:77] Creating layer conv6/scale
I1015 15:32:52.026150  4233 net.cpp:100] Creating Layer conv6/scale
I1015 15:32:52.026154  4233 net.cpp:434] conv6/scale <- conv6
I1015 15:32:52.026156  4233 net.cpp:395] conv6/scale -> conv6 (in-place)
I1015 15:32:52.026191  4233 layer_factory.hpp:77] Creating layer conv6/scale
I1015 15:32:52.026283  4233 net.cpp:150] Setting up conv6/scale
I1015 15:32:52.026288  4233 net.cpp:157] Top shape: 4 512 20 30 (1228800)
I1015 15:32:52.026289  4233 net.cpp:165] Memory required for data: 879820992
I1015 15:32:52.026293  4233 layer_factory.hpp:77] Creating layer conv6/relu
I1015 15:32:52.026298  4233 net.cpp:100] Creating Layer conv6/relu
I1015 15:32:52.026300  4233 net.cpp:434] conv6/relu <- conv6
I1015 15:32:52.026304  4233 net.cpp:395] conv6/relu -> conv6 (in-place)
I1015 15:32:52.026976  4233 net.cpp:150] Setting up conv6/relu
I1015 15:32:52.026988  4233 net.cpp:157] Top shape: 4 512 20 30 (1228800)
I1015 15:32:52.026990  4233 net.cpp:165] Memory required for data: 884736192
I1015 15:32:52.026993  4233 layer_factory.hpp:77] Creating layer conv7/dw
I1015 15:32:52.027001  4233 net.cpp:100] Creating Layer conv7/dw
I1015 15:32:52.027004  4233 net.cpp:434] conv7/dw <- conv6
I1015 15:32:52.027010  4233 net.cpp:408] conv7/dw -> conv7/dw
I1015 15:32:52.027218  4233 net.cpp:150] Setting up conv7/dw
I1015 15:32:52.027225  4233 net.cpp:157] Top shape: 4 512 20 30 (1228800)
I1015 15:32:52.027227  4233 net.cpp:165] Memory required for data: 889651392
I1015 15:32:52.027230  4233 layer_factory.hpp:77] Creating layer conv7/dw/bn
I1015 15:32:52.027235  4233 net.cpp:100] Creating Layer conv7/dw/bn
I1015 15:32:52.027237  4233 net.cpp:434] conv7/dw/bn <- conv7/dw
I1015 15:32:52.027242  4233 net.cpp:395] conv7/dw/bn -> conv7/dw (in-place)
I1015 15:32:52.027410  4233 net.cpp:150] Setting up conv7/dw/bn
I1015 15:32:52.027416  4233 net.cpp:157] Top shape: 4 512 20 30 (1228800)
I1015 15:32:52.027418  4233 net.cpp:165] Memory required for data: 894566592
I1015 15:32:52.027424  4233 layer_factory.hpp:77] Creating layer conv7/dw/scale
I1015 15:32:52.027429  4233 net.cpp:100] Creating Layer conv7/dw/scale
I1015 15:32:52.027431  4233 net.cpp:434] conv7/dw/scale <- conv7/dw
I1015 15:32:52.027436  4233 net.cpp:395] conv7/dw/scale -> conv7/dw (in-place)
I1015 15:32:52.027469  4233 layer_factory.hpp:77] Creating layer conv7/dw/scale
I1015 15:32:52.027561  4233 net.cpp:150] Setting up conv7/dw/scale
I1015 15:32:52.027566  4233 net.cpp:157] Top shape: 4 512 20 30 (1228800)
I1015 15:32:52.027568  4233 net.cpp:165] Memory required for data: 899481792
I1015 15:32:52.027573  4233 layer_factory.hpp:77] Creating layer conv7/dw/relu
I1015 15:32:52.027576  4233 net.cpp:100] Creating Layer conv7/dw/relu
I1015 15:32:52.027580  4233 net.cpp:434] conv7/dw/relu <- conv7/dw
I1015 15:32:52.027582  4233 net.cpp:395] conv7/dw/relu -> conv7/dw (in-place)
I1015 15:32:52.027959  4233 net.cpp:150] Setting up conv7/dw/relu
I1015 15:32:52.027971  4233 net.cpp:157] Top shape: 4 512 20 30 (1228800)
I1015 15:32:52.027974  4233 net.cpp:165] Memory required for data: 904396992
I1015 15:32:52.027978  4233 layer_factory.hpp:77] Creating layer conv7
I1015 15:32:52.027989  4233 net.cpp:100] Creating Layer conv7
I1015 15:32:52.027993  4233 net.cpp:434] conv7 <- conv7/dw
I1015 15:32:52.028000  4233 net.cpp:408] conv7 -> conv7
I1015 15:32:52.031603  4233 net.cpp:150] Setting up conv7
I1015 15:32:52.031622  4233 net.cpp:157] Top shape: 4 512 20 30 (1228800)
I1015 15:32:52.031626  4233 net.cpp:165] Memory required for data: 909312192
I1015 15:32:52.031633  4233 layer_factory.hpp:77] Creating layer conv7/bn
I1015 15:32:52.031641  4233 net.cpp:100] Creating Layer conv7/bn
I1015 15:32:52.031646  4233 net.cpp:434] conv7/bn <- conv7
I1015 15:32:52.031653  4233 net.cpp:395] conv7/bn -> conv7 (in-place)
I1015 15:32:52.031911  4233 net.cpp:150] Setting up conv7/bn
I1015 15:32:52.031921  4233 net.cpp:157] Top shape: 4 512 20 30 (1228800)
I1015 15:32:52.031925  4233 net.cpp:165] Memory required for data: 914227392
I1015 15:32:52.031934  4233 layer_factory.hpp:77] Creating layer conv7/scale
I1015 15:32:52.031941  4233 net.cpp:100] Creating Layer conv7/scale
I1015 15:32:52.031945  4233 net.cpp:434] conv7/scale <- conv7
I1015 15:32:52.031953  4233 net.cpp:395] conv7/scale -> conv7 (in-place)
I1015 15:32:52.032007  4233 layer_factory.hpp:77] Creating layer conv7/scale
I1015 15:32:52.032160  4233 net.cpp:150] Setting up conv7/scale
I1015 15:32:52.032171  4233 net.cpp:157] Top shape: 4 512 20 30 (1228800)
I1015 15:32:52.032174  4233 net.cpp:165] Memory required for data: 919142592
I1015 15:32:52.032181  4233 layer_factory.hpp:77] Creating layer conv7/relu
I1015 15:32:52.032187  4233 net.cpp:100] Creating Layer conv7/relu
I1015 15:32:52.032191  4233 net.cpp:434] conv7/relu <- conv7
I1015 15:32:52.032198  4233 net.cpp:395] conv7/relu -> conv7 (in-place)
I1015 15:32:52.032774  4233 net.cpp:150] Setting up conv7/relu
I1015 15:32:52.032788  4233 net.cpp:157] Top shape: 4 512 20 30 (1228800)
I1015 15:32:52.032793  4233 net.cpp:165] Memory required for data: 924057792
I1015 15:32:52.032797  4233 layer_factory.hpp:77] Creating layer conv8/dw
I1015 15:32:52.032816  4233 net.cpp:100] Creating Layer conv8/dw
I1015 15:32:52.032821  4233 net.cpp:434] conv8/dw <- conv7
I1015 15:32:52.032829  4233 net.cpp:408] conv8/dw -> conv8/dw
I1015 15:32:52.033143  4233 net.cpp:150] Setting up conv8/dw
I1015 15:32:52.033154  4233 net.cpp:157] Top shape: 4 512 20 30 (1228800)
I1015 15:32:52.033159  4233 net.cpp:165] Memory required for data: 928972992
I1015 15:32:52.033164  4233 layer_factory.hpp:77] Creating layer conv8/dw/bn
I1015 15:32:52.033172  4233 net.cpp:100] Creating Layer conv8/dw/bn
I1015 15:32:52.033177  4233 net.cpp:434] conv8/dw/bn <- conv8/dw
I1015 15:32:52.033185  4233 net.cpp:395] conv8/dw/bn -> conv8/dw (in-place)
I1015 15:32:52.033433  4233 net.cpp:150] Setting up conv8/dw/bn
I1015 15:32:52.033444  4233 net.cpp:157] Top shape: 4 512 20 30 (1228800)
I1015 15:32:52.033447  4233 net.cpp:165] Memory required for data: 933888192
I1015 15:32:52.033457  4233 layer_factory.hpp:77] Creating layer conv8/dw/scale
I1015 15:32:52.033465  4233 net.cpp:100] Creating Layer conv8/dw/scale
I1015 15:32:52.033469  4233 net.cpp:434] conv8/dw/scale <- conv8/dw
I1015 15:32:52.033475  4233 net.cpp:395] conv8/dw/scale -> conv8/dw (in-place)
I1015 15:32:52.033527  4233 layer_factory.hpp:77] Creating layer conv8/dw/scale
I1015 15:32:52.033674  4233 net.cpp:150] Setting up conv8/dw/scale
I1015 15:32:52.033682  4233 net.cpp:157] Top shape: 4 512 20 30 (1228800)
I1015 15:32:52.033686  4233 net.cpp:165] Memory required for data: 938803392
I1015 15:32:52.033694  4233 layer_factory.hpp:77] Creating layer conv8/dw/relu
I1015 15:32:52.033699  4233 net.cpp:100] Creating Layer conv8/dw/relu
I1015 15:32:52.033704  4233 net.cpp:434] conv8/dw/relu <- conv8/dw
I1015 15:32:52.033710  4233 net.cpp:395] conv8/dw/relu -> conv8/dw (in-place)
I1015 15:32:52.034687  4233 net.cpp:150] Setting up conv8/dw/relu
I1015 15:32:52.034703  4233 net.cpp:157] Top shape: 4 512 20 30 (1228800)
I1015 15:32:52.034708  4233 net.cpp:165] Memory required for data: 943718592
I1015 15:32:52.034713  4233 layer_factory.hpp:77] Creating layer conv8
I1015 15:32:52.034724  4233 net.cpp:100] Creating Layer conv8
I1015 15:32:52.034729  4233 net.cpp:434] conv8 <- conv8/dw
I1015 15:32:52.034737  4233 net.cpp:408] conv8 -> conv8
I1015 15:32:52.039925  4233 net.cpp:150] Setting up conv8
I1015 15:32:52.039947  4233 net.cpp:157] Top shape: 4 512 20 30 (1228800)
I1015 15:32:52.039949  4233 net.cpp:165] Memory required for data: 948633792
I1015 15:32:52.039955  4233 layer_factory.hpp:77] Creating layer conv8/bn
I1015 15:32:52.039963  4233 net.cpp:100] Creating Layer conv8/bn
I1015 15:32:52.039968  4233 net.cpp:434] conv8/bn <- conv8
I1015 15:32:52.039973  4233 net.cpp:395] conv8/bn -> conv8 (in-place)
I1015 15:32:52.040146  4233 net.cpp:150] Setting up conv8/bn
I1015 15:32:52.040154  4233 net.cpp:157] Top shape: 4 512 20 30 (1228800)
I1015 15:32:52.040158  4233 net.cpp:165] Memory required for data: 953548992
I1015 15:32:52.040163  4233 layer_factory.hpp:77] Creating layer conv8/scale
I1015 15:32:52.040169  4233 net.cpp:100] Creating Layer conv8/scale
I1015 15:32:52.040174  4233 net.cpp:434] conv8/scale <- conv8
I1015 15:32:52.040179  4233 net.cpp:395] conv8/scale -> conv8 (in-place)
I1015 15:32:52.040218  4233 layer_factory.hpp:77] Creating layer conv8/scale
I1015 15:32:52.040323  4233 net.cpp:150] Setting up conv8/scale
I1015 15:32:52.040329  4233 net.cpp:157] Top shape: 4 512 20 30 (1228800)
I1015 15:32:52.040333  4233 net.cpp:165] Memory required for data: 958464192
I1015 15:32:52.040336  4233 layer_factory.hpp:77] Creating layer conv8/relu
I1015 15:32:52.040343  4233 net.cpp:100] Creating Layer conv8/relu
I1015 15:32:52.040345  4233 net.cpp:434] conv8/relu <- conv8
I1015 15:32:52.040350  4233 net.cpp:395] conv8/relu -> conv8 (in-place)
I1015 15:32:52.040715  4233 net.cpp:150] Setting up conv8/relu
I1015 15:32:52.040724  4233 net.cpp:157] Top shape: 4 512 20 30 (1228800)
I1015 15:32:52.040727  4233 net.cpp:165] Memory required for data: 963379392
I1015 15:32:52.040730  4233 layer_factory.hpp:77] Creating layer conv9/dw
I1015 15:32:52.040738  4233 net.cpp:100] Creating Layer conv9/dw
I1015 15:32:52.040741  4233 net.cpp:434] conv9/dw <- conv8
I1015 15:32:52.040746  4233 net.cpp:408] conv9/dw -> conv9/dw
I1015 15:32:52.040969  4233 net.cpp:150] Setting up conv9/dw
I1015 15:32:52.040977  4233 net.cpp:157] Top shape: 4 512 20 30 (1228800)
I1015 15:32:52.040980  4233 net.cpp:165] Memory required for data: 968294592
I1015 15:32:52.040983  4233 layer_factory.hpp:77] Creating layer conv9/dw/bn
I1015 15:32:52.040987  4233 net.cpp:100] Creating Layer conv9/dw/bn
I1015 15:32:52.040990  4233 net.cpp:434] conv9/dw/bn <- conv9/dw
I1015 15:32:52.040993  4233 net.cpp:395] conv9/dw/bn -> conv9/dw (in-place)
I1015 15:32:52.041159  4233 net.cpp:150] Setting up conv9/dw/bn
I1015 15:32:52.041167  4233 net.cpp:157] Top shape: 4 512 20 30 (1228800)
I1015 15:32:52.041168  4233 net.cpp:165] Memory required for data: 973209792
I1015 15:32:52.041174  4233 layer_factory.hpp:77] Creating layer conv9/dw/scale
I1015 15:32:52.041178  4233 net.cpp:100] Creating Layer conv9/dw/scale
I1015 15:32:52.041182  4233 net.cpp:434] conv9/dw/scale <- conv9/dw
I1015 15:32:52.041184  4233 net.cpp:395] conv9/dw/scale -> conv9/dw (in-place)
I1015 15:32:52.041220  4233 layer_factory.hpp:77] Creating layer conv9/dw/scale
I1015 15:32:52.041318  4233 net.cpp:150] Setting up conv9/dw/scale
I1015 15:32:52.041326  4233 net.cpp:157] Top shape: 4 512 20 30 (1228800)
I1015 15:32:52.041328  4233 net.cpp:165] Memory required for data: 978124992
I1015 15:32:52.041332  4233 layer_factory.hpp:77] Creating layer conv9/dw/relu
I1015 15:32:52.041337  4233 net.cpp:100] Creating Layer conv9/dw/relu
I1015 15:32:52.041338  4233 net.cpp:434] conv9/dw/relu <- conv9/dw
I1015 15:32:52.041342  4233 net.cpp:395] conv9/dw/relu -> conv9/dw (in-place)
I1015 15:32:52.041697  4233 net.cpp:150] Setting up conv9/dw/relu
I1015 15:32:52.041707  4233 net.cpp:157] Top shape: 4 512 20 30 (1228800)
I1015 15:32:52.041709  4233 net.cpp:165] Memory required for data: 983040192
I1015 15:32:52.041712  4233 layer_factory.hpp:77] Creating layer conv9
I1015 15:32:52.041718  4233 net.cpp:100] Creating Layer conv9
I1015 15:32:52.041721  4233 net.cpp:434] conv9 <- conv9/dw
I1015 15:32:52.041725  4233 net.cpp:408] conv9 -> conv9
I1015 15:32:52.045344  4233 net.cpp:150] Setting up conv9
I1015 15:32:52.045358  4233 net.cpp:157] Top shape: 4 512 20 30 (1228800)
I1015 15:32:52.045361  4233 net.cpp:165] Memory required for data: 987955392
I1015 15:32:52.045367  4233 layer_factory.hpp:77] Creating layer conv9/bn
I1015 15:32:52.045370  4233 net.cpp:100] Creating Layer conv9/bn
I1015 15:32:52.045373  4233 net.cpp:434] conv9/bn <- conv9
I1015 15:32:52.045379  4233 net.cpp:395] conv9/bn -> conv9 (in-place)
I1015 15:32:52.045572  4233 net.cpp:150] Setting up conv9/bn
I1015 15:32:52.045583  4233 net.cpp:157] Top shape: 4 512 20 30 (1228800)
I1015 15:32:52.045586  4233 net.cpp:165] Memory required for data: 992870592
I1015 15:32:52.045593  4233 layer_factory.hpp:77] Creating layer conv9/scale
I1015 15:32:52.045599  4233 net.cpp:100] Creating Layer conv9/scale
I1015 15:32:52.045603  4233 net.cpp:434] conv9/scale <- conv9
I1015 15:32:52.045605  4233 net.cpp:395] conv9/scale -> conv9 (in-place)
I1015 15:32:52.045650  4233 layer_factory.hpp:77] Creating layer conv9/scale
I1015 15:32:52.045768  4233 net.cpp:150] Setting up conv9/scale
I1015 15:32:52.045776  4233 net.cpp:157] Top shape: 4 512 20 30 (1228800)
I1015 15:32:52.045779  4233 net.cpp:165] Memory required for data: 997785792
I1015 15:32:52.045786  4233 layer_factory.hpp:77] Creating layer conv9/relu
I1015 15:32:52.045791  4233 net.cpp:100] Creating Layer conv9/relu
I1015 15:32:52.045795  4233 net.cpp:434] conv9/relu <- conv9
I1015 15:32:52.045800  4233 net.cpp:395] conv9/relu -> conv9 (in-place)
I1015 15:32:52.046255  4233 net.cpp:150] Setting up conv9/relu
I1015 15:32:52.046268  4233 net.cpp:157] Top shape: 4 512 20 30 (1228800)
I1015 15:32:52.046270  4233 net.cpp:165] Memory required for data: 1002700992
I1015 15:32:52.046273  4233 layer_factory.hpp:77] Creating layer conv10/dw
I1015 15:32:52.046280  4233 net.cpp:100] Creating Layer conv10/dw
I1015 15:32:52.046283  4233 net.cpp:434] conv10/dw <- conv9
I1015 15:32:52.046289  4233 net.cpp:408] conv10/dw -> conv10/dw
I1015 15:32:52.046504  4233 net.cpp:150] Setting up conv10/dw
I1015 15:32:52.046511  4233 net.cpp:157] Top shape: 4 512 20 30 (1228800)
I1015 15:32:52.046514  4233 net.cpp:165] Memory required for data: 1007616192
I1015 15:32:52.046517  4233 layer_factory.hpp:77] Creating layer conv10/dw/bn
I1015 15:32:52.046521  4233 net.cpp:100] Creating Layer conv10/dw/bn
I1015 15:32:52.046524  4233 net.cpp:434] conv10/dw/bn <- conv10/dw
I1015 15:32:52.046527  4233 net.cpp:395] conv10/dw/bn -> conv10/dw (in-place)
I1015 15:32:52.046684  4233 net.cpp:150] Setting up conv10/dw/bn
I1015 15:32:52.046690  4233 net.cpp:157] Top shape: 4 512 20 30 (1228800)
I1015 15:32:52.046692  4233 net.cpp:165] Memory required for data: 1012531392
I1015 15:32:52.046699  4233 layer_factory.hpp:77] Creating layer conv10/dw/scale
I1015 15:32:52.046702  4233 net.cpp:100] Creating Layer conv10/dw/scale
I1015 15:32:52.046705  4233 net.cpp:434] conv10/dw/scale <- conv10/dw
I1015 15:32:52.046708  4233 net.cpp:395] conv10/dw/scale -> conv10/dw (in-place)
I1015 15:32:52.046744  4233 layer_factory.hpp:77] Creating layer conv10/dw/scale
I1015 15:32:52.046835  4233 net.cpp:150] Setting up conv10/dw/scale
I1015 15:32:52.046840  4233 net.cpp:157] Top shape: 4 512 20 30 (1228800)
I1015 15:32:52.046842  4233 net.cpp:165] Memory required for data: 1017446592
I1015 15:32:52.046846  4233 layer_factory.hpp:77] Creating layer conv10/dw/relu
I1015 15:32:52.046850  4233 net.cpp:100] Creating Layer conv10/dw/relu
I1015 15:32:52.046852  4233 net.cpp:434] conv10/dw/relu <- conv10/dw
I1015 15:32:52.046856  4233 net.cpp:395] conv10/dw/relu -> conv10/dw (in-place)
I1015 15:32:52.047536  4233 net.cpp:150] Setting up conv10/dw/relu
I1015 15:32:52.047549  4233 net.cpp:157] Top shape: 4 512 20 30 (1228800)
I1015 15:32:52.047550  4233 net.cpp:165] Memory required for data: 1022361792
I1015 15:32:52.047554  4233 layer_factory.hpp:77] Creating layer conv10
I1015 15:32:52.047561  4233 net.cpp:100] Creating Layer conv10
I1015 15:32:52.047564  4233 net.cpp:434] conv10 <- conv10/dw
I1015 15:32:52.047569  4233 net.cpp:408] conv10 -> conv10
I1015 15:32:52.052230  4233 net.cpp:150] Setting up conv10
I1015 15:32:52.052256  4233 net.cpp:157] Top shape: 4 512 20 30 (1228800)
I1015 15:32:52.052260  4233 net.cpp:165] Memory required for data: 1027276992
I1015 15:32:52.052270  4233 layer_factory.hpp:77] Creating layer conv10/bn
I1015 15:32:52.052283  4233 net.cpp:100] Creating Layer conv10/bn
I1015 15:32:52.052289  4233 net.cpp:434] conv10/bn <- conv10
I1015 15:32:52.052296  4233 net.cpp:395] conv10/bn -> conv10 (in-place)
I1015 15:32:52.052568  4233 net.cpp:150] Setting up conv10/bn
I1015 15:32:52.052578  4233 net.cpp:157] Top shape: 4 512 20 30 (1228800)
I1015 15:32:52.052583  4233 net.cpp:165] Memory required for data: 1032192192
I1015 15:32:52.052592  4233 layer_factory.hpp:77] Creating layer conv10/scale
I1015 15:32:52.052601  4233 net.cpp:100] Creating Layer conv10/scale
I1015 15:32:52.052606  4233 net.cpp:434] conv10/scale <- conv10
I1015 15:32:52.052613  4233 net.cpp:395] conv10/scale -> conv10 (in-place)
I1015 15:32:52.052672  4233 layer_factory.hpp:77] Creating layer conv10/scale
I1015 15:32:52.052824  4233 net.cpp:150] Setting up conv10/scale
I1015 15:32:52.052835  4233 net.cpp:157] Top shape: 4 512 20 30 (1228800)
I1015 15:32:52.052839  4233 net.cpp:165] Memory required for data: 1037107392
I1015 15:32:52.052846  4233 layer_factory.hpp:77] Creating layer conv10/relu
I1015 15:32:52.052855  4233 net.cpp:100] Creating Layer conv10/relu
I1015 15:32:52.052860  4233 net.cpp:434] conv10/relu <- conv10
I1015 15:32:52.052865  4233 net.cpp:395] conv10/relu -> conv10 (in-place)
I1015 15:32:52.053414  4233 net.cpp:150] Setting up conv10/relu
I1015 15:32:52.053428  4233 net.cpp:157] Top shape: 4 512 20 30 (1228800)
I1015 15:32:52.053432  4233 net.cpp:165] Memory required for data: 1042022592
I1015 15:32:52.053437  4233 layer_factory.hpp:77] Creating layer conv11/dw
I1015 15:32:52.053458  4233 net.cpp:100] Creating Layer conv11/dw
I1015 15:32:52.053463  4233 net.cpp:434] conv11/dw <- conv10
I1015 15:32:52.053472  4233 net.cpp:408] conv11/dw -> conv11/dw
I1015 15:32:52.053805  4233 net.cpp:150] Setting up conv11/dw
I1015 15:32:52.053817  4233 net.cpp:157] Top shape: 4 512 20 30 (1228800)
I1015 15:32:52.053828  4233 net.cpp:165] Memory required for data: 1046937792
I1015 15:32:52.053835  4233 layer_factory.hpp:77] Creating layer conv11/dw/bn
I1015 15:32:52.053843  4233 net.cpp:100] Creating Layer conv11/dw/bn
I1015 15:32:52.053846  4233 net.cpp:434] conv11/dw/bn <- conv11/dw
I1015 15:32:52.053853  4233 net.cpp:395] conv11/dw/bn -> conv11/dw (in-place)
I1015 15:32:52.054112  4233 net.cpp:150] Setting up conv11/dw/bn
I1015 15:32:52.054122  4233 net.cpp:157] Top shape: 4 512 20 30 (1228800)
I1015 15:32:52.054126  4233 net.cpp:165] Memory required for data: 1051852992
I1015 15:32:52.054149  4233 layer_factory.hpp:77] Creating layer conv11/dw/scale
I1015 15:32:52.054157  4233 net.cpp:100] Creating Layer conv11/dw/scale
I1015 15:32:52.054162  4233 net.cpp:434] conv11/dw/scale <- conv11/dw
I1015 15:32:52.054168  4233 net.cpp:395] conv11/dw/scale -> conv11/dw (in-place)
I1015 15:32:52.054220  4233 layer_factory.hpp:77] Creating layer conv11/dw/scale
I1015 15:32:52.054368  4233 net.cpp:150] Setting up conv11/dw/scale
I1015 15:32:52.054378  4233 net.cpp:157] Top shape: 4 512 20 30 (1228800)
I1015 15:32:52.054383  4233 net.cpp:165] Memory required for data: 1056768192
I1015 15:32:52.054389  4233 layer_factory.hpp:77] Creating layer conv11/dw/relu
I1015 15:32:52.054395  4233 net.cpp:100] Creating Layer conv11/dw/relu
I1015 15:32:52.054399  4233 net.cpp:434] conv11/dw/relu <- conv11/dw
I1015 15:32:52.054406  4233 net.cpp:395] conv11/dw/relu -> conv11/dw (in-place)
I1015 15:32:52.054934  4233 net.cpp:150] Setting up conv11/dw/relu
I1015 15:32:52.054947  4233 net.cpp:157] Top shape: 4 512 20 30 (1228800)
I1015 15:32:52.054951  4233 net.cpp:165] Memory required for data: 1061683392
I1015 15:32:52.054955  4233 layer_factory.hpp:77] Creating layer conv11
I1015 15:32:52.054965  4233 net.cpp:100] Creating Layer conv11
I1015 15:32:52.054971  4233 net.cpp:434] conv11 <- conv11/dw
I1015 15:32:52.054978  4233 net.cpp:408] conv11 -> conv11
I1015 15:32:52.059720  4233 net.cpp:150] Setting up conv11
I1015 15:32:52.059737  4233 net.cpp:157] Top shape: 4 512 20 30 (1228800)
I1015 15:32:52.059741  4233 net.cpp:165] Memory required for data: 1066598592
I1015 15:32:52.059746  4233 layer_factory.hpp:77] Creating layer conv11/bn
I1015 15:32:52.059751  4233 net.cpp:100] Creating Layer conv11/bn
I1015 15:32:52.059754  4233 net.cpp:434] conv11/bn <- conv11
I1015 15:32:52.059759  4233 net.cpp:395] conv11/bn -> conv11 (in-place)
I1015 15:32:52.059940  4233 net.cpp:150] Setting up conv11/bn
I1015 15:32:52.059947  4233 net.cpp:157] Top shape: 4 512 20 30 (1228800)
I1015 15:32:52.059958  4233 net.cpp:165] Memory required for data: 1071513792
I1015 15:32:52.059964  4233 layer_factory.hpp:77] Creating layer conv11/scale
I1015 15:32:52.059970  4233 net.cpp:100] Creating Layer conv11/scale
I1015 15:32:52.059973  4233 net.cpp:434] conv11/scale <- conv11
I1015 15:32:52.059976  4233 net.cpp:395] conv11/scale -> conv11 (in-place)
I1015 15:32:52.060014  4233 layer_factory.hpp:77] Creating layer conv11/scale
I1015 15:32:52.060111  4233 net.cpp:150] Setting up conv11/scale
I1015 15:32:52.060117  4233 net.cpp:157] Top shape: 4 512 20 30 (1228800)
I1015 15:32:52.060118  4233 net.cpp:165] Memory required for data: 1076428992
I1015 15:32:52.060122  4233 layer_factory.hpp:77] Creating layer conv11/relu
I1015 15:32:52.060127  4233 net.cpp:100] Creating Layer conv11/relu
I1015 15:32:52.060129  4233 net.cpp:434] conv11/relu <- conv11
I1015 15:32:52.060133  4233 net.cpp:395] conv11/relu -> conv11 (in-place)
I1015 15:32:52.060860  4233 net.cpp:150] Setting up conv11/relu
I1015 15:32:52.060873  4233 net.cpp:157] Top shape: 4 512 20 30 (1228800)
I1015 15:32:52.060874  4233 net.cpp:165] Memory required for data: 1081344192
I1015 15:32:52.060878  4233 layer_factory.hpp:77] Creating layer conv11_conv11/relu_0_split
I1015 15:32:52.060884  4233 net.cpp:100] Creating Layer conv11_conv11/relu_0_split
I1015 15:32:52.060887  4233 net.cpp:434] conv11_conv11/relu_0_split <- conv11
I1015 15:32:52.060894  4233 net.cpp:408] conv11_conv11/relu_0_split -> conv11_conv11/relu_0_split_0
I1015 15:32:52.060899  4233 net.cpp:408] conv11_conv11/relu_0_split -> conv11_conv11/relu_0_split_1
I1015 15:32:52.060904  4233 net.cpp:408] conv11_conv11/relu_0_split -> conv11_conv11/relu_0_split_2
I1015 15:32:52.060909  4233 net.cpp:408] conv11_conv11/relu_0_split -> conv11_conv11/relu_0_split_3
I1015 15:32:52.060914  4233 net.cpp:408] conv11_conv11/relu_0_split -> conv11_conv11/relu_0_split_4
I1015 15:32:52.060987  4233 net.cpp:150] Setting up conv11_conv11/relu_0_split
I1015 15:32:52.060992  4233 net.cpp:157] Top shape: 4 512 20 30 (1228800)
I1015 15:32:52.060995  4233 net.cpp:157] Top shape: 4 512 20 30 (1228800)
I1015 15:32:52.060997  4233 net.cpp:157] Top shape: 4 512 20 30 (1228800)
I1015 15:32:52.061000  4233 net.cpp:157] Top shape: 4 512 20 30 (1228800)
I1015 15:32:52.061003  4233 net.cpp:157] Top shape: 4 512 20 30 (1228800)
I1015 15:32:52.061005  4233 net.cpp:165] Memory required for data: 1105920192
I1015 15:32:52.061007  4233 layer_factory.hpp:77] Creating layer conv12/dw
I1015 15:32:52.061015  4233 net.cpp:100] Creating Layer conv12/dw
I1015 15:32:52.061018  4233 net.cpp:434] conv12/dw <- conv11_conv11/relu_0_split_0
I1015 15:32:52.061024  4233 net.cpp:408] conv12/dw -> conv12/dw
I1015 15:32:52.061223  4233 net.cpp:150] Setting up conv12/dw
I1015 15:32:52.061230  4233 net.cpp:157] Top shape: 4 512 10 15 (307200)
I1015 15:32:52.061233  4233 net.cpp:165] Memory required for data: 1107148992
I1015 15:32:52.061236  4233 layer_factory.hpp:77] Creating layer conv12/dw/bn
I1015 15:32:52.061241  4233 net.cpp:100] Creating Layer conv12/dw/bn
I1015 15:32:52.061244  4233 net.cpp:434] conv12/dw/bn <- conv12/dw
I1015 15:32:52.061247  4233 net.cpp:395] conv12/dw/bn -> conv12/dw (in-place)
I1015 15:32:52.061412  4233 net.cpp:150] Setting up conv12/dw/bn
I1015 15:32:52.061419  4233 net.cpp:157] Top shape: 4 512 10 15 (307200)
I1015 15:32:52.061420  4233 net.cpp:165] Memory required for data: 1108377792
I1015 15:32:52.061425  4233 layer_factory.hpp:77] Creating layer conv12/dw/scale
I1015 15:32:52.061431  4233 net.cpp:100] Creating Layer conv12/dw/scale
I1015 15:32:52.061434  4233 net.cpp:434] conv12/dw/scale <- conv12/dw
I1015 15:32:52.061437  4233 net.cpp:395] conv12/dw/scale -> conv12/dw (in-place)
I1015 15:32:52.061468  4233 layer_factory.hpp:77] Creating layer conv12/dw/scale
I1015 15:32:52.061566  4233 net.cpp:150] Setting up conv12/dw/scale
I1015 15:32:52.061573  4233 net.cpp:157] Top shape: 4 512 10 15 (307200)
I1015 15:32:52.061575  4233 net.cpp:165] Memory required for data: 1109606592
I1015 15:32:52.061579  4233 layer_factory.hpp:77] Creating layer conv12/dw/relu
I1015 15:32:52.061583  4233 net.cpp:100] Creating Layer conv12/dw/relu
I1015 15:32:52.061585  4233 net.cpp:434] conv12/dw/relu <- conv12/dw
I1015 15:32:52.061590  4233 net.cpp:395] conv12/dw/relu -> conv12/dw (in-place)
I1015 15:32:52.061947  4233 net.cpp:150] Setting up conv12/dw/relu
I1015 15:32:52.061957  4233 net.cpp:157] Top shape: 4 512 10 15 (307200)
I1015 15:32:52.061959  4233 net.cpp:165] Memory required for data: 1110835392
I1015 15:32:52.061962  4233 layer_factory.hpp:77] Creating layer conv12
I1015 15:32:52.061969  4233 net.cpp:100] Creating Layer conv12
I1015 15:32:52.061972  4233 net.cpp:434] conv12 <- conv12/dw
I1015 15:32:52.061977  4233 net.cpp:408] conv12 -> conv12
I1015 15:32:52.068558  4233 net.cpp:150] Setting up conv12
I1015 15:32:52.068575  4233 net.cpp:157] Top shape: 4 1024 10 15 (614400)
I1015 15:32:52.068578  4233 net.cpp:165] Memory required for data: 1113292992
I1015 15:32:52.068583  4233 layer_factory.hpp:77] Creating layer conv12/bn
I1015 15:32:52.068589  4233 net.cpp:100] Creating Layer conv12/bn
I1015 15:32:52.068593  4233 net.cpp:434] conv12/bn <- conv12
I1015 15:32:52.068598  4233 net.cpp:395] conv12/bn -> conv12 (in-place)
I1015 15:32:52.068785  4233 net.cpp:150] Setting up conv12/bn
I1015 15:32:52.068794  4233 net.cpp:157] Top shape: 4 1024 10 15 (614400)
I1015 15:32:52.068796  4233 net.cpp:165] Memory required for data: 1115750592
I1015 15:32:52.068801  4233 layer_factory.hpp:77] Creating layer conv12/scale
I1015 15:32:52.068809  4233 net.cpp:100] Creating Layer conv12/scale
I1015 15:32:52.068811  4233 net.cpp:434] conv12/scale <- conv12
I1015 15:32:52.068814  4233 net.cpp:395] conv12/scale -> conv12 (in-place)
I1015 15:32:52.068850  4233 layer_factory.hpp:77] Creating layer conv12/scale
I1015 15:32:52.068961  4233 net.cpp:150] Setting up conv12/scale
I1015 15:32:52.068969  4233 net.cpp:157] Top shape: 4 1024 10 15 (614400)
I1015 15:32:52.068970  4233 net.cpp:165] Memory required for data: 1118208192
I1015 15:32:52.068975  4233 layer_factory.hpp:77] Creating layer conv12/relu
I1015 15:32:52.068979  4233 net.cpp:100] Creating Layer conv12/relu
I1015 15:32:52.068982  4233 net.cpp:434] conv12/relu <- conv12
I1015 15:32:52.068986  4233 net.cpp:395] conv12/relu -> conv12 (in-place)
I1015 15:32:52.069347  4233 net.cpp:150] Setting up conv12/relu
I1015 15:32:52.069357  4233 net.cpp:157] Top shape: 4 1024 10 15 (614400)
I1015 15:32:52.069360  4233 net.cpp:165] Memory required for data: 1120665792
I1015 15:32:52.069362  4233 layer_factory.hpp:77] Creating layer conv13/dw
I1015 15:32:52.069372  4233 net.cpp:100] Creating Layer conv13/dw
I1015 15:32:52.069375  4233 net.cpp:434] conv13/dw <- conv12
I1015 15:32:52.069381  4233 net.cpp:408] conv13/dw -> conv13/dw
I1015 15:32:52.069638  4233 net.cpp:150] Setting up conv13/dw
I1015 15:32:52.069645  4233 net.cpp:157] Top shape: 4 1024 10 15 (614400)
I1015 15:32:52.069648  4233 net.cpp:165] Memory required for data: 1123123392
I1015 15:32:52.069650  4233 layer_factory.hpp:77] Creating layer conv13/dw/bn
I1015 15:32:52.069656  4233 net.cpp:100] Creating Layer conv13/dw/bn
I1015 15:32:52.069659  4233 net.cpp:434] conv13/dw/bn <- conv13/dw
I1015 15:32:52.069664  4233 net.cpp:395] conv13/dw/bn -> conv13/dw (in-place)
I1015 15:32:52.069839  4233 net.cpp:150] Setting up conv13/dw/bn
I1015 15:32:52.069846  4233 net.cpp:157] Top shape: 4 1024 10 15 (614400)
I1015 15:32:52.069849  4233 net.cpp:165] Memory required for data: 1125580992
I1015 15:32:52.069855  4233 layer_factory.hpp:77] Creating layer conv13/dw/scale
I1015 15:32:52.069862  4233 net.cpp:100] Creating Layer conv13/dw/scale
I1015 15:32:52.069865  4233 net.cpp:434] conv13/dw/scale <- conv13/dw
I1015 15:32:52.069869  4233 net.cpp:395] conv13/dw/scale -> conv13/dw (in-place)
I1015 15:32:52.069903  4233 layer_factory.hpp:77] Creating layer conv13/dw/scale
I1015 15:32:52.070017  4233 net.cpp:150] Setting up conv13/dw/scale
I1015 15:32:52.070024  4233 net.cpp:157] Top shape: 4 1024 10 15 (614400)
I1015 15:32:52.070026  4233 net.cpp:165] Memory required for data: 1128038592
I1015 15:32:52.070030  4233 layer_factory.hpp:77] Creating layer conv13/dw/relu
I1015 15:32:52.070035  4233 net.cpp:100] Creating Layer conv13/dw/relu
I1015 15:32:52.070037  4233 net.cpp:434] conv13/dw/relu <- conv13/dw
I1015 15:32:52.070041  4233 net.cpp:395] conv13/dw/relu -> conv13/dw (in-place)
I1015 15:32:52.070705  4233 net.cpp:150] Setting up conv13/dw/relu
I1015 15:32:52.070716  4233 net.cpp:157] Top shape: 4 1024 10 15 (614400)
I1015 15:32:52.070719  4233 net.cpp:165] Memory required for data: 1130496192
I1015 15:32:52.070722  4233 layer_factory.hpp:77] Creating layer conv13
I1015 15:32:52.070729  4233 net.cpp:100] Creating Layer conv13
I1015 15:32:52.070734  4233 net.cpp:434] conv13 <- conv13/dw
I1015 15:32:52.070737  4233 net.cpp:408] conv13 -> conv13
I1015 15:32:52.083568  4233 net.cpp:150] Setting up conv13
I1015 15:32:52.083592  4233 net.cpp:157] Top shape: 4 1024 10 15 (614400)
I1015 15:32:52.083595  4233 net.cpp:165] Memory required for data: 1132953792
I1015 15:32:52.083602  4233 layer_factory.hpp:77] Creating layer conv13/bn
I1015 15:32:52.083612  4233 net.cpp:100] Creating Layer conv13/bn
I1015 15:32:52.083617  4233 net.cpp:434] conv13/bn <- conv13
I1015 15:32:52.083622  4233 net.cpp:395] conv13/bn -> conv13 (in-place)
I1015 15:32:52.083812  4233 net.cpp:150] Setting up conv13/bn
I1015 15:32:52.083820  4233 net.cpp:157] Top shape: 4 1024 10 15 (614400)
I1015 15:32:52.083822  4233 net.cpp:165] Memory required for data: 1135411392
I1015 15:32:52.083829  4233 layer_factory.hpp:77] Creating layer conv13/scale
I1015 15:32:52.083838  4233 net.cpp:100] Creating Layer conv13/scale
I1015 15:32:52.083842  4233 net.cpp:434] conv13/scale <- conv13
I1015 15:32:52.083845  4233 net.cpp:395] conv13/scale -> conv13 (in-place)
I1015 15:32:52.083886  4233 layer_factory.hpp:77] Creating layer conv13/scale
I1015 15:32:52.083989  4233 net.cpp:150] Setting up conv13/scale
I1015 15:32:52.083997  4233 net.cpp:157] Top shape: 4 1024 10 15 (614400)
I1015 15:32:52.083998  4233 net.cpp:165] Memory required for data: 1137868992
I1015 15:32:52.084003  4233 layer_factory.hpp:77] Creating layer conv13/relu
I1015 15:32:52.084009  4233 net.cpp:100] Creating Layer conv13/relu
I1015 15:32:52.084012  4233 net.cpp:434] conv13/relu <- conv13
I1015 15:32:52.084015  4233 net.cpp:395] conv13/relu -> conv13 (in-place)
I1015 15:32:52.084385  4233 net.cpp:150] Setting up conv13/relu
I1015 15:32:52.084395  4233 net.cpp:157] Top shape: 4 1024 10 15 (614400)
I1015 15:32:52.084398  4233 net.cpp:165] Memory required for data: 1140326592
I1015 15:32:52.084400  4233 layer_factory.hpp:77] Creating layer conv13_conv13/relu_0_split
I1015 15:32:52.084408  4233 net.cpp:100] Creating Layer conv13_conv13/relu_0_split
I1015 15:32:52.084410  4233 net.cpp:434] conv13_conv13/relu_0_split <- conv13
I1015 15:32:52.084416  4233 net.cpp:408] conv13_conv13/relu_0_split -> conv13_conv13/relu_0_split_0
I1015 15:32:52.084424  4233 net.cpp:408] conv13_conv13/relu_0_split -> conv13_conv13/relu_0_split_1
I1015 15:32:52.084427  4233 net.cpp:408] conv13_conv13/relu_0_split -> conv13_conv13/relu_0_split_2
I1015 15:32:52.084434  4233 net.cpp:408] conv13_conv13/relu_0_split -> conv13_conv13/relu_0_split_3
I1015 15:32:52.084437  4233 net.cpp:408] conv13_conv13/relu_0_split -> conv13_conv13/relu_0_split_4
I1015 15:32:52.084512  4233 net.cpp:150] Setting up conv13_conv13/relu_0_split
I1015 15:32:52.084518  4233 net.cpp:157] Top shape: 4 1024 10 15 (614400)
I1015 15:32:52.084522  4233 net.cpp:157] Top shape: 4 1024 10 15 (614400)
I1015 15:32:52.084524  4233 net.cpp:157] Top shape: 4 1024 10 15 (614400)
I1015 15:32:52.084527  4233 net.cpp:157] Top shape: 4 1024 10 15 (614400)
I1015 15:32:52.084529  4233 net.cpp:157] Top shape: 4 1024 10 15 (614400)
I1015 15:32:52.084532  4233 net.cpp:165] Memory required for data: 1152614592
I1015 15:32:52.084534  4233 layer_factory.hpp:77] Creating layer conv14_1
I1015 15:32:52.084542  4233 net.cpp:100] Creating Layer conv14_1
I1015 15:32:52.084545  4233 net.cpp:434] conv14_1 <- conv13_conv13/relu_0_split_0
I1015 15:32:52.084550  4233 net.cpp:408] conv14_1 -> conv14_1
I1015 15:32:52.089252  4233 net.cpp:150] Setting up conv14_1
I1015 15:32:52.089273  4233 net.cpp:157] Top shape: 4 256 10 15 (153600)
I1015 15:32:52.089277  4233 net.cpp:165] Memory required for data: 1153228992
I1015 15:32:52.089282  4233 layer_factory.hpp:77] Creating layer conv14_1/bn
I1015 15:32:52.089292  4233 net.cpp:100] Creating Layer conv14_1/bn
I1015 15:32:52.089296  4233 net.cpp:434] conv14_1/bn <- conv14_1
I1015 15:32:52.089300  4233 net.cpp:395] conv14_1/bn -> conv14_1 (in-place)
I1015 15:32:52.089483  4233 net.cpp:150] Setting up conv14_1/bn
I1015 15:32:52.089489  4233 net.cpp:157] Top shape: 4 256 10 15 (153600)
I1015 15:32:52.089493  4233 net.cpp:165] Memory required for data: 1153843392
I1015 15:32:52.089498  4233 layer_factory.hpp:77] Creating layer conv14_1/scale
I1015 15:32:52.089507  4233 net.cpp:100] Creating Layer conv14_1/scale
I1015 15:32:52.089510  4233 net.cpp:434] conv14_1/scale <- conv14_1
I1015 15:32:52.089514  4233 net.cpp:395] conv14_1/scale -> conv14_1 (in-place)
I1015 15:32:52.089556  4233 layer_factory.hpp:77] Creating layer conv14_1/scale
I1015 15:32:52.089656  4233 net.cpp:150] Setting up conv14_1/scale
I1015 15:32:52.089663  4233 net.cpp:157] Top shape: 4 256 10 15 (153600)
I1015 15:32:52.089664  4233 net.cpp:165] Memory required for data: 1154457792
I1015 15:32:52.089668  4233 layer_factory.hpp:77] Creating layer conv14_1/relu
I1015 15:32:52.089676  4233 net.cpp:100] Creating Layer conv14_1/relu
I1015 15:32:52.089679  4233 net.cpp:434] conv14_1/relu <- conv14_1
I1015 15:32:52.089684  4233 net.cpp:395] conv14_1/relu -> conv14_1 (in-place)
I1015 15:32:52.090059  4233 net.cpp:150] Setting up conv14_1/relu
I1015 15:32:52.090070  4233 net.cpp:157] Top shape: 4 256 10 15 (153600)
I1015 15:32:52.090072  4233 net.cpp:165] Memory required for data: 1155072192
I1015 15:32:52.090075  4233 layer_factory.hpp:77] Creating layer conv14_2
I1015 15:32:52.090086  4233 net.cpp:100] Creating Layer conv14_2
I1015 15:32:52.090090  4233 net.cpp:434] conv14_2 <- conv14_1
I1015 15:32:52.090095  4233 net.cpp:408] conv14_2 -> conv14_2
I1015 15:32:52.104327  4233 net.cpp:150] Setting up conv14_2
I1015 15:32:52.104351  4233 net.cpp:157] Top shape: 4 512 5 8 (81920)
I1015 15:32:52.104353  4233 net.cpp:165] Memory required for data: 1155399872
I1015 15:32:52.104362  4233 layer_factory.hpp:77] Creating layer conv14_2/bn
I1015 15:32:52.104372  4233 net.cpp:100] Creating Layer conv14_2/bn
I1015 15:32:52.104375  4233 net.cpp:434] conv14_2/bn <- conv14_2
I1015 15:32:52.104382  4233 net.cpp:395] conv14_2/bn -> conv14_2 (in-place)
I1015 15:32:52.104584  4233 net.cpp:150] Setting up conv14_2/bn
I1015 15:32:52.104593  4233 net.cpp:157] Top shape: 4 512 5 8 (81920)
I1015 15:32:52.104594  4233 net.cpp:165] Memory required for data: 1155727552
I1015 15:32:52.104600  4233 layer_factory.hpp:77] Creating layer conv14_2/scale
I1015 15:32:52.104610  4233 net.cpp:100] Creating Layer conv14_2/scale
I1015 15:32:52.104614  4233 net.cpp:434] conv14_2/scale <- conv14_2
I1015 15:32:52.104617  4233 net.cpp:395] conv14_2/scale -> conv14_2 (in-place)
I1015 15:32:52.104666  4233 layer_factory.hpp:77] Creating layer conv14_2/scale
I1015 15:32:52.104777  4233 net.cpp:150] Setting up conv14_2/scale
I1015 15:32:52.104785  4233 net.cpp:157] Top shape: 4 512 5 8 (81920)
I1015 15:32:52.104787  4233 net.cpp:165] Memory required for data: 1156055232
I1015 15:32:52.104791  4233 layer_factory.hpp:77] Creating layer conv14_2/relu
I1015 15:32:52.104796  4233 net.cpp:100] Creating Layer conv14_2/relu
I1015 15:32:52.104799  4233 net.cpp:434] conv14_2/relu <- conv14_2
I1015 15:32:52.104804  4233 net.cpp:395] conv14_2/relu -> conv14_2 (in-place)
I1015 15:32:52.105204  4233 net.cpp:150] Setting up conv14_2/relu
I1015 15:32:52.105217  4233 net.cpp:157] Top shape: 4 512 5 8 (81920)
I1015 15:32:52.105221  4233 net.cpp:165] Memory required for data: 1156382912
I1015 15:32:52.105224  4233 layer_factory.hpp:77] Creating layer conv14_2_conv14_2/relu_0_split
I1015 15:32:52.105233  4233 net.cpp:100] Creating Layer conv14_2_conv14_2/relu_0_split
I1015 15:32:52.105242  4233 net.cpp:434] conv14_2_conv14_2/relu_0_split <- conv14_2
I1015 15:32:52.105248  4233 net.cpp:408] conv14_2_conv14_2/relu_0_split -> conv14_2_conv14_2/relu_0_split_0
I1015 15:32:52.105257  4233 net.cpp:408] conv14_2_conv14_2/relu_0_split -> conv14_2_conv14_2/relu_0_split_1
I1015 15:32:52.105265  4233 net.cpp:408] conv14_2_conv14_2/relu_0_split -> conv14_2_conv14_2/relu_0_split_2
I1015 15:32:52.105273  4233 net.cpp:408] conv14_2_conv14_2/relu_0_split -> conv14_2_conv14_2/relu_0_split_3
I1015 15:32:52.105357  4233 net.cpp:150] Setting up conv14_2_conv14_2/relu_0_split
I1015 15:32:52.105365  4233 net.cpp:157] Top shape: 4 512 5 8 (81920)
I1015 15:32:52.105370  4233 net.cpp:157] Top shape: 4 512 5 8 (81920)
I1015 15:32:52.105374  4233 net.cpp:157] Top shape: 4 512 5 8 (81920)
I1015 15:32:52.105378  4233 net.cpp:157] Top shape: 4 512 5 8 (81920)
I1015 15:32:52.105382  4233 net.cpp:165] Memory required for data: 1157693632
I1015 15:32:52.105386  4233 layer_factory.hpp:77] Creating layer conv15_1
I1015 15:32:52.105401  4233 net.cpp:100] Creating Layer conv15_1
I1015 15:32:52.105404  4233 net.cpp:434] conv15_1 <- conv14_2_conv14_2/relu_0_split_0
I1015 15:32:52.105412  4233 net.cpp:408] conv15_1 -> conv15_1
I1015 15:32:52.107753  4233 net.cpp:150] Setting up conv15_1
I1015 15:32:52.107775  4233 net.cpp:157] Top shape: 4 128 5 8 (20480)
I1015 15:32:52.107779  4233 net.cpp:165] Memory required for data: 1157775552
I1015 15:32:52.107789  4233 layer_factory.hpp:77] Creating layer conv15_1/bn
I1015 15:32:52.107800  4233 net.cpp:100] Creating Layer conv15_1/bn
I1015 15:32:52.107806  4233 net.cpp:434] conv15_1/bn <- conv15_1
I1015 15:32:52.107813  4233 net.cpp:395] conv15_1/bn -> conv15_1 (in-place)
I1015 15:32:52.108052  4233 net.cpp:150] Setting up conv15_1/bn
I1015 15:32:52.108060  4233 net.cpp:157] Top shape: 4 128 5 8 (20480)
I1015 15:32:52.108064  4233 net.cpp:165] Memory required for data: 1157857472
I1015 15:32:52.108072  4233 layer_factory.hpp:77] Creating layer conv15_1/scale
I1015 15:32:52.108083  4233 net.cpp:100] Creating Layer conv15_1/scale
I1015 15:32:52.108086  4233 net.cpp:434] conv15_1/scale <- conv15_1
I1015 15:32:52.108091  4233 net.cpp:395] conv15_1/scale -> conv15_1 (in-place)
I1015 15:32:52.108139  4233 layer_factory.hpp:77] Creating layer conv15_1/scale
I1015 15:32:52.108268  4233 net.cpp:150] Setting up conv15_1/scale
I1015 15:32:52.108275  4233 net.cpp:157] Top shape: 4 128 5 8 (20480)
I1015 15:32:52.108278  4233 net.cpp:165] Memory required for data: 1157939392
I1015 15:32:52.108283  4233 layer_factory.hpp:77] Creating layer conv15_1/relu
I1015 15:32:52.108287  4233 net.cpp:100] Creating Layer conv15_1/relu
I1015 15:32:52.108290  4233 net.cpp:434] conv15_1/relu <- conv15_1
I1015 15:32:52.108294  4233 net.cpp:395] conv15_1/relu -> conv15_1 (in-place)
I1015 15:32:52.109012  4233 net.cpp:150] Setting up conv15_1/relu
I1015 15:32:52.109025  4233 net.cpp:157] Top shape: 4 128 5 8 (20480)
I1015 15:32:52.109027  4233 net.cpp:165] Memory required for data: 1158021312
I1015 15:32:52.109030  4233 layer_factory.hpp:77] Creating layer conv15_2
I1015 15:32:52.109040  4233 net.cpp:100] Creating Layer conv15_2
I1015 15:32:52.109043  4233 net.cpp:434] conv15_2 <- conv15_1
I1015 15:32:52.109048  4233 net.cpp:408] conv15_2 -> conv15_2
I1015 15:32:52.114946  4233 net.cpp:150] Setting up conv15_2
I1015 15:32:52.114974  4233 net.cpp:157] Top shape: 4 256 3 4 (12288)
I1015 15:32:52.114977  4233 net.cpp:165] Memory required for data: 1158070464
I1015 15:32:52.114986  4233 layer_factory.hpp:77] Creating layer conv15_2/bn
I1015 15:32:52.115016  4233 net.cpp:100] Creating Layer conv15_2/bn
I1015 15:32:52.115023  4233 net.cpp:434] conv15_2/bn <- conv15_2
I1015 15:32:52.115032  4233 net.cpp:395] conv15_2/bn -> conv15_2 (in-place)
I1015 15:32:52.115314  4233 net.cpp:150] Setting up conv15_2/bn
I1015 15:32:52.115324  4233 net.cpp:157] Top shape: 4 256 3 4 (12288)
I1015 15:32:52.115329  4233 net.cpp:165] Memory required for data: 1158119616
I1015 15:32:52.115337  4233 layer_factory.hpp:77] Creating layer conv15_2/scale
I1015 15:32:52.115348  4233 net.cpp:100] Creating Layer conv15_2/scale
I1015 15:32:52.115353  4233 net.cpp:434] conv15_2/scale <- conv15_2
I1015 15:32:52.115360  4233 net.cpp:395] conv15_2/scale -> conv15_2 (in-place)
I1015 15:32:52.115414  4233 layer_factory.hpp:77] Creating layer conv15_2/scale
I1015 15:32:52.115576  4233 net.cpp:150] Setting up conv15_2/scale
I1015 15:32:52.115589  4233 net.cpp:157] Top shape: 4 256 3 4 (12288)
I1015 15:32:52.115593  4233 net.cpp:165] Memory required for data: 1158168768
I1015 15:32:52.115600  4233 layer_factory.hpp:77] Creating layer conv15_2/relu
I1015 15:32:52.115607  4233 net.cpp:100] Creating Layer conv15_2/relu
I1015 15:32:52.115612  4233 net.cpp:434] conv15_2/relu <- conv15_2
I1015 15:32:52.115617  4233 net.cpp:395] conv15_2/relu -> conv15_2 (in-place)
I1015 15:32:52.116145  4233 net.cpp:150] Setting up conv15_2/relu
I1015 15:32:52.116158  4233 net.cpp:157] Top shape: 4 256 3 4 (12288)
I1015 15:32:52.116163  4233 net.cpp:165] Memory required for data: 1158217920
I1015 15:32:52.116168  4233 layer_factory.hpp:77] Creating layer conv15_2_conv15_2/relu_0_split
I1015 15:32:52.116175  4233 net.cpp:100] Creating Layer conv15_2_conv15_2/relu_0_split
I1015 15:32:52.116179  4233 net.cpp:434] conv15_2_conv15_2/relu_0_split <- conv15_2
I1015 15:32:52.116189  4233 net.cpp:408] conv15_2_conv15_2/relu_0_split -> conv15_2_conv15_2/relu_0_split_0
I1015 15:32:52.116197  4233 net.cpp:408] conv15_2_conv15_2/relu_0_split -> conv15_2_conv15_2/relu_0_split_1
I1015 15:32:52.116205  4233 net.cpp:408] conv15_2_conv15_2/relu_0_split -> conv15_2_conv15_2/relu_0_split_2
I1015 15:32:52.116214  4233 net.cpp:408] conv15_2_conv15_2/relu_0_split -> conv15_2_conv15_2/relu_0_split_3
I1015 15:32:52.116308  4233 net.cpp:150] Setting up conv15_2_conv15_2/relu_0_split
I1015 15:32:52.116318  4233 net.cpp:157] Top shape: 4 256 3 4 (12288)
I1015 15:32:52.116323  4233 net.cpp:157] Top shape: 4 256 3 4 (12288)
I1015 15:32:52.116328  4233 net.cpp:157] Top shape: 4 256 3 4 (12288)
I1015 15:32:52.116333  4233 net.cpp:157] Top shape: 4 256 3 4 (12288)
I1015 15:32:52.116336  4233 net.cpp:165] Memory required for data: 1158414528
I1015 15:32:52.116340  4233 layer_factory.hpp:77] Creating layer conv16_1
I1015 15:32:52.116351  4233 net.cpp:100] Creating Layer conv16_1
I1015 15:32:52.116356  4233 net.cpp:434] conv16_1 <- conv15_2_conv15_2/relu_0_split_0
I1015 15:32:52.116365  4233 net.cpp:408] conv16_1 -> conv16_1
I1015 15:32:52.119349  4233 net.cpp:150] Setting up conv16_1
I1015 15:32:52.119364  4233 net.cpp:157] Top shape: 4 128 3 4 (6144)
I1015 15:32:52.119366  4233 net.cpp:165] Memory required for data: 1158439104
I1015 15:32:52.119371  4233 layer_factory.hpp:77] Creating layer conv16_1/bn
I1015 15:32:52.119379  4233 net.cpp:100] Creating Layer conv16_1/bn
I1015 15:32:52.119381  4233 net.cpp:434] conv16_1/bn <- conv16_1
I1015 15:32:52.119387  4233 net.cpp:395] conv16_1/bn -> conv16_1 (in-place)
I1015 15:32:52.119561  4233 net.cpp:150] Setting up conv16_1/bn
I1015 15:32:52.119568  4233 net.cpp:157] Top shape: 4 128 3 4 (6144)
I1015 15:32:52.119570  4233 net.cpp:165] Memory required for data: 1158463680
I1015 15:32:52.119575  4233 layer_factory.hpp:77] Creating layer conv16_1/scale
I1015 15:32:52.119582  4233 net.cpp:100] Creating Layer conv16_1/scale
I1015 15:32:52.119585  4233 net.cpp:434] conv16_1/scale <- conv16_1
I1015 15:32:52.119588  4233 net.cpp:395] conv16_1/scale -> conv16_1 (in-place)
I1015 15:32:52.119624  4233 layer_factory.hpp:77] Creating layer conv16_1/scale
I1015 15:32:52.119720  4233 net.cpp:150] Setting up conv16_1/scale
I1015 15:32:52.119726  4233 net.cpp:157] Top shape: 4 128 3 4 (6144)
I1015 15:32:52.119729  4233 net.cpp:165] Memory required for data: 1158488256
I1015 15:32:52.119734  4233 layer_factory.hpp:77] Creating layer conv16_1/relu
I1015 15:32:52.119737  4233 net.cpp:100] Creating Layer conv16_1/relu
I1015 15:32:52.119740  4233 net.cpp:434] conv16_1/relu <- conv16_1
I1015 15:32:52.119745  4233 net.cpp:395] conv16_1/relu -> conv16_1 (in-place)
I1015 15:32:52.120100  4233 net.cpp:150] Setting up conv16_1/relu
I1015 15:32:52.120110  4233 net.cpp:157] Top shape: 4 128 3 4 (6144)
I1015 15:32:52.120111  4233 net.cpp:165] Memory required for data: 1158512832
I1015 15:32:52.120115  4233 layer_factory.hpp:77] Creating layer conv16_2
I1015 15:32:52.120122  4233 net.cpp:100] Creating Layer conv16_2
I1015 15:32:52.120124  4233 net.cpp:434] conv16_2 <- conv16_1
I1015 15:32:52.120131  4233 net.cpp:408] conv16_2 -> conv16_2
I1015 15:32:52.125294  4233 net.cpp:150] Setting up conv16_2
I1015 15:32:52.125314  4233 net.cpp:157] Top shape: 4 256 2 2 (4096)
I1015 15:32:52.125317  4233 net.cpp:165] Memory required for data: 1158529216
I1015 15:32:52.125324  4233 layer_factory.hpp:77] Creating layer conv16_2/bn
I1015 15:32:52.125332  4233 net.cpp:100] Creating Layer conv16_2/bn
I1015 15:32:52.125337  4233 net.cpp:434] conv16_2/bn <- conv16_2
I1015 15:32:52.125344  4233 net.cpp:395] conv16_2/bn -> conv16_2 (in-place)
I1015 15:32:52.125524  4233 net.cpp:150] Setting up conv16_2/bn
I1015 15:32:52.125530  4233 net.cpp:157] Top shape: 4 256 2 2 (4096)
I1015 15:32:52.125532  4233 net.cpp:165] Memory required for data: 1158545600
I1015 15:32:52.125537  4233 layer_factory.hpp:77] Creating layer conv16_2/scale
I1015 15:32:52.125545  4233 net.cpp:100] Creating Layer conv16_2/scale
I1015 15:32:52.125548  4233 net.cpp:434] conv16_2/scale <- conv16_2
I1015 15:32:52.125552  4233 net.cpp:395] conv16_2/scale -> conv16_2 (in-place)
I1015 15:32:52.125589  4233 layer_factory.hpp:77] Creating layer conv16_2/scale
I1015 15:32:52.125687  4233 net.cpp:150] Setting up conv16_2/scale
I1015 15:32:52.125694  4233 net.cpp:157] Top shape: 4 256 2 2 (4096)
I1015 15:32:52.125696  4233 net.cpp:165] Memory required for data: 1158561984
I1015 15:32:52.125700  4233 layer_factory.hpp:77] Creating layer conv16_2/relu
I1015 15:32:52.125705  4233 net.cpp:100] Creating Layer conv16_2/relu
I1015 15:32:52.125706  4233 net.cpp:434] conv16_2/relu <- conv16_2
I1015 15:32:52.125712  4233 net.cpp:395] conv16_2/relu -> conv16_2 (in-place)
I1015 15:32:52.126433  4233 net.cpp:150] Setting up conv16_2/relu
I1015 15:32:52.126446  4233 net.cpp:157] Top shape: 4 256 2 2 (4096)
I1015 15:32:52.126447  4233 net.cpp:165] Memory required for data: 1158578368
I1015 15:32:52.126451  4233 layer_factory.hpp:77] Creating layer conv16_2_conv16_2/relu_0_split
I1015 15:32:52.126456  4233 net.cpp:100] Creating Layer conv16_2_conv16_2/relu_0_split
I1015 15:32:52.126458  4233 net.cpp:434] conv16_2_conv16_2/relu_0_split <- conv16_2
I1015 15:32:52.126466  4233 net.cpp:408] conv16_2_conv16_2/relu_0_split -> conv16_2_conv16_2/relu_0_split_0
I1015 15:32:52.126472  4233 net.cpp:408] conv16_2_conv16_2/relu_0_split -> conv16_2_conv16_2/relu_0_split_1
I1015 15:32:52.126477  4233 net.cpp:408] conv16_2_conv16_2/relu_0_split -> conv16_2_conv16_2/relu_0_split_2
I1015 15:32:52.126482  4233 net.cpp:408] conv16_2_conv16_2/relu_0_split -> conv16_2_conv16_2/relu_0_split_3
I1015 15:32:52.126546  4233 net.cpp:150] Setting up conv16_2_conv16_2/relu_0_split
I1015 15:32:52.126551  4233 net.cpp:157] Top shape: 4 256 2 2 (4096)
I1015 15:32:52.126554  4233 net.cpp:157] Top shape: 4 256 2 2 (4096)
I1015 15:32:52.126557  4233 net.cpp:157] Top shape: 4 256 2 2 (4096)
I1015 15:32:52.126559  4233 net.cpp:157] Top shape: 4 256 2 2 (4096)
I1015 15:32:52.126562  4233 net.cpp:165] Memory required for data: 1158643904
I1015 15:32:52.126564  4233 layer_factory.hpp:77] Creating layer conv17_1
I1015 15:32:52.126572  4233 net.cpp:100] Creating Layer conv17_1
I1015 15:32:52.126574  4233 net.cpp:434] conv17_1 <- conv16_2_conv16_2/relu_0_split_0
I1015 15:32:52.126580  4233 net.cpp:408] conv17_1 -> conv17_1
I1015 15:32:52.128361  4233 net.cpp:150] Setting up conv17_1
I1015 15:32:52.128373  4233 net.cpp:157] Top shape: 4 64 2 2 (1024)
I1015 15:32:52.128376  4233 net.cpp:165] Memory required for data: 1158648000
I1015 15:32:52.128381  4233 layer_factory.hpp:77] Creating layer conv17_1/bn
I1015 15:32:52.128386  4233 net.cpp:100] Creating Layer conv17_1/bn
I1015 15:32:52.128389  4233 net.cpp:434] conv17_1/bn <- conv17_1
I1015 15:32:52.128393  4233 net.cpp:395] conv17_1/bn -> conv17_1 (in-place)
I1015 15:32:52.128582  4233 net.cpp:150] Setting up conv17_1/bn
I1015 15:32:52.128588  4233 net.cpp:157] Top shape: 4 64 2 2 (1024)
I1015 15:32:52.128590  4233 net.cpp:165] Memory required for data: 1158652096
I1015 15:32:52.128595  4233 layer_factory.hpp:77] Creating layer conv17_1/scale
I1015 15:32:52.128600  4233 net.cpp:100] Creating Layer conv17_1/scale
I1015 15:32:52.128603  4233 net.cpp:434] conv17_1/scale <- conv17_1
I1015 15:32:52.128608  4233 net.cpp:395] conv17_1/scale -> conv17_1 (in-place)
I1015 15:32:52.128645  4233 layer_factory.hpp:77] Creating layer conv17_1/scale
I1015 15:32:52.128751  4233 net.cpp:150] Setting up conv17_1/scale
I1015 15:32:52.128756  4233 net.cpp:157] Top shape: 4 64 2 2 (1024)
I1015 15:32:52.128758  4233 net.cpp:165] Memory required for data: 1158656192
I1015 15:32:52.128762  4233 layer_factory.hpp:77] Creating layer conv17_1/relu
I1015 15:32:52.128768  4233 net.cpp:100] Creating Layer conv17_1/relu
I1015 15:32:52.128770  4233 net.cpp:434] conv17_1/relu <- conv17_1
I1015 15:32:52.128773  4233 net.cpp:395] conv17_1/relu -> conv17_1 (in-place)
I1015 15:32:52.129138  4233 net.cpp:150] Setting up conv17_1/relu
I1015 15:32:52.129148  4233 net.cpp:157] Top shape: 4 64 2 2 (1024)
I1015 15:32:52.129149  4233 net.cpp:165] Memory required for data: 1158660288
I1015 15:32:52.129151  4233 layer_factory.hpp:77] Creating layer conv17_2
I1015 15:32:52.129160  4233 net.cpp:100] Creating Layer conv17_2
I1015 15:32:52.129163  4233 net.cpp:434] conv17_2 <- conv17_1
I1015 15:32:52.129168  4233 net.cpp:408] conv17_2 -> conv17_2
I1015 15:32:52.131397  4233 net.cpp:150] Setting up conv17_2
I1015 15:32:52.131409  4233 net.cpp:157] Top shape: 4 128 1 1 (512)
I1015 15:32:52.131412  4233 net.cpp:165] Memory required for data: 1158662336
I1015 15:32:52.131417  4233 layer_factory.hpp:77] Creating layer conv17_2/bn
I1015 15:32:52.131420  4233 net.cpp:100] Creating Layer conv17_2/bn
I1015 15:32:52.131423  4233 net.cpp:434] conv17_2/bn <- conv17_2
I1015 15:32:52.131428  4233 net.cpp:395] conv17_2/bn -> conv17_2 (in-place)
I1015 15:32:52.131605  4233 net.cpp:150] Setting up conv17_2/bn
I1015 15:32:52.131613  4233 net.cpp:157] Top shape: 4 128 1 1 (512)
I1015 15:32:52.131614  4233 net.cpp:165] Memory required for data: 1158664384
I1015 15:32:52.131619  4233 layer_factory.hpp:77] Creating layer conv17_2/scale
I1015 15:32:52.131625  4233 net.cpp:100] Creating Layer conv17_2/scale
I1015 15:32:52.131628  4233 net.cpp:434] conv17_2/scale <- conv17_2
I1015 15:32:52.131633  4233 net.cpp:395] conv17_2/scale -> conv17_2 (in-place)
I1015 15:32:52.131669  4233 layer_factory.hpp:77] Creating layer conv17_2/scale
I1015 15:32:52.131764  4233 net.cpp:150] Setting up conv17_2/scale
I1015 15:32:52.131770  4233 net.cpp:157] Top shape: 4 128 1 1 (512)
I1015 15:32:52.131772  4233 net.cpp:165] Memory required for data: 1158666432
I1015 15:32:52.131778  4233 layer_factory.hpp:77] Creating layer conv17_2/relu
I1015 15:32:52.131781  4233 net.cpp:100] Creating Layer conv17_2/relu
I1015 15:32:52.131783  4233 net.cpp:434] conv17_2/relu <- conv17_2
I1015 15:32:52.131788  4233 net.cpp:395] conv17_2/relu -> conv17_2 (in-place)
I1015 15:32:52.132213  4233 net.cpp:150] Setting up conv17_2/relu
I1015 15:32:52.132226  4233 net.cpp:157] Top shape: 4 128 1 1 (512)
I1015 15:32:52.132230  4233 net.cpp:165] Memory required for data: 1158668480
I1015 15:32:52.132236  4233 layer_factory.hpp:77] Creating layer conv17_2_conv17_2/relu_0_split
I1015 15:32:52.132244  4233 net.cpp:100] Creating Layer conv17_2_conv17_2/relu_0_split
I1015 15:32:52.132249  4233 net.cpp:434] conv17_2_conv17_2/relu_0_split <- conv17_2
I1015 15:32:52.132257  4233 net.cpp:408] conv17_2_conv17_2/relu_0_split -> conv17_2_conv17_2/relu_0_split_0
I1015 15:32:52.132266  4233 net.cpp:408] conv17_2_conv17_2/relu_0_split -> conv17_2_conv17_2/relu_0_split_1
I1015 15:32:52.132274  4233 net.cpp:408] conv17_2_conv17_2/relu_0_split -> conv17_2_conv17_2/relu_0_split_2
I1015 15:32:52.132354  4233 net.cpp:150] Setting up conv17_2_conv17_2/relu_0_split
I1015 15:32:52.132361  4233 net.cpp:157] Top shape: 4 128 1 1 (512)
I1015 15:32:52.132366  4233 net.cpp:157] Top shape: 4 128 1 1 (512)
I1015 15:32:52.132371  4233 net.cpp:157] Top shape: 4 128 1 1 (512)
I1015 15:32:52.132375  4233 net.cpp:165] Memory required for data: 1158674624
I1015 15:32:52.132380  4233 layer_factory.hpp:77] Creating layer conv11_mbox_loc
I1015 15:32:52.132392  4233 net.cpp:100] Creating Layer conv11_mbox_loc
I1015 15:32:52.132398  4233 net.cpp:434] conv11_mbox_loc <- conv11_conv11/relu_0_split_1
I1015 15:32:52.132406  4233 net.cpp:408] conv11_mbox_loc -> conv11_mbox_loc
I1015 15:32:52.135836  4233 net.cpp:150] Setting up conv11_mbox_loc
I1015 15:32:52.135855  4233 net.cpp:157] Top shape: 4 12 20 30 (28800)
I1015 15:32:52.135860  4233 net.cpp:165] Memory required for data: 1158789824
I1015 15:32:52.135869  4233 layer_factory.hpp:77] Creating layer conv11_mbox_loc_perm
I1015 15:32:52.135881  4233 net.cpp:100] Creating Layer conv11_mbox_loc_perm
I1015 15:32:52.135886  4233 net.cpp:434] conv11_mbox_loc_perm <- conv11_mbox_loc
I1015 15:32:52.135893  4233 net.cpp:408] conv11_mbox_loc_perm -> conv11_mbox_loc_perm
I1015 15:32:52.136044  4233 net.cpp:150] Setting up conv11_mbox_loc_perm
I1015 15:32:52.136054  4233 net.cpp:157] Top shape: 4 20 30 12 (28800)
I1015 15:32:52.136057  4233 net.cpp:165] Memory required for data: 1158905024
I1015 15:32:52.136061  4233 layer_factory.hpp:77] Creating layer conv11_mbox_loc_flat
I1015 15:32:52.136070  4233 net.cpp:100] Creating Layer conv11_mbox_loc_flat
I1015 15:32:52.136075  4233 net.cpp:434] conv11_mbox_loc_flat <- conv11_mbox_loc_perm
I1015 15:32:52.136081  4233 net.cpp:408] conv11_mbox_loc_flat -> conv11_mbox_loc_flat
I1015 15:32:52.136116  4233 net.cpp:150] Setting up conv11_mbox_loc_flat
I1015 15:32:52.136122  4233 net.cpp:157] Top shape: 4 7200 (28800)
I1015 15:32:52.136126  4233 net.cpp:165] Memory required for data: 1159020224
I1015 15:32:52.136129  4233 layer_factory.hpp:77] Creating layer conv11_mbox_conf_new
I1015 15:32:52.136142  4233 net.cpp:100] Creating Layer conv11_mbox_conf_new
I1015 15:32:52.136148  4233 net.cpp:434] conv11_mbox_conf_new <- conv11_conv11/relu_0_split_2
I1015 15:32:52.136157  4233 net.cpp:408] conv11_mbox_conf_new -> conv11_mbox_conf
I1015 15:32:52.138268  4233 net.cpp:150] Setting up conv11_mbox_conf_new
I1015 15:32:52.138286  4233 net.cpp:157] Top shape: 4 9 20 30 (21600)
I1015 15:32:52.138289  4233 net.cpp:165] Memory required for data: 1159106624
I1015 15:32:52.138295  4233 layer_factory.hpp:77] Creating layer conv11_mbox_conf_perm
I1015 15:32:52.138303  4233 net.cpp:100] Creating Layer conv11_mbox_conf_perm
I1015 15:32:52.138306  4233 net.cpp:434] conv11_mbox_conf_perm <- conv11_mbox_conf
I1015 15:32:52.138310  4233 net.cpp:408] conv11_mbox_conf_perm -> conv11_mbox_conf_perm
I1015 15:32:52.138408  4233 net.cpp:150] Setting up conv11_mbox_conf_perm
I1015 15:32:52.138414  4233 net.cpp:157] Top shape: 4 20 30 9 (21600)
I1015 15:32:52.138417  4233 net.cpp:165] Memory required for data: 1159193024
I1015 15:32:52.138418  4233 layer_factory.hpp:77] Creating layer conv11_mbox_conf_flat
I1015 15:32:52.138423  4233 net.cpp:100] Creating Layer conv11_mbox_conf_flat
I1015 15:32:52.138427  4233 net.cpp:434] conv11_mbox_conf_flat <- conv11_mbox_conf_perm
I1015 15:32:52.138432  4233 net.cpp:408] conv11_mbox_conf_flat -> conv11_mbox_conf_flat
I1015 15:32:52.138463  4233 net.cpp:150] Setting up conv11_mbox_conf_flat
I1015 15:32:52.138469  4233 net.cpp:157] Top shape: 4 5400 (21600)
I1015 15:32:52.138473  4233 net.cpp:165] Memory required for data: 1159279424
I1015 15:32:52.138476  4233 layer_factory.hpp:77] Creating layer conv11_mbox_priorbox
I1015 15:32:52.138485  4233 net.cpp:100] Creating Layer conv11_mbox_priorbox
I1015 15:32:52.138489  4233 net.cpp:434] conv11_mbox_priorbox <- conv11_conv11/relu_0_split_3
I1015 15:32:52.138495  4233 net.cpp:434] conv11_mbox_priorbox <- data_data_0_split_1
I1015 15:32:52.138504  4233 net.cpp:408] conv11_mbox_priorbox -> conv11_mbox_priorbox
I1015 15:32:52.138540  4233 net.cpp:150] Setting up conv11_mbox_priorbox
I1015 15:32:52.138546  4233 net.cpp:157] Top shape: 1 2 7200 (14400)
I1015 15:32:52.138550  4233 net.cpp:165] Memory required for data: 1159337024
I1015 15:32:52.138553  4233 layer_factory.hpp:77] Creating layer conv13_mbox_loc
I1015 15:32:52.138566  4233 net.cpp:100] Creating Layer conv13_mbox_loc
I1015 15:32:52.138569  4233 net.cpp:434] conv13_mbox_loc <- conv13_conv13/relu_0_split_1
I1015 15:32:52.138577  4233 net.cpp:408] conv13_mbox_loc -> conv13_mbox_loc
I1015 15:32:52.140724  4233 net.cpp:150] Setting up conv13_mbox_loc
I1015 15:32:52.140738  4233 net.cpp:157] Top shape: 4 24 10 15 (14400)
I1015 15:32:52.140739  4233 net.cpp:165] Memory required for data: 1159394624
I1015 15:32:52.140745  4233 layer_factory.hpp:77] Creating layer conv13_mbox_loc_perm
I1015 15:32:52.140753  4233 net.cpp:100] Creating Layer conv13_mbox_loc_perm
I1015 15:32:52.140755  4233 net.cpp:434] conv13_mbox_loc_perm <- conv13_mbox_loc
I1015 15:32:52.140759  4233 net.cpp:408] conv13_mbox_loc_perm -> conv13_mbox_loc_perm
I1015 15:32:52.140861  4233 net.cpp:150] Setting up conv13_mbox_loc_perm
I1015 15:32:52.140866  4233 net.cpp:157] Top shape: 4 10 15 24 (14400)
I1015 15:32:52.140868  4233 net.cpp:165] Memory required for data: 1159452224
I1015 15:32:52.140871  4233 layer_factory.hpp:77] Creating layer conv13_mbox_loc_flat
I1015 15:32:52.140877  4233 net.cpp:100] Creating Layer conv13_mbox_loc_flat
I1015 15:32:52.140879  4233 net.cpp:434] conv13_mbox_loc_flat <- conv13_mbox_loc_perm
I1015 15:32:52.140882  4233 net.cpp:408] conv13_mbox_loc_flat -> conv13_mbox_loc_flat
I1015 15:32:52.140904  4233 net.cpp:150] Setting up conv13_mbox_loc_flat
I1015 15:32:52.140908  4233 net.cpp:157] Top shape: 4 3600 (14400)
I1015 15:32:52.140911  4233 net.cpp:165] Memory required for data: 1159509824
I1015 15:32:52.140913  4233 layer_factory.hpp:77] Creating layer conv13_mbox_conf_new
I1015 15:32:52.140920  4233 net.cpp:100] Creating Layer conv13_mbox_conf_new
I1015 15:32:52.140923  4233 net.cpp:434] conv13_mbox_conf_new <- conv13_conv13/relu_0_split_2
I1015 15:32:52.140929  4233 net.cpp:408] conv13_mbox_conf_new -> conv13_mbox_conf
I1015 15:32:52.142788  4233 net.cpp:150] Setting up conv13_mbox_conf_new
I1015 15:32:52.142802  4233 net.cpp:157] Top shape: 4 18 10 15 (10800)
I1015 15:32:52.142804  4233 net.cpp:165] Memory required for data: 1159553024
I1015 15:32:52.142810  4233 layer_factory.hpp:77] Creating layer conv13_mbox_conf_perm
I1015 15:32:52.142817  4233 net.cpp:100] Creating Layer conv13_mbox_conf_perm
I1015 15:32:52.142820  4233 net.cpp:434] conv13_mbox_conf_perm <- conv13_mbox_conf
I1015 15:32:52.142827  4233 net.cpp:408] conv13_mbox_conf_perm -> conv13_mbox_conf_perm
I1015 15:32:52.142923  4233 net.cpp:150] Setting up conv13_mbox_conf_perm
I1015 15:32:52.142930  4233 net.cpp:157] Top shape: 4 10 15 18 (10800)
I1015 15:32:52.142931  4233 net.cpp:165] Memory required for data: 1159596224
I1015 15:32:52.142933  4233 layer_factory.hpp:77] Creating layer conv13_mbox_conf_flat
I1015 15:32:52.142938  4233 net.cpp:100] Creating Layer conv13_mbox_conf_flat
I1015 15:32:52.142941  4233 net.cpp:434] conv13_mbox_conf_flat <- conv13_mbox_conf_perm
I1015 15:32:52.142946  4233 net.cpp:408] conv13_mbox_conf_flat -> conv13_mbox_conf_flat
I1015 15:32:52.142967  4233 net.cpp:150] Setting up conv13_mbox_conf_flat
I1015 15:32:52.142973  4233 net.cpp:157] Top shape: 4 2700 (10800)
I1015 15:32:52.142976  4233 net.cpp:165] Memory required for data: 1159639424
I1015 15:32:52.142977  4233 layer_factory.hpp:77] Creating layer conv13_mbox_priorbox
I1015 15:32:52.142982  4233 net.cpp:100] Creating Layer conv13_mbox_priorbox
I1015 15:32:52.142985  4233 net.cpp:434] conv13_mbox_priorbox <- conv13_conv13/relu_0_split_3
I1015 15:32:52.142989  4233 net.cpp:434] conv13_mbox_priorbox <- data_data_0_split_2
I1015 15:32:52.142995  4233 net.cpp:408] conv13_mbox_priorbox -> conv13_mbox_priorbox
I1015 15:32:52.143019  4233 net.cpp:150] Setting up conv13_mbox_priorbox
I1015 15:32:52.143024  4233 net.cpp:157] Top shape: 1 2 3600 (7200)
I1015 15:32:52.143026  4233 net.cpp:165] Memory required for data: 1159668224
I1015 15:32:52.143028  4233 layer_factory.hpp:77] Creating layer conv14_2_mbox_loc
I1015 15:32:52.143036  4233 net.cpp:100] Creating Layer conv14_2_mbox_loc
I1015 15:32:52.143039  4233 net.cpp:434] conv14_2_mbox_loc <- conv14_2_conv14_2/relu_0_split_1
I1015 15:32:52.143044  4233 net.cpp:408] conv14_2_mbox_loc -> conv14_2_mbox_loc
I1015 15:32:52.144853  4233 net.cpp:150] Setting up conv14_2_mbox_loc
I1015 15:32:52.144865  4233 net.cpp:157] Top shape: 4 24 5 8 (3840)
I1015 15:32:52.144867  4233 net.cpp:165] Memory required for data: 1159683584
I1015 15:32:52.144873  4233 layer_factory.hpp:77] Creating layer conv14_2_mbox_loc_perm
I1015 15:32:52.144879  4233 net.cpp:100] Creating Layer conv14_2_mbox_loc_perm
I1015 15:32:52.144882  4233 net.cpp:434] conv14_2_mbox_loc_perm <- conv14_2_mbox_loc
I1015 15:32:52.144888  4233 net.cpp:408] conv14_2_mbox_loc_perm -> conv14_2_mbox_loc_perm
I1015 15:32:52.144990  4233 net.cpp:150] Setting up conv14_2_mbox_loc_perm
I1015 15:32:52.144994  4233 net.cpp:157] Top shape: 4 5 8 24 (3840)
I1015 15:32:52.144997  4233 net.cpp:165] Memory required for data: 1159698944
I1015 15:32:52.144999  4233 layer_factory.hpp:77] Creating layer conv14_2_mbox_loc_flat
I1015 15:32:52.145004  4233 net.cpp:100] Creating Layer conv14_2_mbox_loc_flat
I1015 15:32:52.145006  4233 net.cpp:434] conv14_2_mbox_loc_flat <- conv14_2_mbox_loc_perm
I1015 15:32:52.145010  4233 net.cpp:408] conv14_2_mbox_loc_flat -> conv14_2_mbox_loc_flat
I1015 15:32:52.145033  4233 net.cpp:150] Setting up conv14_2_mbox_loc_flat
I1015 15:32:52.145037  4233 net.cpp:157] Top shape: 4 960 (3840)
I1015 15:32:52.145040  4233 net.cpp:165] Memory required for data: 1159714304
I1015 15:32:52.145041  4233 layer_factory.hpp:77] Creating layer conv14_2_mbox_conf_new
I1015 15:32:52.145050  4233 net.cpp:100] Creating Layer conv14_2_mbox_conf_new
I1015 15:32:52.145051  4233 net.cpp:434] conv14_2_mbox_conf_new <- conv14_2_conv14_2/relu_0_split_2
I1015 15:32:52.145058  4233 net.cpp:408] conv14_2_mbox_conf_new -> conv14_2_mbox_conf
I1015 15:32:52.147155  4233 net.cpp:150] Setting up conv14_2_mbox_conf_new
I1015 15:32:52.147166  4233 net.cpp:157] Top shape: 4 18 5 8 (2880)
I1015 15:32:52.147169  4233 net.cpp:165] Memory required for data: 1159725824
I1015 15:32:52.147174  4233 layer_factory.hpp:77] Creating layer conv14_2_mbox_conf_perm
I1015 15:32:52.147181  4233 net.cpp:100] Creating Layer conv14_2_mbox_conf_perm
I1015 15:32:52.147184  4233 net.cpp:434] conv14_2_mbox_conf_perm <- conv14_2_mbox_conf
I1015 15:32:52.147188  4233 net.cpp:408] conv14_2_mbox_conf_perm -> conv14_2_mbox_conf_perm
I1015 15:32:52.147287  4233 net.cpp:150] Setting up conv14_2_mbox_conf_perm
I1015 15:32:52.147292  4233 net.cpp:157] Top shape: 4 5 8 18 (2880)
I1015 15:32:52.147294  4233 net.cpp:165] Memory required for data: 1159737344
I1015 15:32:52.147296  4233 layer_factory.hpp:77] Creating layer conv14_2_mbox_conf_flat
I1015 15:32:52.147302  4233 net.cpp:100] Creating Layer conv14_2_mbox_conf_flat
I1015 15:32:52.147305  4233 net.cpp:434] conv14_2_mbox_conf_flat <- conv14_2_mbox_conf_perm
I1015 15:32:52.147308  4233 net.cpp:408] conv14_2_mbox_conf_flat -> conv14_2_mbox_conf_flat
I1015 15:32:52.147332  4233 net.cpp:150] Setting up conv14_2_mbox_conf_flat
I1015 15:32:52.147336  4233 net.cpp:157] Top shape: 4 720 (2880)
I1015 15:32:52.147337  4233 net.cpp:165] Memory required for data: 1159748864
I1015 15:32:52.147341  4233 layer_factory.hpp:77] Creating layer conv14_2_mbox_priorbox
I1015 15:32:52.147346  4233 net.cpp:100] Creating Layer conv14_2_mbox_priorbox
I1015 15:32:52.147348  4233 net.cpp:434] conv14_2_mbox_priorbox <- conv14_2_conv14_2/relu_0_split_3
I1015 15:32:52.147352  4233 net.cpp:434] conv14_2_mbox_priorbox <- data_data_0_split_3
I1015 15:32:52.147356  4233 net.cpp:408] conv14_2_mbox_priorbox -> conv14_2_mbox_priorbox
I1015 15:32:52.147382  4233 net.cpp:150] Setting up conv14_2_mbox_priorbox
I1015 15:32:52.147385  4233 net.cpp:157] Top shape: 1 2 960 (1920)
I1015 15:32:52.147387  4233 net.cpp:165] Memory required for data: 1159756544
I1015 15:32:52.147389  4233 layer_factory.hpp:77] Creating layer conv15_2_mbox_loc
I1015 15:32:52.147397  4233 net.cpp:100] Creating Layer conv15_2_mbox_loc
I1015 15:32:52.147399  4233 net.cpp:434] conv15_2_mbox_loc <- conv15_2_conv15_2/relu_0_split_1
I1015 15:32:52.147404  4233 net.cpp:408] conv15_2_mbox_loc -> conv15_2_mbox_loc
I1015 15:32:52.149154  4233 net.cpp:150] Setting up conv15_2_mbox_loc
I1015 15:32:52.149165  4233 net.cpp:157] Top shape: 4 24 3 4 (1152)
I1015 15:32:52.149168  4233 net.cpp:165] Memory required for data: 1159761152
I1015 15:32:52.149173  4233 layer_factory.hpp:77] Creating layer conv15_2_mbox_loc_perm
I1015 15:32:52.149180  4233 net.cpp:100] Creating Layer conv15_2_mbox_loc_perm
I1015 15:32:52.149183  4233 net.cpp:434] conv15_2_mbox_loc_perm <- conv15_2_mbox_loc
I1015 15:32:52.149188  4233 net.cpp:408] conv15_2_mbox_loc_perm -> conv15_2_mbox_loc_perm
I1015 15:32:52.149288  4233 net.cpp:150] Setting up conv15_2_mbox_loc_perm
I1015 15:32:52.149294  4233 net.cpp:157] Top shape: 4 3 4 24 (1152)
I1015 15:32:52.149296  4233 net.cpp:165] Memory required for data: 1159765760
I1015 15:32:52.149299  4233 layer_factory.hpp:77] Creating layer conv15_2_mbox_loc_flat
I1015 15:32:52.149303  4233 net.cpp:100] Creating Layer conv15_2_mbox_loc_flat
I1015 15:32:52.149307  4233 net.cpp:434] conv15_2_mbox_loc_flat <- conv15_2_mbox_loc_perm
I1015 15:32:52.149310  4233 net.cpp:408] conv15_2_mbox_loc_flat -> conv15_2_mbox_loc_flat
I1015 15:32:52.149333  4233 net.cpp:150] Setting up conv15_2_mbox_loc_flat
I1015 15:32:52.149338  4233 net.cpp:157] Top shape: 4 288 (1152)
I1015 15:32:52.149339  4233 net.cpp:165] Memory required for data: 1159770368
I1015 15:32:52.149341  4233 layer_factory.hpp:77] Creating layer conv15_2_mbox_conf_new
I1015 15:32:52.149349  4233 net.cpp:100] Creating Layer conv15_2_mbox_conf_new
I1015 15:32:52.149351  4233 net.cpp:434] conv15_2_mbox_conf_new <- conv15_2_conv15_2/relu_0_split_2
I1015 15:32:52.149356  4233 net.cpp:408] conv15_2_mbox_conf_new -> conv15_2_mbox_conf
I1015 15:32:52.151094  4233 net.cpp:150] Setting up conv15_2_mbox_conf_new
I1015 15:32:52.151105  4233 net.cpp:157] Top shape: 4 18 3 4 (864)
I1015 15:32:52.151108  4233 net.cpp:165] Memory required for data: 1159773824
I1015 15:32:52.151113  4233 layer_factory.hpp:77] Creating layer conv15_2_mbox_conf_perm
I1015 15:32:52.151119  4233 net.cpp:100] Creating Layer conv15_2_mbox_conf_perm
I1015 15:32:52.151123  4233 net.cpp:434] conv15_2_mbox_conf_perm <- conv15_2_mbox_conf
I1015 15:32:52.151127  4233 net.cpp:408] conv15_2_mbox_conf_perm -> conv15_2_mbox_conf_perm
I1015 15:32:52.151229  4233 net.cpp:150] Setting up conv15_2_mbox_conf_perm
I1015 15:32:52.151234  4233 net.cpp:157] Top shape: 4 3 4 18 (864)
I1015 15:32:52.151237  4233 net.cpp:165] Memory required for data: 1159777280
I1015 15:32:52.151238  4233 layer_factory.hpp:77] Creating layer conv15_2_mbox_conf_flat
I1015 15:32:52.151243  4233 net.cpp:100] Creating Layer conv15_2_mbox_conf_flat
I1015 15:32:52.151245  4233 net.cpp:434] conv15_2_mbox_conf_flat <- conv15_2_mbox_conf_perm
I1015 15:32:52.151250  4233 net.cpp:408] conv15_2_mbox_conf_flat -> conv15_2_mbox_conf_flat
I1015 15:32:52.151274  4233 net.cpp:150] Setting up conv15_2_mbox_conf_flat
I1015 15:32:52.151278  4233 net.cpp:157] Top shape: 4 216 (864)
I1015 15:32:52.151280  4233 net.cpp:165] Memory required for data: 1159780736
I1015 15:32:52.151283  4233 layer_factory.hpp:77] Creating layer conv15_2_mbox_priorbox
I1015 15:32:52.151288  4233 net.cpp:100] Creating Layer conv15_2_mbox_priorbox
I1015 15:32:52.151290  4233 net.cpp:434] conv15_2_mbox_priorbox <- conv15_2_conv15_2/relu_0_split_3
I1015 15:32:52.151293  4233 net.cpp:434] conv15_2_mbox_priorbox <- data_data_0_split_4
I1015 15:32:52.151298  4233 net.cpp:408] conv15_2_mbox_priorbox -> conv15_2_mbox_priorbox
I1015 15:32:52.151324  4233 net.cpp:150] Setting up conv15_2_mbox_priorbox
I1015 15:32:52.151327  4233 net.cpp:157] Top shape: 1 2 288 (576)
I1015 15:32:52.151329  4233 net.cpp:165] Memory required for data: 1159783040
I1015 15:32:52.151331  4233 layer_factory.hpp:77] Creating layer conv16_2_mbox_loc
I1015 15:32:52.151340  4233 net.cpp:100] Creating Layer conv16_2_mbox_loc
I1015 15:32:52.151342  4233 net.cpp:434] conv16_2_mbox_loc <- conv16_2_conv16_2/relu_0_split_1
I1015 15:32:52.151346  4233 net.cpp:408] conv16_2_mbox_loc -> conv16_2_mbox_loc
I1015 15:32:52.153817  4233 net.cpp:150] Setting up conv16_2_mbox_loc
I1015 15:32:52.153846  4233 net.cpp:157] Top shape: 4 24 2 2 (384)
I1015 15:32:52.153851  4233 net.cpp:165] Memory required for data: 1159784576
I1015 15:32:52.153858  4233 layer_factory.hpp:77] Creating layer conv16_2_mbox_loc_perm
I1015 15:32:52.153869  4233 net.cpp:100] Creating Layer conv16_2_mbox_loc_perm
I1015 15:32:52.153874  4233 net.cpp:434] conv16_2_mbox_loc_perm <- conv16_2_mbox_loc
I1015 15:32:52.153882  4233 net.cpp:408] conv16_2_mbox_loc_perm -> conv16_2_mbox_loc_perm
I1015 15:32:52.154033  4233 net.cpp:150] Setting up conv16_2_mbox_loc_perm
I1015 15:32:52.154042  4233 net.cpp:157] Top shape: 4 2 2 24 (384)
I1015 15:32:52.154045  4233 net.cpp:165] Memory required for data: 1159786112
I1015 15:32:52.154050  4233 layer_factory.hpp:77] Creating layer conv16_2_mbox_loc_flat
I1015 15:32:52.154058  4233 net.cpp:100] Creating Layer conv16_2_mbox_loc_flat
I1015 15:32:52.154062  4233 net.cpp:434] conv16_2_mbox_loc_flat <- conv16_2_mbox_loc_perm
I1015 15:32:52.154069  4233 net.cpp:408] conv16_2_mbox_loc_flat -> conv16_2_mbox_loc_flat
I1015 15:32:52.154104  4233 net.cpp:150] Setting up conv16_2_mbox_loc_flat
I1015 15:32:52.154111  4233 net.cpp:157] Top shape: 4 96 (384)
I1015 15:32:52.154115  4233 net.cpp:165] Memory required for data: 1159787648
I1015 15:32:52.154119  4233 layer_factory.hpp:77] Creating layer conv16_2_mbox_conf_new
I1015 15:32:52.154131  4233 net.cpp:100] Creating Layer conv16_2_mbox_conf_new
I1015 15:32:52.154135  4233 net.cpp:434] conv16_2_mbox_conf_new <- conv16_2_conv16_2/relu_0_split_2
I1015 15:32:52.154145  4233 net.cpp:408] conv16_2_mbox_conf_new -> conv16_2_mbox_conf
I1015 15:32:52.157204  4233 net.cpp:150] Setting up conv16_2_mbox_conf_new
I1015 15:32:52.157222  4233 net.cpp:157] Top shape: 4 18 2 2 (288)
I1015 15:32:52.157225  4233 net.cpp:165] Memory required for data: 1159788800
I1015 15:32:52.157233  4233 layer_factory.hpp:77] Creating layer conv16_2_mbox_conf_perm
I1015 15:32:52.157243  4233 net.cpp:100] Creating Layer conv16_2_mbox_conf_perm
I1015 15:32:52.157248  4233 net.cpp:434] conv16_2_mbox_conf_perm <- conv16_2_mbox_conf
I1015 15:32:52.157256  4233 net.cpp:408] conv16_2_mbox_conf_perm -> conv16_2_mbox_conf_perm
I1015 15:32:52.157395  4233 net.cpp:150] Setting up conv16_2_mbox_conf_perm
I1015 15:32:52.157403  4233 net.cpp:157] Top shape: 4 2 2 18 (288)
I1015 15:32:52.157407  4233 net.cpp:165] Memory required for data: 1159789952
I1015 15:32:52.157411  4233 layer_factory.hpp:77] Creating layer conv16_2_mbox_conf_flat
I1015 15:32:52.157418  4233 net.cpp:100] Creating Layer conv16_2_mbox_conf_flat
I1015 15:32:52.157423  4233 net.cpp:434] conv16_2_mbox_conf_flat <- conv16_2_mbox_conf_perm
I1015 15:32:52.157430  4233 net.cpp:408] conv16_2_mbox_conf_flat -> conv16_2_mbox_conf_flat
I1015 15:32:52.157459  4233 net.cpp:150] Setting up conv16_2_mbox_conf_flat
I1015 15:32:52.157465  4233 net.cpp:157] Top shape: 4 72 (288)
I1015 15:32:52.157469  4233 net.cpp:165] Memory required for data: 1159791104
I1015 15:32:52.157472  4233 layer_factory.hpp:77] Creating layer conv16_2_mbox_priorbox
I1015 15:32:52.157481  4233 net.cpp:100] Creating Layer conv16_2_mbox_priorbox
I1015 15:32:52.157485  4233 net.cpp:434] conv16_2_mbox_priorbox <- conv16_2_conv16_2/relu_0_split_3
I1015 15:32:52.157491  4233 net.cpp:434] conv16_2_mbox_priorbox <- data_data_0_split_5
I1015 15:32:52.157500  4233 net.cpp:408] conv16_2_mbox_priorbox -> conv16_2_mbox_priorbox
I1015 15:32:52.157532  4233 net.cpp:150] Setting up conv16_2_mbox_priorbox
I1015 15:32:52.157538  4233 net.cpp:157] Top shape: 1 2 96 (192)
I1015 15:32:52.157541  4233 net.cpp:165] Memory required for data: 1159791872
I1015 15:32:52.157544  4233 layer_factory.hpp:77] Creating layer conv17_2_mbox_loc
I1015 15:32:52.157559  4233 net.cpp:100] Creating Layer conv17_2_mbox_loc
I1015 15:32:52.157564  4233 net.cpp:434] conv17_2_mbox_loc <- conv17_2_conv17_2/relu_0_split_0
I1015 15:32:52.157572  4233 net.cpp:408] conv17_2_mbox_loc -> conv17_2_mbox_loc
I1015 15:32:52.159723  4233 net.cpp:150] Setting up conv17_2_mbox_loc
I1015 15:32:52.159735  4233 net.cpp:157] Top shape: 4 24 1 1 (96)
I1015 15:32:52.159739  4233 net.cpp:165] Memory required for data: 1159792256
I1015 15:32:52.159744  4233 layer_factory.hpp:77] Creating layer conv17_2_mbox_loc_perm
I1015 15:32:52.159750  4233 net.cpp:100] Creating Layer conv17_2_mbox_loc_perm
I1015 15:32:52.159754  4233 net.cpp:434] conv17_2_mbox_loc_perm <- conv17_2_mbox_loc
I1015 15:32:52.159759  4233 net.cpp:408] conv17_2_mbox_loc_perm -> conv17_2_mbox_loc_perm
I1015 15:32:52.159859  4233 net.cpp:150] Setting up conv17_2_mbox_loc_perm
I1015 15:32:52.159865  4233 net.cpp:157] Top shape: 4 1 1 24 (96)
I1015 15:32:52.159868  4233 net.cpp:165] Memory required for data: 1159792640
I1015 15:32:52.159870  4233 layer_factory.hpp:77] Creating layer conv17_2_mbox_loc_flat
I1015 15:32:52.159874  4233 net.cpp:100] Creating Layer conv17_2_mbox_loc_flat
I1015 15:32:52.159878  4233 net.cpp:434] conv17_2_mbox_loc_flat <- conv17_2_mbox_loc_perm
I1015 15:32:52.159881  4233 net.cpp:408] conv17_2_mbox_loc_flat -> conv17_2_mbox_loc_flat
I1015 15:32:52.159906  4233 net.cpp:150] Setting up conv17_2_mbox_loc_flat
I1015 15:32:52.159911  4233 net.cpp:157] Top shape: 4 24 (96)
I1015 15:32:52.159914  4233 net.cpp:165] Memory required for data: 1159793024
I1015 15:32:52.159915  4233 layer_factory.hpp:77] Creating layer conv17_2_mbox_conf_new
I1015 15:32:52.159922  4233 net.cpp:100] Creating Layer conv17_2_mbox_conf_new
I1015 15:32:52.159925  4233 net.cpp:434] conv17_2_mbox_conf_new <- conv17_2_conv17_2/relu_0_split_1
I1015 15:32:52.159931  4233 net.cpp:408] conv17_2_mbox_conf_new -> conv17_2_mbox_conf
I1015 15:32:52.161660  4233 net.cpp:150] Setting up conv17_2_mbox_conf_new
I1015 15:32:52.161672  4233 net.cpp:157] Top shape: 4 18 1 1 (72)
I1015 15:32:52.161674  4233 net.cpp:165] Memory required for data: 1159793312
I1015 15:32:52.161680  4233 layer_factory.hpp:77] Creating layer conv17_2_mbox_conf_perm
I1015 15:32:52.161687  4233 net.cpp:100] Creating Layer conv17_2_mbox_conf_perm
I1015 15:32:52.161690  4233 net.cpp:434] conv17_2_mbox_conf_perm <- conv17_2_mbox_conf
I1015 15:32:52.161696  4233 net.cpp:408] conv17_2_mbox_conf_perm -> conv17_2_mbox_conf_perm
I1015 15:32:52.161798  4233 net.cpp:150] Setting up conv17_2_mbox_conf_perm
I1015 15:32:52.161804  4233 net.cpp:157] Top shape: 4 1 1 18 (72)
I1015 15:32:52.161806  4233 net.cpp:165] Memory required for data: 1159793600
I1015 15:32:52.161808  4233 layer_factory.hpp:77] Creating layer conv17_2_mbox_conf_flat
I1015 15:32:52.161813  4233 net.cpp:100] Creating Layer conv17_2_mbox_conf_flat
I1015 15:32:52.161815  4233 net.cpp:434] conv17_2_mbox_conf_flat <- conv17_2_mbox_conf_perm
I1015 15:32:52.161825  4233 net.cpp:408] conv17_2_mbox_conf_flat -> conv17_2_mbox_conf_flat
I1015 15:32:52.161851  4233 net.cpp:150] Setting up conv17_2_mbox_conf_flat
I1015 15:32:52.161856  4233 net.cpp:157] Top shape: 4 18 (72)
I1015 15:32:52.161857  4233 net.cpp:165] Memory required for data: 1159793888
I1015 15:32:52.161860  4233 layer_factory.hpp:77] Creating layer conv17_2_mbox_priorbox
I1015 15:32:52.161865  4233 net.cpp:100] Creating Layer conv17_2_mbox_priorbox
I1015 15:32:52.161869  4233 net.cpp:434] conv17_2_mbox_priorbox <- conv17_2_conv17_2/relu_0_split_2
I1015 15:32:52.161871  4233 net.cpp:434] conv17_2_mbox_priorbox <- data_data_0_split_6
I1015 15:32:52.161877  4233 net.cpp:408] conv17_2_mbox_priorbox -> conv17_2_mbox_priorbox
I1015 15:32:52.161903  4233 net.cpp:150] Setting up conv17_2_mbox_priorbox
I1015 15:32:52.161907  4233 net.cpp:157] Top shape: 1 2 24 (48)
I1015 15:32:52.161909  4233 net.cpp:165] Memory required for data: 1159794080
I1015 15:32:52.161911  4233 layer_factory.hpp:77] Creating layer mbox_loc
I1015 15:32:52.161917  4233 net.cpp:100] Creating Layer mbox_loc
I1015 15:32:52.161921  4233 net.cpp:434] mbox_loc <- conv11_mbox_loc_flat
I1015 15:32:52.161926  4233 net.cpp:434] mbox_loc <- conv13_mbox_loc_flat
I1015 15:32:52.161928  4233 net.cpp:434] mbox_loc <- conv14_2_mbox_loc_flat
I1015 15:32:52.161932  4233 net.cpp:434] mbox_loc <- conv15_2_mbox_loc_flat
I1015 15:32:52.161936  4233 net.cpp:434] mbox_loc <- conv16_2_mbox_loc_flat
I1015 15:32:52.161938  4233 net.cpp:434] mbox_loc <- conv17_2_mbox_loc_flat
I1015 15:32:52.161942  4233 net.cpp:408] mbox_loc -> mbox_loc
I1015 15:32:52.161967  4233 net.cpp:150] Setting up mbox_loc
I1015 15:32:52.161970  4233 net.cpp:157] Top shape: 4 12168 (48672)
I1015 15:32:52.161972  4233 net.cpp:165] Memory required for data: 1159988768
I1015 15:32:52.161974  4233 layer_factory.hpp:77] Creating layer mbox_conf
I1015 15:32:52.161979  4233 net.cpp:100] Creating Layer mbox_conf
I1015 15:32:52.161983  4233 net.cpp:434] mbox_conf <- conv11_mbox_conf_flat
I1015 15:32:52.161985  4233 net.cpp:434] mbox_conf <- conv13_mbox_conf_flat
I1015 15:32:52.161988  4233 net.cpp:434] mbox_conf <- conv14_2_mbox_conf_flat
I1015 15:32:52.161991  4233 net.cpp:434] mbox_conf <- conv15_2_mbox_conf_flat
I1015 15:32:52.161995  4233 net.cpp:434] mbox_conf <- conv16_2_mbox_conf_flat
I1015 15:32:52.161998  4233 net.cpp:434] mbox_conf <- conv17_2_mbox_conf_flat
I1015 15:32:52.162003  4233 net.cpp:408] mbox_conf -> mbox_conf
I1015 15:32:52.162024  4233 net.cpp:150] Setting up mbox_conf
I1015 15:32:52.162029  4233 net.cpp:157] Top shape: 4 9126 (36504)
I1015 15:32:52.162030  4233 net.cpp:165] Memory required for data: 1160134784
I1015 15:32:52.162032  4233 layer_factory.hpp:77] Creating layer mbox_priorbox
I1015 15:32:52.162036  4233 net.cpp:100] Creating Layer mbox_priorbox
I1015 15:32:52.162039  4233 net.cpp:434] mbox_priorbox <- conv11_mbox_priorbox
I1015 15:32:52.162042  4233 net.cpp:434] mbox_priorbox <- conv13_mbox_priorbox
I1015 15:32:52.162045  4233 net.cpp:434] mbox_priorbox <- conv14_2_mbox_priorbox
I1015 15:32:52.162047  4233 net.cpp:434] mbox_priorbox <- conv15_2_mbox_priorbox
I1015 15:32:52.162050  4233 net.cpp:434] mbox_priorbox <- conv16_2_mbox_priorbox
I1015 15:32:52.162053  4233 net.cpp:434] mbox_priorbox <- conv17_2_mbox_priorbox
I1015 15:32:52.162056  4233 net.cpp:408] mbox_priorbox -> mbox_priorbox
I1015 15:32:52.162078  4233 net.cpp:150] Setting up mbox_priorbox
I1015 15:32:52.162082  4233 net.cpp:157] Top shape: 1 2 12168 (24336)
I1015 15:32:52.162084  4233 net.cpp:165] Memory required for data: 1160232128
I1015 15:32:52.162086  4233 layer_factory.hpp:77] Creating layer mbox_loss
I1015 15:32:52.162094  4233 net.cpp:100] Creating Layer mbox_loss
I1015 15:32:52.162097  4233 net.cpp:434] mbox_loss <- mbox_loc
I1015 15:32:52.162101  4233 net.cpp:434] mbox_loss <- mbox_conf
I1015 15:32:52.162103  4233 net.cpp:434] mbox_loss <- mbox_priorbox
I1015 15:32:52.162106  4233 net.cpp:434] mbox_loss <- label
I1015 15:32:52.162109  4233 net.cpp:408] mbox_loss -> mbox_loss
I1015 15:32:52.162161  4233 layer_factory.hpp:77] Creating layer mbox_loss_smooth_L1_loc
I1015 15:32:52.162246  4233 layer_factory.hpp:77] Creating layer mbox_loss_softmax_conf
I1015 15:32:52.162252  4233 layer_factory.hpp:77] Creating layer mbox_loss_softmax_conf
I1015 15:32:52.163060  4233 net.cpp:150] Setting up mbox_loss
I1015 15:32:52.163071  4233 net.cpp:157] Top shape: (1)
I1015 15:32:52.163074  4233 net.cpp:160]     with loss weight 1
I1015 15:32:52.163082  4233 net.cpp:165] Memory required for data: 1160232132
I1015 15:32:52.163085  4233 layer_factory.hpp:77] Creating layer score_32
I1015 15:32:52.163094  4233 net.cpp:100] Creating Layer score_32
I1015 15:32:52.163096  4233 net.cpp:434] score_32 <- conv13_conv13/relu_0_split_4
I1015 15:32:52.163102  4233 net.cpp:408] score_32 -> score_32
I1015 15:32:52.164826  4233 net.cpp:150] Setting up score_32
I1015 15:32:52.164839  4233 net.cpp:157] Top shape: 4 2 10 15 (1200)
I1015 15:32:52.164841  4233 net.cpp:165] Memory required for data: 1160236932
I1015 15:32:52.164846  4233 layer_factory.hpp:77] Creating layer upscore_16
I1015 15:32:52.164855  4233 net.cpp:100] Creating Layer upscore_16
I1015 15:32:52.164857  4233 net.cpp:434] upscore_16 <- score_32
I1015 15:32:52.164862  4233 net.cpp:408] upscore_16 -> upscore_16
I1015 15:32:52.165060  4233 net.cpp:150] Setting up upscore_16
I1015 15:32:52.165066  4233 net.cpp:157] Top shape: 4 2 20 30 (4800)
I1015 15:32:52.165068  4233 net.cpp:165] Memory required for data: 1160256132
I1015 15:32:52.165072  4233 layer_factory.hpp:77] Creating layer score_16
I1015 15:32:52.165078  4233 net.cpp:100] Creating Layer score_16
I1015 15:32:52.165081  4233 net.cpp:434] score_16 <- conv11_conv11/relu_0_split_4
I1015 15:32:52.165086  4233 net.cpp:408] score_16 -> score_16
I1015 15:32:52.166820  4233 net.cpp:150] Setting up score_16
I1015 15:32:52.166831  4233 net.cpp:157] Top shape: 4 2 20 30 (4800)
I1015 15:32:52.166834  4233 net.cpp:165] Memory required for data: 1160275332
I1015 15:32:52.166839  4233 layer_factory.hpp:77] Creating layer fuse_16
I1015 15:32:52.166846  4233 net.cpp:100] Creating Layer fuse_16
I1015 15:32:52.166849  4233 net.cpp:434] fuse_16 <- upscore_16
I1015 15:32:52.166852  4233 net.cpp:434] fuse_16 <- score_16
I1015 15:32:52.166857  4233 net.cpp:408] fuse_16 -> fuse_16
I1015 15:32:52.166885  4233 net.cpp:150] Setting up fuse_16
I1015 15:32:52.166890  4233 net.cpp:157] Top shape: 4 2 20 30 (4800)
I1015 15:32:52.166893  4233 net.cpp:165] Memory required for data: 1160294532
I1015 15:32:52.166895  4233 layer_factory.hpp:77] Creating layer upscore_8
I1015 15:32:52.166901  4233 net.cpp:100] Creating Layer upscore_8
I1015 15:32:52.166903  4233 net.cpp:434] upscore_8 <- fuse_16
I1015 15:32:52.166908  4233 net.cpp:408] upscore_8 -> upscore_8
I1015 15:32:52.167090  4233 net.cpp:150] Setting up upscore_8
I1015 15:32:52.167098  4233 net.cpp:157] Top shape: 4 2 40 60 (19200)
I1015 15:32:52.167099  4233 net.cpp:165] Memory required for data: 1160371332
I1015 15:32:52.167104  4233 layer_factory.hpp:77] Creating layer score_8
I1015 15:32:52.167109  4233 net.cpp:100] Creating Layer score_8
I1015 15:32:52.167111  4233 net.cpp:434] score_8 <- conv5_conv5/relu_0_split_1
I1015 15:32:52.167115  4233 net.cpp:408] score_8 -> score_8
I1015 15:32:52.168836  4233 net.cpp:150] Setting up score_8
I1015 15:32:52.168849  4233 net.cpp:157] Top shape: 4 2 40 60 (19200)
I1015 15:32:52.168853  4233 net.cpp:165] Memory required for data: 1160448132
I1015 15:32:52.168857  4233 layer_factory.hpp:77] Creating layer fuse_8
I1015 15:32:52.168864  4233 net.cpp:100] Creating Layer fuse_8
I1015 15:32:52.168866  4233 net.cpp:434] fuse_8 <- upscore_8
I1015 15:32:52.168869  4233 net.cpp:434] fuse_8 <- score_8
I1015 15:32:52.168874  4233 net.cpp:408] fuse_8 -> fuse_8
I1015 15:32:52.168902  4233 net.cpp:150] Setting up fuse_8
I1015 15:32:52.168907  4233 net.cpp:157] Top shape: 4 2 40 60 (19200)
I1015 15:32:52.168910  4233 net.cpp:165] Memory required for data: 1160524932
I1015 15:32:52.168912  4233 layer_factory.hpp:77] Creating layer upscore_4
I1015 15:32:52.168918  4233 net.cpp:100] Creating Layer upscore_4
I1015 15:32:52.168920  4233 net.cpp:434] upscore_4 <- fuse_8
I1015 15:32:52.168926  4233 net.cpp:408] upscore_4 -> upscore_4
I1015 15:32:52.169128  4233 net.cpp:150] Setting up upscore_4
I1015 15:32:52.169137  4233 net.cpp:157] Top shape: 4 2 80 120 (76800)
I1015 15:32:52.169139  4233 net.cpp:165] Memory required for data: 1160832132
I1015 15:32:52.169142  4233 layer_factory.hpp:77] Creating layer score_4
I1015 15:32:52.169148  4233 net.cpp:100] Creating Layer score_4
I1015 15:32:52.169152  4233 net.cpp:434] score_4 <- conv3_conv3/relu_0_split_1
I1015 15:32:52.169157  4233 net.cpp:408] score_4 -> score_4
I1015 15:32:52.170912  4233 net.cpp:150] Setting up score_4
I1015 15:32:52.170928  4233 net.cpp:157] Top shape: 4 2 80 120 (76800)
I1015 15:32:52.170930  4233 net.cpp:165] Memory required for data: 1161139332
I1015 15:32:52.170936  4233 layer_factory.hpp:77] Creating layer fuse_4
I1015 15:32:52.170943  4233 net.cpp:100] Creating Layer fuse_4
I1015 15:32:52.170945  4233 net.cpp:434] fuse_4 <- upscore_4
I1015 15:32:52.170949  4233 net.cpp:434] fuse_4 <- score_4
I1015 15:32:52.170954  4233 net.cpp:408] fuse_4 -> fuse_4
I1015 15:32:52.170982  4233 net.cpp:150] Setting up fuse_4
I1015 15:32:52.170986  4233 net.cpp:157] Top shape: 4 2 80 120 (76800)
I1015 15:32:52.170989  4233 net.cpp:165] Memory required for data: 1161446532
I1015 15:32:52.170991  4233 layer_factory.hpp:77] Creating layer upscore
I1015 15:32:52.170998  4233 net.cpp:100] Creating Layer upscore
I1015 15:32:52.171000  4233 net.cpp:434] upscore <- fuse_4
I1015 15:32:52.171005  4233 net.cpp:408] upscore -> upscore
I1015 15:32:52.171192  4233 net.cpp:150] Setting up upscore
I1015 15:32:52.171200  4233 net.cpp:157] Top shape: 4 2 331 491 (1300168)
I1015 15:32:52.171201  4233 net.cpp:165] Memory required for data: 1166647204
I1015 15:32:52.171205  4233 layer_factory.hpp:77] Creating layer score
I1015 15:32:52.171211  4233 net.cpp:100] Creating Layer score
I1015 15:32:52.171212  4233 net.cpp:434] score <- upscore
I1015 15:32:52.171216  4233 net.cpp:434] score <- data_data_0_split_7
I1015 15:32:52.171221  4233 net.cpp:408] score -> score
I1015 15:32:52.171244  4233 net.cpp:150] Setting up score
I1015 15:32:52.171248  4233 net.cpp:157] Top shape: 4 2 320 480 (1228800)
I1015 15:32:52.171250  4233 net.cpp:165] Memory required for data: 1171562404
I1015 15:32:52.171252  4233 layer_factory.hpp:77] Creating layer seg_loss
I1015 15:32:52.171257  4233 net.cpp:100] Creating Layer seg_loss
I1015 15:32:52.171259  4233 net.cpp:434] seg_loss <- score
I1015 15:32:52.171262  4233 net.cpp:434] seg_loss <- label_seg
I1015 15:32:52.171267  4233 net.cpp:408] seg_loss -> seg_loss
…
name: "MobileNet-SSD"
state {
  phase: TEST
}
layer {
  name: "data"
  type: "AnnotatedDataWithSeg"
  top: "data"
  top: "label"
  top: "label_seg"
  include {
    phase: TEST
  }
  transform_param {
    scale: 0.007843
    mean_value: 127.5
    mean_value: 127.5
    mean_value: 127.5
    resize_param {
      prob: 1
      resize_mode: WARP
      height: 320
      width: 480
      interp_mode: LINEAR
    }
  }
  data_param {
    source: "lmdb/seg_test_lmdb"
    batch_size: 1
    backend: LMDB
  }
  annotated_data_param {
    label_map_file: "labelmap.prototxt"
  }
}
layer {
  name: "conv0"
  type: "Convolution"
  bottom: "data"
  top: "conv0"
  param {
    lr_mult: 1
    decay_mult: 1
  }
  convolution_param {
    num_output: 32
    bias_term: false
    pad: 1
    kernel_size: 3
    stride: 2
    weight_filler {
      type: "msra"
    }
  }
}
layer {
  name: "conv0/bn"
  type: "BatchNorm"
  bottom: "conv0"
  top: "conv0"
}
layer {
  name: "conv0/scale"
  type: "Scale"
  bottom: "conv0"
  top: "conv0"
  param {
    lr_mult: 1
    decay_mult: 0
  }
  param {
    lr_mult: 2
    decay_mult: 0
  }
  scale_param {
    filler {
      value: 1
    }
    bias_term: true
    bias_filler {
      value: 0
    }
  }
}
layer {
  name: "conv0/relu"
  type: "ReLU"
  bottom: "conv0"
  top: "conv0"
}
layer {
  name: "conv1/dw"
  type: "Convolution"
  bottom: "conv0"
  top: "conv1/dw"
  param {
    lr_mult: 1
    decay_mult: 1
  }
  convolution_param {
    num_output: 32
    bias_term: false
    pad: 1
    kernel_size: 3
    group: 32
    weight_filler {
      type: "msra"
    }
    engine: CAFFE
  }
}
layer {
  name: "conv1/dw/bn"
  type: "BatchNorm"
  bottom: "conv1/dw"
  top: "conv1/dw"
}
layer {
  name: "conv1/dw/scale"
  type: "Scale"
  bottom: "conv1/dw"
  top: "conv1/dw"
  param {
    lr_mult: 1
    decay_mult: 0
  }
  param {
    lr_mult: 2
    decay_mult: 0
  }
  scale_param {
    filler {
      value: 1
    }
    bias_term: true
    bias_filler {
      value: 0
    }
  }
}
layer {
  name: "conv1/dw/relu"
  type: "ReLU"
  bottom: "conv1/dw"
  top: "conv1/dw"
}
layer {
  name: "conv1"
  type: "Convolution"
  bottom: "conv1/dw"
  top: "conv1"
  param {
    lr_mult: 1
    decay_mult: 1
  }
  convolution_param {
    num_output: 64
    bias_term: false
    kernel_size: 1
    weight_filler {
      type: "msra"
    }
  }
}
layer {
  name: "conv1/bn"
  type: "BatchNorm"
  bottom: "conv1"
  top: "conv1"
}
layer {
  name: "conv1/scale"
  type: "Scale"
  bottom: "conv1"
  top: "conv1"
  param {
    lr_mult: 1
    decay_mult: 0
  }
  param {
    lr_mult: 2
    decay_mult: 0
  }
  scale_param {
    filler {
      value: 1
    }
    bias_term: true
    bias_filler {
      value: 0
    }
  }
}
layer {
  name: "conv1/relu"
…
I1015 15:32:52.384930  4233 net.cpp:150] Setting up conv15_1/scale
I1015 15:32:52.384939  4233 net.cpp:157] Top shape: 1 128 5 8 (5120)
I1015 15:32:52.384941  4233 net.cpp:165] Memory required for data: 289484864
I1015 15:32:52.384945  4233 layer_factory.hpp:77] Creating layer conv15_1/relu
I1015 15:32:52.384951  4233 net.cpp:100] Creating Layer conv15_1/relu
I1015 15:32:52.384955  4233 net.cpp:434] conv15_1/relu <- conv15_1
I1015 15:32:52.384963  4233 net.cpp:395] conv15_1/relu -> conv15_1 (in-place)
I1015 15:32:52.385372  4233 net.cpp:150] Setting up conv15_1/relu
I1015 15:32:52.385382  4233 net.cpp:157] Top shape: 1 128 5 8 (5120)
I1015 15:32:52.385385  4233 net.cpp:165] Memory required for data: 289505344
I1015 15:32:52.385388  4233 layer_factory.hpp:77] Creating layer conv15_2
I1015 15:32:52.385401  4233 net.cpp:100] Creating Layer conv15_2
I1015 15:32:52.385406  4233 net.cpp:434] conv15_2 <- conv15_1
I1015 15:32:52.385413  4233 net.cpp:408] conv15_2 -> conv15_2
I1015 15:32:52.390614  4233 net.cpp:150] Setting up conv15_2
I1015 15:32:52.390630  4233 net.cpp:157] Top shape: 1 256 3 4 (3072)
I1015 15:32:52.390632  4233 net.cpp:165] Memory required for data: 289517632
I1015 15:32:52.390637  4233 layer_factory.hpp:77] Creating layer conv15_2/bn
I1015 15:32:52.390661  4233 net.cpp:100] Creating Layer conv15_2/bn
I1015 15:32:52.390666  4233 net.cpp:434] conv15_2/bn <- conv15_2
I1015 15:32:52.390673  4233 net.cpp:395] conv15_2/bn -> conv15_2 (in-place)
I1015 15:32:52.390935  4233 net.cpp:150] Setting up conv15_2/bn
I1015 15:32:52.390944  4233 net.cpp:157] Top shape: 1 256 3 4 (3072)
I1015 15:32:52.390945  4233 net.cpp:165] Memory required for data: 289529920
I1015 15:32:52.390954  4233 layer_factory.hpp:77] Creating layer conv15_2/scale
I1015 15:32:52.390964  4233 net.cpp:100] Creating Layer conv15_2/scale
I1015 15:32:52.390969  4233 net.cpp:434] conv15_2/scale <- conv15_2
I1015 15:32:52.390976  4233 net.cpp:395] conv15_2/scale -> conv15_2 (in-place)
I1015 15:32:52.391041  4233 layer_factory.hpp:77] Creating layer conv15_2/scale
I1015 15:32:52.391183  4233 net.cpp:150] Setting up conv15_2/scale
I1015 15:32:52.391191  4233 net.cpp:157] Top shape: 1 256 3 4 (3072)
I1015 15:32:52.391193  4233 net.cpp:165] Memory required for data: 289542208
I1015 15:32:52.391199  4233 layer_factory.hpp:77] Creating layer conv15_2/relu
I1015 15:32:52.391206  4233 net.cpp:100] Creating Layer conv15_2/relu
I1015 15:32:52.391211  4233 net.cpp:434] conv15_2/relu <- conv15_2
I1015 15:32:52.391216  4233 net.cpp:395] conv15_2/relu -> conv15_2 (in-place)
I1015 15:32:52.391626  4233 net.cpp:150] Setting up conv15_2/relu
I1015 15:32:52.391635  4233 net.cpp:157] Top shape: 1 256 3 4 (3072)
I1015 15:32:52.391638  4233 net.cpp:165] Memory required for data: 289554496
I1015 15:32:52.391641  4233 layer_factory.hpp:77] Creating layer conv15_2_conv15_2/relu_0_split
I1015 15:32:52.391649  4233 net.cpp:100] Creating Layer conv15_2_conv15_2/relu_0_split
I1015 15:32:52.391654  4233 net.cpp:434] conv15_2_conv15_2/relu_0_split <- conv15_2
I1015 15:32:52.391664  4233 net.cpp:408] conv15_2_conv15_2/relu_0_split -> conv15_2_conv15_2/relu_0_split_0
I1015 15:32:52.391674  4233 net.cpp:408] conv15_2_conv15_2/relu_0_split -> conv15_2_conv15_2/relu_0_split_1
I1015 15:32:52.391683  4233 net.cpp:408] conv15_2_conv15_2/relu_0_split -> conv15_2_conv15_2/relu_0_split_2
I1015 15:32:52.391688  4233 net.cpp:408] conv15_2_conv15_2/relu_0_split -> conv15_2_conv15_2/relu_0_split_3
I1015 15:32:52.391795  4233 net.cpp:150] Setting up conv15_2_conv15_2/relu_0_split
I1015 15:32:52.391803  4233 net.cpp:157] Top shape: 1 256 3 4 (3072)
I1015 15:32:52.391806  4233 net.cpp:157] Top shape: 1 256 3 4 (3072)
I1015 15:32:52.391810  4233 net.cpp:157] Top shape: 1 256 3 4 (3072)
I1015 15:32:52.391815  4233 net.cpp:157] Top shape: 1 256 3 4 (3072)
I1015 15:32:52.391819  4233 net.cpp:165] Memory required for data: 289603648
I1015 15:32:52.391822  4233 layer_factory.hpp:77] Creating layer conv16_1
I1015 15:32:52.391834  4233 net.cpp:100] Creating Layer conv16_1
I1015 15:32:52.391839  4233 net.cpp:434] conv16_1 <- conv15_2_conv15_2/relu_0_split_0
I1015 15:32:52.391846  4233 net.cpp:408] conv16_1 -> conv16_1
I1015 15:32:52.393916  4233 net.cpp:150] Setting up conv16_1
I1015 15:32:52.393929  4233 net.cpp:157] Top shape: 1 128 3 4 (1536)
I1015 15:32:52.393932  4233 net.cpp:165] Memory required for data: 289609792
I1015 15:32:52.393936  4233 layer_factory.hpp:77] Creating layer conv16_1/bn
I1015 15:32:52.393945  4233 net.cpp:100] Creating Layer conv16_1/bn
I1015 15:32:52.393950  4233 net.cpp:434] conv16_1/bn <- conv16_1
I1015 15:32:52.393959  4233 net.cpp:395] conv16_1/bn -> conv16_1 (in-place)
I1015 15:32:52.394199  4233 net.cpp:150] Setting up conv16_1/bn
I1015 15:32:52.394208  4233 net.cpp:157] Top shape: 1 128 3 4 (1536)
I1015 15:32:52.394210  4233 net.cpp:165] Memory required for data: 289615936
I1015 15:32:52.394217  4233 layer_factory.hpp:77] Creating layer conv16_1/scale
I1015 15:32:52.394227  4233 net.cpp:100] Creating Layer conv16_1/scale
I1015 15:32:52.394232  4233 net.cpp:434] conv16_1/scale <- conv16_1
I1015 15:32:52.394238  4233 net.cpp:395] conv16_1/scale -> conv16_1 (in-place)
I1015 15:32:52.394304  4233 layer_factory.hpp:77] Creating layer conv16_1/scale
I1015 15:32:52.394461  4233 net.cpp:150] Setting up conv16_1/scale
I1015 15:32:52.394469  4233 net.cpp:157] Top shape: 1 128 3 4 (1536)
I1015 15:32:52.394471  4233 net.cpp:165] Memory required for data: 289622080
I1015 15:32:52.394477  4233 layer_factory.hpp:77] Creating layer conv16_1/relu
I1015 15:32:52.394484  4233 net.cpp:100] Creating Layer conv16_1/relu
I1015 15:32:52.394487  4233 net.cpp:434] conv16_1/relu <- conv16_1
I1015 15:32:52.394495  4233 net.cpp:395] conv16_1/relu -> conv16_1 (in-place)
I1015 15:32:52.394893  4233 net.cpp:150] Setting up conv16_1/relu
I1015 15:32:52.394903  4233 net.cpp:157] Top shape: 1 128 3 4 (1536)
I1015 15:32:52.394906  4233 net.cpp:165] Memory required for data: 289628224
I1015 15:32:52.394908  4233 layer_factory.hpp:77] Creating layer conv16_2
I1015 15:32:52.394918  4233 net.cpp:100] Creating Layer conv16_2
I1015 15:32:52.394922  4233 net.cpp:434] conv16_2 <- conv16_1
I1015 15:32:52.394932  4233 net.cpp:408] conv16_2 -> conv16_2
I1015 15:32:52.399754  4233 net.cpp:150] Setting up conv16_2
I1015 15:32:52.399770  4233 net.cpp:157] Top shape: 1 256 2 2 (1024)
I1015 15:32:52.399773  4233 net.cpp:165] Memory required for data: 289632320
I1015 15:32:52.399778  4233 layer_factory.hpp:77] Creating layer conv16_2/bn
I1015 15:32:52.399785  4233 net.cpp:100] Creating Layer conv16_2/bn
I1015 15:32:52.399788  4233 net.cpp:434] conv16_2/bn <- conv16_2
I1015 15:32:52.399796  4233 net.cpp:395] conv16_2/bn -> conv16_2 (in-place)
I1015 15:32:52.400053  4233 net.cpp:150] Setting up conv16_2/bn
I1015 15:32:52.400060  4233 net.cpp:157] Top shape: 1 256 2 2 (1024)
I1015 15:32:52.400063  4233 net.cpp:165] Memory required for data: 289636416
I1015 15:32:52.400068  4233 layer_factory.hpp:77] Creating layer conv16_2/scale
I1015 15:32:52.400075  4233 net.cpp:100] Creating Layer conv16_2/scale
I1015 15:32:52.400080  4233 net.cpp:434] conv16_2/scale <- conv16_2
I1015 15:32:52.400089  4233 net.cpp:395] conv16_2/scale -> conv16_2 (in-place)
I1015 15:32:52.400147  4233 layer_factory.hpp:77] Creating layer conv16_2/scale
I1015 15:32:52.400298  4233 net.cpp:150] Setting up conv16_2/scale
I1015 15:32:52.400306  4233 net.cpp:157] Top shape: 1 256 2 2 (1024)
I1015 15:32:52.400308  4233 net.cpp:165] Memory required for data: 289640512
I1015 15:32:52.400313  4233 layer_factory.hpp:77] Creating layer conv16_2/relu
I1015 15:32:52.400318  4233 net.cpp:100] Creating Layer conv16_2/relu
I1015 15:32:52.400322  4233 net.cpp:434] conv16_2/relu <- conv16_2
I1015 15:32:52.400331  4233 net.cpp:395] conv16_2/relu -> conv16_2 (in-place)
I1015 15:32:52.401100  4233 net.cpp:150] Setting up conv16_2/relu
I1015 15:32:52.401113  4233 net.cpp:157] Top shape: 1 256 2 2 (1024)
I1015 15:32:52.401115  4233 net.cpp:165] Memory required for data: 289644608
I1015 15:32:52.401118  4233 layer_factory.hpp:77] Creating layer conv16_2_conv16_2/relu_0_split
I1015 15:32:52.401127  4233 net.cpp:100] Creating Layer conv16_2_conv16_2/relu_0_split
I1015 15:32:52.401132  4233 net.cpp:434] conv16_2_conv16_2/relu_0_split <- conv16_2
I1015 15:32:52.401140  4233 net.cpp:408] conv16_2_conv16_2/relu_0_split -> conv16_2_conv16_2/relu_0_split_0
I1015 15:32:52.401150  4233 net.cpp:408] conv16_2_conv16_2/relu_0_split -> conv16_2_conv16_2/relu_0_split_1
I1015 15:32:52.401160  4233 net.cpp:408] conv16_2_conv16_2/relu_0_split -> conv16_2_conv16_2/relu_0_split_2
I1015 15:32:52.401168  4233 net.cpp:408] conv16_2_conv16_2/relu_0_split -> conv16_2_conv16_2/relu_0_split_3
I1015 15:32:52.401284  4233 net.cpp:150] Setting up conv16_2_conv16_2/relu_0_split
I1015 15:32:52.401293  4233 net.cpp:157] Top shape: 1 256 2 2 (1024)
I1015 15:32:52.401295  4233 net.cpp:157] Top shape: 1 256 2 2 (1024)
I1015 15:32:52.401298  4233 net.cpp:157] Top shape: 1 256 2 2 (1024)
I1015 15:32:52.401301  4233 net.cpp:157] Top shape: 1 256 2 2 (1024)
I1015 15:32:52.401304  4233 net.cpp:165] Memory required for data: 289660992
I1015 15:32:52.401309  4233 layer_factory.hpp:77] Creating layer conv17_1
I1015 15:32:52.401320  4233 net.cpp:100] Creating Layer conv17_1
I1015 15:32:52.401325  4233 net.cpp:434] conv17_1 <- conv16_2_conv16_2/relu_0_split_0
I1015 15:32:52.401334  4233 net.cpp:408] conv17_1 -> conv17_1
I1015 15:32:52.403301  4233 net.cpp:150] Setting up conv17_1
I1015 15:32:52.403313  4233 net.cpp:157] Top shape: 1 64 2 2 (256)
I1015 15:32:52.403316  4233 net.cpp:165] Memory required for data: 289662016
I1015 15:32:52.403321  4233 layer_factory.hpp:77] Creating layer conv17_1/bn
I1015 15:32:52.403329  4233 net.cpp:100] Creating Layer conv17_1/bn
I1015 15:32:52.403334  4233 net.cpp:434] conv17_1/bn <- conv17_1
I1015 15:32:52.403340  4233 net.cpp:395] conv17_1/bn -> conv17_1 (in-place)
I1015 15:32:52.403597  4233 net.cpp:150] Setting up conv17_1/bn
I1015 15:32:52.403605  4233 net.cpp:157] Top shape: 1 64 2 2 (256)
I1015 15:32:52.403607  4233 net.cpp:165] Memory required for data: 289663040
I1015 15:32:52.403614  4233 layer_factory.hpp:77] Creating layer conv17_1/scale
I1015 15:32:52.403623  4233 net.cpp:100] Creating Layer conv17_1/scale
I1015 15:32:52.403627  4233 net.cpp:434] conv17_1/scale <- conv17_1
I1015 15:32:52.403635  4233 net.cpp:395] conv17_1/scale -> conv17_1 (in-place)
I1015 15:32:52.403697  4233 layer_factory.hpp:77] Creating layer conv17_1/scale
I1015 15:32:52.403851  4233 net.cpp:150] Setting up conv17_1/scale
I1015 15:32:52.403859  4233 net.cpp:157] Top shape: 1 64 2 2 (256)
I1015 15:32:52.403861  4233 net.cpp:165] Memory required for data: 289664064
I1015 15:32:52.403867  4233 layer_factory.hpp:77] Creating layer conv17_1/relu
I1015 15:32:52.403872  4233 net.cpp:100] Creating Layer conv17_1/relu
I1015 15:32:52.403875  4233 net.cpp:434] conv17_1/relu <- conv17_1
I1015 15:32:52.403882  4233 net.cpp:395] conv17_1/relu -> conv17_1 (in-place)
I1015 15:32:52.404294  4233 net.cpp:150] Setting up conv17_1/relu
I1015 15:32:52.404304  4233 net.cpp:157] Top shape: 1 64 2 2 (256)
I1015 15:32:52.404307  4233 net.cpp:165] Memory required for data: 289665088
I1015 15:32:52.404309  4233 layer_factory.hpp:77] Creating layer conv17_2
I1015 15:32:52.404321  4233 net.cpp:100] Creating Layer conv17_2
I1015 15:32:52.404326  4233 net.cpp:434] conv17_2 <- conv17_1
I1015 15:32:52.404332  4233 net.cpp:408] conv17_2 -> conv17_2
I1015 15:32:52.406711  4233 net.cpp:150] Setting up conv17_2
I1015 15:32:52.406724  4233 net.cpp:157] Top shape: 1 128 1 1 (128)
I1015 15:32:52.406726  4233 net.cpp:165] Memory required for data: 289665600
I1015 15:32:52.406731  4233 layer_factory.hpp:77] Creating layer conv17_2/bn
I1015 15:32:52.406739  4233 net.cpp:100] Creating Layer conv17_2/bn
I1015 15:32:52.406744  4233 net.cpp:434] conv17_2/bn <- conv17_2
I1015 15:32:52.406750  4233 net.cpp:395] conv17_2/bn -> conv17_2 (in-place)
I1015 15:32:52.407001  4233 net.cpp:150] Setting up conv17_2/bn
I1015 15:32:52.407008  4233 net.cpp:157] Top shape: 1 128 1 1 (128)
I1015 15:32:52.407011  4233 net.cpp:165] Memory required for data: 289666112
I1015 15:32:52.407017  4233 layer_factory.hpp:77] Creating layer conv17_2/scale
I1015 15:32:52.407025  4233 net.cpp:100] Creating Layer conv17_2/scale
I1015 15:32:52.407029  4233 net.cpp:434] conv17_2/scale <- conv17_2
I1015 15:32:52.407037  4233 net.cpp:395] conv17_2/scale -> conv17_2 (in-place)
I1015 15:32:52.407095  4233 layer_factory.hpp:77] Creating layer conv17_2/scale
I1015 15:32:52.407246  4233 net.cpp:150] Setting up conv17_2/scale
I1015 15:32:52.407254  4233 net.cpp:157] Top shape: 1 128 1 1 (128)
I1015 15:32:52.407258  4233 net.cpp:165] Memory required for data: 289666624
I1015 15:32:52.407261  4233 layer_factory.hpp:77] Creating layer conv17_2/relu
I1015 15:32:52.407268  4233 net.cpp:100] Creating Layer conv17_2/relu
I1015 15:32:52.407271  4233 net.cpp:434] conv17_2/relu <- conv17_2
I1015 15:32:52.407277  4233 net.cpp:395] conv17_2/relu -> conv17_2 (in-place)
I1015 15:32:52.407702  4233 net.cpp:150] Setting up conv17_2/relu
I1015 15:32:52.407712  4233 net.cpp:157] Top shape: 1 128 1 1 (128)
I1015 15:32:52.407714  4233 net.cpp:165] Memory required for data: 289667136
I1015 15:32:52.407718  4233 layer_factory.hpp:77] Creating layer conv17_2_conv17_2/relu_0_split
I1015 15:32:52.407726  4233 net.cpp:100] Creating Layer conv17_2_conv17_2/relu_0_split
I1015 15:32:52.407729  4233 net.cpp:434] conv17_2_conv17_2/relu_0_split <- conv17_2
I1015 15:32:52.407739  4233 net.cpp:408] conv17_2_conv17_2/relu_0_split -> conv17_2_conv17_2/relu_0_split_0
I1015 15:32:52.407748  4233 net.cpp:408] conv17_2_conv17_2/relu_0_split -> conv17_2_conv17_2/relu_0_split_1
I1015 15:32:52.407757  4233 net.cpp:408] conv17_2_conv17_2/relu_0_split -> conv17_2_conv17_2/relu_0_split_2
I1015 15:32:52.407847  4233 net.cpp:150] Setting up conv17_2_conv17_2/relu_0_split
I1015 15:32:52.407855  4233 net.cpp:157] Top shape: 1 128 1 1 (128)
I1015 15:32:52.407857  4233 net.cpp:157] Top shape: 1 128 1 1 (128)
I1015 15:32:52.407860  4233 net.cpp:157] Top shape: 1 128 1 1 (128)
I1015 15:32:52.407861  4233 net.cpp:165] Memory required for data: 289668672
I1015 15:32:52.407865  4233 layer_factory.hpp:77] Creating layer conv11_mbox_loc
I1015 15:32:52.407876  4233 net.cpp:100] Creating Layer conv11_mbox_loc
I1015 15:32:52.407881  4233 net.cpp:434] conv11_mbox_loc <- conv11_conv11/relu_0_split_1
I1015 15:32:52.407891  4233 net.cpp:408] conv11_mbox_loc -> conv11_mbox_loc
I1015 15:32:52.409832  4233 net.cpp:150] Setting up conv11_mbox_loc
I1015 15:32:52.409843  4233 net.cpp:157] Top shape: 1 12 20 30 (7200)
I1015 15:32:52.409847  4233 net.cpp:165] Memory required for data: 289697472
I1015 15:32:52.409852  4233 layer_factory.hpp:77] Creating layer conv11_mbox_loc_perm
I1015 15:32:52.409862  4233 net.cpp:100] Creating Layer conv11_mbox_loc_perm
I1015 15:32:52.409868  4233 net.cpp:434] conv11_mbox_loc_perm <- conv11_mbox_loc
I1015 15:32:52.409876  4233 net.cpp:408] conv11_mbox_loc_perm -> conv11_mbox_loc_perm
I1015 15:32:52.410029  4233 net.cpp:150] Setting up conv11_mbox_loc_perm
I1015 15:32:52.410038  4233 net.cpp:157] Top shape: 1 20 30 12 (7200)
I1015 15:32:52.410040  4233 net.cpp:165] Memory required for data: 289726272
I1015 15:32:52.410043  4233 layer_factory.hpp:77] Creating layer conv11_mbox_loc_flat
I1015 15:32:52.410049  4233 net.cpp:100] Creating Layer conv11_mbox_loc_flat
I1015 15:32:52.410054  4233 net.cpp:434] conv11_mbox_loc_flat <- conv11_mbox_loc_perm
I1015 15:32:52.410063  4233 net.cpp:408] conv11_mbox_loc_flat -> conv11_mbox_loc_flat
I1015 15:32:52.410101  4233 net.cpp:150] Setting up conv11_mbox_loc_flat
I1015 15:32:52.410109  4233 net.cpp:157] Top shape: 1 7200 (7200)
I1015 15:32:52.410112  4233 net.cpp:165] Memory required for data: 289755072
I1015 15:32:52.410116  4233 layer_factory.hpp:77] Creating layer conv11_mbox_conf_new
I1015 15:32:52.410128  4233 net.cpp:100] Creating Layer conv11_mbox_conf_new
I1015 15:32:52.410133  4233 net.cpp:434] conv11_mbox_conf_new <- conv11_conv11/relu_0_split_2
I1015 15:32:52.410140  4233 net.cpp:408] conv11_mbox_conf_new -> conv11_mbox_conf
I1015 15:32:52.412047  4233 net.cpp:150] Setting up conv11_mbox_conf_new
I1015 15:32:52.412061  4233 net.cpp:157] Top shape: 1 9 20 30 (5400)
I1015 15:32:52.412063  4233 net.cpp:165] Memory required for data: 289776672
I1015 15:32:52.412070  4233 layer_factory.hpp:77] Creating layer conv11_mbox_conf_perm
I1015 15:32:52.412078  4233 net.cpp:100] Creating Layer conv11_mbox_conf_perm
I1015 15:32:52.412083  4233 net.cpp:434] conv11_mbox_conf_perm <- conv11_mbox_conf
I1015 15:32:52.412091  4233 net.cpp:408] conv11_mbox_conf_perm -> conv11_mbox_conf_perm
I1015 15:32:52.412245  4233 net.cpp:150] Setting up conv11_mbox_conf_perm
I1015 15:32:52.412252  4233 net.cpp:157] Top shape: 1 20 30 9 (5400)
I1015 15:32:52.412255  4233 net.cpp:165] Memory required for data: 289798272
I1015 15:32:52.412256  4233 layer_factory.hpp:77] Creating layer conv11_mbox_conf_flat
I1015 15:32:52.412261  4233 net.cpp:100] Creating Layer conv11_mbox_conf_flat
I1015 15:32:52.412266  4233 net.cpp:434] conv11_mbox_conf_flat <- conv11_mbox_conf_perm
I1015 15:32:52.412274  4233 net.cpp:408] conv11_mbox_conf_flat -> conv11_mbox_conf_flat
I1015 15:32:52.412314  4233 net.cpp:150] Setting up conv11_mbox_conf_flat
I1015 15:32:52.412320  4233 net.cpp:157] Top shape: 1 5400 (5400)
I1015 15:32:52.412323  4233 net.cpp:165] Memory required for data: 289819872
I1015 15:32:52.412325  4233 layer_factory.hpp:77] Creating layer conv11_mbox_priorbox
I1015 15:32:52.412333  4233 net.cpp:100] Creating Layer conv11_mbox_priorbox
I1015 15:32:52.412338  4233 net.cpp:434] conv11_mbox_priorbox <- conv11_conv11/relu_0_split_3
I1015 15:32:52.412343  4233 net.cpp:434] conv11_mbox_priorbox <- data_data_0_split_1
I1015 15:32:52.412353  4233 net.cpp:408] conv11_mbox_priorbox -> conv11_mbox_priorbox
I1015 15:32:52.412400  4233 net.cpp:150] Setting up conv11_mbox_priorbox
I1015 15:32:52.412407  4233 net.cpp:157] Top shape: 1 2 7200 (14400)
I1015 15:32:52.412410  4233 net.cpp:165] Memory required for data: 289877472
I1015 15:32:52.412412  4233 layer_factory.hpp:77] Creating layer conv13_mbox_loc
I1015 15:32:52.412420  4233 net.cpp:100] Creating Layer conv13_mbox_loc
I1015 15:32:52.412423  4233 net.cpp:434] conv13_mbox_loc <- conv13_conv13/relu_0_split_1
I1015 15:32:52.412430  4233 net.cpp:408] conv13_mbox_loc -> conv13_mbox_loc
I1015 15:32:52.415961  4233 net.cpp:150] Setting up conv13_mbox_loc
I1015 15:32:52.415977  4233 net.cpp:157] Top shape: 1 24 10 15 (3600)
I1015 15:32:52.415979  4233 net.cpp:165] Memory required for data: 289891872
I1015 15:32:52.415985  4233 layer_factory.hpp:77] Creating layer conv13_mbox_loc_perm
I1015 15:32:52.415993  4233 net.cpp:100] Creating Layer conv13_mbox_loc_perm
I1015 15:32:52.415998  4233 net.cpp:434] conv13_mbox_loc_perm <- conv13_mbox_loc
I1015 15:32:52.416005  4233 net.cpp:408] conv13_mbox_loc_perm -> conv13_mbox_loc_perm
I1015 15:32:52.416164  4233 net.cpp:150] Setting up conv13_mbox_loc_perm
I1015 15:32:52.416173  4233 net.cpp:157] Top shape: 1 10 15 24 (3600)
I1015 15:32:52.416175  4233 net.cpp:165] Memory required for data: 289906272
I1015 15:32:52.416178  4233 layer_factory.hpp:77] Creating layer conv13_mbox_loc_flat
I1015 15:32:52.416184  4233 net.cpp:100] Creating Layer conv13_mbox_loc_flat
I1015 15:32:52.416188  4233 net.cpp:434] conv13_mbox_loc_flat <- conv13_mbox_loc_perm
I1015 15:32:52.416194  4233 net.cpp:408] conv13_mbox_loc_flat -> conv13_mbox_loc_flat
I1015 15:32:52.416235  4233 net.cpp:150] Setting up conv13_mbox_loc_flat
I1015 15:32:52.416241  4233 net.cpp:157] Top shape: 1 3600 (3600)
I1015 15:32:52.416244  4233 net.cpp:165] Memory required for data: 289920672
I1015 15:32:52.416246  4233 layer_factory.hpp:77] Creating layer conv13_mbox_conf_new
I1015 15:32:52.416258  4233 net.cpp:100] Creating Layer conv13_mbox_conf_new
I1015 15:32:52.416263  4233 net.cpp:434] conv13_mbox_conf_new <- conv13_conv13/relu_0_split_2
I1015 15:32:52.416275  4233 net.cpp:408] conv13_mbox_conf_new -> conv13_mbox_conf
I1015 15:32:52.419028  4233 net.cpp:150] Setting up conv13_mbox_conf_new
I1015 15:32:52.419042  4233 net.cpp:157] Top shape: 1 18 10 15 (2700)
I1015 15:32:52.419045  4233 net.cpp:165] Memory required for data: 289931472
I1015 15:32:52.419051  4233 layer_factory.hpp:77] Creating layer conv13_mbox_conf_perm
I1015 15:32:52.419059  4233 net.cpp:100] Creating Layer conv13_mbox_conf_perm
I1015 15:32:52.419062  4233 net.cpp:434] conv13_mbox_conf_perm <- conv13_mbox_conf
I1015 15:32:52.419070  4233 net.cpp:408] conv13_mbox_conf_perm -> conv13_mbox_conf_perm
I1015 15:32:52.419230  4233 net.cpp:150] Setting up conv13_mbox_conf_perm
I1015 15:32:52.419239  4233 net.cpp:157] Top shape: 1 10 15 18 (2700)
I1015 15:32:52.419240  4233 net.cpp:165] Memory required for data: 289942272
I1015 15:32:52.419243  4233 layer_factory.hpp:77] Creating layer conv13_mbox_conf_flat
I1015 15:32:52.419250  4233 net.cpp:100] Creating Layer conv13_mbox_conf_flat
I1015 15:32:52.419255  4233 net.cpp:434] conv13_mbox_conf_flat <- conv13_mbox_conf_perm
I1015 15:32:52.419263  4233 net.cpp:408] conv13_mbox_conf_flat -> conv13_mbox_conf_flat
I1015 15:32:52.419301  4233 net.cpp:150] Setting up conv13_mbox_conf_flat
I1015 15:32:52.419306  4233 net.cpp:157] Top shape: 1 2700 (2700)
I1015 15:32:52.419309  4233 net.cpp:165] Memory required for data: 289953072
I1015 15:32:52.419312  4233 layer_factory.hpp:77] Creating layer conv13_mbox_priorbox
I1015 15:32:52.419323  4233 net.cpp:100] Creating Layer conv13_mbox_priorbox
I1015 15:32:52.419327  4233 net.cpp:434] conv13_mbox_priorbox <- conv13_conv13/relu_0_split_3
I1015 15:32:52.419334  4233 net.cpp:434] conv13_mbox_priorbox <- data_data_0_split_2
I1015 15:32:52.419343  4233 net.cpp:408] conv13_mbox_priorbox -> conv13_mbox_priorbox
I1015 15:32:52.419386  4233 net.cpp:150] Setting up conv13_mbox_priorbox
I1015 15:32:52.419394  4233 net.cpp:157] Top shape: 1 2 3600 (7200)
I1015 15:32:52.419396  4233 net.cpp:165] Memory required for data: 289981872
I1015 15:32:52.419399  4233 layer_factory.hpp:77] Creating layer conv14_2_mbox_loc
I1015 15:32:52.419409  4233 net.cpp:100] Creating Layer conv14_2_mbox_loc
I1015 15:32:52.419412  4233 net.cpp:434] conv14_2_mbox_loc <- conv14_2_conv14_2/relu_0_split_1
I1015 15:32:52.419417  4233 net.cpp:408] conv14_2_mbox_loc -> conv14_2_mbox_loc
I1015 15:32:52.421429  4233 net.cpp:150] Setting up conv14_2_mbox_loc
I1015 15:32:52.421442  4233 net.cpp:157] Top shape: 1 24 5 8 (960)
I1015 15:32:52.421443  4233 net.cpp:165] Memory required for data: 289985712
I1015 15:32:52.421449  4233 layer_factory.hpp:77] Creating layer conv14_2_mbox_loc_perm
I1015 15:32:52.421456  4233 net.cpp:100] Creating Layer conv14_2_mbox_loc_perm
I1015 15:32:52.421461  4233 net.cpp:434] conv14_2_mbox_loc_perm <- conv14_2_mbox_loc
I1015 15:32:52.421470  4233 net.cpp:408] conv14_2_mbox_loc_perm -> conv14_2_mbox_loc_perm
I1015 15:32:52.421629  4233 net.cpp:150] Setting up conv14_2_mbox_loc_perm
I1015 15:32:52.421638  4233 net.cpp:157] Top shape: 1 5 8 24 (960)
I1015 15:32:52.421639  4233 net.cpp:165] Memory required for data: 289989552
I1015 15:32:52.421643  4233 layer_factory.hpp:77] Creating layer conv14_2_mbox_loc_flat
I1015 15:32:52.421646  4233 net.cpp:100] Creating Layer conv14_2_mbox_loc_flat
I1015 15:32:52.421650  4233 net.cpp:434] conv14_2_mbox_loc_flat <- conv14_2_mbox_loc_perm
I1015 15:32:52.421658  4233 net.cpp:408] conv14_2_mbox_loc_flat -> conv14_2_mbox_loc_flat
I1015 15:32:52.421696  4233 net.cpp:150] Setting up conv14_2_mbox_loc_flat
I1015 15:32:52.421702  4233 net.cpp:157] Top shape: 1 960 (960)
I1015 15:32:52.421705  4233 net.cpp:165] Memory required for data: 289993392
I1015 15:32:52.421706  4233 layer_factory.hpp:77] Creating layer conv14_2_mbox_conf_new
I1015 15:32:52.421720  4233 net.cpp:100] Creating Layer conv14_2_mbox_conf_new
I1015 15:32:52.421725  4233 net.cpp:434] conv14_2_mbox_conf_new <- conv14_2_conv14_2/relu_0_split_2
I1015 15:32:52.421741  4233 net.cpp:408] conv14_2_mbox_conf_new -> conv14_2_mbox_conf
I1015 15:32:52.423772  4233 net.cpp:150] Setting up conv14_2_mbox_conf_new
I1015 15:32:52.423784  4233 net.cpp:157] Top shape: 1 18 5 8 (720)
I1015 15:32:52.423787  4233 net.cpp:165] Memory required for data: 289996272
I1015 15:32:52.423792  4233 layer_factory.hpp:77] Creating layer conv14_2_mbox_conf_perm
I1015 15:32:52.423800  4233 net.cpp:100] Creating Layer conv14_2_mbox_conf_perm
I1015 15:32:52.423805  4233 net.cpp:434] conv14_2_mbox_conf_perm <- conv14_2_mbox_conf
I1015 15:32:52.423815  4233 net.cpp:408] conv14_2_mbox_conf_perm -> conv14_2_mbox_conf_perm
I1015 15:32:52.423970  4233 net.cpp:150] Setting up conv14_2_mbox_conf_perm
I1015 15:32:52.423979  4233 net.cpp:157] Top shape: 1 5 8 18 (720)
I1015 15:32:52.423980  4233 net.cpp:165] Memory required for data: 289999152
I1015 15:32:52.423983  4233 layer_factory.hpp:77] Creating layer conv14_2_mbox_conf_flat
I1015 15:32:52.423990  4233 net.cpp:100] Creating Layer conv14_2_mbox_conf_flat
I1015 15:32:52.423993  4233 net.cpp:434] conv14_2_mbox_conf_flat <- conv14_2_mbox_conf_perm
I1015 15:32:52.424000  4233 net.cpp:408] conv14_2_mbox_conf_flat -> conv14_2_mbox_conf_flat
I1015 15:32:52.424038  4233 net.cpp:150] Setting up conv14_2_mbox_conf_flat
I1015 15:32:52.424044  4233 net.cpp:157] Top shape: 1 720 (720)
I1015 15:32:52.424047  4233 net.cpp:165] Memory required for data: 290002032
I1015 15:32:52.424052  4233 layer_factory.hpp:77] Creating layer conv14_2_mbox_priorbox
I1015 15:32:52.424059  4233 net.cpp:100] Creating Layer conv14_2_mbox_priorbox
I1015 15:32:52.424064  4233 net.cpp:434] conv14_2_mbox_priorbox <- conv14_2_conv14_2/relu_0_split_3
I1015 15:32:52.424072  4233 net.cpp:434] conv14_2_mbox_priorbox <- data_data_0_split_3
I1015 15:32:52.424078  4233 net.cpp:408] conv14_2_mbox_priorbox -> conv14_2_mbox_priorbox
I1015 15:32:52.424121  4233 net.cpp:150] Setting up conv14_2_mbox_priorbox
I1015 15:32:52.424129  4233 net.cpp:157] Top shape: 1 2 960 (1920)
I1015 15:32:52.424131  4233 net.cpp:165] Memory required for data: 290009712
I1015 15:32:52.424134  4233 layer_factory.hpp:77] Creating layer conv15_2_mbox_loc
I1015 15:32:52.424142  4233 net.cpp:100] Creating Layer conv15_2_mbox_loc
I1015 15:32:52.424145  4233 net.cpp:434] conv15_2_mbox_loc <- conv15_2_conv15_2/relu_0_split_1
I1015 15:32:52.424152  4233 net.cpp:408] conv15_2_mbox_loc -> conv15_2_mbox_loc
I1015 15:32:52.426110  4233 net.cpp:150] Setting up conv15_2_mbox_loc
I1015 15:32:52.426122  4233 net.cpp:157] Top shape: 1 24 3 4 (288)
I1015 15:32:52.426126  4233 net.cpp:165] Memory required for data: 290010864
I1015 15:32:52.426131  4233 layer_factory.hpp:77] Creating layer conv15_2_mbox_loc_perm
I1015 15:32:52.426141  4233 net.cpp:100] Creating Layer conv15_2_mbox_loc_perm
I1015 15:32:52.426146  4233 net.cpp:434] conv15_2_mbox_loc_perm <- conv15_2_mbox_loc
I1015 15:32:52.426153  4233 net.cpp:408] conv15_2_mbox_loc_perm -> conv15_2_mbox_loc_perm
I1015 15:32:52.426306  4233 net.cpp:150] Setting up conv15_2_mbox_loc_perm
I1015 15:32:52.426313  4233 net.cpp:157] Top shape: 1 3 4 24 (288)
I1015 15:32:52.426316  4233 net.cpp:165] Memory required for data: 290012016
I1015 15:32:52.426318  4233 layer_factory.hpp:77] Creating layer conv15_2_mbox_loc_flat
I1015 15:32:52.426326  4233 net.cpp:100] Creating Layer conv15_2_mbox_loc_flat
I1015 15:32:52.426329  4233 net.cpp:434] conv15_2_mbox_loc_flat <- conv15_2_mbox_loc_perm
I1015 15:32:52.426337  4233 net.cpp:408] conv15_2_mbox_loc_flat -> conv15_2_mbox_loc_flat
I1015 15:32:52.426375  4233 net.cpp:150] Setting up conv15_2_mbox_loc_flat
I1015 15:32:52.426383  4233 net.cpp:157] Top shape: 1 288 (288)
I1015 15:32:52.426386  4233 net.cpp:165] Memory required for data: 290013168
I1015 15:32:52.426390  4233 layer_factory.hpp:77] Creating layer conv15_2_mbox_conf_new
I1015 15:32:52.426401  4233 net.cpp:100] Creating Layer conv15_2_mbox_conf_new
I1015 15:32:52.426406  4233 net.cpp:434] conv15_2_mbox_conf_new <- conv15_2_conv15_2/relu_0_split_2
I1015 15:32:52.426415  4233 net.cpp:408] conv15_2_mbox_conf_new -> conv15_2_mbox_conf
I1015 15:32:52.428401  4233 net.cpp:150] Setting up conv15_2_mbox_conf_new
I1015 15:32:52.428413  4233 net.cpp:157] Top shape: 1 18 3 4 (216)
I1015 15:32:52.428416  4233 net.cpp:165] Memory required for data: 290014032
I1015 15:32:52.428421  4233 layer_factory.hpp:77] Creating layer conv15_2_mbox_conf_perm
I1015 15:32:52.428431  4233 net.cpp:100] Creating Layer conv15_2_mbox_conf_perm
I1015 15:32:52.428436  4233 net.cpp:434] conv15_2_mbox_conf_perm <- conv15_2_mbox_conf
I1015 15:32:52.428444  4233 net.cpp:408] conv15_2_mbox_conf_perm -> conv15_2_mbox_conf_perm
I1015 15:32:52.428596  4233 net.cpp:150] Setting up conv15_2_mbox_conf_perm
I1015 15:32:52.428604  4233 net.cpp:157] Top shape: 1 3 4 18 (216)
I1015 15:32:52.428606  4233 net.cpp:165] Memory required for data: 290014896
I1015 15:32:52.428609  4233 layer_factory.hpp:77] Creating layer conv15_2_mbox_conf_flat
I1015 15:32:52.428614  4233 net.cpp:100] Creating Layer conv15_2_mbox_conf_flat
I1015 15:32:52.428618  4233 net.cpp:434] conv15_2_mbox_conf_flat <- conv15_2_mbox_conf_perm
I1015 15:32:52.428627  4233 net.cpp:408] conv15_2_mbox_conf_flat -> conv15_2_mbox_conf_flat
I1015 15:32:52.428664  4233 net.cpp:150] Setting up conv15_2_mbox_conf_flat
I1015 15:32:52.428671  4233 net.cpp:157] Top shape: 1 216 (216)
I1015 15:32:52.428673  4233 net.cpp:165] Memory required for data: 290015760
I1015 15:32:52.428676  4233 layer_factory.hpp:77] Creating layer conv15_2_mbox_priorbox
I1015 15:32:52.428684  4233 net.cpp:100] Creating Layer conv15_2_mbox_priorbox
I1015 15:32:52.428689  4233 net.cpp:434] conv15_2_mbox_priorbox <- conv15_2_conv15_2/relu_0_split_3
I1015 15:32:52.428694  4233 net.cpp:434] conv15_2_mbox_priorbox <- data_data_0_split_4
I1015 15:32:52.428702  4233 net.cpp:408] conv15_2_mbox_priorbox -> conv15_2_mbox_priorbox
I1015 15:32:52.428747  4233 net.cpp:150] Setting up conv15_2_mbox_priorbox
I1015 15:32:52.428755  4233 net.cpp:157] Top shape: 1 2 288 (576)
I1015 15:32:52.428758  4233 net.cpp:165] Memory required for data: 290018064
I1015 15:32:52.428762  4233 layer_factory.hpp:77] Creating layer conv16_2_mbox_loc
I1015 15:32:52.428772  4233 net.cpp:100] Creating Layer conv16_2_mbox_loc
I1015 15:32:52.428776  4233 net.cpp:434] conv16_2_mbox_loc <- conv16_2_conv16_2/relu_0_split_1
I1015 15:32:52.428781  4233 net.cpp:408] conv16_2_mbox_loc -> conv16_2_mbox_loc
I1015 15:32:52.430707  4233 net.cpp:150] Setting up conv16_2_mbox_loc
I1015 15:32:52.430719  4233 net.cpp:157] Top shape: 1 24 2 2 (96)
I1015 15:32:52.430722  4233 net.cpp:165] Memory required for data: 290018448
I1015 15:32:52.430727  4233 layer_factory.hpp:77] Creating layer conv16_2_mbox_loc_perm
I1015 15:32:52.430737  4233 net.cpp:100] Creating Layer conv16_2_mbox_loc_perm
I1015 15:32:52.430742  4233 net.cpp:434] conv16_2_mbox_loc_perm <- conv16_2_mbox_loc
I1015 15:32:52.430748  4233 net.cpp:408] conv16_2_mbox_loc_perm -> conv16_2_mbox_loc_perm
I1015 15:32:52.430902  4233 net.cpp:150] Setting up conv16_2_mbox_loc_perm
I1015 15:32:52.430909  4233 net.cpp:157] Top shape: 1 2 2 24 (96)
I1015 15:32:52.430912  4233 net.cpp:165] Memory required for data: 290018832
I1015 15:32:52.430914  4233 layer_factory.hpp:77] Creating layer conv16_2_mbox_loc_flat
I1015 15:32:52.430918  4233 net.cpp:100] Creating Layer conv16_2_mbox_loc_flat
I1015 15:32:52.430922  4233 net.cpp:434] conv16_2_mbox_loc_flat <- conv16_2_mbox_loc_perm
I1015 15:32:52.430929  4233 net.cpp:408] conv16_2_mbox_loc_flat -> conv16_2_mbox_loc_flat
I1015 15:32:52.430970  4233 net.cpp:150] Setting up conv16_2_mbox_loc_flat
I1015 15:32:52.430976  4233 net.cpp:157] Top shape: 1 96 (96)
I1015 15:32:52.430979  4233 net.cpp:165] Memory required for data: 290019216
I1015 15:32:52.430981  4233 layer_factory.hpp:77] Creating layer conv16_2_mbox_conf_new
I1015 15:32:52.430989  4233 net.cpp:100] Creating Layer conv16_2_mbox_conf_new
I1015 15:32:52.430994  4233 net.cpp:434] conv16_2_mbox_conf_new <- conv16_2_conv16_2/relu_0_split_2
I1015 15:32:52.431002  4233 net.cpp:408] conv16_2_mbox_conf_new -> conv16_2_mbox_conf
I1015 15:32:52.432914  4233 net.cpp:150] Setting up conv16_2_mbox_conf_new
I1015 15:32:52.432926  4233 net.cpp:157] Top shape: 1 18 2 2 (72)
I1015 15:32:52.432929  4233 net.cpp:165] Memory required for data: 290019504
I1015 15:32:52.432934  4233 layer_factory.hpp:77] Creating layer conv16_2_mbox_conf_perm
I1015 15:32:52.432943  4233 net.cpp:100] Creating Layer conv16_2_mbox_conf_perm
I1015 15:32:52.432948  4233 net.cpp:434] conv16_2_mbox_conf_perm <- conv16_2_mbox_conf
I1015 15:32:52.432955  4233 net.cpp:408] conv16_2_mbox_conf_perm -> conv16_2_mbox_conf_perm
I1015 15:32:52.433109  4233 net.cpp:150] Setting up conv16_2_mbox_conf_perm
I1015 15:32:52.433116  4233 net.cpp:157] Top shape: 1 2 2 18 (72)
I1015 15:32:52.433118  4233 net.cpp:165] Memory required for data: 290019792
I1015 15:32:52.433121  4233 layer_factory.hpp:77] Creating layer conv16_2_mbox_conf_flat
I1015 15:32:52.433127  4233 net.cpp:100] Creating Layer conv16_2_mbox_conf_flat
I1015 15:32:52.433131  4233 net.cpp:434] conv16_2_mbox_conf_flat <- conv16_2_mbox_conf_perm
I1015 15:32:52.433137  4233 net.cpp:408] conv16_2_mbox_conf_flat -> conv16_2_mbox_conf_flat
I1015 15:32:52.433178  4233 net.cpp:150] Setting up conv16_2_mbox_conf_flat
I1015 15:32:52.433184  4233 net.cpp:157] Top shape: 1 72 (72)
I1015 15:32:52.433187  4233 net.cpp:165] Memory required for data: 290020080
I1015 15:32:52.433188  4233 layer_factory.hpp:77] Creating layer conv16_2_mbox_priorbox
I1015 15:32:52.433195  4233 net.cpp:100] Creating Layer conv16_2_mbox_priorbox
I1015 15:32:52.433199  4233 net.cpp:434] conv16_2_mbox_priorbox <- conv16_2_conv16_2/relu_0_split_3
I1015 15:32:52.433205  4233 net.cpp:434] conv16_2_mbox_priorbox <- data_data_0_split_5
I1015 15:32:52.433212  4233 net.cpp:408] conv16_2_mbox_priorbox -> conv16_2_mbox_priorbox
I1015 15:32:52.433255  4233 net.cpp:150] Setting up conv16_2_mbox_priorbox
I1015 15:32:52.433264  4233 net.cpp:157] Top shape: 1 2 96 (192)
I1015 15:32:52.433267  4233 net.cpp:165] Memory required for data: 290020848
I1015 15:32:52.433271  4233 layer_factory.hpp:77] Creating layer conv17_2_mbox_loc
I1015 15:32:52.433284  4233 net.cpp:100] Creating Layer conv17_2_mbox_loc
I1015 15:32:52.433287  4233 net.cpp:434] conv17_2_mbox_loc <- conv17_2_conv17_2/relu_0_split_0
I1015 15:32:52.433292  4233 net.cpp:408] conv17_2_mbox_loc -> conv17_2_mbox_loc
I1015 15:32:52.436522  4233 net.cpp:150] Setting up conv17_2_mbox_loc
I1015 15:32:52.436537  4233 net.cpp:157] Top shape: 1 24 1 1 (24)
I1015 15:32:52.436538  4233 net.cpp:165] Memory required for data: 290020944
I1015 15:32:52.436545  4233 layer_factory.hpp:77] Creating layer conv17_2_mbox_loc_perm
I1015 15:32:52.436553  4233 net.cpp:100] Creating Layer conv17_2_mbox_loc_perm
I1015 15:32:52.436556  4233 net.cpp:434] conv17_2_mbox_loc_perm <- conv17_2_mbox_loc
I1015 15:32:52.436565  4233 net.cpp:408] conv17_2_mbox_loc_perm -> conv17_2_mbox_loc_perm
I1015 15:32:52.436730  4233 net.cpp:150] Setting up conv17_2_mbox_loc_perm
I1015 15:32:52.436738  4233 net.cpp:157] Top shape: 1 1 1 24 (24)
I1015 15:32:52.436740  4233 net.cpp:165] Memory required for data: 290021040
I1015 15:32:52.436743  4233 layer_factory.hpp:77] Creating layer conv17_2_mbox_loc_flat
I1015 15:32:52.436748  4233 net.cpp:100] Creating Layer conv17_2_mbox_loc_flat
I1015 15:32:52.436751  4233 net.cpp:434] conv17_2_mbox_loc_flat <- conv17_2_mbox_loc_perm
I1015 15:32:52.436758  4233 net.cpp:408] conv17_2_mbox_loc_flat -> conv17_2_mbox_loc_flat
I1015 15:32:52.436799  4233 net.cpp:150] Setting up conv17_2_mbox_loc_flat
I1015 15:32:52.436805  4233 net.cpp:157] Top shape: 1 24 (24)
I1015 15:32:52.436806  4233 net.cpp:165] Memory required for data: 290021136
I1015 15:32:52.436810  4233 layer_factory.hpp:77] Creating layer conv17_2_mbox_conf_new
I1015 15:32:52.436822  4233 net.cpp:100] Creating Layer conv17_2_mbox_conf_new
I1015 15:32:52.436827  4233 net.cpp:434] conv17_2_mbox_conf_new <- conv17_2_conv17_2/relu_0_split_1
I1015 15:32:52.436836  4233 net.cpp:408] conv17_2_mbox_conf_new -> conv17_2_mbox_conf
I1015 15:32:52.439618  4233 net.cpp:150] Setting up conv17_2_mbox_conf_new
I1015 15:32:52.439630  4233 net.cpp:157] Top shape: 1 18 1 1 (18)
I1015 15:32:52.439633  4233 net.cpp:165] Memory required for data: 290021208
I1015 15:32:52.439640  4233 layer_factory.hpp:77] Creating layer conv17_2_mbox_conf_perm
I1015 15:32:52.439647  4233 net.cpp:100] Creating Layer conv17_2_mbox_conf_perm
I1015 15:32:52.439652  4233 net.cpp:434] conv17_2_mbox_conf_perm <- conv17_2_mbox_conf
I1015 15:32:52.439661  4233 net.cpp:408] conv17_2_mbox_conf_perm -> conv17_2_mbox_conf_perm
I1015 15:32:52.439816  4233 net.cpp:150] Setting up conv17_2_mbox_conf_perm
I1015 15:32:52.439824  4233 net.cpp:157] Top shape: 1 1 1 18 (18)
I1015 15:32:52.439826  4233 net.cpp:165] Memory required for data: 290021280
I1015 15:32:52.439829  4233 layer_factory.hpp:77] Creating layer conv17_2_mbox_conf_flat
I1015 15:32:52.439836  4233 net.cpp:100] Creating Layer conv17_2_mbox_conf_flat
I1015 15:32:52.439839  4233 net.cpp:434] conv17_2_mbox_conf_flat <- conv17_2_mbox_conf_perm
I1015 15:32:52.439844  4233 net.cpp:408] conv17_2_mbox_conf_flat -> conv17_2_mbox_conf_flat
I1015 15:32:52.439877  4233 net.cpp:150] Setting up conv17_2_mbox_conf_flat
I1015 15:32:52.439880  4233 net.cpp:157] Top shape: 1 18 (18)
I1015 15:32:52.439882  4233 net.cpp:165] Memory required for data: 290021352
I1015 15:32:52.439884  4233 layer_factory.hpp:77] Creating layer conv17_2_mbox_priorbox
I1015 15:32:52.439890  4233 net.cpp:100] Creating Layer conv17_2_mbox_priorbox
I1015 15:32:52.439893  4233 net.cpp:434] conv17_2_mbox_priorbox <- conv17_2_conv17_2/relu_0_split_2
I1015 15:32:52.439898  4233 net.cpp:434] conv17_2_mbox_priorbox <- data_data_0_split_6
I1015 15:32:52.439905  4233 net.cpp:408] conv17_2_mbox_priorbox -> conv17_2_mbox_priorbox
I1015 15:32:52.439940  4233 net.cpp:150] Setting up conv17_2_mbox_priorbox
I1015 15:32:52.439944  4233 net.cpp:157] Top shape: 1 2 24 (48)
I1015 15:32:52.439946  4233 net.cpp:165] Memory required for data: 290021544
I1015 15:32:52.439949  4233 layer_factory.hpp:77] Creating layer mbox_loc
I1015 15:32:52.439954  4233 net.cpp:100] Creating Layer mbox_loc
I1015 15:32:52.439959  4233 net.cpp:434] mbox_loc <- conv11_mbox_loc_flat
I1015 15:32:52.439961  4233 net.cpp:434] mbox_loc <- conv13_mbox_loc_flat
I1015 15:32:52.439965  4233 net.cpp:434] mbox_loc <- conv14_2_mbox_loc_flat
I1015 15:32:52.439970  4233 net.cpp:434] mbox_loc <- conv15_2_mbox_loc_flat
I1015 15:32:52.439972  4233 net.cpp:434] mbox_loc <- conv16_2_mbox_loc_flat
I1015 15:32:52.439975  4233 net.cpp:434] mbox_loc <- conv17_2_mbox_loc_flat
I1015 15:32:52.439980  4233 net.cpp:408] mbox_loc -> mbox_loc
I1015 15:32:52.440014  4233 net.cpp:150] Setting up mbox_loc
I1015 15:32:52.440021  4233 net.cpp:157] Top shape: 1 12168 (12168)
I1015 15:32:52.440024  4233 net.cpp:165] Memory required for data: 290070216
I1015 15:32:52.440027  4233 layer_factory.hpp:77] Creating layer mbox_conf
I1015 15:32:52.440034  4233 net.cpp:100] Creating Layer mbox_conf
I1015 15:32:52.440039  4233 net.cpp:434] mbox_conf <- conv11_mbox_conf_flat
I1015 15:32:52.440045  4233 net.cpp:434] mbox_conf <- conv13_mbox_conf_flat
I1015 15:32:52.440049  4233 net.cpp:434] mbox_conf <- conv14_2_mbox_conf_flat
I1015 15:32:52.440053  4233 net.cpp:434] mbox_conf <- conv15_2_mbox_conf_flat
I1015 15:32:52.440057  4233 net.cpp:434] mbox_conf <- conv16_2_mbox_conf_flat
I1015 15:32:52.440062  4233 net.cpp:434] mbox_conf <- conv17_2_mbox_conf_flat
I1015 15:32:52.440069  4233 net.cpp:408] mbox_conf -> mbox_conf
I1015 15:32:52.440101  4233 net.cpp:150] Setting up mbox_conf
I1015 15:32:52.440106  4233 net.cpp:157] Top shape: 1 9126 (9126)
I1015 15:32:52.440109  4233 net.cpp:165] Memory required for data: 290106720
I1015 15:32:52.440112  4233 layer_factory.hpp:77] Creating layer mbox_priorbox
I1015 15:32:52.440119  4233 net.cpp:100] Creating Layer mbox_priorbox
I1015 15:32:52.440121  4233 net.cpp:434] mbox_priorbox <- conv11_mbox_priorbox
I1015 15:32:52.440124  4233 net.cpp:434] mbox_priorbox <- conv13_mbox_priorbox
I1015 15:32:52.440127  4233 net.cpp:434] mbox_priorbox <- conv14_2_mbox_priorbox
I1015 15:32:52.440130  4233 net.cpp:434] mbox_priorbox <- conv15_2_mbox_priorbox
I1015 15:32:52.440134  4233 net.cpp:434] mbox_priorbox <- conv16_2_mbox_priorbox
I1015 15:32:52.440136  4233 net.cpp:434] mbox_priorbox <- conv17_2_mbox_priorbox
I1015 15:32:52.440140  4233 net.cpp:408] mbox_priorbox -> mbox_priorbox
I1015 15:32:52.440172  4233 net.cpp:150] Setting up mbox_priorbox
I1015 15:32:52.440177  4233 net.cpp:157] Top shape: 1 2 12168 (24336)
I1015 15:32:52.440179  4233 net.cpp:165] Memory required for data: 290204064
I1015 15:32:52.440181  4233 layer_factory.hpp:77] Creating layer mbox_conf_reshape
I1015 15:32:52.440188  4233 net.cpp:100] Creating Layer mbox_conf_reshape
I1015 15:32:52.440191  4233 net.cpp:434] mbox_conf_reshape <- mbox_conf
I1015 15:32:52.440197  4233 net.cpp:408] mbox_conf_reshape -> mbox_conf_reshape
I1015 15:32:52.440228  4233 net.cpp:150] Setting up mbox_conf_reshape
I1015 15:32:52.440233  4233 net.cpp:157] Top shape: 1 3042 3 (9126)
I1015 15:32:52.440235  4233 net.cpp:165] Memory required for data: 290240568
I1015 15:32:52.440237  4233 layer_factory.hpp:77] Creating layer mbox_conf_softmax
I1015 15:32:52.440243  4233 net.cpp:100] Creating Layer mbox_conf_softmax
I1015 15:32:52.440245  4233 net.cpp:434] mbox_conf_softmax <- mbox_conf_reshape
I1015 15:32:52.440250  4233 net.cpp:408] mbox_conf_softmax -> mbox_conf_softmax
I1015 15:32:52.441107  4233 net.cpp:150] Setting up mbox_conf_softmax
I1015 15:32:52.441118  4233 net.cpp:157] Top shape: 1 3042 3 (9126)
I1015 15:32:52.441120  4233 net.cpp:165] Memory required for data: 290277072
I1015 15:32:52.441123  4233 layer_factory.hpp:77] Creating layer mbox_conf_flatten
I1015 15:32:52.441130  4233 net.cpp:100] Creating Layer mbox_conf_flatten
I1015 15:32:52.441134  4233 net.cpp:434] mbox_conf_flatten <- mbox_conf_softmax
I1015 15:32:52.441140  4233 net.cpp:408] mbox_conf_flatten -> mbox_conf_flatten
I1015 15:32:52.441175  4233 net.cpp:150] Setting up mbox_conf_flatten
I1015 15:32:52.441179  4233 net.cpp:157] Top shape: 1 9126 (9126)
I1015 15:32:52.441181  4233 net.cpp:165] Memory required for data: 290313576
I1015 15:32:52.441184  4233 layer_factory.hpp:77] Creating layer detection_out
I1015 15:32:52.441195  4233 net.cpp:100] Creating Layer detection_out
I1015 15:32:52.441196  4233 net.cpp:434] detection_out <- mbox_loc
I1015 15:32:52.441200  4233 net.cpp:434] detection_out <- mbox_conf_flatten
I1015 15:32:52.441203  4233 net.cpp:434] detection_out <- mbox_priorbox
I1015 15:32:52.441206  4233 net.cpp:408] detection_out -> detection_out
I1015 15:32:52.441274  4233 net.cpp:150] Setting up detection_out
I1015 15:32:52.441280  4233 net.cpp:157] Top shape: 1 1 1 7 (7)
I1015 15:32:52.441283  4233 net.cpp:165] Memory required for data: 290313604
I1015 15:32:52.441285  4233 layer_factory.hpp:77] Creating layer detection_eval
I1015 15:32:52.441290  4233 net.cpp:100] Creating Layer detection_eval
I1015 15:32:52.441293  4233 net.cpp:434] detection_eval <- detection_out
I1015 15:32:52.441295  4233 net.cpp:434] detection_eval <- label
I1015 15:32:52.441300  4233 net.cpp:408] detection_eval -> detection_eval
I1015 15:32:52.441354  4233 net.cpp:150] Setting up detection_eval
I1015 15:32:52.441359  4233 net.cpp:157] Top shape: 1 1 3 5 (15)
I1015 15:32:52.441360  4233 net.cpp:165] Memory required for data: 290313664
I1015 15:32:52.441362  4233 layer_factory.hpp:77] Creating layer score_32
I1015 15:32:52.441368  4233 net.cpp:100] Creating Layer score_32
I1015 15:32:52.441371  4233 net.cpp:434] score_32 <- conv13_conv13/relu_0_split_4
I1015 15:32:52.441378  4233 net.cpp:408] score_32 -> score_32
I1015 15:32:52.443253  4233 net.cpp:150] Setting up score_32
I1015 15:32:52.443264  4233 net.cpp:157] Top shape: 1 2 10 15 (300)
I1015 15:32:52.443267  4233 net.cpp:165] Memory required for data: 290314864
I1015 15:32:52.443274  4233 layer_factory.hpp:77] Creating layer upscore_16
I1015 15:32:52.443292  4233 net.cpp:100] Creating Layer upscore_16
I1015 15:32:52.443295  4233 net.cpp:434] upscore_16 <- score_32
I1015 15:32:52.443300  4233 net.cpp:408] upscore_16 -> upscore_16
I1015 15:32:52.443539  4233 net.cpp:150] Setting up upscore_16
I1015 15:32:52.443547  4233 net.cpp:157] Top shape: 1 2 20 30 (1200)
I1015 15:32:52.443549  4233 net.cpp:165] Memory required for data: 290319664
I1015 15:32:52.443553  4233 layer_factory.hpp:77] Creating layer score_16
I1015 15:32:52.443559  4233 net.cpp:100] Creating Layer score_16
I1015 15:32:52.443562  4233 net.cpp:434] score_16 <- conv11_conv11/relu_0_split_4
I1015 15:32:52.443567  4233 net.cpp:408] score_16 -> score_16
I1015 15:32:52.445767  4233 net.cpp:150] Setting up score_16
I1015 15:32:52.445780  4233 net.cpp:157] Top shape: 1 2 20 30 (1200)
I1015 15:32:52.445782  4233 net.cpp:165] Memory required for data: 290324464
I1015 15:32:52.445791  4233 layer_factory.hpp:77] Creating layer fuse_16
I1015 15:32:52.445799  4233 net.cpp:100] Creating Layer fuse_16
I1015 15:32:52.445802  4233 net.cpp:434] fuse_16 <- upscore_16
I1015 15:32:52.445806  4233 net.cpp:434] fuse_16 <- score_16
I1015 15:32:52.445809  4233 net.cpp:408] fuse_16 -> fuse_16
I1015 15:32:52.445873  4233 net.cpp:150] Setting up fuse_16
I1015 15:32:52.445881  4233 net.cpp:157] Top shape: 1 2 20 30 (1200)
I1015 15:32:52.445883  4233 net.cpp:165] Memory required for data: 290329264
I1015 15:32:52.445885  4233 layer_factory.hpp:77] Creating layer upscore_8
I1015 15:32:52.445890  4233 net.cpp:100] Creating Layer upscore_8
I1015 15:32:52.445894  4233 net.cpp:434] upscore_8 <- fuse_16
I1015 15:32:52.445897  4233 net.cpp:408] upscore_8 -> upscore_8
I1015 15:32:52.446120  4233 net.cpp:150] Setting up upscore_8
I1015 15:32:52.446127  4233 net.cpp:157] Top shape: 1 2 40 60 (4800)
I1015 15:32:52.446130  4233 net.cpp:165] Memory required for data: 290348464
I1015 15:32:52.446135  4233 layer_factory.hpp:77] Creating layer score_8
I1015 15:32:52.446143  4233 net.cpp:100] Creating Layer score_8
I1015 15:32:52.446146  4233 net.cpp:434] score_8 <- conv5_conv5/relu_0_split_1
I1015 15:32:52.446151  4233 net.cpp:408] score_8 -> score_8
I1015 15:32:52.448429  4233 net.cpp:150] Setting up score_8
I1015 15:32:52.448441  4233 net.cpp:157] Top shape: 1 2 40 60 (4800)
I1015 15:32:52.448444  4233 net.cpp:165] Memory required for data: 290367664
I1015 15:32:52.448451  4233 layer_factory.hpp:77] Creating layer fuse_8
I1015 15:32:52.448457  4233 net.cpp:100] Creating Layer fuse_8
I1015 15:32:52.448459  4233 net.cpp:434] fuse_8 <- upscore_8
I1015 15:32:52.448463  4233 net.cpp:434] fuse_8 <- score_8
I1015 15:32:52.448467  4233 net.cpp:408] fuse_8 -> fuse_8
I1015 15:32:52.448501  4233 net.cpp:150] Setting up fuse_8
I1015 15:32:52.448508  4233 net.cpp:157] Top shape: 1 2 40 60 (4800)
I1015 15:32:52.448509  4233 net.cpp:165] Memory required for data: 290386864
I1015 15:32:52.448511  4233 layer_factory.hpp:77] Creating layer upscore_4
I1015 15:32:52.448518  4233 net.cpp:100] Creating Layer upscore_4
I1015 15:32:52.448520  4233 net.cpp:434] upscore_4 <- fuse_8
I1015 15:32:52.448525  4233 net.cpp:408] upscore_4 -> upscore_4
I1015 15:32:52.448750  4233 net.cpp:150] Setting up upscore_4
I1015 15:32:52.448756  4233 net.cpp:157] Top shape: 1 2 80 120 (19200)
I1015 15:32:52.448758  4233 net.cpp:165] Memory required for data: 290463664
I1015 15:32:52.448763  4233 layer_factory.hpp:77] Creating layer score_4
I1015 15:32:52.448770  4233 net.cpp:100] Creating Layer score_4
I1015 15:32:52.448773  4233 net.cpp:434] score_4 <- conv3_conv3/relu_0_split_1
I1015 15:32:52.448778  4233 net.cpp:408] score_4 -> score_4
I1015 15:32:52.450693  4233 net.cpp:150] Setting up score_4
I1015 15:32:52.450706  4233 net.cpp:157] Top shape: 1 2 80 120 (19200)
I1015 15:32:52.450709  4233 net.cpp:165] Memory required for data: 290540464
I1015 15:32:52.450717  4233 layer_factory.hpp:77] Creating layer fuse_4
I1015 15:32:52.450726  4233 net.cpp:100] Creating Layer fuse_4
I1015 15:32:52.450729  4233 net.cpp:434] fuse_4 <- upscore_4
I1015 15:32:52.450732  4233 net.cpp:434] fuse_4 <- score_4
I1015 15:32:52.450736  4233 net.cpp:408] fuse_4 -> fuse_4
I1015 15:32:52.450773  4233 net.cpp:150] Setting up fuse_4
I1015 15:32:52.450778  4233 net.cpp:157] Top shape: 1 2 80 120 (19200)
I1015 15:32:52.450780  4233 net.cpp:165] Memory required for data: 290617264
I1015 15:32:52.450783  4233 layer_factory.hpp:77] Creating layer upscore
I1015 15:32:52.450788  4233 net.cpp:100] Creating Layer upscore
I1015 15:32:52.450791  4233 net.cpp:434] upscore <- fuse_4
I1015 15:32:52.450796  4233 net.cpp:408] upscore -> upscore
I1015 15:32:52.451026  4233 net.cpp:150] Setting up upscore
I1015 15:32:52.451033  4233 net.cpp:157] Top shape: 1 2 331 491 (325042)
I1015 15:32:52.451036  4233 net.cpp:165] Memory required for data: 291917432
I1015 15:32:52.451040  4233 layer_factory.hpp:77] Creating layer score
I1015 15:32:52.451046  4233 net.cpp:100] Creating Layer score
I1015 15:32:52.451050  4233 net.cpp:434] score <- upscore
I1015 15:32:52.451052  4233 net.cpp:434] score <- data_data_0_split_7
I1015 15:32:52.451056  4233 net.cpp:408] score -> score
I1015 15:32:52.451089  4233 net.cpp:150] Setting up score
I1015 15:32:52.451095  4233 net.cpp:157] Top shape: 1 2 320 480 (307200)
I1015 15:32:52.451098  4233 net.cpp:165] Memory required for data: 293146232
I1015 15:32:52.451100  4233 layer_factory.hpp:77] Creating layer seg_loss
I1015 15:32:52.451105  4233 net.cpp:100] Creating Layer seg_loss
I1015 15:32:52.451107  4233 net.cpp:434] seg_loss <- score
I1015 15:32:52.451112  4233 net.cpp:434] seg_loss <- label_seg
I1015 15:32:52.451114  4233 net.cpp:408] seg_loss -> seg_loss
…
